output_x01/x2/epoch_317.pth (torch, 231335 bytes, 5 tensors)

conv1.weight f4 [64, 1, 9, 9]
-0.052975554 0.010963262 -0.04698995 0.0681664 -0.07151806 0.10051726 -0.062196415 -0.07306935
-0.06646917 0.035981823 -0.039370243 0.048909277 -0.07870345 -0.060728747 -0.033360586 -0.014176491
-0.08416633 0.06696418 -0.051547557 0.021787265 0.06692858 0.029534409 0.046397638 0.1248608
-0.028062925 0.050712068 -0.049189266 0.06954229 0.074663125 -0.11984417 0.11203929 0.07183953
0.052633837 0.062971056 0.11608162 -0.011860219 -0.100342505 -0.04417161 -0.089483045 0.03081538
-0.014577503 -0.07510314 -0.0064882673 0.12260781 -0.0012366275 -0.008028683 -0.035096932 0.0010571717
0.108886704 0.061025612 0.018183902 0.024279369 0.039110206 0.047825206 0.0034071165 -0.102030486
-0.06464461 0.11790205 0.0037268682 -0.10997892 0.01940522 0.106441945 -0.10290629 -0.049166378
-0.033311397 0.018920003 -0.0002958304 -0.0050210804 -0.10506766 0.06990266 0.123023845 0.07601224
-0.056994572 -0.08112984 0.048757356 0.0059200726 0.04421194 -0.1068777 -0.006130168 0.083655104
0.051719386 0.016160008 0.013550609 -0.009734748 -0.070140116 -0.050856326 -0.11120177 0.09560546
0.055942357 0.020440679 -0.098216444 0.07117055 0.028306352 0.052470803 -0.056693055 -0.0060575334
0.12670419 0.094656445 0.07060839 -0.03618267 0.07410294 -0.09902734 -0.029888853 -0.06419135
-0.03780803 -0.014293821 0.024188025 0.09479194 0.03866477 -0.00039768126 0.09954684 -0.06365018
0.09090926 0.0014318558 -0.014231345 0.013238552 -0.09157077 -0.0024195851 0.03779174 0.11486436
-0.056432363 0.052520886 0.108025864 -0.058934137 0.09223421 -0.07580803 0.045740567 0.03744188
0.03663444 0.062659435 -0.027993977 0.037375454 0.0055259764 -0.0756261 -0.03187808 -0.083887815
0.018985093 0.001441059 -0.0074931304 -0.021745885 -0.01192668 -0.04475967 0.032694567 0.09237308
0.013038461 -0.07721577 -0.064319246 0.0013887568 -0.08892816 -0.110547334 -0.08909448 -0.04344598
-0.0072716065 0.10202162 0.042625755 0.121161886 -0.04703976 0.017297335 -0.097251825 0.0851332
0.03905078 0.1099034 -0.09506246 0.09071354 0.12061497 0.14287956 0.084524766 0.14168715
0.08198302 0.0702873 -0.011540474 -0.106507994 -0.012364982 0.02192818 -0.0831471 -0.076965764
-0.120404914 -0.04968976 0.074747086 -0.014918217 0.012791552 0.021760546 0.08976006 -0.083479255
-0.06784687 -0.032793336 -0.0611339 0.06145734 0.06033925 -0.061640073 -0.05937738 -0.08339566
0.07209813 0.14731507 -0.054262493 -0.03693778 0.056465343 -0.06368382 0.100140676 0.022245228
-0.049231786 -0.0036446417 0.059281018 -0.028447045 -0.08402697 0.009356779 -0.00020978275 -0.012409829
-0.019949062 0.07012623 -0.048165217 -0.010222778 0.07408607 -0.03324319 0.0504006 -0.033867102
0.057794083 -0.059859008 0.035670824 0.040227596 -0.07366695 -0.06065007 0.0605283 -0.03248942
0.05948121 -0.07570365 -0.04002741 -0.06718569 0.076949336 0.035648085 0.005565273 -0.012102773
-0.08518399 0.060976733 0.024428606 -0.05947891 0.061550915 -0.0051923716 -0.1053548 0.06938167
0.05224427 -0.023628987 -0.042670302 0.0031696372 0.08154738 0.0972393 -0.090874486 -0.06763061
0.06916498 0.052086335 0.049837667 -0.076786056 0.10443009 -0.09773039 -0.020717902 -0.013198549
00000000: e5fc 58bd 419f 333c 8978 40bd d39a 8b3d
00000010: 1078 92bd fedb cd3d abc1 7ebd 62a5 95bd
00000020: fd20 88bd ad61 133d b142 21bd 1855 483d
00000030: 462f a1bd b5be 78bd 1ca5 08bd 8344 68bc
00000040: 665f acbd 8424 893d 8823 53bd 357b b23c
00000050: da11 893d 25f2 f13c 730b 3e3d 05b7 ff3d
00000060: 38e4 e5bc 75b7 4f3d af7a 49bd 306c 8e3d
00000070: fbe8 983d dc70 f5bd db74 e53d 9a20 933d
00000080: 9496 573d f8f6 803d 33bc ed3d 5d51 42bc
00000090: 5f80 cdbd 4aed 34bd e342 b7bd 8970 fc3c
000000a0: 7bd6 6ebc adcf 99bd 889b d4bb ce19 fb3d
000000b0: 5516 a2ba bd8a 03bc cdc1 0fbd cc90 8a3a
000000c0: feff de3d fef5 793d 68f6 943c 87e5 c63c
000000d0: 0632 203d 5de4 433d ee49 5f3b 5cf5 d0bd
000000e0: 6564 84bd a176 f13d 793e 743b a13c e1bd
000000f0: b2f7 9e3c 3cfe d93d 88c0 d2bd af62 49bd
00000100: 8871 08bd 1ffe 9a3c af19 9bb9 e087 a4bb
00000110: b72d d7bd 2029 8f3d edf3 fb3d 4eac 9b3d
00000120: 2473 69bd 6727 a6bd cbb5 473d 2bfd c13b
00000130: 9417 353d b2e2 dabd 94df c8bb 5e53 ab3d
00000140: b5d7 533d fe61 843c 6003 5e3c 7e7e 1fbc
00000150: 9fa5 8fbd b94e 50bd c1bd e3bd cccc c33d
00000160: d023 653d 3673 a73c b425 c9bd dec1 913d
00000170: b9e2 e73c a0eb 563d fa36 68bd 467e c6bb
00000180: bebe 013e 3ddb c13d 229b 903d 4834 14bd
00000190: 48c3 973d d9ce cabd 78d9 f4bc c176 83bd
000001a0: 98dc 1abd a130 6abc f725 c63c 4722 c23d
000001b0: f35e 1e3d e07f d0b9 37df cb3d 075b 82bd
000001c0: a22e ba3d 1cad bb3a 962a 69bc 83e6 583c
000001d0: 7589 bbbd e791 1ebb 83cb 1a3d 013e eb3d
000001e0: 9f25 67bd 2420 573d aa3c dd3d ec64 71bd
000001f0: 4ae5 bc3d 3e41 9bbd 765a 3b3d a85c 193d
00000200: ff0d 163d 9753 803d a053 e5bc 0117 193d
00000210: 4013 b53b dbe1 9abd 9792 02bd 60cd abbd
00000220: a086 9b3c ebe1 bc3a ef88 f5bb 6d24 b2bc
00000230: 1f68 43bc ea55 37bd bdea 053d 192e bd3d
00000240: 459f 553c 4d23 9ebd cfb9 83bd f206 b63a
00000250: f81f b6bd a466 e2bd 2b77 b6bd 69f4 31bd
00000260: a846 eebb b6f0 d03d 5898 2e3d b923 f83d
00000270: c3ac 40bd 24b3 8d3c f72b c7bd 515a ae3d
00000280: b6f3 1f3d 0915 e13d 1bb0 c2bd 05c8 b93d
00000290: fb04 f73d 054f 123e 521b ad3d 7016 113e
000002a0: b7e6 a73d caf2 8f3d 4214 3dbc dd20 dabd
000002b0: 7e96 4abc baa2 b33c 0749 aabd 3aa0 9dbd
000002c0: da96 f6bd 7d87 4bbd 0015 993d 8a6b 74bc
000002d0: a893 513c 2c43 b23c 1fd4 b73d 2cf7 aabd
000002e0: 4df3 8abd 4e52 06bd 8a67 7abd b1ba 7b3d
000002f0: 4a26 773d 4d7a 7cbd b235 73bd 58cb aabd
00000300: 2fa8 933d c3d9 163e 5942 5ebd 124c 17bd
00000310: 3448 673d aa6c 82bd 8e16 cd3d a03b b63c
00000320: 45a7 49bd f1da 6ebb a7d0 723d c709 e9bc
00000330: 5516 acbd 2d4d 193c 21f9 5bb9 9852 4bbc
00000340: 376c a3bc 579e 8f3d e448 45bd 707d 27bc
00000350: 70ba 973d 032a 08bd dc70 4e3d 3bb8 0abd
00000360: 7db9 6c3d b82e 75bd 921b 123d b1c5 243d
00000370: b3de 96bd 356c 78bd 86ec 773d a013 05bd
00000380: 92a2 733d 840a 9bbd c8f3 23bd a798 89bd
00000390: 9d97 9d3d ba03 123d e55c b63b b64a 46bc
000003a0: f274 aebd bdc2 793d 801e c83c 28a0 73bd
000003b0: d01c 7c3d c524 aabb 42c4 d7bd fa17 8e3d
000003c0: 16fe 553d 9491 c1bc 0ec7 2ebd b0b9 4f3b
000003d0: 5002 a73d 6625 c73d 671c babd eb81 8abd
000003e0: 5ea6 8d3d 7b58 553d 9522 4c3d 0242 9dbd
000003f0: 71df d53d df26 c8bd 97b8 a9bc ba3e 58bc

conv1.bias f4 [64]
-0.033514842 -0.0333865 0.010201729 -0.055901203 0.0492885 0.031949166 0.06384679 0.0013480444
0.12477456 -0.016082399 0.009455559 0.00020517777 -0.05003955 0.14536719 0.06935284 0.061419472
-0.022285638 -0.065151975 0.079803206 0.047893085 0.023076003 -0.012732486 -0.07046002 0.11799852
-0.026089799 0.11057285 -0.002659686 -0.030608779 0.029032506 0.040579837 0.09675856 0.006841551
0.050305452 0.07965477 -0.018534968 -0.1298631 -0.01819968 0.08285131 -0.025434643 0.041312177
-0.109568655 -0.04279722 0.114440404 0.047097616 0.03580854 0.038129296 -0.00740049 0.033434477
0.018995753 -0.022359017 -0.020590309 0.0032408545 0.06151289 0.0036962333 0.0011586965 -0.005702523
0.1405788 -0.044299062 0.00821813 0.1601003 0.12120166 0.034714837 -0.01965611 -0.0625202
00000000: dc46 09bd 48c0 08bd 2725 273c a9f8 64bd
00000010: bde2 493d 21dd 023d 1bc2 823d ddb0 b03a
00000020: ce89 ff3d 3cbf 83bc 7deb 1a3c fd24 5739
00000030: 45f6 4cbd 23db 143e dd08 8e3d fc92 7b3d
00000040: 5f90 b6bc 666e 85bd dd6f a33d 8a2b 443d
00000050: e309 bd3c eb9b 50bc 584d 90bd 35a9 f13d
00000060: 46ba d5bc 0574 e23d 204e 2ebb 43bf fabc
00000070: 94d5 ed3c 0b37 263d 5a29 c63d 172f e03b
00000080: 170d 4e3d 0a22 a33d a5d6 97bc d5fa 04be
00000090: 7f17 95bc f3ad a93d 505c d0bc f536 293d
000000a0: 8865 e0bd 234c 2fbd bb5f ea3d 6ee9 403d
000000b0: faab 123d 772d 1c3d cf7f f2bb 97f2 083d
000000c0: fb9c 9b3c 422a b7bc 02ad a8bc 8464 543b
000000d0: f1f4 7b3d 813c 723b 67df 973a 3bdc babb
000000e0: e4f3 0f3e ef72 35bd 56a5 063c 55f1 233e
000000f0: 9338 f83d 2531 0e3d da05 a1bc 970a 80bd

conv2.weight f4 [32, 64, 5, 5]
0.000466345 -0.001913652 0.017049978 0.006392893 -0.0046249162 -0.021205364 -0.027768495 -0.01994636
-0.023477212 -0.029636478 0.031016923 0.013659044 -0.008226068 -0.029578 -0.010767411 -0.001401413
0.020483103 -0.0115522705 -0.008838735 0.015288141 0.014481285 0.02224531 -0.011510648 0.027077412
0.023375563 -0.011767296 0.021114422 0.015769215 -0.0013137062 -0.025090603 -0.02229999 -0.00093975355
-0.012217183 -0.012401431 -0.0074069547 0.0071856217 -0.008294148 0.0099171465 -0.009554755 0.01649516
-0.0012699852 0.012533301 0.0065398556 0.012034591 -0.011232565 -0.037851267 0.0068320245 0.019035826
0.025570562 0.0074665365 0.0069699283 0.045831032 0.039038632 0.03534368 0.0029750923 0.021672845
0.031016504 0.0499197 0.023819072 -0.0042637344 0.024666281 -0.011448755 -0.036236234 -0.023315025
-0.052171748 -0.019407885 0.008370887 0.0019541206 0.008376708 0.016920185 -0.0028842073 0.01962312
0.0024988786 -0.0056273285 0.020249018 0.007943953 -0.023444716 -0.017832687 -0.02579222 -0.03466076
-0.0020041484 0.012317658 -0.023377337 -0.015949668 0.025371734 0.009545799 0.008577299 -0.010916783
0.04057008 0.017057871 -0.005739051 0.028987616 0.020298505 0.019539615 -0.007943567 -0.007508594
-0.030946834 -0.009232628 -0.04586719 -0.037327677 -0.03172504 -0.018432131 0.021507513 0.04331264
0.026502213 -0.022172613 0.008392853 0.01887437 0.024025623 0.008893899 -0.034651995 -0.015743272
0.030255215 0.023557022 -0.031962473 -0.013151542 0.026059642 -0.01563914 0.017690646 0.009474458
-0.0124234315 0.006913664 -0.0063252323 -0.022257805 0.022501498 -0.004507283 -0.05959573 0.035657413
-0.020351615 0.07229491 0.010184237 0.0060145524 -0.0007026256 -0.0346589 -0.006349186 0.039689273
0.02600289 0.06796893 0.059933808 0.044015687 -0.008318462 0.0052286084 0.00051394844 -0.0032753085
0.007838744 -0.009879203 0.030443313 0.00769965 0.0077777384 -0.015188217 -0.0061840448 -0.0031842957
-0.0095617315 0.032007985 -0.039476883 0.021109505 0.008314829 -0.021202961 -0.009899487 0.014123928
0.005507422 -0.00808322 0.011999912 0.0083549 0.0049731564 0.0076950714 -0.02211624 -0.010284546
-0.0031985736 0.02398334 -0.032595675 -0.023809997 0.008588188 0.01730239 0.011804654 0.014435841
-0.02499791 0.014098305 0.0064394646 -0.06433936 -0.0025411262 -0.108568914 -0.012120345 0.07280848
-0.008220778 -0.06241616 -0.09567429 -0.055799637 -0.0046883104 -0.010675911 -0.026089523 0.043427493
0.09133779 0.040641155 -0.01181256 -0.12149483 -0.08591725 -0.012004108 -0.033997864 -0.030965785
-0.028972732 -0.042331755 -0.043111894 0.0018081527 -0.018049069 0.005962135 0.00014150608 -0.013135435
0.011990982 -0.0034129238 -0.014237268 0.01908321 0.024941254 0.013167003 -0.01843741 0.030418197
0.01820382 0.02133716 -0.0095404 -0.030155778 -0.027540667 -0.0046528317 -0.012560604 -0.026330506
0.011126078 0.006676291 0.013530017 0.0015159734 0.0006679414 0.0021635708 0.012514045 0.0074314624
0.037043627 0.0398209 -0.010628402 -0.018082999 -0.0005292699 0.004136827 0.011467782 -0.0026411992
-0.027955778 -0.0013489758 -0.0045190454 -0.053449817 -0.011262058 -0.0018689482 0.0055093006 0.00042861773
-0.034576334 -0.006323431 -0.015543599 0.016861131 0.009032768 -0.015406162 -0.01229629 -0.04929
00000000: c47f f439 82d3 faba 65ac 8b3c 797b d13b
00000010: 9c8c 97bb dfb6 adbc c17a e3bc 8c66 a3bc
00000020: 4853 c0bc 33c8 f2bc 3417 fe3c 2fca 5f3c
00000030: a1c6 06bc 904d f2bc cc69 30bc 9eaf b7ba
00000040: 2ecc a73c bc45 3dbc 57d0 10bc 1c7b 7a3c
00000050: e942 6d3c cc3b b63c 2897 3cbc 73d1 dd3c
00000060: 1c7e bf3c 9ecb 40bc 27f8 ac3c 712e 813c
00000070: aa30 acba cf8a cdbc 78ae b6bc cb59 76ba
00000080: 942a 48bc 5f2f 4bbc 0ab6 f2bb 5d75 eb3b
00000090: 2ee4 07bc 877b 223c 8c8b 1cbc dc20 873c
000000a0: a275 a6ba 7958 4d3c 494c d63b bc2c 453c
000000b0: cb08 38bc ee09 1bbd 2ddf df3b 05f1 9b3c
000000c0: 5b79 d13c d9a9 f43b ff63 e43b 52b9 3b3d
000000d0: f9e6 1f3d 89c4 103d c4f9 423b 408b b13c
000000e0: 5316 fe3c 9978 4c3d 3720 c33c ccb6 8bbb
000000f0: f110 ca3c 8f93 3bbc 726c 14bd 27ff bebc
00000100: 0bb2 55bd 49fd 9ebc 0b26 093c b410 003b
00000110: 763e 093c 339c 8a3c f804 3dbb aac0 a03c
00000120: 3ac4 233b 7465 b8bb 45e1 a53c 5b27 023c
00000130: 220f c0bc db15 92bc 354a d3bc 71f8 0dbd
00000140: 0858 03bb 01d0 493c d481 bfbc e1a8 82bc
00000150: 62d8 cf3c fc65 1c3c cd87 0c3c 4edc 32bc
00000160: d02c 263d f3bc 8b3c a60e bcbb 7077 ed3c
00000170: 0d49 a63c 8b11 a03c bc25 02bc a70a f6bb
00000180: 3784 fdbc 7344 17bc 3cdf 3bbd e8e4 18bd
00000190: 1ef2 01bd fbfe 96bc 8630 b03c 9868 313d
000001a0: 2b1b d93c 57a3 b5bc 2d82 093c 6c9e 9a3c
000001b0: 62d1 c43c b7b7 113c 40ef 0dbd 09f8 80bc
000001c0: c9d9 f73c a8fa c03c 15eb 02bd 9179 57bc
000001d0: 087b d53c a71d 80bc f9eb 903c c23a 1b3c
000001e0: a68b 4bbc 048c e23b e543 cfbb 0056 b6bc
000001f0: 1055 b83c d5b1 93bb a71a 74bd 820d 123d
00000200: 6eb8 a6bc 5b0f 943d c9db 263c b915 c53b
00000210: 6830 38ba 7ef6 0dbd d50c d0bb 3891 223d
00000220: 0304 d53c 4b33 8b3d 277d 753d cb49 343d
00000230: 294a 08bc bf54 ab3b 7fba 063a 8fa6 56bb
00000240: 136e 003c 61dc 21bc 4164 f93c 584d fc3b
00000250: 66dc fe3b 00d8 78bc 87a3 cabb 9eaf 50bb
00000260: cfa8 1cbc ce1a 033d 83b2 21bd d7ed ac3c
00000270: ec3a 083c d5b1 adbc 7531 22bc 0c68 673c
00000280: 9b77 b43b 7b6f 04bc 479b 443c fee2 083c
00000290: dcf5 a23b f026 fc3b 1e2d b5bc 8380 28bc
000002a0: 299f 51bb b678 c43c 0b83 05bd 2f0d c3bc
000002b0: 79b5 0c3c bebd 8d3c 4f68 413c 4e84 6c3c
000002c0: 6bc8 ccbc 94fc 663c 2502 d33b 5bc4 83bd
000002d0: 0689 26bb 6159 debd 6994 46bc 9d1c 953d
000002e0: 71b0 06bc 16a8 7fbd e2f0 c3bd 298e 64bd
000002f0: 66a0 99bb 04ea 2ebc b2b9 d5bc 07e1 313d
00000300: 4f0f bb3d 5777 263d 7889 41bc 48d2 f8bd
00000310: 62f5 afbd e1ac 44bc 5841 0bbd f5ab fdbc
00000320: 3958 edbc 1064 2dbd 1996 30bd 89ff ec3a
00000330: a4db 93bc 035e c33b 4061 1439 0236 57bc
00000340: d375 443c 5cab 5fbb 6e43 69bc 6454 9c3c
00000350: 9a51 cc3c 6aba 573c 0d0a 97bc 952f f93c
00000360: 2d20 953c 45cb ae3c 564f 1cbc 4009 f7bc
00000370: f79c e1bc c876 98bb feca 4dbc 13b3 d7bc
00000380: 274a 363c cac4 da3b 01ad 5d3c a0b3 c63a
00000390: ca18 2f3a b2ca 0d3b b607 4d3c a083 f33b
000003a0: 0fbb 173d 3d1b 233d c022 2ebc cc22 94bc
000003b0: b4be 0aba 388e 873b 5de3 3b3c f817 2dbb
000003c0: 8403 e5bc 1ed0 b0ba 8014 94bb 32ee 5abd
000003d0: 7f84 38bc 7ff7 f4ba 5d87 b43b 19b8 e039
000003e0: ea9f 0dbd c934 cfbb 94aa 7ebc 5b20 8a3c
000003f0: 2dfe 133c 206a 7cbc 6176 49bc 50e4 49bd

conv2.bias f4 [32]
-0.0038766498 -0.038196385 -0.0024045047 0.021717707 0.024743682 0.017094763 -0.013566278 0.0076514813
0.0071974765 -0.013450504 -0.0009123058 0.012525013 0.02242711 0.017933413 0.022496365 0.0222895
-0.015337141 -0.019195542 0.0191818 0.01931593 0.050758827 -0.015857905 -0.020859124 0.01977476
0.0137455575 0.012114621 0.0186141 0.040290017 0.0085186735 -0.014995716 0.008285528 -0.0010591482
00000000: 640f 7ebb d073 1cbd e594 1dbb 55e9 b13c
00000010: 43b3 ca3c 510a 8c3c 1845 5ebc 47b9 fa3b
00000020: cfd8 eb3b 815f 5cbc ce27 6fba b635 4d3c
00000030: 0fb9 b73c 18e9 923c 4c4a b83c 7898 b63c
00000040: a248 7bbc f83f 9dbc 2623 9d3c 713c 9e3c
00000050: 7de8 4f3d 70e8 81bc c1e0 aabc adfe a13c
00000060: 0c35 613c 677c 463c 997c 983c 2507 253d
00000070: e891 0b3c 97b0 75bc 06c0 073c 1ed3 8aba

conv3.weight f4 [1, 32, 5, 5]
0.017384619 0.018811507 -0.0007523669 0.030181414 0.03421096 -0.024026247 0.010382675 -0.031249171
0.0040373113 0.016048 -0.006577822 0.02758276 0.011600303 -0.03809385 -0.009523717 -0.018363371
-0.032651313 -0.0028558022 -0.03552275 0.020868741 0.008877405 0.015793245 0.025876641 0.03316171
-0.012288963 0.0010411543 -0.038007863 0.007356257 0.02721353 -0.02559519 0.01993656 -0.02039878
0.010325533 -0.015870366 0.004246118 -0.034456458 0.023544295 -0.0091503365 0.031260476 -0.016653918
0.01630673 -0.020318776 -0.01962203 -0.009044402 0.0146757495 0.015805462 0.019997004 -0.007429317
0.005026807 0.019863304 -0.013811041 -0.011612039 0.02691843 -0.029819584 -0.017104952 -0.0195987
-0.0074321274 -0.025981365 0.0082399435 -0.024683163 -0.0155402105 -0.03440629 0.023564009 -0.021663524
-0.004234502 -0.021101471 -0.004920376 -0.0067300904 -0.011505421 -0.0005050955 0.015026932 0.029078985
0.02624367 -0.026236948 -0.0040924074 -0.05539748 -0.03289096 -0.016944792 -0.0124922255 -0.0072108363
0.03376246 -0.002269176 -0.029665675 -0.0031348278 0.026110442 0.050084442 0.046550274 0.08446467
0.038442064 -0.0057365163 -0.032558758 -0.054907195 -0.038833387 -0.0003145101 -0.023666149 0.00880033
0.0032752382 -0.024020968 -0.016217332 0.002093486 0.0052801766 0.0071916804 0.013835701 -0.0037089924
0.0033040321 -0.00816208 0.031579655 -0.00040082156 0.02446299 -0.02167751 -0.028036838 0.00417852
-0.03256812 0.020098971 0.019731479 0.028398706 0.03159832 0.011059044 0.012952363 -0.0060892818
0.03172985 0.014288466 -0.008971566 -0.03328999 0.0034113124 0.0037657418 0.02454644 0.026381247
0.04362139 -0.0011706861 0.013892068 -0.028963149 -0.0014686709 0.0062505896 -0.027256684 -0.016993152
0.016150197 -0.020824496 -0.011944697 0.023584127 0.03148986 -0.023345362 -0.020675715 0.032901082
-0.010822035 0.010226544 -0.021681322 -0.011942978 0.02916751 -0.027783813 0.012030669 0.00059030275
0.010886335 0.0011125944 -0.008487032 0.012571178 0.009193578 -0.0037147638 0.02359488 0.031522714
0.018833973 -0.009929608 -0.026408657 -0.024963578 -0.018622888 -0.0031298827 0.018122904 0.010049861
0.031586897 -0.035685677 -0.02027608 0.03186222 -0.025792234 0.022268938 6.3383886e-05 -0.0040648985
0.025032744 0.027298195 -0.014809412 -0.0023669272 0.03304428 0.029487723 0.014231398 -0.021621646
-0.024093417 0.025464475 0.02054661 -0.0037541017 0.034086205 0.024645435 -0.007666348 0.015633134
0.034595076 0.020464314 -0.017144645 -0.03344225 0.010860759 0.013342547 -0.035025038 0.005073541
-0.021797538 0.014182532 -0.017266544 -0.026911668 0.03400078 0.021149507 -0.01429625 -0.025504552
0.023903133 -0.022078801 -0.010480226 -0.01575747 0.010537122 -0.0022568507 0.013140657 -0.019791134
0.026098093 0.0040899413 -0.024417643 -0.025828842 0.021485722 -0.015266715 0.009901051 0.0009082494
-0.016419875 0.03358384 -0.015173697 0.014669425 0.021581622 0.010954167 0.036228605 -0.024861595
0.0056107696 0.00032551924 0.015830994 -0.015129105 -0.025390718 -0.03025762 0.02289953 0.008429859
-0.033976972 -0.0039874036 -0.03188548 -0.031511124 0.022909466 -0.015080881 0.023713121 0.034529816
0.003604156 0.014570669 -0.030876609 -0.015019268 -0.0019541227 0.0076872185 0.014726317 0.019051831
00000000: 306a 8e3c 971a 9a3c 7d3a 45ba 033f f73c
00000010: cb20 0c3d b1d2 c4bc 181c 2a3c 43fe ffbc
00000020: 6c4b 843b 1877 833c c58a d7bb 3ef5 e13c
00000030: 330f 3e3c 4c08 1cbd 5d09 1cbc c86e 96bc
00000040: 62bd 05bd 6928 3bbb 4e80 11bd ecf4 aa3c
00000050: 8972 113c d660 813c 40fb d33c 93d4 073d
00000060: a657 49bc 5777 883a 22ae 1bbd c20c f13b
00000070: e9ee de3c 01ad d1bc ff51 a33c 581b a7bc
00000080: 6d2c 293c 9202 82bc 0523 8b3b 3722 0dbd
00000090: f7df c03c 4beb 15bc fc0a 003d cc6d 88bc
000000a0: b195 853c 9073 a6bc 61be a0bc f92e 14bc
000000b0: 8e72 703c 757a 813c c2d0 a33c a171 f3bb
000000c0: eab7 a43b 5eb8 a23c b447 62bc 6c40 3ebc
000000d0: 0a84 dc3c 3348 f4bc af1f 8cbc 748d a0bc
000000e0: 3489 f3bb dfd6 d4bc d400 073c 5834 cabc
000000f0: 5e9c 7ebc 9ced 0cbd 4f09 c13c b477 b1bc
00000100: 94c1 8abb fedc acbc 1b3b a1bb 1788 dcbb
00000110: 3c81 3cbc 6368 04ba 8533 763c 0d37 ee3c
00000120: f7fc d63c deee d6bc 9a19 86bb 78e8 62bd
00000130: acb8 06bd cecf 8abc 31ac 4cbc e148 ecbb
00000140: 814a 0a3d 75b6 14bb 6e05 f3bc af71 4dbb
00000150: 91e5 d53c 5825 4d3d 80ab 3e3d d0fb ac3d
00000160: 6d75 1d3d 63f9 bbbb 555c 05bd 5ee6 60bd
00000170: c20f 1fbd d5e4 a4b9 83df c1bc 422f 103c
00000180: 61a5 563b 9fc7 c4bc 36da 84bc de32 093b
00000190: 5505 ad3b 30a8 eb3b 23af 623c 9112 73bb
000001a0: 7688 583b 3fba 05bc ab59 013d 5c25 d2b9
000001b0: 9c66 c83c 0995 b1bc 83ad e5bc f7eb 883b
000001c0: 2666 05bd 99a6 a43c e9a3 a13c 67a4 e83c
000001d0: 3d6d 013d fe30 353c 2636 543c 9988 c7bb
000001e0: 29f7 013d 2c1a 6a3c 7afd 12bc 165b 08bd
000001f0: 5390 5f3b aaca 763b 9e15 c93c 7c1d d83c
00000200: 58ac 323d b571 99ba 8e9b 633c 2044 edbc
00000210: 6b80 c0ba bfd1 cc3b 6949 dfbc 3935 8bbc
00000220: 6b4d 843c 2298 aabc b1b3 43bc 8033 c13c
00000230: 83fb 003d c63e bfbc 1e60 a9bc 49c3 063d
00000240: e84e 31bc 3c8d 273c 079d b1bc 7bac 43bc
00000250: b4f0 ee3c e19a e3bc 481c 453c 8cbe 1a3a
00000260: 995c 323c 79d4 913a 310d 0bbc 58f7 4d3c
00000270: a9a0 163c 6573 73bb 0d4a c13c f61d 013d
00000280: b449 9a3c cbaf 22bc f856 d8bc 6b80 ccbc
00000290: 078f 98bc b81e 4dbb 7c76 943c 2ca8 243c
000002a0: 4361 013d 252b 12bd 061a a6bc f681 023d
000002b0: 3c4a d3bc 596d b63c f7ec 8438 d732 85bb
000002c0: 7811 cd3c 77a0 df3c 2da3 72bc 731e 1bbb
000002d0: 7059 073d 3d90 f13c cf2a 693c e11f b1bc
000002e0: 8f5f c5bc e09a d03c 5d51 a83c 6007 76bb
000002f0: fa9d 0b3d 39e5 c93c fd35 fbbb 0f11 803c
00000300: 91b3 0d3d c7a4 a73c ed72 8cbc befa 08bd
00000310: 53f1 313c b39a 5a3c 6a76 0fbd f23f a63b
00000320: c090 b2bc da5d 683c 9172 8dbc dc75 dcbc
00000330: 6744 0b3d bb41 ad3c d23a 6abc ecee d0bc
00000340: 81d0 c33c 9ade b4bc 41b5 2bbc cf15 81bc
00000350: e5a3 2c3c ace7 13bb e94b 573c 0421 a2bc
00000360: abcb d53c ea04 863b 8207 c8bc 0297 d3bc
00000370: d302 b03c 3e21 7abc 0538 223c 9617 6e3a
00000380: f982 86bc 358f 093d 199b 78bc 0758 703c
00000390: f1cb b03c 1b79 333c 7264 143d 8baa cbbc
000003a0: 8cda b73b 74aa aa39 00b0 813c 11e0 77bc
000003b0: 3200 d0bc d4de f7bc cc97 bb3c 641d 0a3c
000003c0: 702b 0bbd c4a8 82bb 599a 02bd cf11 01bd
000003d0: a2ac bb3c cd15 77bc 0542 c23c 236f 0d3d
000003e0: b433 6c3b d1b9 6e3c f1f0 fcbc 6013 76bc
000003f0: bd10 00bb 10e5 fb3b a646 713c 9612 9c3c
