output_x01/x2/epoch_110.pth (torch, 231335 bytes, 5 tensors)

conv1.weight f4 [64, 1, 9, 9]
00000000: fb29 2abd f1c1 0f3c b844 4bbd af29 503d
00000010: 6c65 afbd 2853 b83d 0aff 92bd 207e a2bd
00000020: 2c3c 73bd f0ca 493d 17f7 22bd d54f 3a3d
00000030: 9a62 babd 16e0 81bd aebd 02bd da84 49bc
00000040: ecd1 a3bd bdb8 a23d a968 cebc 55f0 173d
00000050: 4777 a33d d37f ca3c 6330 223d 0582 f33d
00000060: 98be 17bd cbf4 393d 0d45 29bd 05f1 aa3d
00000070: 487e b43d 8cc7 d6bd 9115 d43d 7817 873d
00000080: b0df 5e3d 7591 653d c92a dc3d 0987 90bb
00000090: e086 bbbd b45e 05bd adfe 9fbd 5f7d 9d3c
000000a0: d653 4cbc 3054 7bbd c414 afbb 3bee ef3d
000000b0: 8d64 a93a f841 033c e5f3 54bc 5669 ac3c
000000c0: 9e7d d93d 2d82 8a3d f6ac 063d b96c d33c
000000d0: 4482 063d 9718 4e3d eb2c 93bb 7069 cfbd
000000e0: 245b 8abd 3e34 d13d 386f b83b 3417 cabd
000000f0: 4a59 993c 95c9 c73d 8384 d0bd 07d1 7bbd
00000100: 611a 1abd 51ab 1e3c 4aa8 85bc af64 29bc
00000110: dbf5 e2bd d569 723d 00da de3d 0cfc 963d
00000120: 6b59 88bd 3b43 a8bd 174d 403d 1b22 133b
00000130: 8315 3a3d fc2a ddbd 12d0 7cbb 70c5 aa3d
00000140: 44dd 643d 98dc a2bb 21a5 273c d06c 8cbc
00000150: 3d79 8bbd a62d 43bd 511d 9cbd 688b ac3d
00000160: d3ab 553d 40f8 da3c 64a1 c3bd a906 a33d
00000170: 7f49 063d 7b31 8f3d 1a82 38bd 1f1a c53c
00000180: fab8 df3d 9bf9 9b3d 379d a43d dd25 dfbc
00000190: 8284 a73d 1a60 bebd 0330 5dbb 5744 85bd
000001a0: 9d9e ccbc bff5 dcbc 991e 523c 2024 d13d
000001b0: 2183 553d 244c 3ebb 4063 a73d 9b26 6fbd
000001c0: 8b37 773d 0ec9 05bc eb71 a2bc f2d3 513c
000001d0: 4dec b8bd aea7 d83b 5969 063d 548c cc3d
000001e0: 4cde 0bbd 5b65 263d c45c e03d cec8 5bbd
000001f0: 72ed ce3d ed19 88bd 0942 4a3d 3d1c 203d
00000200: 5f46 e03c e38c ac3d 0ee7 0fbd 5ee2 213d
00000210: a819 a63a 2f3c aabd 312b 0abd 502f 9cbd
00000220: 26b6 1d3d 6acc ed39 fdf9 b43b b8f0 c9bc
00000230: 19a7 dc3b 0dd5 1bbd 2a6d f83c ce5f d03d
00000240: 454b 8f3c 9a60 5abd 3a99 89bd e753 d93b
00000250: 5739 a1bd ea64 a5bd 1380 a0bd 4efe 2bbd
00000260: bcc4 b43a 7c7b b33d 0731 483d 2ac2 c63d
00000270: 9db9 80bd 82a5 513c 7584 cbbd ac63 6d3d
00000280: 8db3 983c ecaa c63d 8d7c 96bd 4d54 c93d
00000290: 8a14 e33d ce2b ee3d 07a8 4c3d 79a2 063e
000002a0: 2b11 c53d 3fcc be3d a9bc d3b9 331c a0bd
000002b0: 13b5 3c3c c57c 2c3d 2023 57bd 0568 2fbd
000002c0: 1195 acbd 69ae 5fbc 7d31 e43d ac05 b83c
000002d0: 42e8 6b3b 70cd 833c 32eb af3d 010d a0bd
000002e0: cc90 8ebd 7e6c d4bc 045f 36bd 0844 a03d
000002f0: ccbb b63d 95fa bcbd 3ad4 a6bd 2469 bebd
00000300: ed98 883d 0761 ef3d c9bf 95bd af4c 12bd
00000310: 8dc5 753d c5ef 53bd 8ae5 d33d c02c 173d
00000320: ccbf 78bc fefc 053d c666 823d 18d9 cdbc
00000330: c2ef 94bd 577b ac3c 95c5 ac3c 456a cb3a
00000340: f5c9 21bc ea83 b23d 9e67 78bc b86e c73a
00000350: ea6b 693d 1c44 4bbd 93c3 453d 6ec4 78bc
00000360: de46 273d 2a82 9cbd b1d5 253c e07c a33c
00000370: e887 b1bd 436c a1bd 9af0 643d 2405 b3bc
00000380: 26bb 873d c36f d5bd 1b72 70bd 3ebb adbd
00000390: 175c 6f3d c990 853c dd7a 06bc aa5b 10bc
000003a0: a474 a6bd 2b7d 0a3d ca2d 103c f971 92bd
000003b0: be11 633d 2367 273c 1a65 b4bd b306 973d
000003c0: 03ca 8b3d 208b 59bc 68f0 8bbd 50f5 543b
000003d0: 9fb1 a83d 2bbb ce3d 958e adbd 80d5 57bd
000003e0: a8c5 ad3d df37 5b3d d0e2 843d 6a01 80bd
000003f0: 394a c43d eb4e bfbd e88e c3bb 6dfd 743b
-0.041543942 0.008774267 -0.049626082 0.050821003 -0.085642666 0.09000236 -0.07177551 -0.07934213
-0.059383556 0.049265802 -0.039786424 0.04548629 -0.09100838 -0.06341569 -0.031919174 -0.012299741
-0.07999024 0.07945392 -0.02519639 0.037094433 0.07981735 0.024719154 0.039596926 0.11890034
-0.037047 0.04539947 -0.041325618 0.08346752 0.08813149 -0.10487279 0.10355676 0.06596273
0.054412544 0.05604692 0.10750348 -0.0044106287 -0.09156585 -0.03256102 -0.078122474 0.01922482
-0.01247116 -0.061359584 -0.0053430516 0.11715361 0.0012923643 0.008011334 -0.012997602 0.021046322
0.10619663 0.0676311 0.032879792 0.025808679 0.032839075 0.05031642 -0.0044914386 -0.101275325
-0.06755665 0.102150425 0.0056284927 -0.09867707 0.018719334 0.097552456 -0.101815246 -0.06147864
-0.037622813 0.0096844 -0.016315598 -0.010338946 -0.110820495 0.05918296 0.10881424 0.07372293
-0.0665768 -0.08215948 0.04694852 0.0022450748 0.04543067 -0.10799214 -0.0038576168 0.083384395
0.055875078 -0.0049701445 0.010232241 -0.01714173 -0.06810234 -0.047650956 -0.07622779 0.08425027
0.052165817 0.026729703 -0.09552267 0.07960255 0.032784935 0.069918595 -0.04504595 0.024060307
0.10923953 0.07615968 0.08037799 -0.027239734 0.08179571 -0.09295674 -0.003375054 -0.065071754
-0.024977976 -0.02697265 0.012824678 0.102119684 0.052127007 -0.0029037083 0.08173227 -0.058386426
0.060355704 -0.008165611 -0.019829711 0.012806879 -0.09029446 0.006611786 0.03281531 0.09987703
-0.034147546 0.040624004 0.10955194 -0.0536583 0.10103883 -0.0664557 0.049379382 0.03908943
0.027377306 0.084253095 -0.03513246 0.03952252 0.0012672441 -0.0831226 -0.033732597 -0.07626212
0.03850379 0.00045356463 0.005522965 -0.024650916 0.006733787 -0.038044978 0.030325491 0.10174523
0.017491946 -0.053314783 -0.06718679 0.0066323164 -0.07872265 -0.080758885 -0.07836928 -0.04199057
0.0013791542 0.08763787 0.04887488 0.097050026 -0.06285403 0.012795808 -0.099373735 0.057956383
0.018640304 0.097005695 -0.07347975 0.09830532 0.11087902 0.11629449 0.04996493 0.13147916
0.09622415 0.093163006 -0.0004038562 -0.078178786 0.011517781 0.042111177 -0.052523732 -0.04282381
-0.0842687 -0.013652422 0.11142252 0.022463642 0.003599659 0.016089171 0.08589782 -0.0781498
-0.069612116 -0.02593064 -0.044524208 0.07825476 0.08922538 -0.09227482 -0.08145948 -0.09297398
0.06669793 0.11688428 -0.07311971 -0.035717662 0.060002852 -0.051742334 0.103465155 0.03690791
-0.015182447 0.032711975 0.06367259 -0.025127932 -0.07272293 0.021054907 0.021090308 0.0015519342
-0.00987481 0.08716567 -0.015161423 0.0015215492 0.05698768 -0.0496255 0.048282217 -0.015183551
0.04083907 -0.07642014 0.010121749 0.019957006 -0.086685 -0.078819774 0.055893518 -0.021853037
0.066274926 -0.104217075 -0.05870257 -0.08482979 0.058437433 0.01630439 -0.008208004 -0.008810917
-0.08127716 0.033810776 0.008799979 -0.07150645 0.055436842 0.010217461 -0.08808346 0.07374325
0.0682564 -0.013277799 -0.06832963 0.003249485 0.082370035 0.10094293 -0.08474461 -0.052693844
0.084849656 0.05352008 0.064885736 -0.0625027 0.09584469 -0.09341224 -0.0059679635 0.00373825

conv1.bias f4 [64]
00000000: 4303 c6bc d7d3 8cbd c1ef 8b3c b5f1 83bd
00000010: dfad 313d 0e14 5c3c 7203 783d dbea da3b
00000020: c8db 013e 2277 58bd 5760 3a3c 55d2 d33b
00000030: 3912 81bd 88ed e93d b2de 9b3d 140f 843d
00000040: bbc7 fdbc 4993 70bd 37a5 773d 0c83 283d
00000050: e3c5 9c3c a999 35bc 17df 93bd af42 913d
00000060: 00f9 debc 8798 b03d 763d d3bb 6bd5 04bd
00000070: 3d19 003d 8979 323d 4197 bc3d 25cb 04bc
00000080: df72 483d 5baf 863d 75d2 38bc 882e cdbd
00000090: 7e2e 28bc 9521 b13d de30 29bd 5386 143d
000000a0: b4ea b7bd fe6a afba 17ce dd3d 5601 143a
000000b0: 8614 163d 5059 103d e721 68bc 0cb4 6abc
000000c0: 61f9 f6bc 2dc1 dcbc c9e4 8cbc b761 053c
000000d0: bb01 793d 3407 dc3a aa9f a13b 27f5 50bb
000000e0: 198c c63d 34dd 42bd 4cba ef3a 1c11 df3d
000000f0: 0936 df3d 2215 fa3c b788 32bd 591a b4bd
-0.024171477 -0.06876343 0.017082097 -0.06442586 0.043378707 0.013432516 0.06055016 0.006680829
0.12681496 -0.05284799 0.011375508 0.0064642825 -0.06302304 0.114222586 0.07610835 0.064481884
-0.030979028 -0.058734212 0.060460296 0.0411406 0.019137328 -0.011083999 -0.072202854 0.07092797
-0.027218342 0.08622842 -0.0064465357 -0.032430094 0.03127407 0.043572936 0.09208537 -0.008105074
0.048937675 0.06576415 -0.011280646 -0.10018641 -0.010264991 0.086489834 -0.04130637 0.036260914
-0.08980313 -0.0013383327 0.10830324 0.0005645951 0.036640666 0.035241425 -0.014168239 -0.014325153
-0.03014821 -0.026947582 -0.017198937 0.008140973 0.060792666 0.0016786815 0.0049323635 -0.0031884403
0.0969469 -0.047574237 0.0018289774 0.10891935 0.10898978 0.030527655 -0.043587413 -0.08794088

conv2.weight f4 [32, 64, 5, 5]
00000000: be96 c7ba fce7 dc3b 3780 643c b761 38bc
00000010: c324 bebc d77f 81bc ccf0 98bc 6cd2 76bc
00000020: 333a 23bd 31f6 4ebd 7a12 aa3c 3b4d 8abb
00000030: 4727 783b e562 d9bc fd7e 8dbc a0b3 1e3b
00000040: e9df 8d3c 3890 5b3b 8465 53bb cfbf fa3b
00000050: c551 583c 6ed7 ce3c e174 3fbc 766a a63c
00000060: 5064 12bb 38f7 bcbc 487e 7d3c bf0f 1d3c
00000070: f963 c3bb c624 abbc 2417 71bc 3286 ba3c
00000080: 0bd0 1a3c 5b44 043c a23e 25bb dd2f 5d3b
00000090: babc 05bc 5736 203c 4dd6 d6ba a6dc 653c
000000a0: 4b41 b7bb d77a ab3b 9fa9 fdbb 82d0 e33b
000000b0: a475 3cbb ba36 fbbc 7c38 3e3c bde3 6c3c
000000c0: 3997 ae3c 8856 563c de40 873a 8eaa 3b3d
000000d0: 0539 cc3c 85da 1d3c 3305 fcba def7 e4bb
000000e0: c52f 0c3d b762 373d 1d45 643c 0015 16bb
000000f0: 401f 2abb b31b 28bc 5758 a9bc 9a90 a9bb
00000100: 6181 bebc e3c0 97bc 94a0 023c 21d3 b13b
00000110: 740d 443c 6d87 0b3c db27 393c 9219 e33c
00000120: 652d 193c 2ebb 0a3b 8469 c03c 6fcd 2d3c
00000130: d29c 82bc f331 30bc 23a9 88bc 1a72 a0bc
00000140: a711 a63b 4d90 b03c 9011 8dbc 9226 81bc
00000150: a11b a83c 8957 873c 4b21 6f3c 8978 66bc
00000160: 9844 fa3c 7dcd 6d3c a783 aabb 30a6 df3c
00000170: 7a20 a13c d2a3 bb3c 309d eebb 1676 a8b7
00000180: ddd6 99bc 3c12 e03b cb41 bebc ed2b e4bc
00000190: 6352 d5bc 8b28 7bbc f452 8a3c 24b1 033d
000001a0: 555a e03c 5785 0ebc 5b1e a13b 9403 983c
000001b0: dc0c c83c c974 403c 0bd9 98bc 94d5 3abc
000001c0: d94e 013d 3948 913c 5664 f1bc 11f4 5cbc
000001d0: 3fa6 9d3c 64a8 36bc 2d84 ca3c ca91 ce3c
000001e0: a84e 8fbc 27fd 943b cd6d 9dbb 0c02 9abc
000001f0: 141b da3c f930 e6bc e1fb 9cbc 3965 643c
00000200: ab26 05bd 519e 993d ab8e 5ebc bae6 34bb
00000210: f157 533b ff84 96bc a940 34bb 0bcd a53c
00000220: 7d88 2b3c 6eeb 423d ef34 133d cc6e cb3c
00000230: 1f13 1a3c a3a0 373c 1502 133c 5a52 5cbb
00000240: 45d7 133c da37 0bbc fbd0 503c c410 f9ba
00000250: 8c75 93bc 488c 85bc 16b1 7dbc 494f e1b9
00000260: 5a18 3dbc dc08 bb3c 9849 f5bc c9b9 c03c
00000270: 1182 8c3c 786e 8bbc 81dc 76bc 9121 b73c
00000280: b1e5 a43b 4c9c 5fbc ab44 da3b 0ad1 d4ba
00000290: 8093 533b c9f7 463c d7c8 97bc 712f 33bc
000002a0: 7b7e 89ba 781a aa3c 7892 b9bc 590f 77bc
000002b0: b5f2 213c 4f98 853c bbb4 93bb c8d1 50bc
000002c0: 0408 5abc 4055 10bd 79c7 1a3b 5e8f 2ebb
000002d0: 1402 173c 363e bbbb 7f80 643c 7ad0 e83c
000002e0: f8f6 b03c 9dca 98bd 1917 43bb 458f c1bc
000002f0: 19f7 16bd 1725 b3bc 3ac1 d1bc 1a15 b63c
00000300: 7cc1 933d 8052 d93c 2514 47bc cbd1 40bd
00000310: d5ce aebd 5178 12bc d753 d6bc 8711 d0bc
00000320: 5d4c cabc 4bf4 25bd 1f71 14bd d5d2 1f3c
00000330: 1cdd 18bb 231b a93c f01d d53b 1e73 39bc
00000340: e3f9 3e3c f870 773b 79c0 11bc bead 913c
00000350: 7217 923c f924 d63b 85e7 9ebc cd58 013d
00000360: 2fd9 853c f9ff 8b3c 7af3 47bc 286c fdbc
00000370: fe9b e7bc d68b 95ba f6c3 bcbb ff80 b8bc
00000380: 82b0 003c 7bf8 a2bc 7048 9fbc bc77 c5bc
00000390: b265 bdbb 9033 bfb9 618c 293d e238 853c
000003a0: f93c f03c adfd 033d 6095 93bb 27fc 643c
000003b0: 0cc7 213c 7fd8 183c dc05 2e3c e9c4 943a
000003c0: 26b8 1abd 804a c3bc 456f 9bbc f18d 26bd
000003d0: 01c3 94bc 8b4b 553c c06f 7bbb 90f5 8bbc
000003e0: ac81 1abc c68a 183b d92c 52bc ddd8 7c3c
000003f0: 8cc5 1b3c c95a 9abc 7884 27bc ed69 53bd
-0.001522742 0.006741522 0.013946584 -0.011253766 -0.023210889 -0.01580803 -0.018669508 -0.015064817
-0.039850425 -0.050527755 0.020760763 -0.0042206324 0.0037865208 -0.026536414 -0.017272467 0.0024215952
0.017318683 0.003350271 -0.0032256553 0.00765226 0.013203089 0.02524921 -0.011685581 0.020314436
-0.0022337623 -0.023067102 0.015472002 0.009586274 -0.0059628454 -0.020891558 -0.01471499 0.022769067
0.009449015 0.008072938 -0.0025214334 0.0033750453 -0.008162672 0.009778581 -0.0016390771 0.0140296575
-0.0055925003 0.0052331495 -0.0077411677 0.0069523463 -0.0028756643 -0.030665744 0.011610147 0.014458594
0.021312343 0.013082154 0.0010319015 0.04581695 0.024929533 0.009634619 -0.0019227624 -0.006987556
0.034225244 0.044771876 0.0139324935 -0.00229007 -0.0025958568 -0.01026051 -0.020672007 -0.0051747086
-0.023255052 -0.018524593 0.007972855 0.00542678 0.011966098 0.008516175 0.011301006 0.027722154
0.009349202 0.0021168697 0.023487814 0.010608061 -0.015943918 -0.010754096 -0.016682213 -0.019585658
0.0050680223 0.021553183 -0.017220289 -0.015765462 0.020520987 0.016521232 0.01459534 -0.014066824
0.030550286 0.014514324 -0.0052036825 0.027300924 0.019668806 0.022905264 -0.007281922 -2.0082149e-05
-0.018779213 0.006838111 -0.023224732 -0.027852977 -0.026040262 -0.01532949 0.016885258 0.032151356
0.027386824 -0.008698783 0.0049169487 0.018556394 0.024420194 0.011746594 -0.018658182 -0.01140346
0.031569336 0.017734634 -0.02946679 -0.013485924 0.019244311 -0.011148546 0.02472123 0.025216002
-0.01749356 0.0045467797 -0.004804349 -0.018799804 0.02662424 -0.028099524 -0.019163074 0.013940149
-0.03250758 0.075008996 -0.013583819 -0.0027603344 0.0032248462 -0.018373964 -0.002750436 0.020239374
0.010469553 0.047587804 0.035939153 0.024833106 0.009403973 0.011207732 0.008972664 -0.0033618421
0.009023492 -0.008497203 0.012745137 -0.0019002189 -0.018000387 -0.016302243 -0.015484115 -0.00042974416
-0.01154145 0.022831373 -0.029942319 0.02352609 0.017151864 -0.017020449 -0.015067221 0.022354873
0.005032264 -0.013648104 0.006661018 -0.0016236615 0.0032283962 0.0121440375 -0.018528385 -0.010936604
-0.0010489965 0.020764574 -0.02265285 -0.015079343 0.009884526 0.016307978 -0.0045076287 -0.012745328
-0.013307575 -0.03523755 0.002361743 -0.0026635746 0.009216804 -0.005714203 0.0139466515 0.028419722
0.021602139 -0.074605204 -0.0029768406 -0.023627887 -0.036856744 -0.021868272 -0.025604833 0.022226859
0.072146386 0.026528597 -0.012150799 -0.047075074 -0.08535544 -0.0089398185 -0.026163025 -0.025398983
-0.024694616 -0.04051618 -0.036240693 0.009754856 -0.002332515 0.020642823 0.006503813 -0.01131895
0.011656257 0.0037756544 -0.008895987 0.017783042 0.017833445 0.006535169 -0.019397506 0.031578828
0.016338913 0.01708983 -0.012204045 -0.030935362 -0.028272625 -0.0011409472 -0.005760665 -0.022522448
0.007854583 -0.019893875 -0.01944372 -0.024104945 -0.0057799453 -0.00036468776 0.04139364 0.016262475
0.029325949 0.032224346 -0.004503891 0.013976133 0.009874117 0.00932896 0.010621514 0.0011350188
-0.037773274 -0.023839235 -0.018973956 -0.04066271 -0.018159391 0.013018499 -0.0038366169 -0.017084867
-0.00943033 0.0023276075 -0.012828075 0.015432564 0.009507548 -0.018842118 -0.010224454 -0.05161469

conv2.bias f4 [32]
00000000: c871 0bbc 18e0 cbbc b18f 83ba 3f13 bb3c
00000010: effe dd3c 840d c03c 7b1a 36bc 98a6 1b3c
00000020: cfd8 eb3b 07f3 4ebc aadc 9a39 7a21 2d3c
00000030: c378 dc3c 6257 803c c9b8 7d3b 8665 9c3b
00000040: d3f4 62bc 6e3b 96bc 00b9 743c 1c6a bd3c
00000050: e055 1f3d c806 b7bb 93b9 19bb a1b6 2c3c
00000060: 41ff 883c 16d7 243c c8ed 963c ccca 823c
00000070: 24d4 213c 2c2c 5ebc 1771 753c e8e8 85b9
-0.008511014 -0.02488713 -0.001003733 0.022836326 0.0270991 0.023443945 -0.011114712 0.009500168
0.0071974765 -0.012631184 0.00029537576 0.0105670635 0.026913052 0.015666667 0.0038714877 0.0047728447
-0.013852316 -0.018338885 0.014936686 0.023121886 0.038900256 -0.005585525 -0.0023456558 0.010541589
0.016723277 0.010061046 0.01842393 0.015965842 0.009877238 -0.013560336 0.014980576 -0.00025541265

conv3.weight f4 [1, 32, 5, 5]
00000000: 352c 9c3c 1f64 953c e411 cfba 09b7 dd3c
00000010: edd1 053d 3903 e9bc 81dc 823b 3ffe 0cbd
00000020: e587 313b 8750 463c b9bc 83bb d391 ed3c
00000030: 9421 4f3c 4b9f 03bd 8835 95bb 8df3 88bc
00000040: c186 f0bc 2c11 2b39 64a9 00bd 8ebd bd3c
00000050: 1cb7 b43b 90ad 403c f548 a33c fc01 ee3c
00000060: ea81 88bc c04e f73a 20f1 0cbd 975b f83b
00000070: fa57 d63c 6146 bcbc 6d6e a83c e8e8 89bc
00000080: 1102 243c 9da5 81bc 71c7 c33b 48b1 09bd
00000090: 2952 d73c 5b1a 00bc 9eb1 053d 84ac 5bbc
000000a0: 4942 7a3c 63e3 8cbc cd63 7bbc 8e2a 16bc
000000b0: 9145 893c 4713 653c d7d0 a53c 455f c3bb
000000c0: 819e 983b 4eb1 b33c b447 62bc 6c40 3ebc
000000d0: 0a84 dc3c 3348 f4bc af1f 8cbc 748d a0bc
000000e0: 3489 f3bb dfd6 d4bc d400 073c 5834 cabc
000000f0: 73b4 7ebc d8e8 0cbd 083e c13c b477 b1bc
00000100: 94c1 8abb e7c1 acbc 213c a0bb afcc ddbb
00000110: 3c81 3cbc 6368 04ba 0c71 763c 6f6f ee3c
00000120: cbc6 d63c deee d6bc 9a19 86bb 84b3 60bd
00000130: ba4c 0dbb 10f4 303c f470 b6ba 4ff7 483b
00000140: 0056 103d abcd eabb 4124 03bd cadc 6fbc
00000150: 78cb d7bb 79e4 323d 5c65 cc3c f2f2 503d
00000160: 0d31 073d 5de3 18bc c4b9 b8bc d222 c8bc
00000170: a1a1 0bbd f94d 5fbb 375a 88bc ec47 8ebb
00000180: 9a4d 8abb b75c 8abc 9be5 87bc 316d bc3b
00000190: da56 c43b 8bf6 f93b 99f7 673c 8c39 57bb
000001a0: 33aa 663b 6b71 f2bb 5395 023d cfbf bfb8
000001b0: 8efb cc3c 1497 adbc fc0e e1bc 7a9e 923b
000001c0: 0c70 03bd 5a30 a83c 985b a43c 71a8 ec3c
000001d0: a54e 033d 0998 393c cf4d 5c3c 2f8e b6bb
000001e0: 8dc3 033d 27d6 733c 28c5 0bbc 5321 06bd
000001f0: b914 833b 7462 863b 8101 df3c 17aa cd3c
00000200: 0a2e 113d d7af 123b c241 493c 925e e2bc
00000210: 2436 9e3b 837b 143c f233 adbc 59db 86bc
00000220: 7e24 933c fd5a 90bc e3a7 27bc da5f de3c
00000230: 39d1 fa3c 7b4c c4bc 3800 cfbc 4862 e53c
00000240: 31d3 18bc f150 bc3b 91bd acbc dafe 57bc
00000250: 463c e63c 4838 c5bc f925 523c eec4 a03a
00000260: 8a8c 363c 3492 bc3a 96f1 00bc b626 5a3c
00000270: 5285 1f3c 8b22 5dbb 484c c23c d963 013d
00000280: 0848 9e3c 5025 1abc ee9e d3bc a026 c8bc
00000290: 2418 92bc fc3c 3bbb 7837 983c 32bc 273c
000002a0: 06b8 023d b431 0ebd 1c6a a2bc 12a9 043d
000002b0: 5846 cebc 37cf ba3c d30b 3a3a 34cd 73bb
000002c0: f31b cf3c 93cc e03c 22eb 6cbc 86a9 05bb
000002d0: ae97 083d b6c1 f23c 2844 693c d46c afbc
000002e0: 3a7f c3bc 6c69 d23c 9975 a83c 874a 81bb
000002f0: 17e5 0b3d 6b76 cb3c cc2c f7bb d26d 803c
00000300: 2e32 0d3d 5b2a a83c 3482 8bbc a614 08bd
00000310: aba1 343c 0db9 5b3c eb9d 0ebd d825 ac3b
00000320: c090 b2bc da5d 683c 9172 8dbc dc75 dcbc
00000330: 6744 0b3d bb41 ad3c d23a 6abc ecee d0bc
00000340: 81d0 c33c 9ade b4bc 41b5 2bbc cf15 81bc
00000350: e5a3 2c3c ace7 13bb e94b 573c 0421 a2bc
00000360: abcb d53c ea04 863b 8207 c8bc 0297 d3bc
00000370: d302 b03c 3e21 7abc 0538 223c 9617 6e3a
00000380: f982 86bc 9197 0b3d f6f7 5abc bf39 793c
00000390: 364a b63c 9449 323c f248 0c3d 65bc c8bc
000003a0: cd55 883b 8cd1 2eb9 0952 893c fe9a 79bc
000003b0: c08f b0bc f785 e1bc 42cf c73c 74f6 203c
000003c0: 1591 08bd 86b1 1abb 69c9 f1bc ac68 f4bc
000003d0: 3860 b33c 8743 91bc 33f3 ac3c 9eaa 073d
000003e0: f5b7 a73b c220 773c 4df1 fcbc 911a 77bc
000003f0: 7d27 feba 3fc8 f73b 784c 6a3c e532 9c3c
0.019064048 0.018236218 -0.0015798179 0.027064817 0.032670904 -0.02844392 0.0039935713 -0.034422155
0.0027089056 0.01210416 -0.0040203 0.029000198 0.012642283 -0.032134335 -0.0045535006 -0.016717697
-0.02936113 0.00016314228 -0.031411543 0.023161676 0.0055149924 0.0117601305 0.01993225 0.02905368
-0.01666351 0.0018868074 -0.034409642 0.0075792777 0.026164997 -0.022982778 0.020560468 -0.016834691
0.010010258 -0.01582604 0.005974703 -0.033616334 0.026284294 -0.007818784 0.032640092 -0.01340783
0.015274593 -0.01719827 -0.015343619 -0.009165419 0.016756805 0.013981647 0.020241184 -0.0059622847
0.004657567 0.021935131 -0.013811041 -0.011612039 0.02691843 -0.029819584 -0.017104952 -0.0195987
-0.0074321274 -0.025981365 0.0082399435 -0.024683163 -0.015545952 -0.034401745 0.02358915 -0.021663524
-0.004234502 -0.021088554 -0.0048899804 -0.006768785 -0.011505421 -0.0005050955 0.015041601 0.02910587
0.026217839 -0.026236948 -0.0040924074 -0.0548587 -0.0021560625 0.010800377 -0.0013919161 0.0030664986
0.035238266 -0.007165631 -0.032016996 -0.014640043 -0.0065855347 0.04367492 0.024950676 0.05101294
0.033005763 -0.009331551 -0.022549517 -0.024430666 -0.03408969 -0.0034073575 -0.01664458 -0.00434207
-0.0042206766 -0.016889913 -0.016588977 0.0057503213 0.005991799 0.007628267 0.014158153 -0.0032840697
0.0035196661 -0.0073987744 0.031880688 -9.143317e-05 0.025022294 -0.021190204 -0.027472965 0.0044744583
-0.032089278 0.020530868 0.020063207 0.028888913 0.032057423 0.011327752 0.013446285 -0.005571149
0.032168914 0.014882601 -0.008530892 -0.032746624 0.004000273 0.004101092 0.027222397 0.02510552
0.035444297 0.002238264 0.012283744 -0.027632985 0.0048282314 0.009062651 -0.021142934 -0.016462015
0.017961737 -0.017621512 -0.010232898 0.027145315 0.030617343 -0.02396225 -0.025268659 0.028000966
-0.009327696 0.0057469537 -0.021086486 -0.01318332 0.028104912 -0.024074689 0.012826436 0.0012265721
0.011141906 0.0014386834 -0.007870099 0.0133148935 0.009736376 -0.0033742513 0.023718014 0.031589363
0.019321457 -0.00940831 -0.02583262 -0.02443248 -0.017833777 -0.0028570285 0.018581137 0.01023774
0.03191378 -0.03471537 -0.019825988 0.0323878 -0.025180027 0.022803886 0.0007097099 -0.0037201168
0.025281882 0.027441299 -0.014460357 -0.0020395233 0.033347778 0.029633384 0.014237441 -0.021414198
-0.023864377 0.025685035 0.020563887 -0.003945652 0.034154024 0.02483674 -0.007543182 0.015677366
0.034471683 0.02052801 -0.01702986 -0.033222817 0.011024873 0.013410819 -0.03481857 0.0052535348
-0.021797538 0.014182532 -0.017266544 -0.026911668 0.03400078 0.021149507 -0.01429625 -0.025504552
0.023903133 -0.022078801 -0.010480226 -0.01575747 0.010537122 -0.0022568507 0.013140657 -0.019791134
0.026098093 0.0040899413 -0.024417643 -0.025828842 0.021485722 -0.015266715 0.009901051 0.0009082494
-0.016419875 0.034080092 -0.013364783 0.015211522 0.022252183 0.0108818 0.034249254 -0.024503896
0.004160619 -0.00016671995 0.01676275 -0.015234707 -0.02155292 -0.0275297 0.02439082 0.009824384
-0.033341486 -0.0023604347 -0.029514985 -0.029835068 0.021896467 -0.017732395 0.02111206 0.033121698
0.005118365 0.015083494 -0.03087678 -0.0150820175 -0.001939043 0.007561713 0.014300458 0.019067237
