output_x01/x2/epoch_75.pth (torch, 231327 bytes, 5 tensors)

conv1.weight f4 [64, 1, 9, 9]
00000000: 23e2 28bd b47f 053c b8cf 4cbd 92ce 473d
00000010: fdbf b3bd 5d02 b63d ac89 93bd 7f24 a3bd
00000020: 3aaa 6fbd fd86 4f3d 63b5 20bd c42c 3a3d
00000030: 15da bbbd 15c5 83bd 0f72 06bd a909 42bc
00000040: 093a a1bd b3d0 a43d a063 c0bc e69f 1c3d
00000050: 700f a73d 4c08 d33c d321 1f3d 0137 f03d
00000060: aaad 1bbd 9879 393d 3827 27bd ac0a ab3d
00000070: f205 b73d b7a8 d1bd acd8 d43d 14c2 853d
00000080: 9303 5f3d c9b7 603d 8b61 d83d 9018 8bbb
00000090: badf babd ff32 febc 92f0 9bbd 3630 9c3c
000000a0: 68e5 2cbc 0091 6bbd acd4 85bb eb1b ef3d
000000b0: 01bd e03a 550d ea3b d42e 4fbc 74ab b73c
000000c0: b7ae d93d eafc 8f3d 63ec 163d 3993 da3c
000000d0: 0b84 033d c98c 4a3d 8092 f4bb 9145 cebd
000000e0: 4979 86bd c3f8 d03d a4b5 053c f1ff c1bd
000000f0: b9e2 9c3c ab58 c63d 1c24 d0bd 56c5 84bd
00000100: ee91 1dbd b0ba 1d3c b50f 92bc be9d 23bc
00000110: 7027 e3bd 0eff 673d bf8c d93d dc46 943d
00000120: d13a 8cbd 6917 a9bd 3f3c 463d 983c 8b3b
00000130: 719a 433d 849b dcbd ab5b 87bb e71e aa3d
00000140: 0c14 613d 6521 8bbb 9c53 563c 5350 79bc
00000150: c8ac 7bbd 71f2 2fbd ceda 89bd 4302 b83d
00000160: cc6d 723d 9abf 073d 95b9 bbbd 23aa a63d
00000170: 28a0 033d 690a 9a3d 964d 2fbd b6c2 de3c
00000180: 1f8c df3d 8d09 9c3d 9b57 ae3d e6ae d2bc
00000190: a66f a73d b40e bebd 9b92 893b ab47 82bd
000001a0: 415d ccbc b69e e9bc c635 273c 89e2 cf3d
000001b0: e2a9 563d 4f56 73bb e339 9f3d 59ad 64bd
000001c0: 3a13 6e3d 2614 2abc f2ba a3bc 63b1 5b3c
000001d0: bbb9 b1bd 301f ca3b ba10 053d f2a5 c43d
000001e0: f1c3 ffbc 393a 223d 90ff dd3d c1f2 55bd
000001f0: a12e d33d 16f0 75bd da66 3d3d 2b1f 213d
00000200: dd80 e53c a731 b83d afcf 1abd e667 143d
00000210: 4493 8b3a a859 aabd a9b3 eebc cb7f 9fbd
00000220: d895 293d 7e68 4a3b 5915 413c 9186 d4bc
00000230: f484 cc3b cfcb 16bd 0805 f83c 74ab d83d
00000240: 54a5 643c 8a07 5cbd 39fb 8ebd 3d35 263c
00000250: b5a6 a0bd c9fd a2bd e76a 98bd 72ea 20bd
00000260: 12d9 c43b 5e23 a03d de16 303d 0339 b53d
00000270: 9848 85bd 02d3 3e3c 3f40 c9bd 0990 753d
00000280: 8f86 a23c 85b8 cd3d 65f1 96bd 83be c83d
00000290: 3a0e e23d 5c9a eb3d 1971 433d 7392 063e
000002a0: e6ee c83d a7c3 c33d 1fdb e63a 518f 9ebd
000002b0: 38ef 483c 70af 2f3d d797 52bd f80e 2bbd
000002c0: 19c4 a8bd 18a9 38bc 60a0 eb3d 1f1b dd3c
000002d0: 429c 363b 626f 813c 4ddc af3d 1d89 9fbd
000002e0: 3cfa 8cbd 13c5 c0bc 00ed 2ebd d90b a43d
000002f0: e9b8 bd3d f80e c1bd 45d0 a8bd 1292 bfbd
00000300: 45f5 853d b8f1 eb3d a3e6 92bd 53a6 0cbd
00000310: e013 793d dcd1 4bbd 7623 d43d 4abf 1a3d
00000320: 92ec 6bbc dfc1 023d c006 7c3d 6882 c5bc
00000330: bb46 91bd 99f7 b83c 7bed bb3c 4559 233b
00000340: 3407 17bc bcef b23d f789 75bc 962b 8e3a
00000350: 1cc2 693d 4b0e 4dbd 1d80 483d d396 5abc
00000360: 504b 1f3d 2e8b 9ebd 2ecf 1a3c 294b 9e3c
00000370: f387 b1bd 7c02 9fbd 3547 663d 5fd1 aabc
00000380: 374b 8c3d c615 dfbd 0329 7dbd 6dcd afbd
00000390: 989c 6b3d 4c79 773c 5b2f e4bb 566c ddbb
000003a0: 3663 a2bd cdf8 113d a01f cd3b 3974 98bd
000003b0: 556f 5a3d 21f7 243c 2273 b3bd c393 9a3d
000003c0: 1933 903d 8701 41bc f535 8abd cfc7 723b
000003d0: 426b aa3d b6b9 d03d e894 abbd 2a80 51bd
000003e0: 7b52 b03d 9a82 603d c369 893d d286 75bd
000003f0: 4b2a c43d d877 bdbd a49d a6bb 01e7 883b
-0.041231286 0.008148123 -0.050002784 0.048780985 -0.08776853 0.088871695 -0.07203993 -0.079659455
-0.05851195 0.050665844 -0.039235484 0.045452848 -0.09172455 -0.06434075 -0.03282362 -0.0118431235
-0.078723975 0.08047619 -0.023485005 0.03823843 0.08157241 0.025760792 0.038850617 0.11729241
-0.038007416 0.045281976 -0.040808886 0.08351645 0.08936681 -0.10237258 0.103928894 0.06531158
0.054446768 0.05486277 0.1056548 -0.0042448714 -0.09124704 -0.031030176 -0.076142445 0.019065958
-0.010552742 -0.05751133 -0.0040841904 0.11675247 0.0017146171 0.0071427026 -0.012645442 0.022420622
0.10629027 0.070306614 0.03684653 0.02668153 0.032108348 0.04945067 -0.007463753 -0.100718625
-0.06566102 0.102036975 0.008160982 -0.09472645 0.019151079 0.09684881 -0.10163137 -0.06482951
-0.038469248 0.009627029 -0.017829755 -0.009986339 -0.110915065 0.056639723 0.10622548 0.07240078
-0.06847156 -0.08256418 0.0483973 0.0042491667 0.04775471 -0.1077185 -0.0041308007 0.083066754
0.05495076 -0.0042459243 0.0130814575 -0.015216905 -0.061444074 -0.04295582 -0.06731187 0.089848064
0.05918674 0.03314171 -0.09166256 0.0813792 0.03213516 0.07521517 -0.0427986 0.027192455
0.10915398 0.07619009 0.08512803 -0.025718164 0.08175592 -0.09280148 0.004198385 -0.06361326
-0.02494681 -0.028518062 0.010205692 0.1015063 0.052408107 -0.0037130301 0.07774713 -0.05582938
0.058123805 -0.01038078 -0.019986603 0.0134089915 -0.086780034 0.0061682686 0.032486655 0.09601964
-0.031221362 0.039606307 0.1083976 -0.05223346 0.10311628 -0.060043417 0.046240665 0.039336365
0.028015548 0.089938454 -0.03779572 0.036231898 0.0010648747 -0.08317882 -0.029138403 -0.077880464
0.041402668 0.0030885036 0.011784875 -0.025943073 0.006241435 -0.03681546 0.030275837 0.10579577
0.013955433 -0.053718127 -0.06981511 0.010144529 -0.07844297 -0.07958562 -0.07442265 -0.039286084
0.006007322 0.07819246 0.042990558 0.08848765 -0.06507987 0.011646988 -0.09826707 0.059951816
0.019839553 0.1004496 -0.07370261 0.09801962 0.1103787 0.11504051 0.04771528 0.13141803
0.09811191 0.09558802 0.0017612911 -0.07742179 0.012264065 0.04289192 -0.051414337 -0.041762322
-0.08240528 -0.011270784 0.115051985 0.026990471 0.0027864133 0.015800182 0.08586941 -0.07789824
-0.06883666 -0.023531472 -0.04270649 0.08010072 0.092637844 -0.09426683 -0.08242849 -0.093540326
0.06540922 0.115207136 -0.07172897 -0.034338307 0.06080997 -0.049760684 0.10358326 0.037780084
-0.0143996645 0.03192317 0.061529875 -0.024110034 -0.07093569 0.022579001 0.022940388 0.0024925035
-0.009218026 0.08737132 -0.014986507 0.001084673 0.057069883 -0.05006246 0.048950303 -0.013341623
0.038890183 -0.0774139 0.00944881 0.019322949 -0.086685084 -0.07764146 0.056220252 -0.020851789
0.068502836 -0.10892825 -0.06180669 -0.08584104 0.057522386 0.015104603 -0.006963653 -0.0067572994
-0.07929079 0.035637666 0.0062598735 -0.07444043 0.05332883 0.010068686 -0.08762194 0.075477146
0.07040996 -0.011780149 -0.06748573 0.0037045365 0.08321239 0.101916716 -0.08378011 -0.051147617
0.08609482 0.05481205 0.067096256 -0.059943028 0.09578379 -0.09251374 -0.00508471 0.0041779284

conv1.bias f4 [64]
00000000: 2e62 a2bc 16ba 8bbd 911b 873c 6ebe 83bd
00000010: dd1b 2c3d d5c4 653a f93d 7a3d 5ee3 dd3c
00000020: a3b7 003e f065 5abd dbff 343c 3abe f43b
00000030: 15ca 9abd 0156 c23d 0366 9c3d 9826 853d
00000040: c7b2 04bd d30d 5bbd be24 6f3d 3216 273d
00000050: 9527 983c 8d3d 8bbb e003 95bd e10b 933d
00000060: 359c 30bd 3830 b03d d62d d2bb c458 01bd
00000070: 60b7 013d ae25 2d3d dfb4 c03d 3103 2fbc
00000080: 482a 4a3d 9529 7c3d dfeb 9bbb 4dc5 cdbd
00000090: 6c01 75bc be18 b43d cfbc 47bd aedc 123d
000000a0: 27f8 85bd 24d0 883b 5d01 db3d de9d 08bb
000000b0: a12e 1c3d 2a16 0e3d 3b51 c3bc 2347 1dbd
000000c0: ddd4 0dbd 3c6f e4bc 59a6 91bc d560 1c3c
000000d0: 352d 6c3d ec9e a53b c5c3 ec3b 11b3 17bc
000000e0: b317 c33d ff5f 46bd cbc3 8239 e626 b03d
000000f0: 034e ce3d 0422 b03c 7b4c 4ebd d65b b5bd
-0.019822206 -0.068226025 0.016492637 -0.06432806 0.04201876 0.0008764987 0.061094258 0.027085956
0.12570052 -0.05331987 0.011047329 0.007468966 -0.07558075 0.0948906 0.07636645 0.06501502
-0.032397058 -0.05347998 0.05838465 0.04079265 0.018573562 -0.004249281 -0.0727613 0.0718
-0.04311772 0.08602947 -0.0064141555 -0.031578794 0.03166902 0.042272262 0.094094984 -0.010681913
0.04935673 0.061563093 -0.0047583426 -0.10047398 -0.014953952 0.08793782 -0.048764046 0.035854988
-0.06541472 0.004175203 0.106936194 -0.002084605 0.038130406 0.034689106 -0.023842445 -0.03839792
-0.03462683 -0.027885072 -0.017779516 0.009544571 0.0576603 0.0050543454 0.007225486 -0.009259001
0.09526005 -0.048431393 0.0002494141 0.08601169 0.10073473 0.021500595 -0.050365906 -0.08855407

conv2.weight f4 [32, 64, 5, 5]
00000000: 31e0 05bb 2777 443c 642d 103c 2a7f a5bc
00000010: b697 c3bc f43f 62bc 7e88 68bc 5be8 6cbc
00000020: c9fa 30bd d717 3cbd c32f 973c 28c5 03bc
00000030: 352b c43b 459f d0bc 1fa0 42bc 1139 203b
00000040: 5623 883c 0140 083c 93b9 eeba 160f 183c
00000050: 7d8a 7a3c 669c cf3c f6c0 31bc ed7e 803c
00000060: 3503 34bc a74a c6bc 2de5 543c 046c 0f3c
00000070: e38f 17bc d9f9 90bc f2b7 6cbc e68f b83c
00000080: 0cca 543c 2763 ec3b bc55 c5bb e2b9 b13b
00000090: adf0 e7bb 4cb9 773c 2137 253b 2620 4b3c
000000a0: 9f56 cdbb 8de2 cc3a 2541 0cbc 10df 0c3c
000000b0: 709b 4abb ddc4 d4bc 08e1 453c 96f9 643c
000000c0: ea31 af3c 522f 4c3c 1d03 523b 3c7f 423d
000000d0: b944 c13c 8480 d43b f4f1 28bb 5276 51bc
000000e0: a26e 003d b329 203d e26d ff3b bdbd 25bc
000000f0: 339a febb f529 53bc 4986 a8bc 6b2b 80bb
00000100: 7b63 cebc 5c85 89bc 42e4 f53b 71c9 fb3b
00000110: 1b3e 8d3c 4a76 1f3c 1f11 663c 0511 e33c
00000120: b24c 253c d1a3 873b 40cd d33c 10e6 3e3c
00000130: 5570 66bc a0f5 41bc 9a8d 84bc 1546 7dbc
00000140: 96b4 a53b 4115 ba3c 17e1 84bc 90cc 8abc
00000150: 2bd9 a83c 1154 853c 6a18 6e3c 4832 61bc
00000160: c744 e33c a783 523c 0d46 01bb cbde e13c
00000170: 5050 973c aff5 b63c 6ad7 06bc 49fe b83b
00000180: 3601 81bc 84e9 f53b f78c a4bc 79d0 d9bc
00000190: c3f2 c0bc 6fc2 5cbc 7e71 913c 2727 e13c
000001a0: 4c51 bf3c 5c80 b4bb 943e 8f3b 7545 8b3c
000001b0: 21a9 c23c 2e8e 2c3c d8fe 8dbc 1717 41bc
000001c0: d82a 033d 2af1 9d3c 5cd2 e0bc 6554 61bc
000001d0: 8b57 973c 8860 03bc 2281 e03c 0a88 dc3c
000001e0: 89e3 89bc 2721 963b 74db a1bb c13b 9abc
000001f0: d0ef cd3c c911 6ebc ce9b 15bc e289 d03a
00000200: a0a2 d6bc b4f9 863d 9436 5fbc 9003 fa37
00000210: b913 1e3b 1599 39bc 4c7b 193c 7d12 5c3c
00000220: 183e b03b e274 273d eb42 f83c 50b4 c53c
00000230: 9340 673c 9cad 3d3c b755 473c fdf9 37ba
00000240: b03a 8e3c 4702 e83b 3a5d 8b3c 03f5 183c
00000250: 3a45 1dbc 7ae4 80ba 5575 8fbc 5868 59ba
00000260: 0dac 4cbc 9c71 c03c a26f d5bc c982 b03c
00000270: 5afe 923c fade 83bc 34fb 5ebc 3ae2 c53c
00000280: 177a 063b 9fa9 63bc 287d ea3b 3729 a4b9
00000290: 48f0 ab3b e445 5f3c 9b6d 90bc f076 30bc
000002a0: 7ac0 8e39 7921 b03c 932b a2bc a689 6ebc
000002b0: 4cd9 163c 018c 853c 3fe4 b8bb 6332 73bc
000002c0: b235 88bb 1153 07bd 0327 2f3c bff7 ac3c
000002d0: e048 403c 23c4 6e3b 64e2 c13c 0a47 b03c
000002e0: 0b8a 553c 2518 7ebd 5bf6 e53a e7b8 25bb
000002f0: 7482 d3bc 772a 51bc 2cef ddbc a2fe 7cbb
00000300: a6a2 533d 3fd8 753c 0e23 a4bc 7a2e 80bc
00000310: 53ad 88bd 826c f0ba 2c6a aebc adcd babc
00000320: 3d9e c0bc 3afc 22bd f5b3 0dbd d425 3e3c
00000330: b1c7 ba3a 7e71 bb3c 6ae0 da3b 518c 41bc
00000340: bd67 3e3c e03c a23b a444 09bc 8cee 943c
00000350: b285 823c fdb2 993b 8937 a3bc 2e22 ff3c
00000360: 9f4d 913c 33f1 803c e053 67bc 6109 fdbc
00000370: f050 f4bc a5fe 8339 7823 9dbb 7b68 c5bc
00000380: d434 ca3b a4fa 8fbc 3f85 71bc 498b a5bc
00000390: 3459 78bb 868f 9b3b 0c2e 1f3d 884c 883c
000003a0: cf7b f93c 3cd1 043d 64a5 843a abce 203c
000003b0: 8ee9 0e3c dc23 0a3c 7eae c33b be3a cbbb
000003c0: 5482 03bd 8dc0 9fbc e5f2 7ebc a391 0ebd
000003d0: 24a0 70bc a0e8 9a3c 595f 8dbb a585 a5bc
000003e0: ae39 d0bb 46a9 133c 6d9d 50bc cdc8 793c
000003f0: c09a 223c 5d16 95bc 928a f6bb cc97 55bd
-0.0020427818 0.011991299 0.0087998845 -0.020202238 -0.023876052 -0.013809193 -0.0141926985 -0.014459695
-0.043207917 -0.045921173 0.018455392 -0.008042611 0.005986596 -0.02546657 -0.011878996 0.0024448077
0.016618412 0.008316041 -0.0018213264 0.0092809405 0.015291807 0.025343131 -0.010849228 0.015685523
-0.010987093 -0.024205519 0.012994093 0.00875378 -0.009250614 -0.017697262 -0.014448153 0.022529554
0.012987625 0.0072139683 -0.006022183 0.0054237703 -0.0070782513 0.015119862 0.0025209861 0.0123978015
-0.0062664296 0.0015631482 -0.008560454 0.008598104 -0.0030915402 -0.025972778 0.012077577 0.013975522
0.021386106 0.012462454 0.0032045313 0.04748462 0.02359234 0.006485047 -0.002577898 -0.012784557
0.031355508 0.039102267 0.0077950815 -0.010116038 -0.007769847 -0.012888421 -0.020571845 -0.003911426
-0.02519392 -0.016787224 0.007504017 0.007683926 0.017241528 0.009732792 0.014042168 0.027718076
0.010089086 0.0041394015 0.025854707 0.011651531 -0.014064868 -0.011838347 -0.016180802 -0.015458603
0.005056928 0.022715213 -0.016220612 -0.016943246 0.020611366 0.016275438 0.014532188 -0.013744898
0.027742757 0.012848771 -0.0019725591 0.027572056 0.018470913 0.022333948 -0.00823007 0.0056455475
-0.015747648 0.007504644 -0.020086749 -0.026588665 -0.023553258 -0.013474091 0.017754313 0.02748449
0.023354195 -0.0055084657 0.0043714736 0.017000893 0.023762288 0.010531945 -0.017333433 -0.01178529
0.03202328 0.019280035 -0.027444057 -0.013753031 0.01847436 -0.00801862 0.027405325 0.026920337
-0.01683213 0.004581589 -0.004939491 -0.018827321 0.025138766 -0.0145306075 -0.009131385 0.0015910233
-0.026200593 0.06590596 -0.013623852 2.9803981e-05 0.0024120642 -0.0113280015 0.009367775 0.013432142
0.005378496 0.040882953 0.030305346 0.024133831 0.014114517 0.011577036 0.012166432 -0.0007018147
0.017361969 0.0070803496 0.017012227 0.009335759 -0.009599024 -0.0009833716 -0.017512003 -0.00082934415
-0.012492192 0.023491673 -0.026054207 0.021546738 0.01794355 -0.016097534 -0.013609696 0.024155725
0.0020519549 -0.013895421 0.007156033 -0.00031311225 0.0052471496 0.013627503 -0.017630389 -0.010770544
0.00027227757 0.021500336 -0.019796168 -0.014559185 0.009207081 0.01630211 -0.0056424434 -0.014843556
-0.0041567916 -0.033038203 0.010690453 0.021114228 0.011736125 0.0036432825 0.023667522 0.021518249
0.0130334 -0.062034745 0.0017544733 -0.0025287212 -0.02581904 -0.012766472 -0.027091585 -0.0038603921
0.051668786 0.01500517 -0.020036247 -0.015647162 -0.06673684 -0.0018342885 -0.021290861 -0.022803152
-0.023512954 -0.039791323 -0.03459545 0.011605699 0.0014250187 0.022881266 0.0066795843 -0.011813239
0.011621413 0.0049511045 -0.008378182 0.018180154 0.015932892 0.0046905265 -0.019923942 0.031144228
0.017737208 0.015740013 -0.014119118 -0.030888261 -0.02982375 0.00025175992 -0.004795488 -0.024097672
0.0061708484 -0.01757557 -0.014741241 -0.020208018 -0.0037894966 0.004747334 0.038862273 0.016638055
0.030454544 0.032426104 0.0010120091 0.0098148985 0.008722676 0.008431401 0.005971729 -0.006202071
-0.032106712 -0.019500995 -0.01556084 -0.03480686 -0.014686618 0.018909752 -0.004314345 -0.020205328
-0.006354532 0.009012526 -0.012732846 0.015245629 0.009924591 -0.01819914 -0.007523843 -0.052146718

conv2.bias f4 [32]
00000000: 8797 11bc c98f b9bc b18f 83ba c0b6 993c
00000010: a1ee dc3c 936d b43c 177b 2dbc ae2b 0e3c
00000020: cfd8 eb3b ff0b 4cbc aadc 9a39 0e51 183c
00000030: 36a8 d33c b6e5 6c3c 7840 9e39 34b4 68ba
00000040: 8e9b 69bc 21c0 93bc 55d9 6f3c f8b6 bc3c
00000050: 84e5 123d aeb5 a2bb 7efe 43bb b5e6 f23b
00000060: 347e 973c 59b9 ef3b ccb2 933c 82a2 5e3c
00000070: 1372 233c 2c2c 5ebc 46b9 623c 7f9e deb9
-0.008886225 -0.02265157 -0.001003733 0.0187639 0.026969256 0.022024905 -0.010588429 0.008677406
0.0071974765 -0.012454032 0.00029537576 0.009296669 0.025837045 0.014459064 0.0003018414 -0.000887695
-0.0142582785 -0.01803595 0.014639218 0.023036465 0.035863414 -0.0049655056 -0.0029906328 0.0074127563
0.018492796 0.0073157963 0.018029593 0.01358855 0.009975928 -0.013560336 0.013838118 -0.00042461228

conv3.weight f4 [1, 32, 5, 5]
00000000: a45a 9b3c 241a 953c 45e5 cfba 90e5 d83c
00000010: 06e2 033d c002 ecbc 1cd2 543b 4178 0dbd
00000020: be82 413b ee49 3a3c 5e2d 70bb 30cb ed3c
00000030: 3f34 4f3c 7d45 00bd 96e3 84bb 8a34 88bc
00000040: 2e34 eebc 9f26 9639 3654 00bd bee5 be3c
00000050: c83d a33b d98d 413c 2011 a23c 9155 eb3c
00000060: 1958 8abc be12 063b f81f 0bbd aba7 fe3b
00000070: 8985 d73c a1c3 b8bc 5def a83c 9268 87bc
00000080: 670b 263c 2c37 80bc 87b9 cd3b e701 09bd
00000090: 1af2 d83c 2155 ffbb 645f 063d 31f7 55bc
000000a0: d179 7c3c 3198 8abc 73ce 74bc 8195 11bc
000000b0: 20d0 8a3c 148d 663c 1981 a73c 089f bbbb
000000c0: 8323 9b3b f5aa b43c b447 62bc 6c40 3ebc
000000d0: 0a84 dc3c 3348 f4bc af1f 8cbc 748d a0bc
000000e0: 3489 f3bb dfd6 d4bc d400 073c 5834 cabc
000000f0: 73b4 7ebc d8e8 0cbd 083e c13c b477 b1bc
00000100: 94c1 8abb e7c1 acbc 213c a0bb afcc ddbb
00000110: 3c81 3cbc 6368 04ba 0c71 763c 6f6f ee3c
00000120: cbc6 d63c deee d6bc 9a19 86bb 7eea 49bd
00000130: bfb5 9e3b cd2a 7d3c 82be 1c3b 6a62 b03b
00000140: 691b 163d 40b3 b4bb fdaa 03bd c850 84bc
00000150: 0cc5 3abc 876a 183d 2a51 873c dd7a 2a3d
00000160: db27 e93c 3fec 27bc 4870 98bc edcd a4bc
00000170: 2f76 09bd 83fb d5bb 6ff2 8bbc 4f77 ecbb
00000180: 168e e7bb c614 84bc 326e 8cbc 5086 903b
00000190: fce0 c83b eaf9 fc3b e8cc 693c 2bab 4cbb
000001a0: e2ca 6c3b 17b0 edbb 08de 023d 276a 2fb7
000001b0: 3442 ce3c 7c83 acbc c144 e0bc 679e 943b
000001c0: d1e8 02bd a654 a93c 9b6f a53c c28d ed3c
000001d0: e18f 033d 7bb8 3a3c 0436 5e3c 64c2 b1bb
000001e0: fd39 043d ba39 763c 2204 0abc 4e9e 05bd
000001f0: a840 883b 9dbf 853b 3505 e33c 3ee4 c73c
00000200: 10aa 0b3d 7e25 453b a90d 473c 8cba ddbc
00000210: 69d9 b83b fb00 1a3c 0fa4 a4bc 85ae 84bc
00000220: 976f 963c cbae 8cbc 2e40 22bc d01b e33c
00000230: 6fc3 f63c e9c4 c8bc 19e5 d6bc d84f df3c
00000240: e195 10bc 3c11 a83b a97d adbc 4319 5bbc
00000250: 207a e63c 46cf bdbc 5dd5 543c de48 bb3a
00000260: 48ff 373c 4c25 d03a 7e38 fcbb be9b 5b3c
00000270: a86c 213c cfb8 58bb e9f7 c23c 7ac6 013d
00000280: 29d5 9e3c d33d 19bc 95d6 d2bc 8beb c6bc
00000290: 5db8 90bc d03a 35bb 9dc6 983c 35a4 273c
000002a0: aee5 023d 477e 0dbd 02c3 a1bc 9404 053d
000002b0: 81be cdbc 2964 bb3c 8371 653a 3b6d 70bb
000002c0: 4589 cf3c 7311 e13c 1bb7 6bbc 55ab 00bb
000002d0: cac0 083d 6010 f33c 9a8b 693c 51fe aebc
000002e0: 2b04 c3bc 0596 d23c 175b a83c cb8d 82bb
000002f0: cef5 0b3d c8aa cb3c 074f f6bb c66a 803c
00000300: 4f1c 0d3d ea59 a83c 9c67 8bbc f1dd 07bd
00000310: d5f3 343c 48c0 5b3c e76b 0ebd 73ce ad3b
00000320: c090 b2bc da5d 683c 9172 8dbc dc75 dcbc
00000330: 6744 0b3d bb41 ad3c d23a 6abc ecee d0bc
00000340: 81d0 c33c 9ade b4bc 41b5 2bbc cf15 81bc
00000350: e5a3 2c3c ace7 13bb e94b 573c 0421 a2bc
00000360: abcb d53c ea04 863b 8207 c8bc 0297 d3bc
00000370: d302 b03c 3e21 7abc 0538 223c 9617 6e3a
00000380: f982 86bc 43b5 0c3d f283 56bc eb06 793c
00000390: f9c7 b73c af76 373c 00b8 0b3d 280b c7bc
000003a0: 6ec3 843b fbb7 56b9 541b 8c3c 3e1c 75bc
000003b0: b736 acbc ccb9 debc 3201 c93c b151 253c
000003c0: 5227 07bd fc83 03bb e230 eebc e416 f1bc
000003d0: 09b1 b43c 0be3 90bc 415a ad3c 40d9 073d
000003e0: ef2c b03b f4e7 7b3c 4df1 fcbc 911a 77bc
000003f0: 7d27 feba 3fc8 f73b 784c 6a3c e532 9c3c
0.01896412 0.018200941 -0.0015861174 0.026476651 0.032197975 -0.028809905 0.0032473868 -0.03453851
0.0029527391 0.011370165 -0.0036648135 0.029027551 0.012646734 -0.03131627 -0.0040554507 -0.016626615
-0.029077616 0.00028639004 -0.03133031 0.023302909 0.00498173 0.011813604 0.019783556 0.028727325
-0.016887711 0.0020457949 -0.033966035 0.0077714524 0.026308792 -0.02255422 0.02062195 -0.016529355
0.0101345545 -0.015651308 0.00627822 -0.03344908 0.02648263 -0.0077921306 0.032805815 -0.013059423
0.015409903 -0.016918274 -0.014941799 -0.008885742 0.016944945 0.014071722 0.0204473 -0.005725745
0.004734458 0.022054175 -0.013811041 -0.011612039 0.02691843 -0.029819584 -0.017104952 -0.0195987
-0.0074321274 -0.025981365 0.0082399435 -0.024683163 -0.015545952 -0.034401745 0.02358915 -0.021663524
-0.004234502 -0.021088554 -0.0048899804 -0.006768785 -0.011505421 -0.0005050955 0.015041601 0.02910587
0.026217839 -0.026236948 -0.0040924074 -0.049295895 0.004843443 0.015452099 0.0023917262 0.0053828256
0.036647234 -0.0055145323 -0.03214549 -0.0161518 -0.011399519 0.037210967 0.016518194 0.041621078
0.028461387 -0.010249197 -0.018608227 -0.020117724 -0.033559974 -0.0065302267 -0.017083375 -0.007216371
-0.0070664985 -0.016123187 -0.017142389 0.0044105425 0.006130336 0.0077202218 0.014270045 -0.0031229954
0.003613167 -0.0072536576 0.031950027 -1.0455528e-05 0.025178052 -0.02105879 -0.027376534 0.0045354846
-0.031960312 0.020670246 0.02019482 0.02899826 0.032119635 0.011396523 0.013562683 -0.0054247845
0.032281864 0.0150284115 -0.008423837 -0.032621674 0.0041580983 0.00408168 0.027712444 0.024400827
0.03409773 0.0030082162 0.012149253 -0.027066492 0.0056411517 0.009399648 -0.02009776 -0.016196499
0.018363757 -0.017173192 -0.009902997 0.027723223 0.030122487 -0.024507957 -0.02623229 0.027259752
-0.008824796 0.0051290076 -0.021178083 -0.013372722 0.028134406 -0.023170125 0.012990323 0.0014288684
0.011230297 0.0015880256 -0.007697164 0.013403831 0.009852566 -0.003306914 0.023799853 0.031683423
0.019388752 -0.009353119 -0.025737086 -0.024282238 -0.017666036 -0.0027653463 0.018649394 0.010232021
0.03195732 -0.034544256 -0.019746307 0.03247507 -0.025115253 0.022874909 0.00087525713 -0.00366862
0.02533401 0.02747414 -0.014386917 -0.0019633372 0.033386983 0.029670894 0.014254475 -0.021361502
-0.023805698 0.0257063 0.020551248 -0.003984188 0.034169964 0.024861708 -0.007516745 0.015675914
0.034450825 0.020550687 -0.017017178 -0.033170644 0.011044462 0.013412543 -0.034770872 0.0053041517
-0.021797538 0.014182532 -0.017266544 -0.026911668 0.03400078 0.021149507 -0.01429625 -0.025504552
0.023903133 -0.022078801 -0.010480226 -0.01575747 0.010537122 -0.0022568507 0.013140657 -0.019791134
0.026098093 0.0040899413 -0.024417643 -0.025828842 0.021485722 -0.015266715 0.009901051 0.0009082494
-0.016419875 0.034352552 -0.013092982 0.015199403 0.022434222 0.01119773 0.034111023 -0.024297312
0.0040516173 -0.00020477168 0.017102875 -0.014960347 -0.021022184 -0.027188204 0.024536703 0.0100902775
-0.032996483 -0.0020067682 -0.029076044 -0.02942986 0.022057073 -0.017686388 0.0211612 0.03316617
0.0053764503 0.015375126 -0.03087678 -0.0150820175 -0.001939043 0.007561713 0.014300458 0.019067237
