output_x01/x2/epoch_226.pth (torch, 231335 bytes, 5 tensors)

conv1.weight f4 [64, 1, 9, 9]
00000000: 0da4 40bd 04a8 113c 8207 46bd a2bf 783d
00000010: 3704 9dbd 2d7e c53d 5fac 88bd 59e4 9bbd
00000020: 1868 84bd 808f 283d 6ad8 2dbd a20a 3b3d
00000030: 25ad adbd d076 75bd 0efc fbbc 7026 45bc
00000040: fa9a a4bd 5c30 973d 1cbc 26bd 6756 e13c
00000050: 4218 933d 1d21 d53c 84f6 363d 3feb fb3d
00000060: f378 06bd 598e 4a3d 203f 34bd d704 9a3d
00000070: 0b13 a33d 188d e9bd c959 da3d c78a 903d
00000080: 85e8 5c3d 0acd 703d 2290 e63d 5a0f 02bc
00000090: 1f59 c9bd 2a37 28bd 7a90 aebd 216f c43c
000000a0: b3ca 58bc bad9 8ebd e0ac f4bb 7254 f43d
000000b0: 2753 c2ba 0dbf 2e3b e1f9 b9bc 1037 533c
000000c0: 243c df3d 37d4 853d a6e9 c53c 85c8 c83c
000000d0: 2099 183d 90c5 4b3d 0950 753b e6dc d0bd
000000e0: 4ae5 8abd c4ef dd3d 534e 393b 0739 debd
000000f0: 773b 893c b9cc cf3d 2cab d5bd 6743 4bbd
00000100: 23a6 07bd dad4 7b3c a51b 06bc 51bf 08bc
00000110: 27fe dfbd 797f 853d b942 f33d eace 9c3d
00000120: d352 6dbd 79ed a3bd 2e9d 443d e788 183b
00000130: 3d4d 323d d676 ddbd e618 97bb cf69 af3d
00000140: 1bbd 5f3d e553 c23b d4bd 3d3c 3741 55bc
00000150: 989d 93bd a0ed 49bd 505c cfbd c131 ba3d
00000160: 9c16 543d 1e64 c33c 955e c5bd ce84 9d3d
00000170: e369 0f3d f5d4 783d 3a3e 47bd 195c c73b
00000180: 4f61 f83d aea4 b33d 5645 a03d b0dd 04bd
00000190: 11a0 a03d 87eb bdbd a66a a9bc 8727 82bd
000001a0: fe06 08bd d302 98bc 83ce a03c 6401 d13d
000001b0: 12b9 313d 9c8e 6abb 3174 bf3d e483 87bd
000001c0: 5211 9c3d f026 9ebb 6e9c 8cbc bd3d 213c
000001d0: 72dd bdbd 72dd af3a 9adf 013d 71a4 db3d
000001e0: 1b51 58bd fb1a 3b3d 117e dd3d 3be0 65bd
000001f0: c7f2 c13d 5767 93bd d4b1 4b3d c320 1a3d
00000200: 42c5 0f3d f1f4 903d 512b ecbc 444e 233d
00000210: b515 8d3b 9076 a2bd 22fc febc be8a a7bd
00000220: 68dc d43c caa8 813b 892e 2cbb e5c5 a7bc
00000230: 1fc9 17ba 8721 1bbd 6701 073d 6488 c93d
00000240: 6cc6 893c aa2e 88bd c188 82bd 3b18 1b36
00000250: ed2a aabd 99f0 c0bd 45b9 a5bd 747f 30bd
00000260: f1ed 10bb 27a4 c83d ea0d 413d a1fc e33d
00000270: 063b 74bd 4f9a 5a3c 7555 d2bd 6872 913d
00000280: a19b d93c caf0 d33d 549f 9ebd d234 c53d
00000290: 6373 e93d d91d 003e 62bb 783d cf77 093e
000002a0: 65f3 b93d 56f4 aa3d fce4 07bc 7927 b8bd
000002b0: 1a57 bab9 8031 003d 1de6 86bd 493f 6cbd
000002c0: a54e cbbd ac86 f0bc e3b0 bc3d cae8 2d3a
000002d0: 727a b13b e3fc 863c e264 b03d a329 a5bd
000002e0: 289a 94bd f847 04bd b3aa 5abd 026a 873d
000002f0: 24d8 913d e089 a3bd 7a7f 95bd abe2 b3bd
00000300: 63b0 933d 7c9c 033e 95e5 89bd 66f9 16bd
00000310: 1833 5d3d b870 81bd 8a17 d03d ad0d ec3c
00000320: 2945 e2bc 820f c63c 225a 8a3d a476 bebc
00000330: b524 9cbd 78ab 653c 9dff 063c 20b5 9cbb
00000340: 7330 78bc 0af3 a73d 026b bcbc 4216 be3a
00000350: 493d 873d e03a 31bd 7ef5 3f3d 285e d9bc
00000360: f8b6 433d 82e5 8bbd d337 b73c 3bef f23c
00000370: c58d a7bd 1067 95bd ff2d 693d a408 e0bc
00000380: 63fa 693d e876 babd 1f87 42bd abb1 94bd
00000390: c9cf 8d3d a1af c43c 2b97 8bbb 655b 36bc
000003a0: c0cd acbd aa41 193d 71b8 833c 20b4 80bd
000003b0: 9255 823d 5ca0 bd3b 7ac6 c9bd d305 8c3d
000003c0: b909 7c3d b93d 99bc c054 80bd 33d2 c33a
000003d0: 9203 a43d ccd2 c63d 2a20 b7bd d552 6fbd
000003e0: ca11 a63d 086e 4e3d ae03 6f3d d7e3 87bd
000003f0: c98b c23d 8ba1 c9bd 815f 58bc 6f8f 3abb
-0.04703145 0.008890156 -0.048347004 0.06072963 -0.076668195 0.09643207 -0.06673502 -0.07611913
-0.06465167 0.041152477 -0.042442717 0.045664437 -0.0848029 -0.05992776 -0.030759837 -0.01203309
-0.08037372 0.07382271 -0.04070674 0.02750702 0.07182361 0.026016766 0.04466869 0.12300729
-0.03283019 0.04945216 -0.044005513 0.075204544 0.079626165 -0.114038646 0.106616564 0.0705772
0.053932685 0.05878929 0.1125796 -0.00793823 -0.098314516 -0.041068234 -0.085236505 0.023978772
-0.013231921 -0.06975122 -0.0074668974 0.11930169 -0.0014825807 0.0026664168 -0.02270216 0.012891546
0.10900143 0.065346174 0.024159264 0.024509678 0.037255406 0.049748957 0.0037431738 -0.10198383
-0.06782015 0.10836747 0.0028275445 -0.10850721 0.016751988 0.101464696 -0.10433039 -0.049624827
-0.033117425 0.015370572 -0.008185302 -0.008346395 -0.109371476 0.06518454 0.11877961 0.07656653
-0.057940315 -0.08004279 0.04800146 0.002327496 0.04353069 -0.10813682 -0.0046111224 0.08565103
0.054623704 0.005930411 0.011580903 -0.013016037 -0.07207793 -0.049298882 -0.10125029 0.09091521
0.051779374 0.02385145 -0.09637181 0.07691346 0.03501309 0.060749967 -0.04864333 0.006083977
0.12127935 0.087716445 0.07825725 -0.03243798 0.0784303 -0.09273439 -0.020680737 -0.063551955
-0.033209793 -0.018556034 0.019629722 0.10205343 0.043389387 -0.0035790568 0.093483336 -0.06616953
0.07620491 -0.004826419 -0.017164435 0.00984138 -0.09270753 0.0013417436 0.031707384 0.10724724
-0.052811723 0.045680027 0.10815061 -0.056122046 0.09470134 -0.07197445 0.049730137 0.0376289
0.03510023 0.07077969 -0.028829249 0.03986956 0.004305566 -0.0793277 -0.031126086 -0.0818076
0.025984004 0.003956889 -0.0026272854 -0.020480106 -0.0005790162 -0.03787377 0.03296032 0.098404676
0.016818248 -0.066495255 -0.0637374 2.3110904e-06 -0.08308969 -0.0942089 -0.08091978 -0.0430903
-0.002211448 0.097969346 0.04713241 0.111321695 -0.0596266 0.013342454 -0.10270206 0.071018994
0.026563467 0.10348661 -0.07745233 0.09629215 0.113989614 0.12511386 0.060725577 0.1342461
0.09079627 0.08347385 -0.00829434 -0.08991904 -0.0003554158 0.031297207 -0.065868594 -0.05767754
-0.0992711 -0.029361092 0.09213426 0.00066341145 0.005416208 0.016478008 0.08612992 -0.08064582
-0.072559655 -0.032295197 -0.053385448 0.06612016 0.07121304 -0.07985282 -0.07299705 -0.08783468
0.072113775 0.12852663 -0.067332424 -0.03685894 0.054003805 -0.063203275 0.1016074 0.028815115
-0.027620869 0.024177317 0.06755473 -0.023249932 -0.07624189 0.014017932 0.008239654 -0.004782334
-0.01514827 0.08200653 -0.023000244 0.0014502483 0.06603486 -0.04326904 0.04686498 -0.026534155
0.047781914 -0.068308845 0.022365486 0.02965509 -0.08181337 -0.07295048 0.05692863 -0.02734787
0.057123553 -0.09104711 -0.047492143 -0.0726045 0.069243975 0.024009528 -0.004259964 -0.011130189
-0.08437681 0.037416138 0.01607916 -0.06284356 0.063639775 0.0057869386 -0.098523095 0.068370484
0.06153271 -0.01870619 -0.06266165 0.0014939964 0.080084935 0.09708175 -0.08941682 -0.058428604
0.08108862 0.050397903 0.05835312 -0.06635254 0.09499318 -0.09845265 -0.013206364 -0.002846684

conv1.bias f4 [64]
00000000: 22bf 10bd 6227 37bd 0e64 343c 48bb 7dbd
00000010: cf12 343d 454a e33c 204b 7b3d 57ca eaba
00000020: 03ba 013e b179 ddbc 5657 2a3c 03e7 c23a
00000030: 3ea8 66bd 5ea6 0b3e efab 943d 53b2 8b3d
00000040: 7cca d4bc 7bae 8bbd 45e8 9b3d 9abe 343d
00000050: ed3a aa3c de0a 80bc 9f09 92bd de92 c43d
00000060: 4402 b9bc 6b67 c03d a702 7abb 32a9 e0bc
00000070: 10d8 f33c 8565 413d 1d43 c83d d08c 033c
00000080: c443 343d d1da 943d 8b62 5cbc d430 cbbd
00000090: 372e 64bc 25f9 ab3d 3c6f e8bc 7a0f 273d
000000a0: e16f dfbd 9623 0bbd dec8 e43d 5244 263d
000000b0: 89fe 083d cc59 153d 1c7e ca3a 50de d63c
000000c0: b595 313c 568b b8bc ebd8 96bc a998 f43b
000000d0: a54d 8f3d 67c2 f239 9ca2 0a3b 9253 9aba
000000e0: c184 fd3d 882d 3abd 2a9c da3b 3ba9 183e
000000f0: a810 f73d 7387 233d 8841 e5bc ac9f 9ebd
-0.03533853 -0.044715293 0.011010183 -0.061946183 0.04396325 0.027745375 0.06135094 -0.0017913085
0.12668614 -0.027035566 0.010396799 0.0014869872 -0.056312792 0.13637683 0.07259356 0.06821122
-0.025975458 -0.06820389 0.07612661 0.044127084 0.020780051 -0.015630182 -0.07130741 0.09598325
-0.022584088 0.093947254 -0.0038148554 -0.027424429 0.029766113 0.047215957 0.09778426 0.008029178
0.04400994 0.072682984 -0.013451229 -0.099214226 -0.013927034 0.0839713 -0.028373353 0.040786244
-0.10910011 -0.033969484 0.11171125 0.0405925 0.03344587 0.03646259 0.001544896 0.026229054
0.010838916 -0.022527378 -0.018413981 0.0074644876 0.069972314 0.00046302678 0.0021154052 -0.0011774173
0.123788364 -0.04545358 0.0066714482 0.14908306 0.12063724 0.039924096 -0.02798535 -0.07745299

conv2.weight f4 [32, 64, 5, 5]
00000000: 71dd 9b3a 3f2e 9fba 7ca5 b23c 1179 aa3b
00000010: a463 82bc 0e4f aebc 0a44 e0bc 16f6 89bc
00000020: 2db9 d4bc eb4a 2dbd 8514 da3c 46b5 e63b
00000030: 06b9 7bbb eec2 e6bc 8ccf 90bc 44a1 beba
00000040: 9b8d 903c 8a77 14bc f5c1 10bc 5673 fb3b
00000050: 868d 283c 4bd7 b43c 827b 31bc abb9 f53c
00000060: 46dc 8a3c 7b07 74bc ba46 b43c cf2f 863c
00000070: c46f 40b8 302a d7bc 8132 8abc 2f4c 183c
00000080: 8eda 9abb 44bd 59ba a26b 85bb d750 833b
00000090: 95f1 4cbc c306 213b 1d0e 0bbc 03dc 853c
000000a0: 797d eb39 3c4a 603c 4ec9 feb9 b3d5 0a3c
000000b0: d6ab cdbb a842 0fbd 0dd1 373c 9eb9 9f3c
000000c0: 6183 dd3c 6167 843c aee8 beb9 05e1 223d
000000d0: ead8 f43c ee61 c63c 5ed6 c43a be39 813c
000000e0: cad9 1a3d 3e1c 513d c372 b53c 5e83 0739
000000f0: 34a0 543c fb9f ebbb ed07 fbbc 6a87 a1bc
00000100: 544a 27bd 30ef abbc 4bc1 293c 164a 853b
00000110: 5a13 f13b 909c 3d3c e689 c2b9 144a a63c
00000120: e839 803b 74f9 96bb d0f9 a53c be55 c23b
00000130: ca70 c8bc 41c3 73bc e495 c9bc a35b 0ebd
00000140: e1b1 27ba 5fc4 6d3c 0f2f aabc 90a1 87bc
00000150: 0aba 903c 763c 7b3c 60f7 493c 3594 4ebc
00000160: f114 193d 3a1b 843c 2ec5 fcbb b5e2 e33c
00000170: 24d9 ad3c 7d46 c03c e2dd bbbb c649 16bc
00000180: a0c4 ccbc 3a2b ba3a b194 0cbd 960b 02bd
00000190: 42ee 01bd 8bf9 b3bc a374 893c 935e 293d
000001a0: c946 023d 6ea1 8cbc 1f0b a93b b9ca ad3c
000001b0: aff5 e53c e970 513c 15e8 d1bc 339d 39bc
000001c0: 0da4 023d 64fd a63c 72bf 0abd cc31 7dbc
000001d0: 2fde b43c 13f9 7dbc e1be a13c 77bc 633c
000001e0: 2b62 92bc 0539 c83b d700 fcba cd1a 8dbc
000001f0: 80f4 c33c dafb 0abd 2136 10bd 0e4b 153d
00000200: f087 77bc b3de dd3d 60c7 bcb9 0314 043b
00000210: 014b 64bb f105 1bbd 21b6 aabc efff 153d
00000220: 07d4 e03c 5730 863d 7cd0 5e3d 7a65 1c3d
00000230: e6d1 79ba 2a07 2c3c 149f a13a b273 c5ba
00000240: 9485 393c 124e dabc f203 4d3c 343a 3cbc
00000250: 0772 9cbc 8307 08bd b069 1dbc b3ae 59bb
00000260: 0b32 2abc 008a da3c 7683 1cbd 548f ce3c
00000270: 3abb 4d3c 21c6 94bc 3ca3 41bc 53a9 8a3c
00000280: f600 143c 3a60 45bc 8208 0d3c 587d 803b
00000290: 80e5 0a3b 1fef ed3b 286a bfbc 0e64 2ebc
000002a0: 71a2 e239 1803 c83c dab2 eebc 9bb6 9cbc
000002b0: dad1 453c e8c1 a63c 6463 f33b d5c4 953c
000002c0: 817b efbc 7e53 4fbc 529b 0d3c 2635 80bd
000002d0: 7423 4f3c 9276 9ebd 74e5 8dbc be63 7d3d
000002e0: 50ea a2bb fe36 80bd 3f75 74bd c2ad 85bd
000002f0: 45b8 ccbc d360 a4bc 7d4a ffbc 54e4 443d
00000300: e07c bb3d 95b1 2f3d a923 4abb 0e0b e6bd
00000310: c6be cabd 635f a5bc 8987 08bd 72e2 23bd
00000320: e07a edbc 973d 2bbd 4a54 24bd 37ab 993b
00000330: f836 41bc 4c3e 323c 30e1 423b 715a 37bc
00000340: 1c45 4e3c d061 3c39 af80 57bc 5b98 853c
00000350: 993b b43c 6e64 343c 8620 9dbc c808 033d
00000360: f84f 833c 71c3 a73c 312d 19bc 9888 00bd
00000370: a537 d5bc 0c74 29bb 765c fcbb 6ffa b0bc
00000380: 8eb4 343c 3e53 03bc bddb 213a 4d2c 2dbc
00000390: c3b7 07bc fe9a 0dbc 0a48 c73c a982 603c
000003a0: 123a 173d 2399 1b3d aea9 65bc 03e3 dabb
000003b0: 79d8 4c3b a25f 973b 0aa4 603c 2cba e33a
000003c0: b686 39bd 733c 8fbc 2f3c 73bc 5a10 48bd
000003d0: 7564 42bc 21c6 9e3b 8853 7e3b a282 a5bb
000003e0: 7595 c3bc 544c b3bb 38cb 73bc 8d47 8d3c
000003f0: fa93 183c 72e9 89bc b25a 4abc db79 4ebd
0.0011891556 -0.001214452 0.021807425 0.0052024205 -0.015916653 -0.02127793 -0.027376194 -0.016840976
-0.025967205 -0.042307775 0.026621113 0.0070406524 -0.0038409843 -0.028169122 -0.017677091 -0.001454391
0.017645648 -0.009061703 -0.008835305 0.007673661 0.010287648 0.022075316 -0.010832669 0.02999576
0.016950738 -0.014894362 0.022006381 0.016380219 -4.5880457e-05 -0.026265234 -0.016869785 0.009295507
-0.004725761 -0.0008306096 -0.0040716687 0.0040074396 -0.0125087695 0.002457068 -0.008487252 0.016340261
0.00044916177 0.013689574 -0.0004859664 0.008473801 -0.006276588 -0.034975678 0.011219275 0.019497689
0.027040185 0.016162576 -0.00036412984 0.039765377 0.029888589 0.024216618 0.00150175 0.015774604
0.037805356 0.051052324 0.02214945 0.00012923541 0.0129776485 -0.007190702 -0.030643428 -0.01971789
-0.04084237 -0.020988077 0.010361026 0.0040676696 0.007357043 0.011572972 -0.00037105306 0.020298995
0.003913153 -0.004607374 0.020260721 0.0059306314 -0.024467845 -0.014878095 -0.024607606 -0.03475536
-0.00063970505 0.014512151 -0.020774392 -0.016556531 0.017666835 0.015334239 0.012327045 -0.0126085775
0.037373487 0.016126264 -0.0077139353 0.027818063 0.021221705 0.023471111 -0.0057332376 -0.009172862
-0.024996102 0.0014203556 -0.03432149 -0.03174933 -0.03172136 -0.021969577 0.01677925 0.04134996
0.031805787 -0.01716682 0.0051587964 0.02121483 0.028071253 0.012783268 -0.02562336 -0.011328983
0.031894732 0.020384498 -0.033873983 -0.015453767 0.022078602 -0.015501278 0.019744338 0.013899914
-0.017869076 0.006110313 -0.0019226325 -0.017224694 0.023920298 -0.03393159 -0.03520787 0.03644853
-0.015108094 0.10833492 -0.000360067 0.002015353 -0.0034834745 -0.037847463 -0.020838799 0.03662103
0.027444853 0.06552189 0.054398045 0.038182713 -0.00095298735 0.010499755 0.0012330734 -0.0015064387
0.011323351 -0.026648555 0.012513148 -0.011488486 -0.019097341 -0.03321029 -0.009607717 -0.00332157
-0.010387908 0.026677132 -0.03821131 0.025214829 0.012556845 -0.018160881 -0.011818703 0.016926443
0.009033432 -0.012046868 0.008607985 0.003921192 0.0021193922 0.0072611715 -0.023366049 -0.010643972
0.00043227107 0.024415538 -0.029138017 -0.019130042 0.012073958 0.020356134 0.00742762 0.018282333
-0.029233696 -0.012654183 0.008642988 -0.06260137 0.01264273 -0.07737459 -0.017321326 0.0618627
-0.00497178 -0.06260489 -0.059682127 -0.06527282 -0.02499021 -0.0200657 -0.031163448 0.048069313
0.091546774 0.042893965 -0.003084401 -0.11232577 -0.098996684 -0.020187085 -0.03333238 -0.040010877
-0.028989255 -0.041806784 -0.040119447 0.0046896 -0.011792891 0.010879111 0.0029736273 -0.0111909965
0.012589719 0.00017965515 -0.013153239 0.016308 0.022001075 0.011010272 -0.019180547 0.031990796
0.016029343 0.020478936 -0.009349153 -0.031380266 -0.02602751 -0.0025856523 -0.007701452 -0.021603791
0.011029376 -0.008015452 0.0006174406 -0.010569644 -0.008283558 -0.00864291 0.024326343 0.013703027
0.036920615 0.03798784 -0.014017506 -0.006679894 0.0031256957 0.0046195546 0.013710985 0.0017374209
-0.045294486 -0.01748488 -0.014845892 -0.04884372 -0.011864771 0.004845396 0.0038807113 -0.005050973
-0.023874978 -0.0054717455 -0.014879994 0.017246032 0.009312624 -0.016834948 -0.012350725 -0.05040918

conv2.bias f4 [32]
00000000: 4abf dcbb a8a0 f8bc e594 1dbb c78d c13c
00000010: 9215 d33c 4f90 b33c af37 42bc 5209 113c
00000020: cfd8 eb3b f772 4bbc ce27 6fba 618c 343c
00000030: 8793 d03c 7d0c 943c 1d20 863c ae1b 893c
00000040: d0d8 6cbc 968f 9cbc ae5e 903c 5aec ab3c
00000050: 884a 403d b109 51bc cebf 4abc 96b0 8a3c
00000060: f13a 543c ef26 493c 16fd 953c c8a0 e33c
00000070: 4e78 173c 2c2c 5ebc c62b 483c 6d62 16ba
-0.0067366706 -0.030350044 -0.0024045047 0.023627175 0.025767121 0.021919398 -0.011854096 0.00885232
0.0071974765 -0.0124175465 -0.0009123058 0.011019797 0.025460972 0.018072361 0.016372735 0.016736832
-0.014455989 -0.019111436 0.017623272 0.020986725 0.04694608 -0.012758658 -0.012374831 0.016929906
0.012953506 0.012277349 0.018309157 0.027786627 0.0092449915 -0.013560336 0.012217468 -0.00057367125

conv3.weight f4 [1, 32, 5, 5]
00000000: 6271 973c 0790 973c 1d7e b3ba 351c ef3c
00000010: 5393 0d3d df74 d7bc 33f4 ea3b 86a5 06bd
00000020: ff51 5b3b 5860 6e3c 413a adbb 21bc e33c
00000030: a7d9 413c 5c77 12bd 9bf1 f6bb 5ea8 8fbc
00000040: 3cac fbbc d135 38ba 08a8 06bd b2eb b53c
00000050: 8e04 fb3b 3af4 5f3c 573c b93c 8677 fe3c
00000060: bb09 6fbc c7e8 9e3a 06cd 15bd acc4 f23b
00000070: 2f1f d83c 60fc c8bc 7339 a53c ad05 9abc
00000080: 9402 273c 891a 83bc 6be5 a33b 5d00 0cbd
00000090: 1169 ca3c 3416 0cbc a7de 003d 0344 7ebc
000000a0: 92e2 803c f57b 9abc 4e4d 8fbc f64e 1abc
000000b0: 6d1e 803c bb73 743c 06b1 a23c 5fdb debb
000000c0: f35e 9c3b 74cd a93c b447 62bc 6c40 3ebc
000000d0: 0a84 dc3c 3348 f4bc af1f 8cbc 748d a0bc
000000e0: 3489 f3bb dfd6 d4bc d400 073c 5834 cabc
000000f0: 5e9c 7ebc 9ced 0cbd 4f09 c13c b477 b1bc
00000100: 94c1 8abb fedc acbc 1b3b a1bb 1788 dcbb
00000110: 3c81 3cbc 6368 04ba 8533 763c 0d37 ee3c
00000120: f7fc d63c deee d6bc 9a19 86bb bf00 6fbd
00000130: 8a2c a8bc 8d69 c7bb d977 18bc c8dc 6abb
00000140: 0f43 ff3c a87b d7bb a394 04bd c71e fbbb
00000150: 2099 8f3c d734 473d b375 263d cb07 983d
00000160: 369f 1c3d accf c2bb 92ec f9bc c9bc 2fbd
00000170: 0fc8 10bd d30d 773a f026 a2bc 613c a43b
00000180: d569 a739 c460 aebc 9ce7 87bc 406e 9f3b
00000190: ccdb b73b 6448 f13b 4446 643c 7c5e 68bb
000001a0: 5247 5e3b 22c8 00bc 15c5 013d 4d59 a1b9
000001b0: 35e2 c93c 891c b0bc 9bb3 e3bc da84 8d3b
000001c0: b2c0 04bd d3a0 a53c 806a a23c a9ec e93c
000001d0: 8547 023d a723 373c 3d4e 573c d62f c1bb
000001e0: 3a81 023d e0cb 6d3c 409b 0fbc 9d56 07bd
000001f0: d218 6e3b 78f9 8a3b ebac d33c 094e d83c
00000200: 15d1 223d 5c85 8a39 9eba 583c 2975 ecbc
00000210: 6283 bb3a a5fc fa3b 3c7f c8bc 1b02 8abc
00000220: 7df2 8b3c b37d 9dbc b262 3abc 3abf cc3c
00000230: 1d85 013d c5f4 bbbc ff8b b8bc f642 f93c
00000240: f4c0 2cbc db75 013c 5331 b0bc a51e 4ebc
00000250: 90a9 e93c 2c8c d8bc 5a02 4b3c 247c 633a
00000260: bbdb 343c b9ce 9e3a 5545 06bc 04d3 533c
00000270: 724f 1b3c cdb6 63bb 9f66 c13c 8f19 013d
00000280: 5261 9b3c c6fe 1ebc 4fdf d5bc 9e00 cbbc
00000290: 9f94 95bc 5c8d 48bb b364 963c 3f0b 273c
000002a0: 87ec 013d 162e 10bd e91e a4bc 98aa 033d
000002b0: 38bb d0bc ea8d b83c 4682 d339 1463 80bb
000002c0: 06ee cd3c ad1e e03c cf76 70bc 00a7 13bb
000002d0: 8de3 073d b40a f23c 5b57 693c e177 b0bc
000002e0: c4ad c4bc e386 d13c 1690 a83c 0bf1 79bb
000002f0: 9ac5 0b3d 44a0 ca3c 773d f9bb 886d 803c
00000300: 348d 0d3d cbf4 a73c dfe4 8bbc bc89 08bd
00000310: a997 333c 5ec2 5b3c 18fc 0ebd e026 a93b
00000320: c090 b2bc da5d 683c 9172 8dbc dc75 dcbc
00000330: 6744 0b3d bb41 ad3c d23a 6abc ecee d0bc
00000340: 81d0 c33c 9ade b4bc 41b5 2bbc cf15 81bc
00000350: e5a3 2c3c ace7 13bb e94b 573c 0421 a2bc
00000360: abcb d53c ea04 863b 8207 c8bc 0297 d3bc
00000370: d302 b03c 3e21 7abc 0538 223c 9617 6e3a
00000380: f982 86bc 5de4 083d 643f 69bc 6ae9 773c
00000390: 1582 b23c be4b 2f3c 4c60 103d 1405 c9bc
000003a0: a29a a33b 4f4d 1138 08bc 833c d2aa 7fbc
000003b0: 66be c0bc 71e3 ecbc 222e c13c ec47 123c
000003c0: 6767 0bbd 7958 59bb 1e83 fdbc abc7 fcbc
000003d0: 924e b63c 4c15 88bc 7b34 b53c 6abc 083d
000003e0: 86d6 863b be6b 6c3c f1f0 fcbc 6013 76bc
000003f0: bd10 00bb 10e5 fb3b a646 713c 9612 9c3c
0.018486682 0.018501295 -0.0013694201 0.029188255 0.034564327 -0.026300846 0.007170224 -0.0328727
0.0033465622 0.014549337 -0.0052864854 0.027799668 0.0118316775 -0.03575836 -0.007536126 -0.017536338
-0.030721776 -0.0007027062 -0.03287509 0.022207115 0.007660455 0.013669068 0.02261178 0.031062853
-0.014589722 0.0012123816 -0.03657248 0.007408699 0.026382057 -0.024534404 0.020168995 -0.018801535
0.010193486 -0.016003864 0.005001714 -0.034180034 0.024708303 -0.0085502155 0.031462338 -0.015519145
0.015733037 -0.018857935 -0.017492916 -0.00941824 0.015639508 0.01492017 0.019859802 -0.0068010534
0.004772061 0.02072785 -0.013811041 -0.011612039 0.02691843 -0.029819584 -0.017104952 -0.0195987
-0.0074321274 -0.025981365 0.0082399435 -0.024683163 -0.0155402105 -0.03440629 0.023564009 -0.021663524
-0.004234502 -0.021101471 -0.004920376 -0.0067300904 -0.011505421 -0.0005050955 0.015026932 0.029078985
0.02624367 -0.026236948 -0.0040924074 -0.05835032 -0.02052905 -0.0060855807 -0.009305918 -0.0035837162
0.031159906 -0.0065760203 -0.032368314 -0.007663581 0.01752907 0.048634376 0.04063959 0.074233614
0.038237773 -0.0059451666 -0.030508313 -0.04290465 -0.03534704 0.0009424362 -0.019793957 0.0050120805
0.00031931573 -0.021286376 -0.016589932 0.0048654377 0.0056109186 0.007363366 0.013932768 -0.0035456708
0.0033917022 -0.007860215 0.031682093 -0.00030774847 0.024643997 -0.021497982 -0.027795603 0.0043188157
-0.03241033 0.020218289 0.019826174 0.028555231 0.031806488 0.011177934 0.013141212 -0.005895595
0.03186152 0.01451394 -0.008765042 -0.033041585 0.0036330712 0.004241165 0.02583929 0.026404398
0.039750177 0.00026420772 0.013228087 -0.02886446 0.0014306123 0.007659512 -0.024474733 -0.016846707
0.0170834 -0.019224977 -0.01137607 0.024993528 0.031621087 -0.022943864 -0.022527693 0.030427437
-0.0105440505 0.007901634 -0.021507895 -0.012580548 0.028523237 -0.026434027 0.012390697 0.0008677861
0.011038716 0.0012116052 -0.008195241 0.012928728 0.00947939 -0.003474641 0.023608504 0.031518515
0.018967304 -0.009704297 -0.026107458 -0.024780568 -0.018259345 -0.0030601835 0.018358564 0.010195552
0.03171971 -0.0352002 -0.02003427 0.032145113 -0.025479898 0.022528607 0.00040342117 -0.003918061
0.025137912 0.027358377 -0.014676764 -0.002252996 0.033175994 0.02954612 0.014242019 -0.021541538
-0.02400864 0.025577014 0.020576518 -0.0038138058 0.034123994 0.024734624 -0.007606204 0.015677229
0.03455849 0.020502469 -0.017076908 -0.03333448 0.010961452 0.01341304 -0.034908384 0.005162105
-0.021797538 0.014182532 -0.017266544 -0.026911668 0.03400078 0.021149507 -0.01429625 -0.025504552
0.023903133 -0.022078801 -0.010480226 -0.01575747 0.010537122 -0.0022568507 0.013140657 -0.019791134
0.026098093 0.0040899413 -0.024417643 -0.025828842 0.021485722 -0.015266715 0.009901051 0.0009082494
-0.016419875 0.03342091 -0.014236305 0.015131334 0.021790544 0.010699211 0.035248086 -0.024538554
0.004992799 3.4642693e-05 0.016080871 -0.015604692 -0.023528289 -0.028917046 0.023581568 0.00892828
-0.03403416 -0.0033164306 -0.03094631 -0.030856928 0.022254262 -0.016611718 0.022119751 0.03338281
0.0041149287 0.014429985 -0.030876609 -0.015019268 -0.0019541227 0.0076872185 0.014726317 0.019051831
