output_x01/x2/epoch_106.pth (torch, 231335 bytes, 5 tensors)

conv1.weight f4 [64, 1, 9, 9]
00000000: 5973 29bd 9b63 103c 6251 4bbd c814 4f3d
00000010: 86f5 afbd 990a b83d 1a22 93bd 49a2 a2bd
00000020: b5b2 72bd b6e7 4a3d 574d 22bd af61 3a3d
00000030: 9bb4 babd 6733 82bd 910e 03bd 77c8 48bc
00000040: 20a3 a3bd 3ffe a23d 4264 cbbc 440e 193d
00000050: c3f7 a33d 4306 cb3c 44af 213d 0134 f33d
00000060: a01e 18bd 0fae 393d 6816 29bd 5c46 ab3d
00000070: e312 b53d a70f d6bd b434 d43d 09ff 863d
00000080: e728 5f3d b153 653d cdce db3d 70e1 8ebb
00000090: 054e bbbd 3a4d 04bd 5f72 9fbd d08e 9d3c
000000a0: b634 48bc 6743 79bd 87cb a7bb 0eeb ef3d
000000b0: ca52 b33a 9185 023c cdac 52bc cf01 ae3c
000000c0: ee80 d93d 8721 8b3d e8be 083d 7caf d43c
000000d0: c718 063d 48b2 4d3d 3414 9dbb b52c cfbd
000000e0: dbfa 89bd 121c d13d 0296 c13b cf18 c9bd
000000f0: db0c 9a3c 9687 c73d 278d d0bd c096 7dbd
00000100: db8e 1abd cd26 1d3c b8b1 87bc a3b1 29bc
00000110: c10a e3bd 2739 713d e61e de3d 777e 963d
00000120: f8f7 88bd f068 a8bd c085 403d 8ee8 183b
00000130: 5fb6 3a3d 7031 ddbd b2bf 80bb 627a aa3d
00000140: 280a 643d e0f4 aabb bde8 273c 0951 8dbc
00000150: 1a82 8abd 08e0 42bd 54ae 9abd 5aa7 ac3d
00000160: 7258 573d f8fe dc3c 0107 c3bd 0b0b a33d
00000170: f4ef 043d c303 903d 1bbf 38bd 69ee c53c
00000180: 0ca4 de3d 8b2c 9b3d 6911 a53d e162 ddbc
00000190: 7d5c a73d d5b0 bebd b11c 26bb da5d 85bd
000001a0: c56e cebc 5ccb e1bc f708 483c d886 d03d
000001b0: 233c 563d 16b1 45bb e815 a63d 0ef7 6dbd
000001c0: 3600 753d b014 0ebc d60d a5bc 0270 4d3c
000001d0: 3dbc b8bd a798 d53b f1bf 053d 7c53 cb3d
000001e0: 9776 0abd 777a 243d ad58 df3d def8 5cbd
000001f0: 9054 ce3d 397e 87bd 17e5 483d 3cf9 1f3d
00000200: fbcb df3c 8ffc ad3d 28db 11bd 508d 1f3d
00000210: 0c03 603a 0450 abbd 0fc0 09bd 1720 9cbd
00000220: 9760 1f3d 49ce 353a 7b0e d03b 8c3c cbbc
00000230: 8e80 d83b 87d6 1cbd 42cf f43c 27a2 d03d
00000240: 3910 8e3c 9bb9 59bd 9e1c 8abd 5698 e93b
00000250: 960f a1bd 3540 a5bd 6d7a a0bd 4599 2cbd
00000260: 28a9 bf3a cb13 b13d 48fc 443d cc47 c43d
00000270: 6bf9 81bd fdff 483c 5e4a ccbd 5fc7 6a3d
00000280: 9c8b 933c 59d4 c53d 1571 96bd 3c57 c93d
00000290: dd0b e33d b9e9 ed3d c3b7 4b3d d6a0 063e
000002a0: 8e85 c53d b348 bf3d 3073 4fb9 b4d2 9fbd
000002b0: aeb1 3e3c 8712 2d3d ff94 56bd 0efa 2ebd
000002c0: b035 acbd 4437 5bbc aaed e43d cea3 bb3c
000002d0: fab8 663b 984c 833c b2e4 af3d f711 a0bd
000002e0: 448a 8ebd f407 d3bc 30b3 35bd 9f95 a03d
000002f0: 3d5c b73d 4670 bdbd 9120 a7bd 6e92 bebd
00000300: 953e 883d a3e0 ee3d 69a5 95bd 8ce7 11bd
00000310: 2b00 763d 723c 53bd 2805 d43d 7db7 173d
00000320: 8435 76bc 16d0 053d aaec 813d 4665 cdbc
00000330: 579d 94bd 12aa ad3c 2b58 ae3c 8200 e23a
00000340: 08e6 1fbc 3bb2 b23d 8a8f 77bc 40d9 bf3a
00000350: d436 693d 6b88 4bbd 5f0a 463d b852 75bc
00000360: 8b60 263d 2bd7 9cbd 20f9 233c ac94 a23c
00000370: 249b b1bd 764b a1bd f314 653d 0afa b1bc
00000380: 0043 883d f77c d6bd b508 72bd ef15 aebd
00000390: 41c0 6e3d 9165 843c ae34 05bc 4e20 0dbc
000003a0: 4b13 a6bd 3a18 0b3d e977 0b3c 2f27 93bd
000003b0: 170d 623d 60fe 263c 8046 b4bd 5040 973d
000003c0: 5419 8c3d c064 58bc e4fe 8bbd 064f 573b
000003d0: bdd7 a83d 89eb ce3d 115c adbd 902f 57bd
000003e0: c603 ae3d b0cb 5b3d 5e59 853d 6819 7fbd
000003f0: 843b c43d ef26 bfbd 9492 c0bb 5916 793b
-0.04136977 0.00881281 -0.04963816 0.050556928 -0.08591752 0.08986396 -0.07184239 -0.0794111
-0.05925246 0.049537383 -0.03962454 0.045503315 -0.09116479 -0.063574605 -0.031996313 -0.012254826
-0.07990098 0.0795865 -0.02482808 0.03736712 0.08006241 0.02478326 0.039473787 0.11875153
-0.03713858 0.04533201 -0.041281134 0.08363029 0.08841493 -0.10452204 0.10361615 0.06591613
0.054482367 0.055988017 0.107328035 -0.0043603703 -0.091457404 -0.03230021 -0.077854864 0.019233137
-0.0122195985 -0.060855296 -0.005120698 0.11714755 0.0013681289 0.007966415 -0.012858582 0.021241097
0.106202945 0.06793504 0.033385187 0.025962584 0.032738473 0.05021885 -0.004793668 -0.10115949
-0.067373 0.10210432 0.005907775 -0.09819185 0.018804958 0.09742658 -0.10183173 -0.061911345
-0.037733894 0.00959177 -0.016564235 -0.010357293 -0.110860355 0.058892395 0.10845737 0.0734834
-0.06687921 -0.0822314 0.047002554 0.0023331973 0.04558408 -0.10800445 -0.003929102 0.08324124
0.05567375 -0.0052171797 0.01024836 -0.017250555 -0.06763096 -0.047576934 -0.07552782 0.08430357
0.052574582 0.026977047 -0.0952282 0.07961091 0.0324554 0.070319675 -0.045104127 0.024161534
0.10871133 0.07576855 0.08059961 -0.027024688 0.081719376 -0.09311072 -0.0025346691 -0.065120414
-0.025199303 -0.02756279 0.012209169 0.101819694 0.052303445 -0.0030165366 0.08109647 -0.058096938
0.059814654 -0.0086719245 -0.020148199 0.012538912 -0.090202786 0.0065184417 0.032653753 0.09928033
-0.033804502 0.040155854 0.109055854 -0.053948276 0.10074723 -0.06615872 0.049046602 0.039056048
0.027318945 0.08495437 -0.035609394 0.038953125 0.0008545376 -0.08364871 -0.033630427 -0.07623308
0.038910475 0.0006935341 0.0063493825 -0.024809144 0.006607122 -0.038290527 0.029883984 0.10187178
0.01734172 -0.053155523 -0.067437395 0.0071287556 -0.07864301 -0.08068887 -0.07835851 -0.042138357
0.0014622556 0.08646353 0.048092157 0.09584007 -0.06346401 0.012268064 -0.09975122 0.05731904
0.018010907 0.09659643 -0.073457874 0.09831092 0.11086247 0.11616845 0.049735796 0.13147292
0.09644614 0.09340038 -0.00019783969 -0.0780386 0.011639042 0.042253997 -0.052388187 -0.04271894
-0.084086776 -0.013379876 0.11178143 0.022905257 0.003520547 0.016027734 0.08588542 -0.078159265
-0.06959966 -0.025760628 -0.04436034 0.07841038 0.0895314 -0.0924993 -0.081605084 -0.09305273
0.066525616 0.1166394 -0.0730694 -0.03562121 0.060058754 -0.051571317 0.10352546 0.037040222
-0.015027408 0.03266915 0.06343968 -0.025072705 -0.07256573 0.02119926 0.021282276 0.0017242583
-0.009759434 0.08725401 -0.015109906 0.0014636889 0.056937054 -0.049690645 0.048349734 -0.014973335
0.040619414 -0.076582275 0.0100081265 0.019846283 -0.08672169 -0.07875721 0.05592818 -0.021725673
0.06653404 -0.10473054 -0.059090335 -0.08500277 0.058288816 0.016161712 -0.008130236 -0.008613659
-0.081091486 0.03395865 0.0085124755 -0.07185208 0.055188265 0.010192484 -0.08802509 0.073853135
0.068407685 -0.013207614 -0.06835726 0.0032853498 0.08244274 0.101035185 -0.08464826 -0.052535594
0.084968135 0.05366105 0.06511186 -0.06228009 0.09581664 -0.09333598 -0.0058768485 0.0038007705

conv1.bias f4 [64]
00000000: 1b45 c2bc d412 8ebd 2196 8b3c a30b 84bd
00000010: 3be5 303d 8701 463c bdf5 773d e4ed ee3b
00000020: 49c8 013e 729e 59bd 9208 3a3c 9b04 dd3b
00000030: fb69 85bd b6f4 e63d d7f0 9b3d 02c3 833d
00000040: c946 ffbc ef2c 69bd da36 763d e743 283d
00000050: 4172 9c3c 798c 2ebc 8104 94bd 4267 913d
00000060: 912f eebc 6756 b03d a968 d1bb 9fc2 04bd
00000070: 312d 003d 12f3 313d 5def bc3d f5f6 0bbc
00000080: 8da9 483d d30e 863d 94c0 30bc 7f60 cdbd
00000090: 3c6c 32bc 2a40 b13d 7451 2fbd 3de0 133d
000000a0: ea98 b1bd caac 09ba d96a dd3d 315d dd37
000000b0: 65ab 163d 03e5 0f3d 7a8b 7dbc 2163 8dbc
000000c0: 0b18 fcbc f231 ddbc 7c5c 8dbc 16d3 093c
000000d0: 4710 783d a5e9 233b 930d a73b 9ddd 7dbb
000000e0: b8f4 c53d ce62 43bd d04d cc3a f78d da3d
000000f0: e6a7 dc3d 16d0 ef3c acc2 34bd 82a5 b4bd
-0.023714593 -0.06937185 0.01703936 -0.06447532 0.04318736 0.012085325 0.06053709 0.0072915424
0.12674059 -0.05312962 0.011354582 0.006744934 -0.06514355 0.11277144 0.07614296 0.06433679
-0.031161683 -0.056927618 0.060110904 0.04108038 0.01909745 -0.0106536085 -0.072274216 0.07099773
-0.029075416 0.0861023 -0.0063906503 -0.032412168 0.031293098 0.0434447 0.092253424 -0.008542766
0.04898982 0.06545796 -0.010788102 -0.10028171 -0.010890063 0.086548164 -0.04280229 0.036102522
-0.08671744 -0.0005251883 0.10811395 2.6388649e-05 0.03678455 0.035130512 -0.015475148 -0.017259182
-0.030773183 -0.027001355 -0.017256014 0.008412143 0.0605624 0.002501109 0.0050980537 -0.0038736828
0.09665817 -0.04770165 0.0015587155 0.10671609 0.107742116 0.029274028 -0.044130966 -0.088206306

conv2.weight f4 [32, 64, 5, 5]
00000000: cf5f e5ba 168b e83b 5d88 593c 7f56 48bc
00000010: 9604 bfbc 3fe3 7ebc 0e78 95bc f70a 78bc
00000020: ee68 25bd edc7 4dbd e073 a83c 409e 97bb
00000030: af6a 823b f9a7 d8bc eb8c 89bc a0d0 253b
00000040: 2c62 8d3c ef56 793b 91a2 49bb dd1e 003c
00000050: edff 5c3c e1ff ce3c 41d0 3fbc c9ea a13c
00000060: fce6 4ebb c355 bfbc c96e 773c 87a3 183c
00000070: 8f8c d0bb cd25 a8bc 0ac1 71bc 4524 bb3c
00000080: b6c6 213c bc24 033c 87b1 36bb 98dc 5d3b
00000090: a744 05bc 1961 273c da32 b4ba a342 613c
000000a0: 4aa8 bdbb b1fd 9a3b 0b93 02bc 7edc e53b
000000b0: 12a7 42bb 31b7 f8bc 5e4b 3d3c ce2f 6b3c
000000c0: 0970 ae3c be51 543c 1d7f ae3a 09de 3c3d
000000d0: dc6e cb3c 68ec 173c 7f9b 00bb 66b6 fdbb
000000e0: 6bee 0a3d 4f44 353d b1e6 5a3c 97a8 41bb
000000f0: 5a3a 57bb 2d51 2ebc 5f04 a9bc 3950 a3bb
00000100: 9460 bfbc 6cdd 96bc c344 ff3b 1d23 b63b
00000110: 5c04 4c3c 512a 0c3c c3e9 3d3c 6d4b e33c
00000120: ab6b 1b3c 35a2 1f3b 199e c23c ae48 303c
00000130: 8ea7 80bc 823b 31bc a7e0 87bc a53e 9cbc
00000140: b527 a83b 4ba0 b13c cbda 8cbc bdab 82bc
00000150: 6621 a83c c72c 873c bd1e 6f3c 607c 66bc
00000160: e08b f73c 27dd 6b3c bebf 9fbb da42 e03c
00000170: e428 a13c ee7c bb3c beda eebb 09e4 133a
00000180: 557a 97bc 6089 e53b 7041 bbbc 404d e2bc
00000190: 1e61 d3bc 197b 78bc 0006 8b3c 5a8b 013d
000001a0: 4257 dc3c 9e59 09bc c683 9b3b f36c 963c
000001b0: 2196 c63c 2572 3c3c 3546 98bc 83b4 3ebc
000001c0: f822 013d d4a7 913c ea42 f0bc 4f0e 5ebc
000001d0: 5562 9b3c e1d2 33bc 9ff7 cb3c 6d73 d03c
000001e0: ce7c 8ebc 2998 913b 0964 a0bb 311f 9abc
000001f0: ad30 da3c 8f76 d7bc 5697 95bc 1bec 4b3c
00000200: 9440 fbbc 722d 9a3d ed79 61bc 8161 35bb
00000210: 9d28 4a3b 6380 91bc f132 09bb f767 9d3c
00000220: 935c 1b3c acc3 3e3d 2aec 0e3d afc2 c53c
00000230: c506 243c a0dd 363c 019e 1a3c ad1c 50bb
00000240: f46c 1b3c 8e54 ddbb 95bb 543c 9c3c 8dba
00000250: 4bd4 8cbc 2498 71bc 6b25 81bc 5d44 00ba
00000260: 6a2b 3fbc f23c bb3c ee49 f2bc 9c77 be3c
00000270: 5d94 8c3c 7178 8bbc 30dd 75bc 1322 b83c
00000280: 2816 9a3b f3b1 60bc da44 da3b 84dd c7ba
00000290: 64c2 5e3b 77b2 4a3c bf9d 96bc 86fa 32bc
000002a0: 870a 72ba f807 aa3c 1f28 b7bc 7024 77bc
000002b0: 5f24 1f3c d3c7 843c 1441 9fbb 3dfe 63bc
000002c0: bab0 4cbc b7a9 10bd 9150 363b aba6 8fb9
000002d0: bc3a 1e3c 2303 6fbb 6160 813c 89ce e23c
000002e0: 756a ad3c fe4c 98bd 50f0 e6ba 401d a8bc
000002f0: 47e5 12bd e03f aebc f7e6 d7bc 4aa3 a03c
00000300: 6e3f 913d 14a4 d03c f89b 5bbc 35a5 34bd
00000310: aa52 acbd 8581 08bc d7a7 d4bc 277b ccbc
00000320: bd00 cabc 02ff 25bd 8e2b 14bd de2f 223c
00000330: b54b 05bb a4c9 aa3c 26e5 d43b 0978 3bbc
00000340: ffe7 3d3c 94d6 793b 89d5 11bc 8599 913c
00000350: 32fe 8f3c 348f ce3b 3bda 9fbc 91bf 003d
00000360: 1444 863c 1d60 8a3c 5131 4bbc 32d6 fdbc
00000370: d58a e9bc 9e29 8dba c04b bbbb f39c b9bc
00000380: 9caa fb3b 5791 a2bc 46c8 9dbc 3ca5 c2bc
00000390: e082 aebb 13e3 5f39 f24f 2a3d 2b5c 863c
000003a0: e8db f03c 5e4e 043d 4389 7fbb 6ec1 633c
000003b0: 428d 233c 1d72 1b3c f0ec 293c 9121 1e3a
000003c0: ff17 1abd 8826 c3bc ed10 9bbc 3556 25bd
000003d0: 9fbe 95bc 21fe 5c3c 3b63 82bb c765 8ebc
000003e0: 171d 11bc 609c 463b e556 52bc b663 7b3c
000003f0: ffab 1b3c 9667 9abc 8e0b 24bc f9f1 53bd
-0.0017499867 0.0070966585 0.01327714 -0.0122276535 -0.023317616 -0.015557109 -0.018245723 -0.015139333
-0.040383272 -0.050239492 0.020563066 -0.004627019 0.003980003 -0.026447283 -0.016790828 0.0025301352
0.017258726 0.0038046201 -0.0030767063 0.007819858 0.013488752 0.025268497 -0.011707366 0.019765275
-0.0031570783 -0.023356324 0.015102097 0.009316332 -0.006364412 -0.020525837 -0.014755497 0.022844443
0.009874037 0.008004364 -0.002787681 0.0033853408 -0.008134044 0.010216021 -0.0013748065 0.013748798
-0.005787884 0.0047299494 -0.007969628 0.00701481 -0.0029701632 -0.03036079 0.0115536135 0.014354659
0.021293657 0.012958942 0.0013313029 0.046110187 0.024833135 0.009272672 -0.0019623933 -0.007742691
0.03391878 0.044254597 0.013360665 -0.002954995 -0.0032841177 -0.010639471 -0.020631967 -0.0049839285
-0.023361482 -0.018416129 0.0077901795 0.005558385 0.012452211 0.008555011 0.011591378 0.027745927
0.009486119 0.0024358158 0.023757027 0.010759516 -0.015704896 -0.01081741 -0.016586615 -0.01907284
0.0051316866 0.021682879 -0.017194172 -0.015951032 0.020523738 0.016500844 0.014594731 -0.014067739
0.030218065 0.014395989 -0.0048751524 0.027375627 0.019672818 0.02288672 -0.0072892597 0.0005641585
-0.01849095 0.0070049018 -0.022858351 -0.027624726 -0.025803145 -0.0151660675 0.016970634 0.031627037
0.026897077 -0.008383183 0.004745933 0.018362498 0.024241509 0.011501824 -0.018588165 -0.011639717
0.03152749 0.017780222 -0.029328782 -0.013553216 0.018967787 -0.01097557 0.024898348 0.025445664
-0.017393496 0.0044431877 -0.0048947376 -0.018813701 0.026634539 -0.02630165 -0.01826064 0.012446429
-0.030670442 0.07528199 -0.0137619795 -0.0027676525 0.0030846961 -0.017761415 -0.0020934904 0.019214613
0.009482521 0.046573326 0.034893192 0.024140684 0.01001138 0.011161238 0.009437085 -0.0031755373
0.009486426 -0.0067544645 0.012984176 -0.0010775509 -0.017191073 -0.014745746 -0.015764913 -0.00048929994
-0.011668066 0.02285621 -0.029576268 0.023250394 0.017160589 -0.017025204 -0.0150063485 0.022477185
0.0047023483 -0.013714301 0.00666104 -0.0015248512 0.0033990378 0.012371651 -0.018385766 -0.010923987
-0.0009233136 0.020755753 -0.022357998 -0.015084371 0.009713261 0.016208565 -0.004860053 -0.013915596
-0.012493307 -0.035318103 0.0027819017 -0.00027399263 0.009657558 -0.0036470375 0.015793027 0.027686374
0.021168927 -0.0743656 -0.0017619226 -0.02052176 -0.035863187 -0.021270692 -0.02635525 0.019609112
0.070921764 0.025468864 -0.013403885 -0.044102866 -0.084142044 -0.008331661 -0.025958939 -0.024961067
-0.024658555 -0.040526398 -0.03617435 0.009899108 -0.0020339314 0.020848103 0.006497043 -0.011442193
0.011590957 0.0038122283 -0.008901008 0.0177734 0.017577264 0.0063036922 -0.01951324 0.031432692
0.016389884 0.016891534 -0.012401895 -0.030985925 -0.028508583 -0.0010769849 -0.005715817 -0.022657847
0.0076802503 -0.019844694 -0.019260537 -0.02376043 -0.00532566 0.00021351529 0.041580148 0.016401371
0.029401734 0.0323013 -0.0038991726 0.013901098 0.009982409 0.009487656 0.010371432 0.00060322235
-0.03762054 -0.023822084 -0.01892897 -0.040365417 -0.018279372 0.013488323 -0.0039791143 -0.017382516
-0.008857033 0.003030561 -0.0128381 0.015343597 0.009501456 -0.018848222 -0.0100125205 -0.051744435

conv2.bias f4 [32]
00000000: 98b4 0dbc 8152 cabc b18f 83ba 6a7a b83c
00000010: c6f7 dd3c 1a20 bf3c 42c2 35bc dfc7 1a3c
00000020: cfd8 eb3b 01b2 4fbc aadc 9a39 0c5c 2a3c
00000030: 228f db3c f633 7e3c 6c6f 603b 5f63 863b
00000040: 35b1 63bc 0cf5 95bc 7a9d 733c 416d bd3c
00000050: 2220 1f3d 0078 b6bb 5762 1abb d58b 243c
00000060: eab4 8b3c b644 213c 35b0 963c 4b56 803c
00000070: f52b 223c 2c2c 5ebc 67f1 753c 73b9 7ab9
-0.008649014 -0.024697544 -0.001003733 0.02251931 0.027095687 0.023330737 -0.011093678 0.009447067
0.0071974765 -0.012676717 0.00029537576 0.010397922 0.02680165 0.015515318 0.00342461 0.0041012014
-0.01389723 -0.018305324 0.014869088 0.023123385 0.038849004 -0.0055685043 -0.002355715 0.010043104
0.01705404 0.009843042 0.018394569 0.015666148 0.0098981755 -0.013560336 0.015011168 -0.00023910943

conv3.weight f4 [1, 32, 5, 5]
00000000: 470b 9c3c 1d50 953c 43a9 cfba 5928 dd3c
00000010: aa8f 053d 095a e9bc 2789 803b 1216 0dbd
00000020: b48a 323b 6621 453c 50f4 82bb 93ad ed3c
00000030: 2624 4f3c 0b3f 03bd 9015 93bb 58eb 88bc
00000040: 5656 f0bc a97e 2c39 c79f 00bd ecd9 bd3c
00000050: 1a0a b33b 349f 403c 1b06 a33c 74ad ed3c
00000060: 13c7 88bc 5f2c f93a 09c0 0cbd e3d2 f83b
00000070: 5868 d63c ecdf bbbc 9b71 a83c 4aa1 89bc
00000080: 711a 243c 5192 81bc febd c43b dc9d 09bd
00000090: 8e88 d73c f30e 00bc d4c5 053d 5102 5bbc
000000a0: 8376 7a3c f097 8cbc f0a7 7abc 66bc 15bc
000000b0: c76f 893c d515 653c 25ff a53c eda6 c2bb
000000c0: f8c1 983b bbdd b33c b447 62bc 6c40 3ebc
000000d0: 0a84 dc3c 3348 f4bc af1f 8cbc 748d a0bc
000000e0: 3489 f3bb dfd6 d4bc d400 073c 5834 cabc
000000f0: 73b4 7ebc d8e8 0cbd 083e c13c b477 b1bc
00000100: 94c1 8abb e7c1 acbc 213c a0bb afcc ddbb
00000110: 3c81 3cbc 6368 04ba 0c71 763c 6f6f ee3c
00000120: cbc6 d63c deee d6bc 9a19 86bb 0f5c 5ebd
00000130: d154 a6ba 9945 3b3c de57 78ba 2a6d 5d3b
00000140: 3c05 113d 6b3f e5bb dc04 03bd ba87 73bc
00000150: becb efbb 4b97 303d d120 c53c 609a 4c3d
00000160: fc67 053d 00ed 1abc b381 b4bc bf3c c3bc
00000170: aa11 0bbd adce 6fbb 5d35 88bc 16b4 98bb
00000180: cb8b 93bb 69c0 89bc 846d 88bc 3321 b73b
00000190: 52c0 c43b 363a fa3b 6f20 683c b54a 56bb
000001a0: 7f23 673b 24f0 f1bb 199c 023d f05e b1b8
000001b0: 471a cd3c 037f adbc 07f9 e0bc c3ca 923b
000001c0: 8e63 03bd 524d a83c 1d74 a43c 0dc1 ec3c
000001d0: 3055 033d 35ae 393c 997d 5c3c 481d b6bb
000001e0: 64cf 033d 2d0c 743c 76a4 0bbc 8116 06bd
000001f0: ba86 833b d9fc 853b c15d df3c b10c cd3c
00000200: 9292 103d 2357 173b ba20 493c 75ca e1bc
00000210: 7d68 a13b 1221 153c ed44 acbc 2aac 86bc
00000220: 6e73 933c 18f6 8fbc 7df2 26bc b9f0 de3c
00000230: 0e59 fa3c 4edd c4bc 76eb cfbc 08b8 e43c
00000240: 4925 18bc 8082 ba3b 20bd acbc 3951 58bc
00000250: 1d37 e63c e47f c4bc 0f60 523c eb04 a33a
00000260: a5a6 363c e147 be3a a2b8 00bc fc4c 5a3c
00000270: d6af 1f3c a2c8 5cbb d75d c23c 426b 013d
00000280: 375d 9e3c 3403 1abc 2b8b d3bc c804 c8bc
00000290: a6f3 91bc 6cb3 3abb ee43 983c 22ae 273c
000002a0: e0bc 023d ee1f 0ebd 895b a2bc 98b0 043d
000002b0: 8f3b cebc aedc ba3c 4766 3d3a 5880 73bb
000002c0: d124 cf3c 08d2 e03c dec9 6cbc 032b 05bb
000002d0: f99b 083d 1dc9 f23c b347 693c b361 afbc
000002e0: 5074 c3bc ea6e d23c 8a72 a83c bc74 81bb
000002f0: 78e6 0b3d b37b cb3c cb15 f7bb f56c 803c
00000300: 432f 0d3d 982e a83c 0e80 8bbc 2710 08bd
00000310: afa4 343c 06b4 5b3c 3b9a 0ebd 0a45 ac3b
00000320: c090 b2bc da5d 683c 9172 8dbc dc75 dcbc
00000330: 6744 0b3d bb41 ad3c d23a 6abc ecee d0bc
00000340: 81d0 c33c 9ade b4bc 41b5 2bbc cf15 81bc
00000350: e5a3 2c3c ace7 13bb e94b 573c 0421 a2bc
00000360: abcb d53c ea04 863b 8207 c8bc 0297 d3bc
00000370: d302 b03c 3e21 7abc 0538 223c 9617 6e3a
00000380: f982 86bc fcb4 0b3d 8783 5abc c71e 793c
00000390: 3b6c b63c b6b7 323c d235 0c3d 6d9c c8bc
000003a0: ba8f 873b 9778 36b9 7b9c 893c 8518 79bc
000003b0: f90d b0bc 9f3b e1bc 9eee c73c 3a7c 213c
000003c0: 6b68 08bd 030f 18bb 576e f1bc 9d23 f4bc
000003d0: c575 b33c e350 91bc 5df1 ac3c f0a5 073d
000003e0: 6059 a83b 6196 773c 4df1 fcbc 911a 77bc
000003f0: 7d27 feba 3fc8 f73b 784c 6a3c e532 9c3c
0.019048346 0.018226678 -0.0015843291 0.026996778 0.03260771 -0.028485315 0.0039226 -0.034444876
0.0027243318 0.012031889 -0.0039964095 0.02901343 0.012642896 -0.032042544 -0.0044886544 -0.016713783
-0.029338043 0.00016450383 -0.031402376 0.023175202 0.0054638507 0.011756707 0.019900372 0.029013373
-0.016696488 0.0019010416 -0.034362826 0.007593499 0.026172802 -0.022933923 0.020561984 -0.016800541
0.01001607 -0.01581684 0.006004094 -0.033597812 0.026310232 -0.007816064 0.032659367 -0.0133672515
0.015287044 -0.017162293 -0.0152988285 -0.009139156 0.016776932 0.013982256 0.020263264 -0.0059403093
0.0046617948 0.021956315 -0.013811041 -0.011612039 0.02691843 -0.029819584 -0.017104952 -0.0195987
-0.0074321274 -0.025981365 0.0082399435 -0.024683163 -0.015545952 -0.034401745 0.02358915 -0.021663524
-0.004234502 -0.021088554 -0.0048899804 -0.006768785 -0.011505421 -0.0005050955 0.015041601 0.02910587
0.026217839 -0.026236948 -0.0040924074 -0.054287013 -0.0012690072 0.011430168 -0.00094735424 0.003378699
0.035405383 -0.0069960854 -0.031987056 -0.014863903 -0.007317989 0.043113034 0.0240635 0.04995191
0.03256987 -0.009455919 -0.022034502 -0.023832677 -0.033952393 -0.0036591694 -0.016627008 -0.00466014
-0.0045027486 -0.016815381 -0.016653784 0.0055886745 0.0060043717 0.007636334 0.014167889 -0.0032698337
0.003526896 -0.0073833633 0.031887148 -8.457701e-05 0.025036944 -0.021178728 -0.027462495 0.0044797375
-0.032077365 0.020544682 0.020074898 0.028900648 0.032063663 0.011333038 0.013457679 -0.00555769
0.032180205 0.014895481 -0.008523097 -0.032736305 0.0040138634 0.0040889797 0.027266385 0.025030466
0.03529603 0.002309271 0.012275869 -0.02756236 0.004925786 0.009102123 -0.02102896 -0.016439516
0.017999377 -0.017573401 -0.01018965 0.027214395 0.030560043 -0.024031308 -0.025380831 0.027919784
-0.009286233 0.0056918263 -0.021086276 -0.013202959 0.028102452 -0.023986764 0.012840285 0.0012437379
0.01114813 0.0014517271 -0.00785652 0.013324019 0.009746512 -0.0033688922 0.023726387 0.03159643
0.019331558 -0.009400178 -0.025823196 -0.024416342 -0.017816376 -0.0028488291 0.018587079 0.010234388
0.031918406 -0.03469842 -0.019819038 0.032394975 -0.025174884 0.022810306 0.00072250183 -0.0037155356
0.02528611 0.0274439 -0.014452426 -0.0020319826 0.033351872 0.029636914 0.014238286 -0.021408891
-0.023859173 0.025687654 0.020562429 -0.0039506834 0.03415534 0.024839258 -0.0075404397 0.015676955
0.0344689 0.02053003 -0.017028835 -0.03321853 0.011025592 0.01340962 -0.034815054 0.0052572535
-0.021797538 0.014182532 -0.017266544 -0.026911668 0.03400078 0.021149507 -0.01429625 -0.025504552
0.023903133 -0.022078801 -0.010480226 -0.01575747 0.010537122 -0.0022568507 0.013140657 -0.019791134
0.026098093 0.0040899413 -0.024417643 -0.025828842 0.021485722 -0.015266715 0.009901051 0.0009082494
-0.016419875 0.034108147 -0.013337023 0.015205092 0.022268405 0.010908058 0.034231015 -0.024488652
0.0041370066 -0.00017401796 0.016798249 -0.0152036 -0.021491038 -0.02749425 0.024405774 0.009856278
-0.033302706 -0.0023202307 -0.02947156 -0.029802138 0.021906743 -0.017738765 0.021111185 0.033117235
0.0051376075 0.015111537 -0.03087678 -0.0150820175 -0.001939043 0.007561713 0.014300458 0.019067237
