output_x01/x2/epoch_11.pth (torch, 231327 bytes, 5 tensors)

conv1.weight f4 [64, 1, 9, 9]
000000 4d ab 21 bd 11 47 0d 3c 23 23 4c bd cd a9 43 3d
       -0.039470006 0.008622901 -0.049838196 0.047769357
000010 35 13 b5 bd 3e 43 b3 3d 2f 70 98 bd 48 60 a9 bd
       -0.08841554 0.0875306 -0.07443272 -0.08270317
000020 05 62 86 bd 19 ed 5e 3d c8 4c 17 bd 5f 6f 40 3d
       -0.065616645 0.054425333 -0.03693846 0.04698121
000030 1e cf b4 bd 50 9d 7a bd 79 2e 0f bd b9 34 7f bc
       -0.08828567 -0.06118518 -0.03495643 -0.015576535
000040 b8 b2 a1 bd a6 7e 9e 3d 9b 3c b8 bc 83 54 23 3d
       -0.07895416 0.07739 -0.022489836 0.03987552
000050 86 a2 ad 3d 55 07 ea 3c f6 90 1e 3d 65 78 e9 3d
       0.084782645 0.02856795 0.038712464 0.113999166
000060 1f cd 32 bd a3 d3 2a 3d 9b ac 33 bd 24 68 a8 3d
       -0.04365265 0.04170574 -0.04386578 0.08222988
000070 d7 b3 bb 3d bb f5 c6 bd ac d0 d3 3d fb 31 80 3d
       0.09165161 -0.09714838 0.103425354 0.06259533
000080 8a 3c 63 3d 8d b7 54 3d a7 8e ca 3d 23 43 16 bc
       0.055477656 0.05193286 0.0989049 -0.00917128
000090 ba 8b b9 bd 09 92 e9 bc 4b 2a 94 bd 35 b4 8a 3c
       -0.09059854 -0.028512018 -0.07234629 0.016931633
0000a0 88 da 2c bc 8c 18 55 bd 8e 94 55 bb 6a 6b e6 3d
       -0.010550149 -0.052025363 -0.0032589766 0.11250956
0000b0 4f 18 3d bb 19 91 ea 3b 98 9f 5b bc 89 b2 c1 3c
       -0.00288536 0.0071584103 -0.013404749 0.023644703
0000c0 be 3f db 3d 7e 39 9a 3d 1d 1b 36 3d 4b 5c f0 3c
       0.10705517 0.07530497 0.04445945 0.029340884
0000d0 b9 31 03 3d 83 1b 42 3d 9c 74 29 bc 86 77 cc bd
       0.03202984 0.04738952 -0.010342743 -0.09983735
0000e0 ac 6d 81 bd cd 2c d0 3d 4d da 46 3c 4d 8d b1 bd
       -0.063197464 0.10164795 0.012137008 -0.08669529
0000f0 df 1c af 3c e1 a8 c5 3d 0a be cf bd 07 4c 90 bd
       0.021376071 0.09651352 -0.10143669 -0.07045751
000100 d2 6a 26 bd d9 f9 1c 3c 5f 45 a3 bc 9f 33 fb bb
       -0.040629216 0.009581053 -0.01993054 -0.007666066
000110 94 af d8 bd 88 e4 60 3d 3a 7a cf 3d b3 6b 91 3d
       -0.10580364 0.054905444 0.10130735 0.0710062
000120 8a 0b 97 bd 45 9a ae bd b4 e2 50 3d c0 48 01 3c
       -0.07375248 -0.08525518 0.05099745 0.00789088
000130 3b e9 4d 3d 6f 87 d8 bd c8 3c 87 bb 22 9d a6 3d
       0.050271254 -0.10572707 -0.0041271187 0.081354395
000140 be 37 5e 3d 34 e9 35 3b c2 ab aa 3c d0 b5 2f bc
       0.05425238 0.0027757408 0.020833854 -0.0107245
000150 43 00 78 bd b4 09 29 bd 9f d2 88 bd 52 b8 bd 3d
       -0.060547125 -0.04126902 -0.06680798 0.09263672
000160 bb e0 7a 3d 90 93 1e 3d b9 49 b0 bd 59 fd ad 3d
       0.061249476 0.038714945 -0.086078115 0.08495588
000170 20 13 0d 3d 40 6c 9e 3d e0 fc 2d bd f1 e2 ce 3c
       0.034442067 0.07735491 -0.04247749 0.025254698
000180 49 f3 e0 3d b0 7d 9a 3d 4b 60 b6 3d ef 03 c5 bc
       0.10983903 0.07543504 0.08905085 -0.024049727
000190 bf 58 ab 3d bd cf b2 bd 37 8c 2e 3c 63 a3 7a bd
       0.08366536 -0.08731029 0.010653547 -0.061190974
0001a0 ca bd cb bc 08 b3 de bc fd 20 19 3c ce a6 cf 3d
       -0.024870772 -0.027184978 0.009346244 0.10139237
0001b0 e4 ff 5b 3d f3 04 eb ba 10 94 a2 3d 14 84 5f bd
       0.053710833 -0.0017930552 0.07938397 -0.05456932
0001c0 81 15 71 3d 4a 39 2d bc a1 bd 9d bc 85 c5 61 3c
       0.0588584 -0.010572741 -0.019255461 0.0137800025
0001d0 7f 28 ad bd 39 3d 31 3c 8d 41 12 3d a6 95 c3 3d
       -0.0845499 0.010817819 0.035707045 0.095500275
0001e0 73 ff 03 bd 81 15 29 3d a5 88 e1 3d 66 c6 45 bd
       -0.032226037 0.041280273 0.11012391 -0.04828491
0001f0 d3 94 d9 3d b7 42 5f bd 15 88 42 3d 35 73 2d 3d
       0.10624089 -0.054506984 0.04749306 0.042346198
000200 80 30 ff 3c 47 64 b7 3d 68 b7 2f bd ef d8 f7 3c
       0.031151056 0.08954673 -0.04289952 0.03025481
000210 aa 47 b8 3a ba ed a8 bd fd 47 d6 bc 26 90 9c bd
       0.0014059443 -0.08248468 -0.026157374 -0.07644682
000220 a3 40 40 3d df 62 0d 3c 6a 8d 2f 3c 87 56 06 bd
       0.046936642 0.00862953 0.010714868 -0.032797363
000230 8f 37 c2 3a 80 6f 0c bd 4b 5c 01 3d 7b c6 db 3d
       0.0014817583 -0.034286022 0.031582158 0.107312165
000240 a7 cd 66 3c 14 7a 55 bd dc b6 8f bd 2e f7 de 3b
       0.014087117 -0.052118376 -0.070172995 0.0068043685
000250 91 0f ab bd c1 5b ac bd da 16 96 bd d7 26 20 bd
       -0.083525784 -0.08415938 -0.07328577 -0.03909954
000260 75 a4 e4 3b 1c 54 97 3d 28 10 25 3d 8f 5f aa 3d
       0.0069776126 0.073890895 0.04029861 0.083190076
000270 18 d6 91 bd 72 a3 ff 3b a8 7b cd bd cd c7 7e 3d
       -0.07120913 0.0078014666 -0.10033351 0.062202264
000280 dc bb b1 3c 63 1b d9 3d c8 39 9a bd 47 85 c5 3d
       0.021696024 0.10600927 -0.07530552 0.09644561
000290 8f f6 de 3d 2e 50 e3 3d 1f a5 25 3d 77 4a 01 3e
       0.10886871 0.110992774 0.040440675 0.12626062
0002a0 e2 ed c9 3d 40 17 d0 3d a7 ac b2 3b e0 54 9e bd
       0.09859826 0.101606846 0.0054527107 -0.07731032
0002b0 df 23 40 3c 13 bc 29 3d d8 52 55 bd f4 a7 27 bd
       0.011727302 0.041439127 -0.05208096 -0.040931657
0002c0 da 42 a9 bd 9b 54 4d bc 23 d6 f5 3d 80 ca 11 3d
       -0.08264704 -0.012532379 0.12003734 0.03559351
0002d0 95 85 71 3b 86 d4 98 3c 5a a3 b5 3d c7 eb 9c bd
       0.0036853303 0.018656027 0.088690475 -0.076621585
0002e0 28 e0 87 bd 2e 8e 97 bc 88 4d 29 bd 68 b4 a6 3d
       -0.06634551 -0.018500414 -0.041333705 0.081398785
0002f0 d2 d7 c8 3d 8c 87 c5 bd 9a 5b a6 bd 88 d3 b9 bd
       0.098067895 -0.09644994 -0.0812294 -0.090735495
000300 41 b6 81 3d 46 d6 e0 3d fb e9 8e bd 50 b3 04 bd
       0.0633359 0.109783694 -0.06978222 -0.03239757
000310 b5 77 70 3d 87 ec 51 bd 4f 5a d5 3d b3 21 1b 3d
       0.05870791 -0.05125096 0.104176156 0.037873935
000320 1a 6c 68 bc ba dd e9 3c 56 38 5f 3d 4f e6 c4 bc
       -0.01418593 0.02854811 0.054497086 -0.024035601
000330 e0 87 8b bd 70 e2 be 3c c8 44 b7 3c 85 eb b1 3b
       -0.068130255 0.023301333 0.022371665 0.0054296874
000340 74 2a 1d bc 18 de ad 3d 83 4b 7b bc 18 10 f6 3a
       -0.009592641 0.08489627 -0.015337828 0.0018773107
000350 79 42 6c 3d 56 f7 55 bd 50 80 4a 3d 29 0f 24 bc
       0.05768058 -0.05223783 0.049438775 -0.01001338
000360 1d 79 14 3d e9 bb 9f bd 3f 38 ea 3b 24 48 86 3c
       0.036248315 -0.07799513 0.0071478183 0.016391821
000370 64 41 b2 bd 0e de 9c bd 2c 12 5a 3d c8 c1 b6 bc
       -0.087038785 -0.07659541 0.053239986 -0.022309199
000380 69 70 90 3d f0 fa f6 bd 1d 4d 89 bd 9f 2a b2 bd
       0.070526905 -0.12059581 -0.06704161 -0.086995356
000390 37 72 58 3d 10 3d e4 3b c2 47 1c bc 12 d8 cc bb
       0.0528433 0.006965287 -0.009538593 -0.0062513435
0003a0 15 73 9f bd a1 b6 17 3d 4c bb 9d bb 75 1f ad bd
       -0.07785622 0.037039403 -0.0048135873 -0.084532656
0003b0 53 d3 44 3d 0d b4 ec 3b 4c 02 c0 bd 74 a6 95 3d
       0.048053097 0.007223612 -0.09375438 0.07307139
0003c0 e1 d2 91 3d 37 a3 3e bc d0 e9 8b bd 89 05 a4 3b
       0.071203 -0.011635593 -0.068317056 0.0050055427
0003d0 61 d4 ac 3d 95 b1 d1 3d 9c d0 a9 bd 17 b6 49 bd
       0.084389456 0.10238949 -0.08291742 -0.04924592
0003e0 60 28 b2 3d ee c7 60 3d 8b 69 8e 3d 9c 27 60 bd
       0.08699107 0.054878168 0.069537245 -0.054725274
0003f0 36 22 c5 3d 2d f9 b9 bd c8 63 91 bb 43 20 7d 3b
       0.09625666 -0.0908073 -0.0044369437 0.0038623966

conv1.bias f4 [64]
000000 9f 0a af bc 63 f3 8e bd b2 04 4b 3c 2b ba 85 bd
       -0.02136737 -0.06980016 0.012391256 -0.06529649
000010 84 ae 22 3d d9 4f a2 bc 5f 7c 81 3d 1f ba 3a 3d
       0.039717212 -0.019813465 0.0632255 0.045587655
000020 3e 47 fc 3d 9c a8 68 bd 2d f1 1e 3c 12 12 a5 3b
       0.12318276 -0.056801423 0.0097010555 0.0050375545
000030 ce 33 c1 bd d0 78 b3 3d 53 b3 9c 3d e3 14 97 3d
       -0.09433709 0.087632775 0.07651391 0.07377031
000040 ba 43 11 bd 22 66 6a bd 00 9b 6d 3d f9 bc 1e 3d
       -0.03546498 -0.057226308 0.058009148 0.038754437
000050 43 57 82 3c 60 28 24 3b 64 86 a1 bd 88 49 96 3d
       0.01591075 0.002504848 -0.07886961 0.07338244
000060 3c a7 6d bd 60 5b a8 3d fa 33 52 bc aa db ea bc
       -0.058020815 0.082205534 -0.012829775 -0.028669197
000070 df a4 06 3d e7 4c 1e 3d 08 34 c6 3d 9a a4 91 bc
       0.032872077 0.03864756 0.09677893 -0.017778683
000080 6d 45 4a 3d a4 3c 77 3d 73 84 30 3b e9 2a cc bd
       0.049382616 0.060360566 0.0026934415 -0.09969122
000090 2f 2a 87 bc 87 d8 b9 3d 5b ba 74 bd 31 8a 0f 3d
       -0.016499607 0.090745024 -0.059748035 0.0350439
0000a0 ae 79 66 bd 32 66 5c 3c 77 63 ca 3d df 90 1b bc
       -0.056268387 0.0134521 0.09882253 -0.009494989
0000b0 c9 6c 25 3d 1a fa ee 3c 97 15 47 bd 7b 0b 8e bd
       0.04038695 0.029171992 -0.048604574 -0.069357835
0000c0 11 9e 3f bd b0 a2 b0 bc 74 f4 ac bc 12 76 e8 39
       -0.046781603 -0.02156195 -0.021112658 0.00044338458
0000d0 83 bb 4c 3d de b7 ea bb cc 7f 29 3c df 99 07 bd
       0.049983513 -0.007163032 0.010345411 -0.033105727
0000e0 e0 fc ba 3d 50 bd 4a bd 50 3c 81 bb cf 6a 86 3d
       0.09130263 -0.04949695 -0.0039439574 0.06563341
0000f0 e2 d3 d1 3d 0a 49 33 bd c3 cd a2 bd 42 5c b9 bd
       0.102454916 -0.043770827 -0.07949402 -0.090508

conv2.weight f4 [32, 64, 5, 5]
000000 1e db 0d 3c a3 d3 9a 3c 12 a9 48 bb 31 b9 c8 bc
       0.008658199 0.018899744 -0.0030618352 -0.024502369
000010 c8 d5 84 bc bf 23 5e bb a8 a4 1c bc 7b fa 97 bc
       -0.01621522 -0.0033895818 -0.0095607415 -0.018552056
000020 cb 28 db bc 91 b2 6e bc 8e dd 88 3c ec 07 65 bc
       -0.02675285 -0.014568941 0.016707208 -0.0139789395
000030 3c 5a 94 bb 43 af b7 bc e1 6a e9 3b fe 43 2d 3b
       -0.0045273583 -0.022422438 0.0071233367 0.0026438232
000040 ee cb a3 3c bc a9 f7 3b 93 f5 9d bb 33 f3 94 3c
       0.019994702 0.0075580757 -0.0048205345 0.018182373
000050 46 fa 97 3c 6d cb d8 3c 38 15 85 bc f2 ac e3 3b
       0.018551957 0.026464188 -0.01624547 0.006948107
000060 43 e3 b9 bc 8d 7b 76 bc d2 7c 9b 3c 9a 8b 3f 3c
       -0.022691375 -0.015044105 0.018980417 0.011690998
000070 54 d7 59 bc 48 25 73 bc c8 2e 5e bc a3 ae 9d 3c
       -0.013295967 -0.0148404315 -0.013560958 0.019248312
000080 7c 3d 14 3c b6 bf 94 3a 3c 58 8c bc 3b f7 02 3c
       0.009047862 0.0011348638 -0.017131917 0.007993515
000090 6e 37 ba bb 86 d0 83 3c ca f5 de 3b 49 14 39 3c
       -0.0056828773 0.016090643 0.0068042027 0.01129634
0000a0 6c fa fe bb 8d 87 94 b9 8e a9 3e bc a5 2a 11 3c
       -0.0077813175 -0.00028329753 -0.011637105 0.008860265
0000b0 5d de 95 38 6a 75 a3 bc 95 70 69 3c 8a dc 3e 3c
       7.146292e-05 -0.019953448 0.014248033 0.01164926
0000c0 ea 27 91 3c 56 b4 59 3c 01 1c 3d bb 09 17 22 3d
       0.017719228 0.013287624 -0.0028855803 0.03957275
0000d0 8e 5f 3c 3c 68 05 eb bb 24 86 4a bc 1a e7 c9 bc
       0.011497391 -0.0071722753 -0.012361083 -0.02464633
0000e0 48 fd 8e 3c 5f 5a aa 3c ff 35 6d bb 11 ab ca bc
       0.017454758 0.020795045 -0.0036195514 -0.024739774
0000f0 bd 00 c1 bc cd bf 05 bd 95 e3 18 bd 77 8c a5 bc
       -0.023559922 -0.03265362 -0.037326414 -0.02020858
000100 20 c4 1d bd 68 41 52 bc 00 c1 8b 3a bb f9 4a 3c
       -0.038517118 -0.012832977 0.0010662377 0.012388642
000110 ff f8 ba 3c dc 93 1b 3c 57 f7 00 3d ae a5 da 3c
       0.022823809 0.009495702 0.03148588 0.02669033
000120 80 ae b1 3b e0 2e 8c 3a 7b 92 af 3c b3 45 21 3c
       0.0054224133 0.0010695122 0.021432152 0.009843278
000130 bd 45 4b bc 86 b1 87 bc 88 c6 a4 bc c7 cf 73 bc
       -0.012406764 -0.016564142 -0.020114198 -0.014881081
000140 06 4f 19 bb 88 7e a1 3c 8f e7 68 bc 95 2f ad bc
       -0.002339305 0.019713655 -0.014215364 -0.021140853
000150 96 b4 a9 3c 3b 5f 85 3c 12 31 33 3c 4e 0e 58 bc
       0.020715993 0.016280761 0.010936992 -0.013187004
000160 51 33 af 3c cf 5b 45 3c cc 6f cf 3b f6 6b ac 3c
       0.021386774 0.012045815 0.006330466 0.021047574
000170 f7 d0 21 3c 83 3c 95 3c bf 83 cf bb c8 e5 8f 3c
       0.009876481 0.01821733 -0.006332844 0.017565623
000180 ce 86 31 bc f4 6f e7 3b d1 db 69 bc 15 6b b1 bc
       -0.010835363 0.0070629064 -0.0142736 -0.021657506
000190 b7 f6 92 bc 27 80 82 bc a6 12 7c 3c d3 d3 d0 3c
       -0.017939908 -0.015930248 0.0153853055 0.02549163
0001a0 1c b0 86 3c fa f9 b7 3a 18 e2 f2 3a 9f 4e b6 3b
       0.016441397 0.0014036291 0.0018530516 0.0055635716
0001b0 9f 18 cc 3c 01 df 48 3c cc 3a 52 bc 52 97 3a bc
       0.024914084 0.0122601995 -0.012831401 -0.011388617
0001c0 fe fd b9 3c 50 e4 77 3c a4 2a d3 bc a8 2d 92 bc
       0.02270412 0.015130118 -0.025777169 -0.017844036
0001d0 6a bb 7b 3c 4d 7b 28 bc ff 03 b0 3c af f3 92 3c
       0.015364507 -0.010283303 0.02148628 0.017938463
0001e0 01 6d 85 bc 95 ec 0c 3c 8d 30 1c bb 98 71 ad bc
       -0.016287329 0.008601327 -0.002383265 -0.02117233
0001f0 b7 15 3e 3c 4b d9 85 3a f4 24 1d 3c f7 c3 c9 bc
       0.011601857 0.0010211853 0.00959133 -0.024629576
000200 f3 00 2d bc f5 4b c0 bc f1 6f 07 bd b1 27 06 3c
       -0.010559308 -0.02347372 -0.03306574 0.008188174
000210 3d cb 9d bc 28 80 06 3b 07 bf 88 bc c6 e2 7f bb
       -0.01926195 0.0020523164 -0.016692651 -0.003904508
000220 db b6 24 3c dd 98 9b 3c 12 73 03 3d b3 10 51 3c
       0.010053362 0.01899379 0.03209216 0.012760329
000230 e1 5f f7 3c ca 81 e5 3c d7 10 43 bb 63 db 22 3c
       0.030197086 0.02801599 -0.0029764676 0.009940001
000240 79 b3 be 3c 08 54 65 3b 81 e7 ba 3c 29 a3 d7 3c
       0.023278939 0.0034992713 0.022815468 0.026322918
000250 91 30 bf 3b 86 05 a6 bb 7b 0c 69 bc b9 ac 86 39
       0.005834647 -0.0050665764 -0.014224167 0.0002568716
000260 41 d7 72 bc 0a 4f d5 3c d6 10 a8 bc 70 79 b8 3c
       -0.014821828 0.026038665 -0.02051584 0.022518843
000270 e3 4d 9d 3c 7c 15 99 bc 21 e8 50 bc ef 1c c4 3c
       0.019202178 -0.018687002 -0.012750656 0.023939578
000280 2e 06 f4 ba b2 81 73 bc 48 5b 86 3b c3 53 42 bb
       -0.0018617564 -0.014862465 0.004100237 -0.0029651977
000290 2c bf 8e 3b bd 05 39 3c ae 94 a2 bc e1 fb 35 bc
       0.0043562856 0.011292872 -0.019846287 -0.011107416
0002a0 dd 13 df 3a 6e 02 cb 3c 18 d1 94 bc ff c4 53 bc
       0.001701947 0.024781432 -0.01816611 -0.0129253855
0002b0 cb 96 6a 3c 48 d5 c8 3c be a5 59 3b 3d 47 8d 3b
       0.014318178 0.024515763 0.0033210362 0.004311471
0002c0 06 f2 7f 3c 2e d8 8f 3a 66 6a a4 3c 5c cf f1 3c
       0.015621668 0.0010974461 0.020070266 0.029517822
0002d0 72 b5 a6 3c 17 69 98 bc 6b 85 dd 3c f3 5e e5 3c
       0.020350192 -0.018604798 0.027041158 0.027999377
0002e0 86 3d 3f 3c de d5 08 bc 6e a0 8f ba ac 32 68 bc
       0.011672383 -0.008351771 -0.0010957846 -0.014172237
0002f0 65 c9 cc bb fd 24 37 3c 4b e8 0a bc 07 3f b0 bb
       -0.006249594 0.011178252 -0.0084782345 -0.005378607
000300 ce a0 85 bb 18 ca 07 bb 63 3d 85 39 96 26 88 bb
       -0.0040780073 -0.0020719822 0.00025413473 -0.0041549904
000310 c8 42 af bc 34 92 88 ba c9 5d f9 bb eb ec 9d bb
       -0.021394148 -0.0010419548 -0.007610057 -0.0048195026
000320 f5 be a8 bc fc ef 0d bd 73 01 dd bc 0f 7a 21 3c
       -0.020598868 -0.034652695 -0.02697823 0.009855761
000330 75 be 09 3c 2d ab c1 3c 48 7f 56 3a 90 60 0e bc
       0.008407225 0.023641193 0.00081824185 -0.0086900145
000340 43 a1 7a 3c dd 40 f4 3b 88 e1 98 bb 4c 02 33 3c
       0.015297237 0.0074540214 -0.0046655573 0.010925841
000350 92 24 aa 3b d9 3c 24 3b 9c 6f a5 bc f8 e8 14 3d
       0.005192348 0.0025060682 -0.020194821 0.03635499
000360 7b da ab 3c 3d 86 cb 3b 6b 15 9d bc d9 8a ed bc
       0.020978203 0.006211071 -0.019175252 -0.028996872
000370 95 ea f1 bc ad 9b 21 3c d6 65 91 ba 00 8b f4 bc
       -0.029530803 0.009863776 -0.0011092972 -0.029851437
000380 6a 9d 0a 3b 39 ba 63 ba 2d 1f 3d 3c 05 c1 21 39
       0.0021150955 -0.0008687112 0.011543077 0.00015426062
000390 69 c6 3c 3a 44 90 7a 3c 04 45 be 3c 41 e3 82 3c
       0.0007201196 0.015293185 0.023226269 0.015977504
0003a0 d2 bb 07 3d da 7f fe 3c 12 25 01 3b aa ed 8b bb
       0.033138104 0.031066824 0.0019705934 -0.004270275
0003b0 db 10 b1 ba a7 d4 73 bb 6b 39 1f bc 92 c3 c7 bc
       -0.0013509052 -0.0037205608 -0.009718279 -0.024385247
0003c0 92 e8 c0 bc f5 cd 49 bc 5d 30 4a bc d9 51 f2 bc
       -0.023548398 -0.01231717 -0.012340632 -0.029580044
0003d0 bf 82 45 bc 49 2b ab 3c 82 3c dc ba 3d 24 65 bc
       -0.012055098 0.020894663 -0.0016802701 -0.013985691
0003e0 cf 24 91 bb ae 92 3f 3c 55 87 71 38 84 0e 7f 3c
       -0.0044294368 0.011692686 5.7584915e-05 0.015567426
0003f0 9c a7 3d 3c 75 87 66 bb 74 a3 2d 3b 0a 39 37 bd
       0.011575606 -0.0035175954 0.002649513 -0.04473213

conv2.bias f4 [32]
000000 56 cc 06 bc 30 3c a9 bc b1 8f 83 ba 2f fb 67 3c
       -0.008227428 -0.020658582 -0.001003733 0.014159008
000010 ce 6e da 3c 2e 01 b6 3c d6 75 34 bc 1d e2 b4 3b
       0.026664164 0.02221736 -0.011014422 0.005520119
000020 cf d8 eb 3b 3d 69 2c bc aa dc 9a 39 e8 f7 0e 3c
       0.0071974765 -0.010523138 0.00029537576 0.008726098
000030 8d 85 d3 3c 8f 03 12 3c 31 d8 67 bb d6 5e a6 bb
       0.025820518 0.008911981 -0.0035376663 -0.0050772233
000040 6f 42 80 bc d2 51 8d bc 95 e9 80 3c 3d 8a b7 3c
       -0.015656678 -0.017250929 0.01573638 0.022404784
000050 1b 8a 7c 3c 24 39 e2 ba 49 6a 75 bb 47 83 20 3b
       0.015413786 -0.0017259461 -0.0037447384 0.002449231
000060 28 0c 95 3c ff 1f a2 3b cd 4f 82 3c cc 2d 67 3c
       0.018194273 0.004947662 0.015907193 0.01411004
000070 3f 05 1c 3c 2c 2c 5e bc a5 0f 68 3b 84 4f c0 ba
       0.009522735 -0.013560336 0.0035409715 -0.0014672135

conv3.weight f4 [1, 32, 5, 5]
000000 4f 16 9d 3c 5b ec 95 3c 5d 37 d9 ba 4b a4 c9 3c
       0.019175677 0.01830118 -0.0016572286 0.024614474
000010 f1 fb f9 3c fd b9 ef bc f7 4f cd 3a 84 0f 0b bd
       0.030515643 -0.02926349 0.001566409 -0.033950344
000020 94 71 86 3b ad 3e 27 3c 48 be 13 bb 81 89 e6 3c
       0.004102895 0.010207814 -0.0022543836 0.028141739
000030 ea 38 4c 3c c6 2f f3 bc dc 3c 45 bb 7b 13 7e bc
       0.012464741 -0.029685866 -0.003009609 -0.015507574
000040 0e 95 e7 bc 5f cd 8c 39 18 85 01 bd 79 49 c0 3c
       -0.028269317 0.00026855894 -0.03162107 0.023472534
000050 fa 5a 93 3b 90 1b 52 3c 37 0d a4 3c b7 5c e4 3c
       0.0044969292 0.012823954 0.020025833 0.027876241
000060 a8 dc 8d bc 4e 0c 21 3b ab 37 07 bd f4 0f 07 3c
       -0.017317131 0.0024573985 -0.033012073 0.00824355
000070 db 0d da 3c a2 34 b4 bc 3e 19 aa 3c 9a 9d 84 bc
       0.026617935 -0.021997754 0.02076399 -0.016188432
000080 46 51 27 3c fc 49 7a bc 9d 28 e4 3b 9c e6 07 bd
       0.010212248 -0.015276428 0.0069628493 -0.03317891
000090 cf df d9 3c 86 c7 02 bc de cf 06 3d 54 b1 4c bc
       0.026595978 -0.00798214 0.03291308 -0.01249345
0000a0 a5 1a 80 3c 1a 07 88 bc 47 f2 6d bc a4 da 0c bc
       0.015637705 -0.016604949 -0.014523095 -0.00859705
0000b0 4a 5c 8c 3c a6 28 6a 3c da 4f a9 3c ee 61 b3 bb
       0.01713385 0.014291918 0.020667959 -0.0054743206
0000c0 8a f8 9b 3b 8c 8d b4 3c b4 47 62 bc 6c 40 3e bc
       0.004759853 0.022040151 -0.013811041 -0.011612039
0000d0 0a 84 dc 3c 33 48 f4 bc af 1f 8c bc 74 8d a0 bc
       0.02691843 -0.029819584 -0.017104952 -0.0195987
0000e0 34 89 f3 bb df d6 d4 bc d4 00 07 3c 58 34 ca bc
       -0.0074321274 -0.025981365 0.0082399435 -0.024683163
0000f0 73 b4 7e bc d8 e8 0c bd 08 3e c1 3c b4 77 b1 bc
       -0.015545952 -0.034401745 0.02358915 -0.021663524
000100 94 c1 8a bb e7 c1 ac bc 21 3c a0 bb af cc dd bb
       -0.004234502 -0.021088554 -0.0048899804 -0.006768785
000110 3c 81 3c bc 63 68 04 ba 0c 71 76 3c 6f 6f ee 3c
       -0.011505421 -0.0005050955 0.015041601 0.02910587
000120 cb c6 d6 3c de ee d6 bc 9a 19 86 bb c4 23 ed bc
       0.026217839 -0.026236948 -0.0040924074 -0.028947718
000130 d0 44 8a 3c 70 74 bc 3c c9 f2 09 3c 6c e9 2e 3c
       0.016878515 0.02300474 0.008419701 0.010675769
000140 ad 18 0e 3d c2 29 9a bb e9 6f 01 bd db f1 8e bc
       0.0346915 -0.004704685 -0.031600866 -0.01744931
000150 3e 49 3a bc d7 4c 8c 3c 3a 81 28 3a 3f 89 e1 3c
       -0.011370001 0.017126484 0.00064279477 0.027531264
000160 7e 2a 9e 3c 34 29 35 bc 79 0c 1c bc e5 ea 51 bc
       0.019307371 -0.011057187 -0.009524458 -0.012812351
000170 af d2 06 bd 52 4c 3c bc b0 70 8b bc e0 e1 ee bb
       -0.032915767 -0.011492806 -0.017021507 -0.00729011
000180 e9 2c 0d bc bf 55 66 bc 70 0f 86 bc 37 ea b3 3b
       -0.008616664 -0.014058529 -0.016364783 0.005490567
000190 1e 6a d4 3b 11 60 00 3c 08 7b 6d 3c c3 95 2d bb
       0.0064823767 0.007835404 0.014494665 -0.002648697
0001a0 83 36 81 3b a0 79 e2 bb 0c 2f 03 3d 34 30 8f 38
       0.003943266 -0.0069114715 0.03202729 6.82775e-05
0001b0 d2 8c d0 3c ab b3 a9 bc dc 00 df bc 8c f1 98 3b
       0.025457773 -0.020715555 -0.02722209 0.0046674665
0001c0 4f 0b 02 bd 6b 48 aa 3c ba 3a a7 3c 5a bb ee 3c
       -0.031749066 0.020786485 0.020413745 0.02914207
0001d0 a1 16 04 3d 47 0c 3e 3c c4 78 61 3c 51 eb a7 bb
       0.032248143 0.011599607 0.013761703 -0.0051244874
0001e0 c6 05 05 3d 93 1b 7a 3c 3a d8 06 bc 6c 87 04 bd
       0.03247621 0.015265363 -0.008230263 -0.03235571
0001f0 ee 75 95 3b e8 59 8c 3b a1 e1 e3 3c 12 b5 b0 3c
       0.0045611775 0.0042831786 0.02781755 0.021570716
000200 4e 93 01 3d e8 c9 84 3b 39 5b 40 3c f2 f6 d5 bc
       0.03163462 0.0040523894 0.011740499 -0.02611873
000210 55 cb e0 3b f5 b9 2f 3c 05 e1 93 bc ed 07 83 bc
       0.0068601766 0.010725488 -0.018051634 -0.01599499
000220 c2 b6 99 3c f4 f8 86 bc 95 b8 1d bc 4b 87 e7 3c
       0.018763904 -0.016476132 -0.009626527 0.028262755
000230 17 9b f4 3c 9c 09 d1 bc 40 6f e5 bc b8 78 d2 3c
       0.029859109 -0.025517277 -0.02800715 0.025692329
000240 4a 21 05 bc f5 f7 9e 3b dd 02 ad bc 4a 4e 5c bc
       -0.0081256125 0.004851336 -0.02111953 -0.0134464
000250 98 44 ea 3c 19 ca ae bc af 4f 59 3c 22 60 e8 3a
       0.028597161 -0.021336602 0.013263627 0.0017728845
000260 f9 45 38 3c 8d cf e3 3a 30 53 f1 bb b6 dc 57 3c
       0.0112471515 0.001738058 -0.007364653 0.01317518
000270 dc cd 24 3c 54 04 48 bb 82 82 c3 3c bc 88 01 3d
       0.010058846 -0.0030520158 0.023865942 0.03162454
000280 b3 a3 9c 3c 73 25 1c bc 6e 5b d0 bc 76 7b c3 bc
       0.019121027 -0.009530413 -0.025434222 -0.023862582
000290 f7 2a 8d bc b7 33 22 bb 79 02 98 3c f5 48 25 3c
       -0.017232401 -0.0024750063 0.018555867 0.010088195
0002a0 02 a7 02 3d f5 f8 0a bd 11 30 9f bc 4a da 05 3d
       0.031897552 -0.03392883 -0.0194321 0.03267888
0002b0 d9 fc cc bc 65 4a ba 3c 64 9e b9 3a 7e c8 67 bb
       -0.02502291 0.022740552 0.0014161584 -0.0035367305
0002c0 35 11 d0 3c 81 91 e1 3c 6e 93 68 bc f2 26 de ba
       0.02539883 0.027535202 -0.014195306 -0.0016948862
0002d0 c4 0b 09 3d 43 5f f3 3c 51 15 6a 3c 15 f8 ad bc
       0.033458486 0.02970851 0.014287309 -0.021236459
0002e0 a7 84 c1 bc 67 cc d2 3c 76 d4 a7 3c b4 3a 86 bb
       -0.023622824 0.025732232 0.020487051 -0.0040963534
0002f0 e7 19 0c 3d 9e 0b cc 3c 95 fa f2 bb 44 8b 80 3c
       0.03420439 0.024907883 -0.0074151256 0.015691407
000300 86 e0 0c 3d 9f ca a8 3c 82 38 8b bc 82 64 07 bd
       0.03439381 0.02060443 -0.016994718 -0.033054836
000310 f1 4e 35 3c f3 3b 5b 3c 5e 11 0e bd 27 22 b2 3b
       0.011066184 0.013380992 -0.03468453 0.0054362
000320 c0 90 b2 bc da 5d 68 3c 91 72 8d bc dc 75 dc bc
       -0.021797538 0.014182532 -0.017266544 -0.026911668
000330 67 44 0b 3d bb 41 ad 3c d2 3a 6a bc ec ee d0 bc
       0.03400078 0.021149507 -0.01429625 -0.025504552
000340 81 d0 c3 3c 9a de b4 bc 41 b5 2b bc cf 15 81 bc
       0.023903133 -0.022078801 -0.010480226 -0.01575747
000350 e5 a3 2c 3c ac e7 13 bb e9 4b 57 3c 04 21 a2 bc
       0.010537122 -0.0022568507 0.013140657 -0.019791134
000360 ab cb d5 3c ea 04 86 3b 82 07 c8 bc 02 97 d3 bc
       0.026098093 0.0040899413 -0.024417643 -0.025828842
000370 d3 02 b0 3c 3e 21 7a bc 05 38 22 3c 96 17 6e 3a
       0.021485722 -0.015266715 0.009901051 0.0009082494
000380 f9 82 86 bc a9 2a 0e 3d c9 e9 4d bc b1 23 78 3c
       -0.016419875 0.034708653 -0.012567946 0.015145228
000390 1e 1b b9 3c d5 8b 43 3c 8d 24 0b 3d 1b 7e c2 bc
       0.022595938 0.011935194 0.033970404 -0.023741772
0003a0 5d 31 85 3b c4 61 e3 b9 1f 8d 8f 3c ae 25 70 bc
       0.0040647225 -0.00043369655 0.017523346 -0.014657421
0003b0 54 77 a7 bc 99 9c da bc 9e 82 cb 3c 94 f2 28 3c
       -0.020442642 -0.026686 0.024842557 0.010311741
0003c0 ed 70 05 bd a5 e2 e5 ba 96 4a ea bc 67 a6 eb bc
       -0.032578398 -0.0017538859 -0.028600018 -0.02876587
0003d0 24 36 b7 3c 4c 17 8e bc ec 9c ae 3c 21 0e 08 3d
       0.022364683 -0.017345093 0.02131506 0.0332166
0003e0 15 d8 b6 3b 6d 47 81 3c 4d f1 fc bc 91 1a 77 bc
       0.005579958 0.015781129 -0.03087678 -0.0150820175
0003f0 7d 27 fe ba 3f c8 f7 3b 78 4c 6a 3c e5 32 9c 3c
       -0.001939043 0.007561713 0.014300458 0.019067237
