output_x01/x2/epoch_143.pth (torch, 231335 bytes, 5 tensors)

conv1.weight f4 [64, 1, 9, 9]
000000 3a c9 2e bd e7 fe 12 3c 02 f9 48 bd eb 98 5b 3d
       -0.042672373 0.008971906 -0.049065597 0.05361263
000010 6b 30 aa bd 7d 21 bb 3d dc ec 91 bd 72 36 a1 bd
       -0.08310016 0.09137247 -0.071252555 -0.07871713
000020 be c2 7a bd d8 8d 41 3d 31 a3 26 bd 4f 70 3b 3d
       -0.061220877 0.047254413 -0.040682975 0.045761403
000030 d5 4c b6 bd 83 f6 7c bd 7f 39 ff bc bd aa 4e bc
       -0.08901373 -0.06175853 -0.031155346 -0.012613949
000040 39 66 a4 bd 79 c0 9f 3d a6 cd ee bc 53 24 0d 3d
       -0.0802731 0.07800383 -0.029150795 0.03445847
000050 bd d2 9e 3d ca 26 c9 3c 25 b9 27 3d 36 06 f6 3d
       0.07755039 0.024554629 0.040948052 0.120129034
000060 be a7 15 bd 82 9d 3d 3d 3f 55 2c bd ab b0 a6 3d
       -0.036536925 0.04629279 -0.042073485 0.081391655
000070 10 10 af 3d 88 2a dd bd 12 ce d3 3d 6b 94 88 3d
       0.085479856 -0.10799128 0.10342039 0.066689335
000080 b5 6f 5c 3d b0 fe 65 3d ad 2e df 3d 7c ce b3 bb
       0.05381747 0.056151092 0.108975746 -0.0054872613
000090 ba ed be bd 8c ed 0f bd 31 07 a5 bd 38 6f 9f 3c
       -0.093226865 -0.03513865 -0.08058012 0.019462213
0000a0 0b da 67 bc ce d4 85 bd 26 7c ed bb 65 77 f0 3d
       -0.014151107 -0.0653473 -0.0072474657 0.11741523
0000b0 b5 62 50 39 67 6f 02 3c 96 ec 70 bc ae 0c 9c 3c
       0.00019873197 0.007961131 -0.014704844 0.019049015
0000c0 27 ee d9 3d 6f 70 86 3d 38 f7 ed 3c 3d 8f ca 3c
       0.10641127 0.06564414 0.029048547 0.024726504
0000d0 bf de 0c 3d 29 37 51 3d 56 03 d7 ba 76 31 d1 bd
       0.034392115 0.051077995 -0.0016404192 -0.10214512
0000e0 23 67 8d bd 49 17 d2 3d f8 f3 55 3b 1d c0 d2 bd
       -0.069044374 0.102583475 0.0032646637 -0.10290549
0000f0 64 91 90 3c 5b a2 ca 3d fd 88 d0 bd e8 5b 68 bd
       0.017647453 0.09894248 -0.101823784 -0.056728274
000100 41 6a 12 bd 88 ce 38 3c b3 df 62 bc c9 2c 23 bc
       -0.035745863 0.01127971 -0.013847279 -0.009959408
000110 21 b4 e1 bd 97 45 7c 3d f2 8b e6 3d ee 6b 9b 3d
       -0.11020685 0.061589804 0.11257161 0.07588945
000120 23 d6 81 bd 46 fe a5 bd 8f 96 40 3d 9c 5d e2 3a
       -0.063396715 -0.081051394 0.047018584 0.0017270329
000130 16 62 35 3d 91 a5 dc bd 15 0b 62 bb 3c 22 ae 3d
       0.044282995 -0.10773767 -0.0034491469 0.085026234
000140 57 45 6a 3d 6d c0 13 bb b2 81 30 3c 6b b5 83 bc
       0.057195034 -0.0022545115 0.010773109 -0.016077718
000150 05 98 92 bd bb 5f 48 bd da 1a ae bd 68 14 ad 3d
       -0.07157902 -0.04891942 -0.08501215 0.08451158
000160 2a 76 4b 3d ef 67 d4 3c 53 72 c4 bd 2d 87 a4 3d
       0.049673237 0.025928466 -0.09592118 0.08033595
000170 d1 71 10 3d 9e 70 88 3d d1 54 3a bd f6 55 a1 3c
       0.035264794 0.06662105 -0.045491043 0.01969431
000180 30 ba e7 3d fe 50 a2 3d 12 c1 a3 3d 81 fa ed bc
       0.11314809 0.07925604 0.079958096 -0.029050114
000190 16 08 a7 3d 29 db bd bd 10 16 35 bc 84 0b 87 bd
       0.08155839 -0.09270317 -0.011052623 -0.06593993
0001a0 aa a7 e1 bc 41 d9 c7 bc 06 7c 74 3c fc 41 d3 3d
       -0.027545769 -0.024395587 0.014922148 0.1031532
0001b0 1f 54 4d 3d c9 52 40 bb d6 45 af 3d 5b 5d 7f bd
       0.050129052 -0.0029346219 0.08558242 -0.06234489
0001c0 a2 7f 82 3d 84 d1 fa bb e8 f5 9e bc bf 88 3b 3c
       0.06372 -0.0076543707 -0.019404367 0.011446177
0001d0 54 93 bc bd 16 36 cc 3b 8a 4b 05 3d 18 34 d1 3d
       -0.09207788 0.0062320335 0.032542743 0.10215014
0001e0 7f b9 24 bd 6e 6a 2d 3d 7e e2 e1 3d 34 b3 59 bd
       -0.040215965 0.042337827 0.11029528 -0.053149417
0001f0 33 85 cc 3d ee 45 8e bd 84 a3 51 3d b1 5d 1e 3d
       0.09986343 -0.06946932 0.05118133 0.03866357
000200 9a f0 e2 3c b3 20 9f 3d 04 87 07 bd ab 61 29 3d
       0.027702618 0.07769909 -0.033087745 0.04135291
000210 84 7d 74 3b 41 1b a6 bd 00 da 0a bd 30 8f 9f bd
       0.0037306258 -0.08110667 -0.033899307 -0.07790983
000220 c5 94 0b 3d 1b 23 c5 ba 4f d6 b4 ba a3 da cf bc
       0.034077425 -0.001504037 -0.0013796779 -0.025372809
000230 2f 12 a6 3b 44 a4 15 bd ea 10 04 3d a9 a0 ce 3d
       0.0050680856 -0.03653361 0.032242693 0.10089237
000240 83 1a 93 3c 9a 71 66 bd 92 af 88 bd b5 4d d3 3a
       0.017956978 -0.056260683 -0.066741124 0.0016121181
000250 f1 c1 a7 bd 16 9e ac bd 8a a2 a0 bd 11 b2 2a bd
       -0.08191288 -0.0842859 -0.07843502 -0.041673724
000260 0a 29 9a 3a 4c e7 c1 3d a1 31 56 3d 96 22 d4 3d
       0.0011761498 0.094679445 0.052293424 0.10358159
000270 2d c2 79 bd 6a be 59 3c e8 f1 cc bd 11 63 7c 3d
       -0.060976196 0.013290027 -0.100070775 0.061617915
000280 aa 40 ab 3c 44 cb ca 3d 44 08 96 bd 14 dc c9 3d
       0.020904858 0.09902051 -0.07325795 0.0985643
000290 ec 9f e4 3d 02 e7 f1 3d 58 84 57 3d 78 9d 07 3e
       0.11163315 0.11811639 0.052616447 0.13243663
0002a0 9a f4 c1 3d 38 62 ba 3d 56 9f 19 bb 96 11 a3 bd
       0.09470482 0.09100765 -0.002344092 -0.079623386
0002b0 fd 36 26 3c c9 01 27 3d 5b 82 5c bd 77 c3 33 bd
       0.010144946 0.040773187 -0.053835254 -0.04388758
0002c0 a4 41 af bd 72 14 85 bc f1 38 dc 3d c6 ad 91 3c
       -0.08557442 -0.0162451 0.10753048 0.017783057
0002d0 11 d2 9e 3b 5f 0f 8d 3c fa 92 b1 3d f3 d0 9e bd
       0.004846819 0.017219244 0.08670612 -0.07754698
0002e0 07 a7 8d bd c9 0e d8 bc dc 4b 3b bd 55 59 9c 3d
       -0.069166236 -0.026374238 -0.045726642 0.07634226
0002f0 1d 15 b0 3d e0 13 b7 bd 0b 5b a2 bd f1 30 bb bd
       0.08597777 -0.08939338 -0.07927521 -0.09140194
000300 f1 e1 8c 3d 69 0c f5 3d 7a 07 94 bd 48 3a 14 bd
       0.068790324 0.11965258 -0.072279885 -0.036188394
000310 a8 ce 71 3d c1 c9 5b bd 03 95 d3 3d d5 57 12 3d
       0.059034973 -0.053659204 0.10331156 0.035728294
000320 ca 99 88 bc ef 3a 06 3d 4f 6a 86 3d 3d 91 cb bc
       -0.016674895 0.032771047 0.065632455 -0.024849528
000330 25 d5 97 bd 6b 5f 9d 3c 67 c4 99 3c 7f 97 18 3a
       -0.07413701 0.019210538 0.01877041 0.00058209145
000340 07 1b 2e bc e2 56 b1 3d 18 4a 80 bc ac 40 0f 3b
       -0.010626561 0.0865915 -0.01566033 0.0021858616
000350 df b1 6f 3d 30 16 49 bd 9d d1 40 3d 00 af 91 bc
       0.05851924 -0.049093425 0.047074903 -0.017783642
000360 32 14 2f 3d 51 37 99 bd c6 40 3d 3c d4 00 ac 3c
       0.04274387 -0.07481254 0.011551088 0.020996489
000370 d5 fe b0 bd 24 31 a1 bd 12 66 61 3d b5 d8 c5 bc
       -0.08642355 -0.07870701 0.055028982 -0.024151186
000380 6c da 80 3d a6 b1 cd bd 52 52 64 bd a7 6b aa bd
       0.06291661 -0.100436494 -0.05574257 -0.08321314
000390 46 af 73 3d 74 b1 8b 3c ed ed 0d bc 6e d4 34 bc
       0.059493326 0.01705239 -0.008662683 -0.011036975
0003a0 eb 63 ab bd 2b 6b 03 3d 91 d4 2b 3c de d0 8d bd
       -0.08368667 0.032084625 0.0104876915 -0.06924604
0003b0 99 b4 69 3d 73 64 17 3c 6d 6f b8 bd 47 27 94 3d
       0.057056997 0.009240258 -0.09005628 0.07234054
0003c0 75 5e 87 3d 3d 48 75 bc 11 60 8c bd e9 96 4d 3b
       0.06609813 -0.014970836 -0.06854261 0.0031370467
0003d0 96 f3 a7 3d 5a 7c cd 3d 18 22 af bd bf ad 5c bd
       0.08200757 0.10033484 -0.08551425 -0.053876635
0003e0 23 23 ac 3d 3c 5f 56 3d c0 1c 81 3d 39 b0 82 bd
       0.08405139 0.052336916 0.06304312 -0.06381268
0003f0 db f0 c4 3d bc 8f c0 bd 75 aa e0 bb c4 61 3f 3b
       0.09616252 -0.09402415 -0.0068562576 0.002920256

conv1.bias f4 [64]
000000 bd fc ee bc ae 3e 82 bd 0a 49 8f 3c 66 8f 82 bd
       -0.02917325 -0.063596115 0.017490882 -0.06375007
000010 e0 87 36 3d df 64 a9 3c 94 90 79 3d bb f7 14 3a
       0.044563174 0.020677982 0.060928896 0.00056826667
000020 d0 78 02 3e c0 4d 3e bd 45 09 3a 3c 77 2e 34 3b
       0.12741399 -0.046460867 0.011354749 0.0027493516
000030 61 3f 5d bd 25 b4 fe 3d c9 82 9a 3d 3d 1f 8a 3d
       -0.05401552 0.124367036 0.075444765 0.067442395
000040 66 7d f1 bc 7a 1d 91 bd a1 d6 84 3d 90 97 2a 3d
       -0.02947874 -0.070857 0.0648625 0.041648448
000050 a1 cb 9f 3c 80 cb 6a bc 6e d1 92 bd 69 c4 91 3d
       0.019506278 -0.014330745 -0.07168852 0.071175404
000060 de 9e b6 bc 73 dc b1 3d dd 74 db bb 8f 90 03 bd
       -0.02229255 0.086846255 -0.006697281 -0.032120284
000070 d6 2b fe 3c d0 e4 38 3d cd 1c ba 3d 62 4b 7e bb
       0.031026762 0.045140088 0.090875246 -0.0038802256
000080 27 d8 45 3d 8b 51 86 3d 32 1a 72 bc e5 89 cb bd
       0.048301842 0.06558522 -0.014776753 -0.09938411
000090 47 a3 22 bc 20 ec af 3d 33 a7 10 bd ce fd 18 3d
       -0.009926624 0.08589959 -0.035315704 0.037351422
0000a0 78 70 d2 bd 84 56 3e bc e0 3d e0 3d 9e 0c 11 3c
       -0.10275358 -0.011617307 0.10949302 0.008853106
0000b0 46 12 10 3d 4d 30 11 3d 10 03 1c bb 18 7a 2e 3b
       0.035173677 0.035446454 -0.0023805536 0.0026623067
0000c0 46 98 b4 bc 6e 5d b9 bc 67 6b 8b bc b9 5d ea 3b
       -0.022045266 -0.022627559 -0.017018987 0.007152286
0000d0 43 f1 86 3d 7e 74 5c b8 44 99 83 3b 33 c6 ab 3a
       0.06588986 -5.256058e-05 0.0040160734 0.0013105333
0000e0 27 9e cd 3d bd df 3e bd a9 6a 7b 3b 53 2f 00 3e
       0.10039931 -0.046600092 0.0038363135 0.12518053
0000f0 69 55 f1 3d d5 05 1d 3d ed 49 1e bd d5 35 ad bd
       0.11783869 0.03833564 -0.03864472 -0.08457533

conv2.weight f4 [32, 64, 5, 5]
000000 13 f1 19 39 ed 20 49 3b 14 51 94 3c b0 2a 90 bb
       0.00014681024 0.0030689791 0.018105067 -0.00439962
000010 83 0a b0 bc 6f 69 93 bc 00 23 bb bc c1 a3 79 bc
       -0.021489387 -0.01799461 -0.022843838 -0.015236796
000020 68 b9 10 bd d5 ca 4f bd 78 98 bc 3c 2c 07 5f ba
       -0.035333067 -0.050730545 0.023021922 -0.00085078436
000030 da 0c ca 3a 0c 43 dd bc e7 29 a5 bc 30 c1 05 3b
       0.0015415207 -0.02700951 -0.020161582 0.0020409338
000040 43 8e 90 3c 54 51 4a ba e8 d5 9b bb cd 7f d1 3b
       0.01764596 -0.00077178073 -0.004755724 0.006393409
000050 63 e6 50 3c 11 4a d1 3c 4a 06 2e bc 0b 3b cf 3c
       0.012750241 0.025548013 -0.010621617 0.025296709
000060 64 50 b7 3b 05 82 a9 bc 4d ec 9a 3c 57 ce 4f 3c
       0.0055943 -0.020691881 0.018911505 0.012683473
000070 0c 78 4a bb e0 8b c0 bc 50 fd 6c bc 7e 3a a9 3c
       -0.0030894307 -0.023504198 -0.014464691 0.020657774
000080 46 8a ab 3b 0f 6e e6 3b 4d eb da ba eb 14 29 3b
       0.0052349893 0.007032163 -0.0016702205 0.0025799822
000090 6a 73 24 bc 24 ea ab 3b ee f8 95 bb 45 81 7b 3c
       -0.0100372825 0.0052464176 -0.004576794 0.0153506445
0000a0 dd 85 62 bb 53 e8 16 3c ee e3 bd bb 95 08 e7 3b
       -0.0034564652 0.009210664 -0.0057949936 0.0070505836
0000b0 e4 ce 21 bb 0a cd 07 bd 3c 08 37 3c 46 c4 71 3c
       -0.0024689967 -0.033154525 0.011171397 0.014756268
0000c0 e3 bd b4 3c ef d2 69 3c 0d 84 dd ba a0 8f 2e 3d
       0.022063201 0.014271482 -0.0016900316 0.04261744
0000d0 63 ae cc 3c f9 e3 44 3c 2f e2 e9 ba 7e 66 41 b9
       0.024985498 0.012017244 -0.0017843897 -0.00018444096
0000e0 12 bb 14 3d 7d 28 42 3d a4 47 8c 3c dd 0b c0 3a
       0.036311217 0.047401894 0.017124005 0.0014651973
0000f0 c0 56 00 3b 70 83 0d bc 83 b5 bd bc 5c f7 11 bc
       0.0019582957 -0.008637294 -0.02315784 -0.008909073
000100 0a 43 ce bc eb 4e a8 bc a5 dd 04 3c 7c 32 68 3b
       -0.025178451 -0.020545444 0.008109485 0.0035430482
000110 d6 af fc 3b c2 10 00 3c 04 4a fd 3b 54 1a d3 3c
       0.007711391 0.007816495 0.0077297706 0.02576939
000120 7a c1 f6 3b fe 40 fa b9 93 f8 b5 3c 87 40 0e 3c
       0.0075303884 -0.0004773214 0.022213256 0.008682377
000130 d8 ac 97 bc cd 3c 39 bc ef 5e 9b bc 9b 64 c8 bc
       -0.018515036 -0.011306 -0.018966166 -0.024462035
000140 60 a5 55 3b 10 b7 a0 3c d7 9f 96 bc ae 72 84 bc
       0.0032599792 0.019618541 -0.018386764 -0.016167965
000150 11 84 9e 3c fb 1e 88 3c 76 24 6d 3c d8 a5 62 bc
       0.019350084 0.016616335 0.014474025 -0.013833486
000160 2d ff 05 3d 3c 45 7d 3c e3 db dc bb 9b 72 e0 3c
       0.032714058 0.015458401 -0.0067400797 0.027398398
000170 db b8 a3 3c 96 62 ba 3c 22 c5 de bb 16 e9 8a bb
       0.019985607 0.022752088 -0.0067984024 -0.004239212
000180 93 44 aa bc 7f ce a7 3b 4b 99 df bc 8c 9b f2 bc
       -0.020784652 0.005121052 -0.027294775 -0.029615186
000190 0e 53 e6 bc 31 d0 8f bc ce 03 87 3c b4 f1 11 3d
       -0.028115775 -0.017555328 0.016481306 0.035630897
0001a0 ca 71 f0 3c 8c 3f 3f bc 54 75 a5 3b 46 99 a0 3c
       0.029351134 -0.011672866 0.005049387 0.019604336
0001b0 6c c1 d1 3c bf b1 46 3c ba df a2 bc 62 01 2e bc
       0.025604926 0.012127339 -0.019882072 -0.010620447
0001c0 5e 55 00 3d 0d fb 8b 3c e2 56 02 bd 71 11 5c bc
       0.031331412 0.017087484 -0.03182114 -0.013431893
0001d0 2d fc a7 3c 71 52 58 bc 81 49 b4 3c f2 89 af 3c
       0.020505989 -0.013203249 0.022007706 0.021428082
0001e0 6d c7 92 bc d7 1a 9f 3b 64 f1 84 bb 9a 4f 9c bc
       -0.01791736 0.0048554945 -0.0040570963 -0.019080926
0001f0 6d 45 d3 3c 47 2f 1c bd 45 25 d8 bc a8 77 bf 3c
       0.02578994 -0.038131025 -0.026384959 0.023372486
000200 10 3d 0d bd b5 ae af 3d 97 b4 4a bc 04 80 57 bb
       -0.034482062 0.085782446 -0.012372158 -0.00328827
000210 88 e1 fb 3a fd 9b c8 bc 21 17 25 bc 7f 9b d5 3c
       0.0019216994 -0.024488444 -0.010076315 0.026075123
000220 d8 f8 85 3c 62 1b 5f 3d d5 11 2c 3d 6e 29 e8 3c
       0.01635401 0.054469474 0.042009193 0.028340068
000230 5c ad de 3b 40 d6 4d 3c db b2 df 3b d4 57 30 bb
       0.0067955684 0.012563288 0.006826741 -0.0026907818
000240 a9 84 09 3c 2c 61 b5 bc fc db 08 3c 9e ad 1b bc
       0.008393445 -0.022141062 0.00835323 -0.009501843
000250 a2 bd b6 bc 7e 9a e5 bc df f5 54 bc 4f 9f 22 ba
       -0.02230722 -0.02802777 -0.012998073 -0.00062035484
000260 76 e3 2d bc c4 a1 c1 3c 8a f6 03 bd ee 47 cd 3c
       -0.010613313 0.023636706 -0.03221754 0.025058713
000270 a8 30 84 3c cb 74 90 bc 47 cf 78 bc c4 19 ab 3c
       0.016136482 -0.017633816 -0.0151861375 0.02088631
000280 31 22 f9 3b d5 61 57 bc d9 08 df 3b 66 95 aa ba
       0.007602953 -0.013145884 0.0068064746 -0.0013014495
000290 42 28 05 3b 35 85 2a 3c 9e e3 a3 bc 7a 72 34 bc
       0.0020318185 0.010407736 -0.020005997 -0.011013621
0002a0 cf ae 73 ba 31 b6 af 3c 45 d2 cd bc 76 90 80 bc
       -0.0009295763 0.02144918 -0.025124678 -0.015693884
0002b0 07 47 37 3c fd 26 95 3c 4c 5e a1 ba 02 00 dc 39
       0.011186368 0.018207068 -0.0012311428 0.00041961676
0002c0 c9 bb a2 bc b8 d2 09 bd 99 66 8c 3b d6 bc c7 bc
       -0.019864934 -0.033648223 0.0042846915 -0.024382036
0002d0 fe 46 0f 3c a9 bc ee bc 1e c2 96 bb 37 45 23 3d
       0.008744953 -0.029142695 -0.0046007773 0.03986093
0002e0 2e b3 a0 3c 2b 60 91 bd 1a 05 9d bc a3 fd 53 bd
       0.01961669 -0.07098421 -0.019167472 -0.05175556
0002f0 9b 89 25 bd 74 69 c6 bc c9 01 c5 bc 26 eb 25 3d
       -0.040414434 -0.024220206 -0.024048703 0.04050746
000300 74 ed a1 3d 1f e1 0b 3d 29 fc a2 bb a3 2c 9c bd
       0.07906619 0.03415024 -0.0049739075 -0.07625701
000310 c8 60 bc bd 17 66 82 bc 91 10 e5 bc b3 8b f7 bc
       -0.09198147 -0.01591782 -0.027962001 -0.030217981
000320 0c a7 d4 bc 47 11 27 bd 7e bc 17 bd c6 62 02 3c
       -0.02595856 -0.04078796 -0.037044995 0.00795812
000330 14 a1 a8 bb 54 30 92 3c 19 62 be 3b 9f 06 31 bc
       -0.005146155 0.01784531 0.005810034 -0.010804801
000340 a5 16 3e 3c 1c 82 2b 3b e2 15 21 bc 4c 1b 8d 3c
       0.011602079 0.002617008 -0.009831877 0.01722493
000350 21 af 9e 3c dd ab 00 3c 40 aa 9d bc a5 ba 03 3d
       0.019370617 0.007853475 -0.01924622 0.03216042
000360 95 76 80 3c 85 93 95 3c d6 9e 39 bc 11 27 ff bc
       0.015681544 0.01825882 -0.011329373 -0.031146558
000370 b7 43 db bc bd a6 ce ba 25 2b c0 bb 95 95 b2 bc
       -0.026765687 -0.0015766245 -0.005864518 -0.021799842
000380 5a 16 17 3c 86 47 91 bc 0f 17 84 bc 15 20 bf bc
       0.009221638 -0.0177343 -0.016124276 -0.023330728
000390 28 ff 15 bc ab 77 95 bb 92 d3 1a 3d 04 f1 80 3c
       -0.009155072 -0.0045613847 0.037799425 0.015739925
0003a0 28 03 f7 3c 41 5d 04 3d ad 6b 16 bc 8f 60 4f 3c
       0.030152872 0.032315496 -0.009180945 0.012657299
0003b0 fc 91 1a 3c ef b4 05 3c 4a e6 53 3c a1 00 93 3b
       0.009434219 0.008160814 0.012933323 0.004486159
0003c0 9b 6c 25 bd 19 55 c0 bc 78 e2 98 bc 9f 3d 2e bd
       -0.040386777 -0.023478078 -0.018662676 -0.042539235
0003d0 76 3c 86 bc ac e9 3f 3c 48 f6 0b ba 2d fa 57 bc
       -0.016386252 0.011713427 -0.0005339128 -0.013182205
0003e0 8c 91 5c bc 88 46 ab ba 07 b5 5b bc 44 61 83 3c
       -0.013462435 -0.0013067285 -0.0134098595 0.01603759
0003f0 b6 25 20 3c 7d 5d 95 bc e7 f2 2e bc ff c9 53 bd
       0.009774616 -0.018233055 -0.01067803 -0.05170631

conv2.bias f4 [32]
000000 b7 2b 06 bc 32 19 d5 bc b1 8f 83 ba 2b 2f c7 3c
       -0.008189133 -0.02601299 -0.001003733 0.024314484
000010 45 1f dd 3c 0f 94 c4 3c 5c 27 39 bc ed c2 20 3c
       0.02699245 0.023996381 -0.011300888 0.009812099
000020 cf d8 eb 3b d0 a0 4d bc ce 27 6f ba 49 a1 3f 3c
       0.0071974765 -0.012550548 -0.0009123058 0.011696168
000030 05 41 df 3c 66 a5 88 3c c6 2d f5 3b db 95 09 3c
       0.027252683 0.01668043 0.0074822633 0.008397545
000040 0a 16 60 bc 94 85 9a bc 4d 32 7f 3c ed 46 bc 3c
       -0.0136771295 -0.018862523 0.0155759575 0.022983039
000050 08 e1 28 3d f9 39 d9 bb 4d 3a 7e bb c8 b0 5c 3c
       0.04123023 -0.0066292253 -0.0038792074 0.013469882
000060 60 1a 6f 3c 5a b5 35 3c bf aa 98 3c 67 fc 96 3c
       0.014593691 0.011090601 0.018636106 0.018430902
000070 9d aa 1f 3c 2c 2c 5e bc 26 78 76 3c 0b e2 d2 b9
       0.009745267 -0.013560336 0.015043294 -0.00040222736

conv3.weight f4 [1, 32, 5, 5]
000000 d0 81 9d 3c bb 88 96 3c 35 b4 c9 ba 37 11 e3 3c
       0.019226938 0.018375745 -0.0015388789 0.02771817
000010 06 b8 08 3d b4 65 e5 bc 26 26 98 3b 5d f1 0b bd
       0.033378623 -0.028002597 0.0046432195 -0.03416573
000020 4b 10 33 3b 8f 74 50 3c f1 37 8b bb 94 45 eb 3c
       0.0027322944 0.012723102 -0.004248612 0.0287197
000030 9d be 4c 3c dd 6a 07 bd bf c3 ad bb 74 47 89 bc
       0.012496618 -0.033060897 -0.005302876 -0.016757704
000040 b8 2d f2 bc d3 04 bf 38 ea 66 01 bd 1f 2f bc 3c
       -0.029562816 9.108488e-05 -0.031592287 0.022971688
000050 a7 95 c6 3b 99 78 44 3c 76 b2 a6 3c 93 6a f1 3c
       0.0060603204 0.011991643 0.020348769 0.029469764
000060 e7 a6 85 bc e4 95 e7 3a 6b 04 0f bd 54 c8 f4 3b
       -0.016314937 0.0017668572 -0.034916323 0.00747017
000070 a5 4b d6 3c 45 da bf bc 2c 84 a8 3c 52 57 8d bc
       0.026159117 -0.023419509 0.020570837 -0.017253552
000080 c4 f8 22 3c 38 4f 82 bc 9d bc ba 3b 1d 54 0a bd
       0.009947006 -0.015906915 0.005698754 -0.033771623
000090 c1 7d d4 3c e9 31 02 bc be 72 04 3d 4a 3d 63 bc
       0.02593887 -0.00794647 0.03233599 -0.013869593
0000a0 eb 55 7a 3c 85 ee 8f bc c1 ba 81 bc d1 2a 1a bc
       0.0152792735 -0.01756979 -0.015836122 -0.009409622
0000b0 27 b0 87 3c 92 98 67 3c 41 60 a4 3c fd 7b cb bb
       0.016563488 0.014135497 0.020065429 -0.006209849
0000c0 4a cd 96 3b 08 bb b1 3c b4 47 62 bc 6c 40 3e bc
       0.004602109 0.021695629 -0.013811041 -0.011612039
0000d0 0a 84 dc 3c 33 48 f4 bc af 1f 8c bc 74 8d a0 bc
       0.02691843 -0.029819584 -0.017104952 -0.0195987
0000e0 34 89 f3 bb df d6 d4 bc d4 00 07 3c 58 34 ca bc
       -0.0074321274 -0.025981365 0.0082399435 -0.024683163
0000f0 73 b4 7e bc d8 e8 0c bd 08 3e c1 3c b4 77 b1 bc
       -0.015545952 -0.034401745 0.02358915 -0.021663524
000100 94 c1 8a bb e7 c1 ac bc 21 3c a0 bb af cc dd bb
       -0.004234502 -0.021088554 -0.0048899804 -0.006768785
000110 3c 81 3c bc 63 68 04 ba 0c 71 76 3c 6f 6f ee 3c
       -0.011505421 -0.0005050955 0.015041601 0.02910587
000120 cb c6 d6 3c de ee d6 bc 9a 19 86 bb df 30 6d bd
       0.026217839 -0.026236948 -0.0040924074 -0.057907935
000130 e9 b0 17 bc d3 28 a3 3b 7b 12 a6 bb 4a b5 07 3a
       -0.009258487 0.004979232 -0.005068121 0.00051768555
000140 7c 18 08 3d e0 1a 0a bc f9 3d 06 bd 64 42 51 bc
       0.033226475 -0.008429259 -0.032773945 -0.012772176
000150 3b e7 87 3a d2 a5 3e 3d 20 74 00 3d f1 98 74 3d
       0.0010368595 0.046544857 0.031360745 0.05971617
000160 1f 4d 13 3d fb 27 f9 bb ed 8b d5 bc 72 8c f6 bc
       0.03596222 -0.007603643 -0.026067698 -0.030096266
000170 d4 69 0d bd 5c 3f 98 ba 22 1f 87 bc 56 a8 ca ba
       -0.034524754 -0.0011615562 -0.016494337 -0.0015461545
000180 3b 81 30 bb 78 3d 93 bc 87 39 88 bc 53 81 d7 3b
       -0.0026932496 -0.017973647 -0.016628994 0.006576696
000190 4b b2 c0 3b 01 80 f7 3b c4 d0 66 3c dc f0 5c bb
       0.005880629 0.007553101 0.01408786 -0.00337129
0001a0 67 00 64 3b 4b e4 f6 bb e8 58 02 3d 28 62 1f b9
       0.003479028 -0.007534539 0.03182307 -0.00015199988
0001b0 3a 0d cc 3c 23 60 ae bc 65 cd e1 bc 69 27 91 3b
       0.02490865 -0.021286076 -0.02756376 0.004429747
0001c0 06 e1 03 bd 8b 46 a7 3c da 8d a3 3c 52 e0 eb 3c
       -0.03219702 0.02041938 0.019965101 0.028793488
0001d0 a3 13 03 3d 9b ef 38 3c 5b e9 5a 3c 93 e0 b9 bb
       0.03200115 0.011287595 0.0133613 -0.0056725233
0001e0 6a 66 03 3d 9c 12 72 3c b8 d4 0c bc 14 72 06 bd
       0.03208009 0.014774945 -0.008595638 -0.032823637
0001f0 f3 ed 7e 3b 6c 19 8a 3b 15 fb db 3c 43 72 d2 3c
       0.0038899153 0.0042144563 0.026853124 0.02568925
000200 34 3a 16 3d 7f 73 dc 3a 65 41 4c 3c b0 a8 e6 bc
       0.0366766 0.0016819088 0.012466763 -0.028156608
000210 38 aa 81 3b 62 77 0e 3c a8 fc b4 bc 6c 84 87 bc
       0.0039570592 0.008695455 -0.022093132 -0.016542636
000220 51 bd 90 3c 0e 4d 94 bc d3 c6 2e bc 41 51 d9 3c
       0.017668398 -0.018103149 -0.010667521 0.026528003
000230 f9 43 ff 3c c3 b7 bf bc d2 a4 c7 bc c4 e9 ea 3c
       0.031160342 -0.023403054 -0.024370585 0.028675921
000240 eb 7b 1e bc c0 e4 ce 3b 6b 13 ad bc e5 ff 55 bc
       -0.009673099 0.00631389 -0.021127423 -0.013061498
000250 38 86 e6 3c bd 84 cb bc dc 21 50 3c 44 b8 8f 3a
       0.028140172 -0.024843568 0.012703385 0.001096495
000260 e9 f1 35 3c a1 9b af 3a e1 ad 02 bc b5 95 58 3c
       0.011105039 0.0013397821 -0.007976026 0.013219287
000270 61 3f 1e 3c 1e 84 5e bb aa da c1 3c c4 39 01 3d
       0.009658665 -0.003395326 0.023663837 0.03154923
000280 8f 8c 9d 3c e1 62 1b bc 01 32 d4 bc df 24 c9 bc
       0.019232063 -0.009484024 -0.02590275 -0.024553714
000290 27 27 93 bc eb df 3f bb 64 d0 97 3c 84 2c 28 3c
       -0.017963005 -0.0029277753 0.018531986 0.01026452
0002a0 b4 8b 02 3d 18 bd 0e bd 5a e6 a2 bc 26 70 04 3d
       0.031871513 -0.034848303 -0.01988523 0.032333516
0002b0 c0 bb ce bc 35 59 ba 3c 46 cb 24 3a 9f 47 77 bb
       -0.02523601 0.022747615 0.00062863936 -0.0037731898
0002c0 48 c0 ce 3c 2a 98 e0 3c e2 fd 6d bc dc 9b 09 bb
       0.025238171 0.027416307 -0.014525862 -0.002099744
0002d0 e3 6a 08 3d 30 81 f2 3c 8e 37 69 3c e7 c7 af bc
       0.03330506 0.029602617 0.014234437 -0.021457626
0002e0 8c db c3 bc d0 40 d2 3c 30 8d a8 3c 7b a8 7f bb
       -0.023908399 0.02566567 0.020575136 -0.0039010334
0002f0 48 dd 0b 3d 3f 4a cb 3c 27 9f f7 bb a9 7d 80 3c
       0.034146577 0.024815677 -0.0075568142 0.01568492
000300 c0 52 0d 3d a4 20 a8 3c 7f 88 8b bc 6f 33 08 bd
       0.034502745 0.020523377 -0.01703286 -0.033252176
000310 28 83 34 3c c6 e4 5b 3c da b5 0e bd fc 47 ab 3b
       0.011017598 0.013421243 -0.034841396 0.005227087
000320 c0 90 b2 bc da 5d 68 3c 91 72 8d bc dc 75 dc bc
       -0.021797538 0.014182532 -0.017266544 -0.026911668
000330 67 44 0b 3d bb 41 ad 3c d2 3a 6a bc ec ee d0 bc
       0.03400078 0.021149507 -0.01429625 -0.025504552
000340 81 d0 c3 3c 9a de b4 bc 41 b5 2b bc cf 15 81 bc
       0.023903133 -0.022078801 -0.010480226 -0.01575747
000350 e5 a3 2c 3c ac e7 13 bb e9 4b 57 3c 04 21 a2 bc
       0.010537122 -0.0022568507 0.013140657 -0.019791134
000360 ab cb d5 3c ea 04 86 3b 82 07 c8 bc 02 97 d3 bc
       0.026098093 0.0040899413 -0.024417643 -0.025828842
000370 d3 02 b0 3c 3e 21 7a bc 05 38 22 3c 96 17 6e 3a
       0.021485722 -0.015266715 0.009901051 0.0009082494
000380 f9 82 86 bc 81 b8 0a 3d 07 ab 5e bc aa b5 79 3c
       -0.016419875 0.033867363 -0.013590581 0.015241066
000390 33 15 b5 3c cc c8 2f 3c 7f 6c 0d 3d b0 c0 c8 bc
       0.022104835 0.010729026 0.034527298 -0.024505943
0003a0 de 01 91 3b 55 13 bb b8 77 2d 87 3c 00 4f 7d bc
       0.0044252714 -8.920456e-05 0.016501172 -0.01546073
0003b0 80 1f b5 bc 66 7a e4 bc c3 3d c6 3c 6f 31 1c 3c
       -0.022109747 -0.027890395 0.024199372 0.00953327
0003c0 a2 c8 09 bd bc ed 2f bb 0b 04 f5 bc 27 d9 f6 bc
       -0.033638604 -0.0026844582 -0.029909154 -0.030132843
0003d0 6c 2c b3 3c 1b f2 8f bc 21 d3 ad 3c 62 bb 07 3d
       0.021871768 -0.0175715 0.021218838 0.033137687
0003e0 78 b8 9e 3b 82 50 73 3c f1 f0 fc bc 60 13 76 bc
       0.0048437677 0.0148507375 -0.030876609 -0.015019268
0003f0 bd 10 00 bb 10 e5 fb 3b a6 46 71 3c 96 12 9c 3c
       -0.0019541227 0.0076872185 0.014726317 0.019051831
