output_x01/x2/epoch_253.pth (torch, 231335 bytes, 5 tensors)

conv1.weight f4 [64, 1, 9, 9]
0	0xbd44f721	-0.048087243
1	0x3c1af5f2	0.009458052
2	0xbd44555d	-0.04793297
3	0x3d8175f6	0.063213274
4	0xbd986a51	-0.07442153
5	0x3dca4759	0.0987689
6	0xbd84d6b0	-0.06486261
7	0xbd99a8db	-0.0750291
8	0xbd85d488	-0.06534678
9	0x3d22a86f	0.039711412
10	0xbd2c7246	-0.042101167
11	0x3d3d5d58	0.046231598
12	0xbdaa03a5	-0.083014764
13	0xbd73b94a	-0.059502877
14	0xbcf87dc1	-0.030333402
15	0xbc4361b1	-0.011925147
16	0xbda5af5a	-0.08090086
17	0x3d939d16	0.07207696
18	0xbd34fdbc	-0.044187292
19	0x3cd069b5	0.02544103
20	0x3d8fa953	0.07014718
21	0x3cdd3509	0.027002828
22	0x3d3b1ebc	0.045683607
23	0x3dfe98e2	0.12431504
24	0xbd000026	-0.03125014
25	0x3d4d950f	0.05019098
26	0xbd389de0	-0.045072436
27	0x3d960f9d	0.07327197
28	0x3d9f7185	0.07785324
29	0xbded40e2	-0.11584641
30	0x3dddb045	0.10824636
31	0x3d92c30d	0.07166109
32	0x3d5f1336	0.05446168
33	0x3d76ece4	0.06028451
34	0x3de961a0	0.113955736
35	0xbc0c9553	-0.008580524
36	0xbdcb61d6	-0.0993077
37	0xbd2d38de	-0.04229056
38	0xbdb0edb4	-0.08639088
39	0x3cd6b054	0.026207127
40	0xbc4f8058	-0.012664877
41	0xbd8fcd1a	-0.07021542
42	0xbbda4d35	-0.006662036
43	0x3df727ae	0.12068115
44	0xba96a766	-0.001149398
45	0xba1fdb38	-0.0006098035
46	0xbcd7bafc	-0.026334278
47	0x3c205cba	0.009787733
48	0x3ddf8bbc	0.10915324
49	0x3d848c3d	0.06472061
50	0x3cbbc39e	0.022920426
51	0x3cc7d48b	0.02439334
52	0x3d1abbdc	0.037776813
53	0x3d4868a9	0.048927937
54	0x3b86ea78	0.0041173063
55	0xbdd08b7c	-0.101828545
56	0xbd891257	-0.06692951
57	0x3de2a48d	0.11066542
58	0x3b46b2e5	0.0030319032
59	0xbddf7154	-0.109102875
60	0x3c8aa837	0.016925914
61	0x3dd1b8d1	0.10240329
62	0xbdd6df7f	-0.10491847
63	0xbd470eb1	-0.048597995
64	0xbd050447	-0.032474782
65	0x3c8ad4de	0.016947206
66	0xbbc0a3f0	-0.005878918
67	0xbbeb1a73	-0.007174784
68	0xbddd8c40	-0.10817766
69	0x3d885b3a	0.06658025
70	0x3df6d07d	0.12051485
71	0x3d9c91c1	0.07644988
72	0xbd69fa1a	-0.05712328
73	0xbda3bc5c	-0.07994911
74	0x3d46f6e8	0.048575312
75	0x3b5b9676	0.003350643
76	0x3d34c7ee	0.04413598
77	0xbddbfe3a	-0.10741849
78	0xbb969702	-0.0045956383
79	0x3db003e4	0.08594492
80	0x3d5d0448	0.05395916
81	0x3c1b8e0f	0.009494319
82	0x3c48b2be	0.012249647
83	0xbc3e8fe4	-0.011630986
84	0xbd923110	-0.07138264
85	0xbd4c0183	-0.04980613
86	0xbdd5f330	-0.10446775
87	0x3dbe4b37	0.0929169
88	0x3d563e5c	0.052305564
89	0x3cb4698e	0.022022989
90	0xbdc5618b	-0.096377455
91	0x3d9aa70f	0.07551395
92	0x3d0b765f	0.034048434
93	0x3d715737	0.058921065
94	0xbd4f2fdd	-0.050582755
95	0x3b1dbe3f	0.0024069694
96	0x3dfcabbb	0.123374425
97	0x3db70870	0.08937156
98	0x3d9acda9	0.07558758
99	0xbd073c1c	-0.03301631
100	0x3d9f041f	0.07764458
101	0xbdbedc49	-0.0931936
102	0xbcb965ac	-0.022631489
103	0xbd812723	-0.06306293
104	0xbd0cd4c8	-0.03438261
105	0xbc8970fa	-0.016777504
106	0x3ca91037	0.020637615
107	0x3dcc05a3	0.099620126
108	0x3d2ac8ff	0.04169559
109	0xbb4ef7be	-0.0031580771
110	0x3dc30ac2	0.09523536
111	0xbd87e9eb	-0.06636413
112	0x3da3a8cd	0.079911806
113	0xbb71543e	-0.0036823894
114	0xbc8862f9	-0.016648756
115	0x3c215ec1	0.009849251
116	0xbdbf474f	-0.09339773
117	0x38907f10	6.890122e-05
118	0x3d05c05e	0.03265416
119	0x3ddf4ab4	0.1090292
120	0xbd621638	-0.05519697
121	0x3d402670	0.046911657
122	0x3ddc52b1	0.1075796
123	0xbd6a413e	-0.057191126
124	0x3dbfc26a	0.093632534
125	0xbd95e81d	-0.07319663
126	0x3d47cfca	0.048782147
127	0x3d184b37	0.037181105
128	0x3d1385b9	0.0360162
129	0x3d8c939a	0.0686409
130	0xbce71680	-0.028208971
131	0x3d20b6b2	0.03923673
132	0x3b9d702a	0.0048046308
133	0xbda01bf7	-0.07817834
134	0xbcfecc26	-0.031103205
135	0xbda9334e	-0.08261739
136	0x3cbfc917	0.023411317
137	0x3b7562e9	0.0037442988
138	0xbb5a98f7	-0.0033355334
139	0xbca312db	-0.019906452
140	0xbb6dec3e	-0.0036304141
141	0xbd223347	-0.039599683
142	0x3d064b86	0.03278687
143	0x3dc4fb26	0.09618215
144	0x3c82ec32	0.015981767
145	0xbd8f9294	-0.070103794
146	0xbd83b055	-0.06430117
147	0xb9adf686	-0.00033180806
148	0xbdada777	-0.08479207
149	0xbdcc3c42	-0.09972431
150	0xbdaba360	-0.08380771
151	0xbd34f3a3	-0.044177663
152	0xbbaa5a78	-0.005198773
153	0x3dcc7052	0.09982361
154	0x3d3f2d46	0.046674035
155	0x3deb7c8b	0.11498364
156	0xbd65a38b	-0.05606417
157	0x3c74abc0	0.0149335265
158	0xbdd05384	-0.10172179
159	0x3d9abb09	0.075552054
160	0x3cfba331	0.030717464
161	0x3dd93cd8	0.10607308
162	0xbda8c10b	-0.08239945
163	0x3dc17f0c	0.094480604
164	0x3decc6db	0.11561366
165	0x3e04b4b4	0.12959558
166	0x3d87812b	0.06616434
167	0x3e0a9d25	0.13536508
168	0x3db35e1c	0.08758184
169	0x3da52935	0.080645
170	0xbc16855a	-0.009187067
171	0xbdc1b206	-0.094577834
172	0xbb89cf6a	-0.004205634
173	0x3ce77de4	0.028258272
174	0xbd920166	-0.07129173
175	0xbd84137a	-0.06449027
176	0xbddab0e4	-0.106782705
177	0xbd1648d2	-0.03669054
178	0x3db2ad58	0.08724469
179	0xbb91bad7	-0.004447322
180	0x3c00ddc0	0.007865369
181	0x3c919b67	0.017774297
182	0x3db2744c	0.08713588
183	0xbda807c7	-0.082046084
184	0xbd962d6d	-0.07332883
185	0xbd0fbff0	-0.035095155
186	0xbd6d4af9	-0.057932828
187	0x3d834e8c	0.06411466
188	0x3d894584	0.06702712
189	0xbd9458df	-0.07243513
190	0xbd8b0543	-0.06788113
191	0xbdaf00a5	-0.08545045
192	0x3d958257	0.07300251
193	0x3e08f24a	0.13373676
194	0xbd8390ab	-0.064240776
195	0xbd1a360f	-0.03764921
196	0x3d621228	0.055193096
197	0xbd82c1e3	-0.06384637
198	0x3dd16ac9	0.10225446
199	0x3cd818f0	0.026379079
200	0xbd0de082	-0.034637935
201	0x3c868570	0.01642105
202	0x3d8704c8	0.06592709
203	0xbcc77bdf	-0.024351059
204	0xbda1aba3	-0.07894065
205	0x3c5f668f	0.013635292
206	0x3bb5a762	0.005543635
207	0xbbda3b8e	-0.0066599315
208	0xbc8d836f	-0.017274586
209	0x3d9e8fba	0.077422574
210	0xbcfd9f50	-0.030959755
211	0xbb08ec43	-0.0020892776
212	0x3d8b43c8	0.068000376
213	0xbd2c804e	-0.04211455
214	0x3d48cb3f	0.049021956
215	0xbcea7748	-0.02862133
216	0x3d51eeb4	0.051253036
217	0xbd85bac0	-0.0652976
218	0x3cdbe4c4	0.026842482
219	0x3d06fdb6	0.0329568
220	0xbda40503	-0.080087684
221	0xbd901e85	-0.07037071
222	0x3d65e484	0.056126133
223	0xbcdebafd	-0.027188772
224	0x3d6d0156	0.057862602
225	0xbdb0776d	-0.08616529
226	0xbd370cfc	-0.044690117
227	0xbd8e68ba	-0.06953569
228	0x3d950659	0.07276601
229	0x3cdfa614	0.027300872
230	0xbb034ba1	-0.0020034092
231	0xbc50ccb9	-0.012744122
232	0xbda985c0	-0.08277464
233	0x3d36c1ca	0.044618405
234	0x3c945b44	0.018109925
235	0xbd7c22fb	-0.061556797
236	0x3d8351f5	0.064121164
237	0x3b157995	0.0022808064
238	0xbdd295e5	-0.10282496
239	0x3d8854d1	0.066568024
240	0x3d69e174	0.057099774
241	0xbc9ccd94	-0.019140996
242	0xbd68a973	-0.056802224
243	0x3a69a34f	0.00089125795
244	0x3da2aae1	0.07942749
245	0x3dc4d1ee	0.096103534
246	0xbdba0a50	-0.09083998
247	0xbd78bafd	-0.0607252
248	0x3da2d7cf	0.079513185
249	0x3d5136df	0.05107772
250	0x3d6b5b82	0.057460316
251	0xbd89be18	-0.06725711
252	0x3dc4350d	0.09580431
253	0xbdcb9e0c	-0.099422544
254	0xbc804c1d	-0.015661294
255	0xbbb4cd45	-0.005517634

conv1.bias f4 [64]
0	0xbd112079	-0.03543136
1	0xbd23170e	-0.03981691
2	0x3c01f4db	0.007931913
3	0xbd7a4af1	-0.061106626
4	0x3d34ca66	0.044138335
5	0x3ce78d72	0.028265689
6	0x3d7b6a16	0.06138047
7	0xba92ba53	-0.0011194445
8	0x3e0113f8	0.12605274
9	0xbcb967e3	-0.022632545
10	0x3c23f034	0.010005999
11	0x3aabac32	0.0013097583
12	0xbd643d40	-0.055722475
13	0x3e0e1a28	0.13877165
14	0x3d92706b	0.07150348
15	0x3d8b5c8d	0.06804762
16	0xbccbe386	-0.024888765
17	0xbd884ce9	-0.066552944
18	0x3d9fa409	0.07794959
19	0x3d38af1d	0.045088876
20	0x3cafa0b3	0.021438932
21	0xbc7c16c4	-0.015386287
22	0xbd91b80b	-0.071151815
23	0x3dd6edc0	0.10494566
24	0xbcbb89c7	-0.022892846
25	0x3dcd3667	0.10020142
26	0xbb795f2c	-0.0038051112
27	0xbce3c2e9	-0.027802901
28	0x3cf282c0	0.029603362
29	0x3d3bb03f	0.04582238
30	0x3dcb6599	0.099314876
31	0x3c05840e	0.00814916
32	0x3d3d830a	0.046267547
33	0x3d9b260a	0.07575615
34	0xbc64e243	-0.013969961
35	0xbddc7b45	-0.10765699
36	0xbc85c1c7	-0.016327752
37	0x3da9cac8	0.082906306
38	0xbce53f79	-0.027984368
39	0x3d272f7b	0.040816765
40	0xbddfeeb0	-0.10934198
41	0xbd1c719a	-0.038194276
42	0x3de686e4	0.11256197
43	0x3d36d639	0.044637892
44	0x3d0c3bdb	0.03423677
45	0x3d17ede5	0.03709211
46	0xbad41125	-0.0016179426
47	0x3ce5fd74	0.028074957
48	0x3c923e6d	0.017852033
49	0xbcbfd752	-0.023418102
50	0xbc9cd09b	-0.01914244
51	0x3b9b09e6	0.0047314046
52	0x3d8de034	0.06927529
53	0x3abd4955	0.001444141
54	0x3ad2bcd8	0.0016078008
55	0xbae703c8	-0.0017625028
56	0x3e075f40	0.13219929
57	0xbd390386	-0.045169376
58	0x3bea6ef4	0.00715434
59	0x3e1c60dc	0.15271324
60	0x3df68bd2	0.12038387
61	0x3d21a1aa	0.039460815
62	0xbcd394c5	-0.025827775
63	0xbd9a0cac	-0.07521948

conv2.weight f4 [32, 64, 5, 5]
0	0x39b0b9f0	0.0003370787
1	0xbb01d27f	-0.0019809303
2	0x3cb1a154	0.021683373
3	0x3bed3c0b	0.0072398237
4	0xbc47755f	-0.01217398
5	0xbcb9baeb	-0.022672137
6	0xbcea06be	-0.028567668
7	0xbc9273b4	-0.017877437
8	0xbcc52e66	-0.024069976
9	0xbd1d4f8a	-0.038405932
10	0x3ce1d130	0.027565569
11	0x3c127d20	0.008940965
12	0xbbbff3fb	-0.005857942
13	0xbcebe785	-0.02879692
14	0xbc79592f	-0.015219017
15	0xbb1eed86	-0.0024250462
16	0x3c9195ea	0.01777168
17	0xbc335402	-0.010945322
18	0xbc1b7814	-0.009489078
19	0x3c240de8	0.010013081
20	0x3c2c0189	0.010498413
21	0x3caecc73	0.021337723
22	0xbc3ca383	-0.011513594
23	0x3cf3d9bf	0.029766915
24	0x3ca3050f	0.019899873
25	0xbc62dc28	-0.013846435
26	0x3cb408f1	0.02197692
27	0x3c810994	0.015751638
28	0xba74c810	-0.0009337673
29	0xbcdaef2e	-0.026725378
30	0xbc961ec9	-0.018325226
31	0x3bd0e4ca	0.00637493
32	0xbbe1648f	-0.0068784426
33	0xbb7fab99	-0.0039012192
34	0xbb924e44	-0.0044648964
35	0x3b9f329a	0.004858327
36	0xbc3e4625	-0.011613403
37	0x3b8c3e56	0.004279892
38	0xbc13b834	-0.009016085
39	0x3c88a6d6	0.016681116
40	0x39da82d9	0.0004167769
41	0x3c60477c	0.013688918
42	0x3ae82187	0.0017710187
43	0x3c17a637	0.009255937
44	0xbc038399	-0.008026981
45	0xbd10ec8e	-0.035381846
46	0x3c280fa4	0.010257635
47	0x3ca46a24	0.020070143
48	0x3cdf99fb	0.027295103
49	0x3c69758d	0.014249218
50	0x3a49ab86	0.00076931005
51	0x3d243147	0.040086057
52	0x3d03a86d	0.032143045
53	0x3ce256de	0.027629312
54	0x3a9fe84e	0.001219997
55	0x3c954951	0.018223437
56	0x3d1407e8	0.036140352
57	0x3d511af6	0.051051103
58	0x3cb5f134	0.022209741
59	0xbb269b68	-0.002542222
60	0x3c87685a	0.01652925
61	0xbbf10313	-0.007355103
62	0xbd01ac6d	-0.03165858
63	0xbcae5d4c	-0.021284722
64	0xbd3834a7	-0.04497209
65	0xbcab0aba	-0.020879138
66	0x3c2a462b	0.010392706
67	0x3b95928b	0.0045645884
68	0x3c0dfc1b	0.008666064
69	0x3c646c19	0.013941788
70	0xbb01990f	-0.0019775068
71	0x3c9f1b5f	0.019422231
72	0x3b618349	0.0034410527
73	0xbb92b3ee	-0.0044770157
74	0x3ca438d3	0.020046627
75	0x3bb002a3	0.005371408
76	0xbccf71d7	-0.025322838
77	0xbc81f5ae	-0.01586422
78	0xbccf8f09	-0.02533676
79	0xbd143ef2	-0.03619284
80	0xbaf9acdb	-0.0019048707
81	0x3c5ac4c6	0.0133525785
82	0xbcaf25df	-0.021380363
83	0xbc831b3b	-0.016004195
84	0x3c9c846b	0.01910611
85	0x3c5760ca	0.013145635
86	0x3c2ebfb7	0.010665826
87	0xbc4ed92b	-0.012625019
88	0x3d1e6df3	0.038679074
89	0x3c839a94	0.01606492
90	0xbc013b03	-0.007887605
91	0x3ce383a7	0.027772738
92	0x3ca976d5	0.020686546
93	0x3cbbe4c1	0.022936227
94	0xbbc76de7	-0.0060860994
95	0xbc16ea9c	-0.009211209
96	0xbcdafc45	-0.02673162
97	0xbaa5ebe2	-0.00126588
98	0xbd18ea54	-0.037332848
99	0xbd071c47	-0.03298595
100	0xbd04ff4c	-0.032470033
101	0xbcb3e108	-0.02195789
102	0x3c966016	0.018356364
103	0x3d30a3c7	0.04312494
104	0x3cff2aca	0.031148333
105	0xbc98d4ee	-0.01865622
106	0x3bbf1fe0	0.005832657
107	0x3cabf511	0.02099088
108	0x3ce501eb	0.027955016
109	0x3c443eb9	0.011977845
110	0xbce286e6	-0.027652215
111	0xbc444e57	-0.011981568
112	0x3d013836	0.031547748
113	0x3cb144bf	0.021639226
114	0xbd0bbe21	-0.034116868
115	0xbc76babc	-0.015059169
116	0x3cbc1853	0.022960817
117	0xbc84daa4	-0.016217537
118	0x3c9c22c6	0.01905955
119	0x3c450102	0.012024166
120	0xbc85f00e	-0.016349819
121	0x3be0de37	0.0068624276
122	0xbb28fa3e	-0.0025783922
123	0xbc921563	-0.017832464
124	0x3cc0d5bf	0.023539422
125	0xbcc8e18c	-0.024521612
126	0xbd2c5fa4	-0.042083398
127	0x3d1ac3a8	0.03778425
128	0xbc4cd2b3	-0.0125014065
129	0x3dcda3ed	0.10041032
130	0x3bc6cac3	0.0060666515
131	0x3b8b4f08	0.0042513646
132	0xbb3cc683	-0.0028804846
133	0xbd183a20	-0.037164807
134	0xbc8efae9	-0.017453628
135	0x3d1d8d85	0.03846504
136	0x3ce27091	0.027641566
137	0x3d87c55d	0.06629441
138	0x3d66f768	0.05638829
139	0x3d2573ed	0.04039376
140	0xbb6640d9	-0.0035133867
141	0x3c0c665c	0.008569326
142	0x383b4dee	4.4656852e-05
143	0xbb07004f	-0.002059955
144	0x3c3273a7	0.0108918315
145	0xbcc51077	-0.024055703
146	0x3c83ae4c	0.016074322
147	0xbbf349d0	-0.0074245706
148	0xbc5b31cb	-0.013378571
149	0xbcf7b200	-0.030236244
150	0xbc111d1a	-0.008857036
151	0xbb7c33eb	-0.0038483094
152	0xbc1f8b83	-0.009737852
153	0x3ce8f147	0.028435363
154	0xbd1eeffd	-0.03880309
155	0x3cc6012e	0.024170484
156	0x3c3e571e	0.01161745
157	0xbc91f04c	-0.017814778
158	0xbc2a80b2	-0.01040666
159	0x3c830532	0.015993688
160	0x3c04f82a	0.008115808
161	0xbc33e453	-0.01097973
162	0x3c256fd0	0.010097459
163	0x3bb93210	0.00565172
164	0x3b23905b	0.0024957869
165	0x3bd63aa3	0.0065377518
166	0xbcbf9c29	-0.023389893
167	0xbc23a511	-0.009988085
168	0x39665d4f	0.0002196927
169	0x3cca8d95	0.024725715
170	0xbcf7eaca	-0.030263323
171	0xbca4a400	-0.020097733
172	0x3c44fe63	0.012023541
173	0x3ca6f4e6	0.020380449
174	0x3c1acc5e	0.009448139
175	0x3c8ca391	0.017167838
176	0xbcf297db	-0.029613426
177	0xbbb90334	-0.005646134
178	0x3bff5597	0.0077921855
179	0xbd87a674	-0.06623545
180	0x3c1bb408	0.009503372
181	0xbdb5d5d7	-0.08878677
182	0xbc8da167	-0.017288877
183	0x3d873fa8	0.06603938
184	0xbc0edd0e	-0.008719696
185	0xbd805c2b	-0.0626758
186	0xbd9540ce	-0.07287751
187	0xbd83c97e	-0.06434916
188	0xbc92a00a	-0.017898578
189	0xbc8d6105	-0.017258177
190	0xbcf30d7b	-0.029669514
191	0x3d3fcce2	0.04682625
192	0x3db96f58	0.0905444
193	0x3d2841f6	0.04107853
194	0xbc025122	-0.007953914
195	0xbdef370d	-0.11680422
196	0xbdc7a032	-0.09747352
197	0xbc9a5eb4	-0.018843986
198	0xbd0bb288	-0.034105808
199	0xbd2a9d12	-0.0416537
200	0xbcf00b01	-0.029302122
201	0xbd2bffc9	-0.041991983
202	0xbd27ee0f	-0.040998515
203	0x3b80287b	0.0039110756
204	0xbc63d641	-0.013906063
205	0x3c13d76a	0.009023527
206	0x3b04c80a	0.0020260834
207	0xbc3da461	-0.0115748355
208	0x3c511d03	0.012763265
209	0xba44cf90	-0.0007507736
210	0xbc614c7f	-0.013751148
211	0x3c89b141	0.016808154
212	0x3cbb9778	0.022899374
213	0x3c42f856	0.011900028
214	0xbc9a6158	-0.018845245
215	0x3d019c85	0.03164341
216	0x3c880dfb	0.016608229
217	0x3caba539	0.020952808
218	0xbc14d713	-0.009084481
219	0xbcfda61e	-0.030963
220	0xbcd852ec	-0.026406728
221	0xbb4b27d0	-0.0030999072
222	0xbc115ec5	-0.0088726925
223	0xbcb8f1f6	-0.022576313
224	0x3c388587	0.011262304
225	0xbb8a9b95	-0.0042299726
226	0x3b9d3d71	0.004798584
227	0xbbdac544	-0.006676348
228	0xbbc990a4	-0.0061512757
229	0xbbeaa386	-0.007160607
230	0x3ca5b4d3	0.020227825
231	0x3c3dbcc2	0.011580648
232	0x3d19fe24	0.037595883
233	0x3d20effe	0.039291374
234	0xbc60ac28	-0.01371292
235	0xbc416d47	-0.011805839
236	0x39dce0c2	0.00042129128
237	0x3b61a35b	0.0034429643
238	0x3c5002ea	0.012696007
239	0xba1b14b7	-0.00059158675
240	0xbd298bc8	-0.04139307
241	0xbc61db32	-0.01378517
242	0xbc54195e	-0.012945501
243	0xbd51219a	-0.051057436
244	0xbc39ba9a	-0.011335993
245	0x3b07ebd9	0.0020739941
246	0x3b6fecd1	0.003660966
247	0xbb542f87	-0.0032376961
248	0xbcd83583	-0.026392704
249	0xbba3be5f	-0.0049970592
250	0xbc7bc77c	-0.015367385
251	0x3c8dcf55	0.017310778
252	0x3c18ba75	0.009321799
253	0xbc854b66	-0.016271304
254	0xbc4e3ad8	-0.012587272
255	0xbd4c067f	-0.049810883

conv2.bias f4 [32]
0	0xbbbf6939	-0.005841401
1	0xbd0650e2	-0.03279198
2	0xbb1d94e5	-0.0024045047
3	0x3cbaa031	0.022781463
4	0x3ccfe357	0.025376959
5	0x3ca8c6ef	0.020602671
6	0xbc4b1ac6	-0.01239652
7	0x3c0993ec	0.008397084
8	0x3bebd8cf	0.0071974765
9	0xbc50c90a	-0.012743244
10	0xba6f27ce	-0.0009123058
11	0x3c373ded	0.011184198
12	0x3cc7cb23	0.024388855
13	0x3c9417bb	0.018077722
14	0x3c991692	0.01868752
15	0x3c976e82	0.018485311
16	0xbc73243a	-0.01484018
17	0xbc9c131f	-0.019052086
18	0x3c9646e6	0.018344354
19	0x3ca5160f	0.02015212
20	0x3d47bd7c	0.04876469
21	0xbc68d4e1	-0.014210911
22	0xbc78e5fe	-0.015191553
23	0x3c90924a	0.017647881
24	0x3c534df3	0.0128970025
25	0x3c491dcd	0.0122751715
26	0x3c9618b6	0.01832233
27	0x3d02560e	0.03182035
28	0x3c1228a9	0.008920827
29	0xbc5e2c2c	-0.013560336
30	0x3c2979c7	0.010343975
31	0xba46008a	-0.0007553181

conv3.weight f4 [1, 32, 5, 5]
0	0x3c9437c2	0.018092994
1	0x3c9769ba	0.018483032
2	0xbaa6889a	-0.0012705505
3	0x3cf22c2c	0.029562078
4	0x3d0de61e	0.034643285
5	0xbcd19649	-0.025584357
6	0x3c05b810	0.00816156
7	0xbd04a0cc	-0.03237991
8	0x3b68bb28	0.0035511944
9	0x3c7705c5	0.015077059
10	0xbbb8274b	-0.0056199185
11	0x3ce2c1b1	0.02768025
12	0x3c401cba	0.011725599
13	0xbd15805c	-0.036499366
14	0xbc0560f6	-0.008140793
15	0xbc91e8ce	-0.017811205
16	0xbcff9a60	-0.031201541
17	0xba99f470	-0.0011745822
18	0xbd096a01	-0.03354836
19	0x3cb334a4	0.021875687
20	0x3c047a5d	0.008085814
21	0x3c6a5125	0.014301573
22	0x3cc0eb31	0.023549648
23	0x3d01bdd6	0.031675182
24	0xbc63903d	-0.01388937
25	0x3a8fcc2d	0.0010970883
26	0xbd17c03f	-0.037048575
27	0x3bf2bca6	0.0074077426
28	0x3cd98e1b	0.026557019
29	0xbccbbe7c	-0.024871103
30	0x3ca41386	0.02002884
31	0xbc9e415b	-0.019318273
32	0x3c27f567	0.01025138
33	0xbc836614	-0.016039886
34	0x3b9bb31a	0.004751575
35	0xbd0c8abe	-0.034312002
36	0x3cc724d5	0.024309555
37	0xbc0ff359	-0.008786046
38	0x3d00283b	0.031288367
39	0xbc82f5f1	-0.015986415
40	0x3c821270	0.015877932
41	0xbc9e5630	-0.019328207
42	0xbc94722b	-0.018120846
43	0xbc18a3dc	-0.009316411
44	0x3c7aeb8a	0.015314946
45	0x3c783fd1	0.015151934
46	0x3ca28888	0.019840494
47	0xbbe5e021	-0.0070152436
48	0x3b9d937a	0.0048088403
49	0x3ca72b9b	0.020406535
50	0xbc6247b4	-0.013811041
51	0xbc3e406c	-0.011612039
52	0x3cdc840a	0.02691843
53	0xbcf44833	-0.029819584
54	0xbc8c1faf	-0.017104952
55	0xbca08d74	-0.0195987
56	0xbbf38934	-0.0074321274
57	0xbcd4d6df	-0.025981365
58	0x3c0700d4	0.0082399435
59	0xbcca3458	-0.024683163
60	0xbc7e9c5e	-0.0155402105
61	0xbd0ced9c	-0.03440629
62	0x3cc1094f	0.023564009
63	0xbcb177b4	-0.021663524
64	0xbb8ac194	-0.004234502
65	0xbcacdcfe	-0.021101471
66	0xbba13b1b	-0.004920376
67	0xbbdc8817	-0.0067300904
68	0xbc3c813c	-0.011505421
69	0xba046863	-0.0005050955
70	0x3c763385	0.015026932
71	0x3cee370d	0.029078985
72	0x3cd6fcf7	0.02624367
73	0xbcd6eede	-0.026236948
74	0xbb86199a	-0.0040924074
75	0xbd6cdcd2	-0.05782778
76	0xbcc400b4	-0.023926117
77	0xbc1a273a	-0.009408766
78	0xbc2b957e	-0.010472653
79	0xbba16cb0	-0.0049262866
80	0x3d01ddfb	0.031705838
81	0xbba4178e	-0.0050076908
82	0xbd01d14d	-0.031693745
83	0xbbceb331	-0.0063079824
84	0x3cab135a	0.020883251
85	0x3d48f272	0.04905934
86	0x3d2f32d5	0.042773087
87	0x3d9eb38e	0.07749091
88	0x3d1cf73a	0.03832171
89	0xbbbd819b	-0.0057832724
90	0xbcffd305	-0.031228552
91	0xbd3efa78	-0.046625584
92	0xbd142b0d	-0.03617387
93	0x3a437ec6	0.00074575504
94	0xbcab995e	-0.020947155
95	0x3bd9c60c	0.0066459235
96	0x3aa20f27	0.0012364135
97	0xbcb60f89	-0.022224205
98	0xbc883de3	-0.016631072
99	0x3b7fa941	0.0039010795
100	0x3bb4afb9	0.005514112
101	0x3bef6607	0.007305864
102	0x3c639ed6	0.01389285
103	0xbb6b9295	-0.0035945524
104	0x3b5ccb7d	0.0033690624
105	0xbc02421f	-0.007950335
106	0x3d019fb4	0.031646445
107	0xb9b54560	-0.000345747
108	0x3cc95de7	0.024580909
109	0xbcb09096	-0.021553319
110	0xbce446e9	-0.027865844
111	0x3b8c3674	0.0042789523
112	0xbd04f8d7	-0.032463875
113	0x3ca54afb	0.020177355
114	0x3ca231a6	0.019799065
115	0x3ce97bea	0.02850147
116	0x3d0205f3	0.031743955
117	0x3c368bdf	0.011141746
118	0x3c5648f9	0.0130789215
119	0xbbc30952	-0.005952039
120	0x3d02522c	0.031816646
121	0x3c6cad83	0.014445665
122	0xbc108be7	-0.008822418
123	0xbd07a7f7	-0.033119168
124	0x3b6950e3	0.003560119
125	0x3b879247	0.0041373107
126	0x3cd0ba77	0.025479538
127	0x3cd86d0d	0.026419187
128	0x3d273ecc	0.040831372
129	0xb92b1719	-0.00016316435
130	0x3c5ce628	0.013482608
131	0xbcecde86	-0.028914701
132	0x3a10d9e1	0.00055256305
133	0x3bee5f3b	0.007274536
134	0xbccf52d4	-0.02530805
135	0xbc8a9e7c	-0.016921274
136	0x3c8a6fde	0.016899046
137	0xbca0ef75	-0.019645432
138	0xbc3c96d6	-0.011510571
139	0x3cc939af	0.024563638
140	0x3d015fb6	0.031585418
141	0xbcbc70a8	-0.023002937
142	0xbcb437bc	-0.021999232
143	0x3cff090f	0.03113225
144	0xbc2f6f6d	-0.010707718
145	0x3c0bb0ea	0.008526066
146	0xbcb11fa7	-0.021621538
147	0xbc4b2659	-0.0123992795
148	0x3ceb79d9	0.028744625
149	0xbcdbd716	-0.02683596
150	0x3c4934be	0.012280641
151	0x3a4f3118	0.0007903739
152	0x3c344824	0.011003528
153	0x3a9cbc1c	0.0011957916
154	0xbc0770ac	-0.008266609
155	0x3c520272	0.012817966
156	0x3c19f961	0.0093978355
157	0xbb686d57	-0.0035465562
158	0x3cc15f8f	0.023605136
159	0x3d011db1	0.031522457
160	0x3c9aeb3f	0.018911002
161	0xbc201c12	-0.0097723175
162	0xbcd68e35	-0.026190856
163	0xbccb6a10	-0.024830848
164	0xbc966364	-0.01835794
165	0xbb49c9a6	-0.0030790358
166	0x3c95de59	0.0182945
167	0x3c264992	0.0101493765
168	0x3d01b9f8	0.031671494
169	0xbd10bb74	-0.03533502
170	0xbca49192	-0.020088945
171	0x3d035f44	0.032073274
172	0xbcd17b76	-0.025571566
173	0x3cb7e0f9	0.022446143
174	0x39a69fd9	0.00031781083
175	0xbb81d9e1	-0.003962741
176	0x3ccdaea0	0.025107682
177	0x3cdff980	0.02734065
178	0xbc712391	-0.014717952
179	0xbb16190b	-0.002290311
180	0x3d07b8d6	0.033135258
181	0x3cf1e72b	0.029529175
182	0x3c694f85	0.01424015
183	0xbcb0adab	-0.021567186
184	0xbcc4eb4f	-0.024037985
185	0x3cd141e9	0.025544124
186	0x3ca880dd	0.02056926
187	0xbb78a4c7	-0.0037940012
188	0x3d0bbb8c	0.034114406
189	0x3cca6502	0.024706367
190	0xbbf9d5a3	-0.0076243444
191	0x3c8058d1	0.015667351
192	0x3d0d9bef	0.034572538
193	0x3ca7e26f	0.020493714
194	0xbc8c0886	-0.017093908
195	0xbd08a96f	-0.03336471
196	0x3c33282c	0.010934871
197	0x3c5b8649	0.013398715
198	0xbd0f1cea	-0.034939684
199	0x3ba851b7	0.0051366943
200	0xbcb290c0	-0.021797538
201	0x3c685dda	0.014182532
202	0xbc8d7291	-0.017266544
203	0xbcdc75dc	-0.026911668
204	0x3d0b4467	0.03400078
205	0x3cad41bb	0.021149507
206	0xbc6a3ad2	-0.01429625
207	0xbcd0eeec	-0.025504552
208	0x3cc3d081	0.023903133
209	0xbcb4de9a	-0.022078801
210	0xbc2bb541	-0.010480226
211	0xbc8115cf	-0.01575747
212	0x3c2ca3e5	0.010537122
213	0xbb13e7ac	-0.0022568507
214	0x3c574be9	0.013140657
215	0xbca22104	-0.019791134
216	0x3cd5cbab	0.026098093
217	0x3b8604ea	0.0040899413
218	0xbcc80782	-0.024417643
219	0xbcd39702	-0.025828842
220	0x3cb002d3	0.021485722
221	0xbc7a213e	-0.015266715
222	0x3c223805	0.009901051
223	0x3a6e1796	0.0009082494
224	0xbc8682f9	-0.016419875
225	0x3d08bab6	0.033381186
226	0xbc6d013a	-0.0144656245
227	0x3c76911f	0.015049248
228	0x3cb1e6bc	0.021716468
229	0x3c30eb9f	0.010798364
230	0x3d115a9a	0.035486795
231	0xbcc9b1e0	-0.02462095
232	0x3ba8f40b	0.0051560453
233	0x38bc4d7d	8.978972e-05
234	0x3c832cec	0.016012631
235	0xbc7ed4ff	-0.015553712
236	0xbcc50c21	-0.024053635
237	0xbcefff54	-0.029296555
238	0x3cbf6a67	0.023366166
239	0x3c0fc7c4	0.008775655
240	0xbd0b95a0	-0.03407824
241	0xbb667d2d	-0.0035169825
242	0xbd0007c5	-0.03125741
243	0xbcfe60e6	-0.031052064
244	0x3cb82689	0.022479312
245	0xbc84881d	-0.016178185
246	0x3cb8f081	0.022575619
247	0x3d09cacc	0.033640668
248	0x3b812c38	0.003942039
249	0x3c6c9876	0.014440646
250	0xbcfcf0f1	-0.030876609
251	0xbc761360	-0.015019268
252	0xbb0010bd	-0.0019541227
253	0x3bfbe510	0.0076872185
254	0x3c7146a6	0.014726317
255	0x3c9c1296	0.019051831
