output_x01/x2/epoch_284.pth (torch, 231335 bytes, 5 tensors)

conv1.weight f4 [64, 1, 9, 9]
-0.050464 0.0099174185 -0.047827628 0.06548687 -0.072871394 0.09996204 -0.063655846 -0.07446608
-0.066432506 0.03745374 -0.041510884 0.04680133 -0.08132816 -0.060045674 -0.031436164 -0.012989627
-0.08272271 0.06924388 -0.048343066 0.022955647 0.06787449 0.027756928 0.045998175 0.124774255
-0.029819367 0.050291125 -0.047142666 0.07080925 0.075555936 -0.11849374 0.10959756 0.07184039
0.053937152 0.061588366 0.11484647 -0.010236397 -0.10039076 -0.04374587 -0.0882642 0.028281383
-0.013093695 -0.07180022 -0.0061373496 0.12183849 -0.0010913636 -0.0049383617 -0.031078251 0.005224652
0.10872006 0.06308171 0.020891774 0.024283182 0.038223814 0.048039906 0.003926845 -0.10172092
-0.06586983 0.11383338 0.0033821194 -0.10952733 0.017893648 0.10407907 -0.104433686 -0.048867468
-0.032695856 0.01789145 -0.0034891535 -0.0061713005 -0.1068404 0.06809093 0.12177415 0.07601423
-0.057615448 -0.080786414 0.048326693 0.004087162 0.044052694 -0.107286334 -0.0053820135 0.08485594
0.05247181 0.012504094 0.012356946 -0.0112074725 -0.07115158 -0.050619267 -0.10803722 0.094553865
0.053283464 0.020803355 -0.097589724 0.07282227 0.03087014 0.055508435 -0.053842943 -0.0022102222
0.12504771 0.09116312 0.07278079 -0.034809217 0.07570431 -0.09587346 -0.025952093 -0.06350006
-0.036234155 -0.015305001 0.021990532 0.09740394 0.039433558 -0.0025785386 0.096706815 -0.06565373
0.08462994 -0.0020277156 -0.015973412 0.010623569 -0.09287646 -0.0018359155 0.034249894 0.111200646
-0.05632608 0.049153276 0.10718209 -0.058507547 0.0923108 -0.07448877 0.046701834 0.03642604
0.035818093 0.06567637 -0.02822309 0.037990283 0.0049028182 -0.07740516 -0.03145286 -0.08430903
0.019970901 0.0016969669 -0.00569382 -0.021018527 -0.008075665 -0.04226687 0.0323052 0.09405275
0.013988305 -0.07468492 -0.06574696 -0.00069593056 -0.087553285 -0.105835594 -0.08689003 -0.044668354
-0.0070374245 0.101097494 0.04506908 0.11805459 -0.051445555 0.016624352 -0.09933934 0.08080852
0.03516638 0.10877179 -0.08899317 0.09266167 0.11833057 0.13648486 0.075594276 0.13850023
0.08459399 0.07618062 -0.009871961 -0.10084638 -0.008379192 0.025022328 -0.07736775 -0.07087226
-0.114230186 -0.044018622 0.081411384 -0.009342339 0.010489893 0.020079182 0.08869373 -0.08293521
-0.07089635 -0.03508246 -0.060833417 0.06280329 0.06408961 -0.065442964 -0.0622325 -0.08343551
0.07314352 0.14133649 -0.05900925 -0.037399907 0.05660691 -0.06277452 0.10183305 0.024242563
-0.042660356 0.005997189 0.063062675 -0.02643818 -0.08210542 0.011700165 0.0028480808 -0.009208436
-0.018425368 0.07334332 -0.04004002 -0.005761304 0.070978254 -0.03862558 0.05025111 -0.030982506
0.054497246 -0.06187928 0.03204848 0.03722941 -0.07620125 -0.065860495 0.05689123 -0.029767562
0.05841271 -0.08154554 -0.042200312 -0.06790523 0.07533031 0.032073885 0.001522767 -0.013636674
-0.08363946 0.053154543 0.020217406 -0.060437657 0.06327651 -0.0014374657 -0.10411071 0.067567594
0.053749792 -0.02056001 -0.048625033 0.00056618254 0.0791398 0.09517049 -0.09340187 -0.065770045
0.07303517 0.050221406 0.053557005 -0.07192958 0.09979041 -0.09853901 -0.017958548 -0.009838498
00000000: 57b3 4ebd ab7c 223c e7e6 43bd fb1d 863d
00000010: 993d 95bd e6b8 cc3d ff5d 82bd ac81 98bd
00000020: c40d 88bd 1869 193d 5107 2abd c0b2 3f3d
00000030: 618f a6bd 74f2 75bd 35c3 00bd 72d2 54bc
00000040: 866a a9bd bccf 8d3d 6103 46bd 7b0d bc3c
00000050: c801 8b3d 7f62 e33c 9568 3c3d a589 ff3d
00000060: bf47 f4bc 11fe 4d3d ab18 41bd 7104 913d
00000070: 12bd 9a3d d9ac f2bd af74 e03d 0e21 933d
00000080: 34ed 5c3d 1544 7c3d a034 eb3d 90b6 27bc
00000090: ac99 cdbd df2e 33bd dcc3 b4bd 5cae e73c
000000a0: f086 56bc fe0b 93bd d21b c9bb 7586 f93d
000000b0: 160c 8fba fbd1 a1bb d197 febc 8f33 ab3b
000000c0: 9fa8 de3d fc30 813d 3a25 ab3c 86ed c63c
000000d0: 9390 1c3d 7ec5 443d c3ac 803b 0f53 d0bd
000000e0: c3e6 86bd 7a21 e93d 8ca6 5d3b dd4f e0bd
000000f0: b395 923c 6827 d53d 54e1 d5bd 4129 48bd
00000100: 17ec 05bd 1791 923c 48aa 64bb 9f38 cabb
00000110: 24cf dabd 4273 8b3d ba64 f93d 59ad 9b3d
00000120: 2dfe 6bbd 5973 a5bd 36f2 453d 9aed 853b
00000130: 9970 343d f0b8 dbbd 9a5b b0bb f3c8 ad3d
00000140: aeec 563d f9dd 4c3c ca74 4a3c 8c9f 37bc
00000150: ebb7 91bd 2656 4fbd 9e42 ddbd 75a5 c13d
00000160: c33f 5a3d cc6b aa3c 1fdd c7bd d823 953d
00000170: 60e3 fc3c d05c 633d 6b8a 5cbd 60d9 10bb
00000180: 820c 003e bbb3 ba3d 180e 953d 1c94 0ebd
00000190: dc0a 9b3d 4e59 c4bd 7c99 d4bc 520c 82bd
000001a0: 446a 14bd d4c1 7abc 7d25 b43c b87b c73d
000001b0: 1585 213d b3fc 28bb 390e c63d 7675 86bd
000001c0: 7652 ad3d 6ce3 04bb acda 82bc 7a0e 2e3c
000001d0: 0336 bebd 1aa3 f0ba 9e49 0c3d 2abd e33d
000001e0: 2db6 66bd f254 493d 4982 db3d 9ca5 6fbd
000001f0: 720d bd3d 918d 98bd 6c4a 3f3d 7933 153d
00000200: feb5 123d 5581 863d 1c34 e7bc b39b 1b3d
00000210: d2a7 a03b 9986 9ebd b7d4 00bd 36aa acbd
00000220: 049a a33c c36c de3a 3993 babb 0c2f acbc
00000230: cb4f 04bc 0720 2dbd 7552 043d ba9e c03d
00000240: 342f 653c 68f4 98bd 58a6 86bd 1c6f 36ba
00000250: 234f b3bd 55c0 d8bd 66f3 b1bd 2af6 36bd
00000260: 329a e6bb 340c cf3d 5b9a 383d 9bc6 f13d
00000270: 93b8 52bd cb2f 883c 6d72 cbbd f07e a53d
00000280: 9f0a 103d bfc3 de3d 0d42 b6bd 67c5 bd3d
00000290: 4c57 f23d b0c2 0b3e 2cd1 9a3d 01d3 0d3e
000002a0: 9d3f ad3d 9604 9c3d 01be 21bc 8c88 cebd
000002b0: e148 09bc a0fb cc3c fc72 9ebd 7a25 91bd
000002c0: 84f1 e9bd df4c 34bd 03bb a63d 9c10 19bc
000002d0: cddd 2b3c 197d a43c 0fa5 b53d efd9 a9bd
000002e0: 1b32 91bd a0b2 0fbd 762c 79bd 039f 803d
000002f0: 6a41 833d f606 86bd 82e7 7ebd 3de0 aabd
00000300: 45cc 953d 83ba 103e afb3 71bd a530 19bd
00000310: a6dc 673d ed8f 80bd d98d d03d 5798 c63c
00000320: a0bc 2ebd 1184 c43b 0127 813d e294 d8bc
00000330: e326 a8bd 0db2 3f3c dea6 3a3b fbde 16bc
00000340: ccf0 96bc 0635 963d 0101 24bd 52c9 bcbb
00000350: 0c5d 913d db35 1ebd 1cd4 4d3d 06cf fdbc
00000360: 8138 5f3d 2175 7dbd 4445 033d de7d 183d
00000370: 670f 9cbd dee1 86bd c706 693d 1adb f3bc
00000380: 2a42 6f3d 5901 a7bd 3cda 2cbd e611 8bbd
00000390: c746 9a3d e85f 033d 9597 c73a 5b6c 5fbc
000003a0: 2a4b abbd 94b8 593d f99e a53c 7a8d 77bd
000003b0: 1d97 813d 5869 bcba ff37 d5bd e160 8a3d
000003c0: be28 5c3d 776d a8bc 0b2b 47bd de6b 143a
000003d0: 0c14 a23d bfe8 c23d 7b49 bfbd 72b2 86bd
000003e0: 7793 953d f6b4 4d3d 975e 5b3d d14f 93bd
000003f0: ea5e cc3d d2ce c9bd ce1d 93bc a731 21bc

conv1.bias f4 [64]
-0.03516247 -0.0356193 0.007959258 -0.059343062 0.04572977 0.029864283 0.06181389 0.0003443445
0.12531868 -0.019305639 0.009666597 0.00033733272 -0.053892914 0.14157544 0.07039922 0.06478895
-0.02370183 -0.06574738 0.0785768 0.04637838 0.022213189 -0.014284503 -0.07087967 0.113528766
-0.02477904 0.10612636 -0.0034620499 -0.028856145 0.029339008 0.042934325 0.09869417 0.0077071227
0.048751663 0.07867858 -0.015855446 -0.118098445 -0.018336367 0.08225617 -0.026931541 0.039708648
-0.11040844 -0.040786345 0.11333218 0.04624961 0.035090696 0.037600208 -0.005030062 0.029699245
0.019096678 -0.02407207 -0.019915452 0.0028805018 0.06571704 0.0025773689 0.0012744511 -0.0038409145
0.13755612 -0.044832118 0.0075935624 0.15675792 0.120108016 0.03808929 -0.0222888 -0.06908449
00000000: 8606 10bd 8be5 11bd 8c67 023c b611 73bd
00000010: 244f 3b3d f1a5 f43c 9030 7d3d 2389 b439
00000020: 8a53 003e dc26 9ebc a560 1e3c 08dc b039
00000030: d1be 5cbd 27f9 103e 772d 903d 12b0 843d
00000040: 572a c2bc 90a6 86bd e0ec a03d 42f7 3d3d
00000050: 6ff8 b53c 8c09 6abc 5c29 91bd c581 e83d
00000060: 6afd cabc c758 d93d 8fe3 62bb b963 ecbc
00000070: 5c58 f03c e7db 2f3d 2b20 ca3d 088c fc3b
00000080: d3af 473d 3c22 a13d 48e3 81bc 99dd f1bd
00000090: 2636 96bc ec75 a83d 899f dcbc 89a5 223d
000000a0: d21d e2bd 950f 27bd b41a e83d 3b70 3d3d
000000b0: 43bb 0f3d ad02 1a3d 38d3 a4bb d54b f33c
000000c0: a370 9c3c ca32 c5bc bb25 a3bc cdc6 3c3b
000000d0: a896 863d 13e9 283b 7c0b a73a dab7 7bbb
000000e0: 83db 0c3e e2a1 37bd 6bd3 f83b 2685 203e
000000f0: 31fb f53d 8403 1c3d 0097 b6bc 2b7c 8dbd

conv2.weight f4 [32, 64, 5, 5]
0.00016465 -0.002347675 0.019896284 0.007788764 -0.0076406524 -0.02241225 -0.028620757 -0.018944396
-0.023296801 -0.03378313 0.029390715 0.011374637 -0.007134819 -0.028957792 -0.012267452 -0.0020747078
0.018950522 -0.011614586 -0.009066668 0.013273545 0.012232233 0.02169698 -0.011529989 0.02917024
0.02271917 -0.01276326 0.02183532 0.015829403 -0.0010752465 -0.025988504 -0.02026948 0.0027197963
-0.00932533 -0.007846522 -0.0055126683 0.0058344854 -0.010356429 0.0069287987 -0.009351975 0.016732449
-0.00043264063 0.012958872 0.004008614 0.010501085 -0.009568363 -0.036358435 0.008602483 0.019635811
0.026650514 0.011176638 0.0035965333 0.042237163 0.035366207 0.031311058 0.0012572384 0.020401781
0.033893205 0.050939497 0.022786815 -0.004164524 0.020902175 -0.00861185 -0.033471677 -0.022568397
-0.049080472 -0.020316703 0.009675996 0.0039004998 0.009056807 0.016032454 -0.0024496708 0.019572604
0.003398194 -0.0043904576 0.020475183 0.006125804 -0.0249094 -0.016542012 -0.02539618 -0.03588624
-0.002561707 0.012368206 -0.02238247 -0.015837813 0.02151284 0.010779561 0.009278624 -0.012089358
0.039955337 0.016285686 -0.007331392 0.028118588 0.020201594 0.021451054 -0.006998369 -0.008483356
-0.028879244 -0.005121407 -0.0413871 -0.034949433 -0.032492086 -0.020829331 0.019985776 0.04403914
0.029408744 -0.020310208 0.006839854 0.019980162 0.026653055 0.010652337 -0.030657852 -0.013605089
0.0307667 0.023029903 -0.033192392 -0.013961547 0.024345718 -0.016310327 0.018618032 0.010834743
-0.01406167 0.007386776 -0.0039204913 -0.019432241 0.023041096 -0.013629916 -0.05076867 0.03857139
-0.014117766 0.08709128 0.009992128 0.0054485514 -0.0015153681 -0.035449546 -0.011923442 0.03998304
0.027402746 0.06727409 0.05842491 0.042472105 -0.0056200908 0.007141134 4.2812153e-05 -0.0025263405
0.009948751 -0.018342298 0.022638828 0.00023981769 -0.0031732067 -0.022788176 -0.007236881 -0.0034106113
-0.009335275 0.030345708 -0.03888118 0.022848422 0.010350127 -0.018664503 -0.00984158 0.014828715
0.0067588063 -0.009634571 0.011426875 0.007142038 0.0033081798 0.006831231 -0.022610903 -0.0097324895
-0.0009572167 0.024645388 -0.031365253 -0.02153113 0.010946339 0.019818371 0.011490866 0.01611238
-0.026973829 0.0034469194 0.00680148 -0.06640052 0.00501384 -0.09822932 -0.015165544 0.06983904
-0.008958477 -0.062403724 -0.08524166 -0.061110705 -0.010997727 -0.013947213 -0.027668273 0.04523853
0.08959527 0.039349705 -0.011652995 -0.11947916 -0.09278247 -0.016096376 -0.033932824 -0.037939146
-0.029269202 -0.042073727 -0.041922964 0.0029971234 -0.016006373 0.007227857 0.001038355 -0.012238676
0.012563498 -0.0019940073 -0.014166673 0.017732034 0.023889255 0.012680102 -0.01858937 0.031072548
0.017303424 0.021180931 -0.00924313 -0.030723419 -0.026850076 -0.0037126064 -0.010588865 -0.024315923
0.011177671 0.00079561846 0.009174587 -0.0025028759 -0.0032138857 -0.0036614952 0.016013347 0.009238342
0.037613142 0.039911702 -0.012716267 -0.015271262 -0.00033577412 0.0037248912 0.01232581 -0.002455694
-0.03449429 -0.0073301033 -0.008599212 -0.051973384 -0.01091805 0.00040790025 0.004980557 -0.00062616484
-0.029056655 -0.0042594112 -0.0154644875 0.01721966 0.009253395 -0.015659846 -0.012444655 -0.04935694
00000000: e6a5 2c39 73db 19bb 88fd a23c e338 ff3b
00000010: 705e fabb e599 b7bc 1476 eabc 4731 9bbc
00000020: efd8 bebc 2e60 0abd ccc4 f03c af5c 3a3c
00000030: 33cb e9bb e438 edbc 6cfd 48bc d2f7 07bb
00000040: 203e 9b3c 1b4b 3ebc 5d8c 14bc 4879 593c
00000050: b469 483c ddbd b13c 47e8 3cbc 6df6 ee3c
00000060: 8e1d ba3c fe1c 51bc fcdf b23c aaac 813c
00000070: 49ef 8cba d8e5 d4bc 2e0c a6bc 9c3e 323b
00000080: 45c9 18bc b38e 00bc 9da3 b4bb 362f bf3b
00000090: 03ae 29bc fa0a e33b 0739 19bc 7d12 893c
000000a0: 0bd4 e2b9 7351 543c b15a 833b be0c 2c3c
000000b0: a0c4 1cbc 95ec 14bd 6ef1 0c3c 48db a03c
000000c0: 2e52 da3c 381e 373c d1b3 6b3b e000 2d3d
000000d0: 28dc 103d 0640 003d ecc9 a43a a321 a73c
000000e0: 9ad3 0a3d efa5 503d 6aab ba3c 8f76 88bb
000000f0: 0a3b ab3c b818 0dbc 9919 09bd 5ce1 b8bc
00000100: 9b08 49bd 376f a6bc 1288 1e3c 879f 7f3b
00000110: 0063 143c 7e56 833c a88a 20bb ba56 a03c
00000120: 3cb4 5e3b d4dd 8fbb 92bb a73c f8ba c83b
00000130: cc0e ccbc 1d83 87bc a60b d0bc 73fd 12bd
00000140: 50e2 27bb 04a4 4a3c 715b b7bc 4dbe 81bc
00000150: b23b b03c c19c 303c 5f05 183c 7112 46bc
00000160: 35a8 233d 8f69 853c 2c3c f0bb f458 e63c
00000170: d07d a53c 1fba af3c 9352 e5bb c6fd 0abc
00000180: 2a94 ecbc 7ad1 a7bb 8585 29bd 2327 0fbd
00000190: 6c16 05bd 46a2 aabc 36b9 a33c 6362 343d
000001a0: 9bea f03c 9861 a6bc db20 e03b 70ad a33c
000001b0: 8257 da3c 2487 2e3c 2d26 fbbc e1e7 5ebc
000001c0: 720a fc3c 35a9 bc3c bff4 07bd f9be 64bc
000001d0: ac70 c73c 3c9d 85bc d884 983c 3584 313c
000001e0: eb62 66bc c50c f23b 7777 80bb 5d30 9fbc
000001f0: aec0 bc3c 0350 5fbc cff2 4fbd 09fd 1d3d
00000200: 344e 67bc ea5c b23d 06b6 233c c389 b23b
00000210: 519f c6ba 8b33 11bd 8a5a 43bc 42c5 233d
00000220: b97b e03c 00c7 893d f54e 6f3d 3bf7 2d3d
00000230: bd28 b8bb 2c00 ea3b 3391 3338 f690 25bb
00000240: 1600 233c 9642 96bc 1075 b93c 9277 7b39
00000250: 93f5 4fbb 45ae babc 5c23 edbb 9084 5fbb
00000260: fbf2 18bc 9097 f83c df41 1fbd 9d2c bb3c
00000270: 9493 293c 4de6 98bc 943e 21bc 23f4 723c
00000280: fa78 dd3b 52da 1dbc ca37 3b3c c207 ea3b
00000290: 0cce 583b 85d8 df3b 803a b9bc 0575 1fbc
000002a0: baed 7aba 20e5 c93c da78 00bd 0d62 b0bc
000002b0: 4658 333c 235a a23c 2f44 3c3c 1cfe 833c
000002c0: 38f8 dcbc b6e5 613b f3de de3b fffc 87bd
000002d0: 234b a43b 742c c9bd e778 78bc c507 8f3d
000002e0: 93c6 12bc 0c9b 7fbd 2e93 aebd 384f 7abd
000002f0: cf2f 34bc da82 64bc 93a8 e2bc 094c 393d
00000300: ba7d b73d 282d 213d 34ec 3ebc 7db1 f4bd
00000310: bc04 bebd 8cdc 83bc 25fd 0abd 1466 1bbd
00000320: f7c5 efbc 8055 2cbd 6ab7 2bbd 636b 443b
00000330: cc1f 83bc a9d7 ec3b 6a19 883a ba84 48bc
00000340: 21d7 4d3c e4ad 02bb 551b 68bc c542 913c
00000350: 66b3 c33c 34c0 4f3c bc48 98bc db8b fe3c
00000360: e9bf 8d3c a283 ad3c 7f70 17bc aeaf fbbc
00000370: b1f4 dbbc 334f 73bb eb7c 2dbc 3032 c7bc
00000380: 8d22 373c 0d91 503a 0251 163c 4a07 24bb
00000390: 0ea0 52bb b2f5 6fbb 6c2e 833c 6a5c 173c
000003a0: 3d10 1a3d 747a 233d e457 50bc 5134 7abc
000003b0: d70a b0b9 4e1d 743b 32f2 493c b5ef 20bb
000003c0: e249 0dbd 5d31 f0bb b6e3 0cbc 0be2 54bd
000003d0: 9fe1 32bc 72db d539 f133 a33b 3625 24ba
000003e0: 3908 eebc 8892 8bbb c35e 7dbc 3f10 8d3c
000003f0: 8d9b 173c 1449 80bc abe4 4bbc 812a 4abd

conv2.bias f4 [32]
-0.004814545 -0.036000177 -0.0024045047 0.022086494 0.025021067 0.018913941 -0.013041021 0.0079739215
0.0071974765 -0.013045278 -0.0009123058 0.011684923 0.023255212 0.017821664 0.02063805 0.020315023
-0.0151666645 -0.019121062 0.018880304 0.01954136 0.049948975 -0.014940974 -0.018088695 0.018623814
0.013206612 0.012167065 0.018463429 0.03603043 0.008677354 -0.014995716 0.009046525 -0.000930717
00000000: 55c3 9dbb ec74 13bd e594 1dbb bcee b43c
00000010: fbf8 cc3c 69f1 9a3c 02aa 55bc 0da5 023c
00000020: cfd8 eb3b ddbb 55bc ce27 6fba 1f72 3f3c
00000030: b781 be3c bdfe 913c 2111 a93c b16b a63c
00000040: 9a7d 78bc c6a3 9cbc deaa 9a3c 3415 a03c
00000050: 4c97 4c3d fdca 74bc be2e 94bc f890 983c
00000060: 8c60 583c 5f58 473c 9e40 973c a594 133d
00000070: 762b 0e3c 97b0 75bc e037 143c 5cfb 73ba

conv3.weight f4 [1, 32, 5, 5]
0.017713554 0.018576244 -0.0010603213 0.029919479 0.034541275 -0.024764927 0.009293966 -0.03181145
0.0038002925 0.015626183 -0.0060506114 0.027607452 0.011638132 -0.03730105 -0.008847646 -0.018098548
-0.0318532 -0.0018988468 -0.03445811 0.021401178 0.008494364 0.015025656 0.024651438 0.032389592
-0.0131028835 0.0010563569 -0.037543967 0.0073797912 0.026829487 -0.025230277 0.019955235 -0.019870063
0.010287311 -0.016012669 0.004477372 -0.034408994 0.023893666 -0.009007935 0.031210175 -0.016404374
0.016067479 -0.01985934 -0.018871818 -0.009204651 0.014952181 0.015445408 0.019863777 -0.007240564
0.004877747 0.020080175 -0.013811041 -0.011612039 0.02691843 -0.029819584 -0.017104952 -0.0195987
-0.0074321274 -0.025981365 0.0082399435 -0.024683163 -0.0155402105 -0.03440629 0.023564009 -0.021663524
-0.004234502 -0.021101471 -0.004920376 -0.0067300904 -0.011505421 -0.0005050955 0.015026932 0.029078985
0.02624367 -0.026236948 -0.0040924074 -0.05674397 -0.027994584 -0.013179986 -0.011506261 -0.0061828108
0.032734014 -0.0032966575 -0.030922808 -0.004857771 0.023586135 0.04955593 0.044865057 0.08085022
0.03836271 -0.005811215 -0.03183 -0.05054405 -0.037393413 0.00040594564 -0.02212438 0.008009651
0.002251694 -0.023227965 -0.016539307 0.0028900672 0.005402252 0.007248268 0.013862864 -0.0036467498
0.003337745 -0.008051774 0.031613983 -0.00037411816 0.02452204 -0.021615745 -0.027950212 0.004229523
-0.032518007 0.020135874 0.019764187 0.028446853 0.03166913 0.011099121 0.013012935 -0.006019418
0.031771597 0.014367331 -0.008892512 -0.03320431 0.0034837162 0.003993059 0.02505705 0.02642994
0.04218684 -0.00061768905 0.013733056 -0.028945528 -0.00044831194 0.006798704 -0.026268799 -0.0169819
0.016560722 -0.020223074 -0.01170675 0.024057137 0.03153505 -0.023145761 -0.021388086 0.03196413
-0.010808619 0.009335273 -0.021675127 -0.012190789 0.028954277 -0.02728782 0.01215615 0.0006972269
0.010954091 0.0011645028 -0.00836379 0.01269672 0.009300854 -0.0036291287 0.023596963 0.03152192
0.01886287 -0.009848769 -0.02629452 -0.024893703 -0.018482365 -0.0031063505 0.018208701 0.010093414
0.031624835 -0.035505947 -0.02017746 0.031973615 -0.025682164 0.022357918 0.00020124695 -0.004011728
0.025072575 0.027322957 -0.014759901 -0.002328291 0.03309295 0.02951119 0.014239694 -0.02159163
-0.024066182 0.0255046 0.020558024 -0.0037733603 0.0341023 0.024674982 -0.007647494 0.015649416
0.03458401 0.020481551 -0.017117389 -0.03340385 0.010897891 0.013373258 -0.034979437 0.0051054447
-0.021797538 0.014182532 -0.017266544 -0.026911668 0.03400078 0.021149507 -0.01429625 -0.025504552
0.023903133 -0.022078801 -0.010480226 -0.01575747 0.010537122 -0.0022568507 0.013140657 -0.019791134
0.026098093 0.0040899413 -0.024417643 -0.025828842 0.021485722 -0.015266715 0.009901051 0.0009082494
-0.016419875 0.03341991 -0.014796542 0.014863493 0.021621138 0.010885575 0.035829943 -0.024715196
0.0053633414 0.00019259425 0.015942544 -0.015403998 -0.02468176 -0.029741937 0.02314635 0.008595062
-0.03406444 -0.003737032 -0.031565923 -0.031248612 0.022706484 -0.015656084 0.02311874 0.03401989
0.003772461 0.014492751 -0.030876609 -0.015019268 -0.0019541227 0.0076872185 0.014726317 0.019051831
00000000: 041c 913c 352d 983c 7bfa 8aba b219 f53c
00000010: 277b 0d3d d1df cabc b845 183c b94c 02bd
00000020: 540e 793b 7b02 803c 3544 c6bb 0629 e23c
00000030: ddad 3e3c fcc8 18bd b8f5 10bc 6843 94bc
00000040: 8078 02bd bae2 f8ba f223 0dbd 8651 af3c
00000050: f22b 0b3c 2b2e 763c d0f1 c93c f3aa 043d
00000060: 7aad 56bc 7575 8a3a b4c7 19bd 2dd2 f13b
00000070: 83c9 db3c baaf cebc 2979 a33c 8bc6 a2bc
00000080: 1c8c 283c 002d 83bc ebb6 923b 72f0 0cbd
00000090: a6bc c33c 0596 13bc 7bac ff3c 7762 86bc
000000a0: f29f 833c 0eb0 a2bc 1299 9abc 1bcf 16bc
000000b0: fef9 743c bd0e 7d3c 5cb9 a23c 4142 edbb
000000c0: 82d5 9f3b 2e7f a43c b447 62bc 6c40 3ebc
000000d0: 0a84 dc3c 3348 f4bc af1f 8cbc 748d a0bc
000000e0: 3489 f3bb dfd6 d4bc d400 073c 5834 cabc
000000f0: 5e9c 7ebc 9ced 0cbd 4f09 c13c b477 b1bc
00000100: 94c1 8abb fedc acbc 1b3b a1bb 1788 dcbb
00000110: 3c81 3cbc 6368 04ba 8533 763c 0d37 ee3c
00000120: f7fc d63c deee d6bc 9a19 86bb 5d6c 68bd
00000130: e654 e5bc def0 57bc c284 3cbc 2d99 cabb
00000140: 1a14 063d bc0c 58bb d451 fdbc f02d 9fbb
00000150: b637 c13c 29fb 4a3d 6cc4 373d cd94 a53d
00000160: 3822 1d3d 016c bebb 2d60 02bd 4707 4fbd
00000170: d629 19bd 1ad5 d439 303e b5bc e93a 033c
00000180: 2891 133b 9348 bebc 717d 87bc 4867 3d3b
00000190: 6005 b13b e182 ed3b 1121 633c 4ffe 6ebb
000001a0: 12be 5a3b 97eb 03bc aa7d 013d 4a25 c4b9
000001b0: 72e2 c83c 8113 b1bc d8f7 e4bc cf97 8a3b
000001c0: 9a31 05bd fdf3 a43c 81e8 a13c 6009 e93c
000001d0: 7db7 013d 16d9 353c 3534 553c 8a3e c5bb
000001e0: ef22 023d f464 6b3c e6b1 11bc 3e01 08bd
000001f0: 0f4f 643b 35d8 823b 7144 cd3c 9a83 d83c
00000200: 1ccc 2c3d 69ec 21ba 9d00 613c 2c1f edbc
00000210: 690b ebb9 aac7 de3b aa31 d7bc a01d 8bbc
00000220: 5aaa 873c dcaa a5bc abcd 3fbc 7913 c53c
00000230: e62a 013d 2e9c bdbc 1136 afbc d2ec 023d
00000240: a216 31bc f9f2 183c 0990 b1bc e0bb 47bc
00000250: 8531 ed3c b58a dfbc 972a 473c 1bc6 363a
00000260: ca78 333c 3ba2 983a 4708 09bc e705 503c
00000270: 9c62 183c add6 6dbb 6b4e c13c 211d 013d
00000280: 4e86 9a3c bb5c 21bc 9b67 d7bc e1ed cbbc
00000290: 5468 97bc ea93 4bbb 6a2a 953c d95e 253c
000002a0: 0b89 013d af6e 11bd 334b a5bc c4f6 023d
000002b0: 6763 d2bc f427 b73c d105 5339 d074 83bb
000002c0: 0065 cd3c 65d4 df3c 83d3 71bc 3e96 18bb
000002d0: 798c 073d 73c1 f13c 9b4d 693c eee0 b0bc
000002e0: 7126 c5bc 06ef d03c 4d69 a83c 7b4a 77bb
000002f0: daae 0b3d 3023 ca3c d497 fabb 3433 803c
00000300: f6a7 0d3d edc8 a73c c439 8cbc 7ad2 08bd
00000310: 118d 323c 821b 5b3c 9946 0fbd 934b a73b
00000320: c090 b2bc da5d 683c 9172 8dbc dc75 dcbc
00000330: 6744 0b3d bb41 ad3c d23a 6abc ecee d0bc
00000340: 81d0 c33c 9ade b4bc 41b5 2bbc cf15 81bc
00000350: e5a3 2c3c ace7 13bb e94b 573c 0421 a2bc
00000360: abcb d53c ea04 863b 8207 c8bc 0297 d3bc
00000370: d302 b03c 3e21 7abc 0538 223c 9617 6e3a
00000380: f982 86bc 51e3 083d 326d 72bc 0286 733c
00000390: d01e b13c 6959 323c 6bc2 123d 8677 cabc
000003a0: f8be af3b 20f3 4939 f099 823c 0d61 7cbc
000003b0: 6731 cabc 5da5 f3bc 6a9d bd3c 4ed2 0c3c
000003c0: 2787 0bbd fee8 74bb 454b 01bd 17fd ffbc
000003d0: f302 ba3c 3041 80bc 8363 bd3c 7158 0b3d
000003e0: 653b 773b 0173 6d3c f1f0 fcbc 6013 76bc
000003f0: bd10 00bb 10e5 fb3b a646 713c 9612 9c3c
