output_x01/x2/epoch_306.pth (torch, 231335 bytes, 5 tensors)

conv1.weight f4 [64, 1, 9, 9]
-0.051923662 0.010697419 -0.04719919 0.06738911 -0.0717804 0.10062105 -0.06253017 -0.073358156
-0.0663235 0.036737 -0.03997666 0.048335247 -0.07937038 -0.060180243 -0.032286853 -0.0134828985
-0.08335904 0.068032846 -0.050239142 0.02226572 0.06737271 0.02914175 0.04656069 0.12518956
-0.028426463 0.050868094 -0.048188142 0.07027944 0.075114466 -0.11919181 0.11145878 0.072181515
0.05348689 0.06277399 0.11594644 -0.011024838 -0.10002617 -0.04381329 -0.0888067 0.03020926
-0.01374919 -0.07357256 -0.00610444 0.12258524 -0.0010083207 -0.0068495204 -0.033642203 0.0026199801
0.108900055 0.061830547 0.019323098 0.024401285 0.038930852 0.047925998 0.0037957663 -0.10175328
-0.0649036 0.116531506 0.0036299054 -0.1096907 0.01894714 0.10573749 -0.10342684 -0.048946057
-0.032988593 0.018696666 -0.0013615878 -0.005375869 -0.10554304 0.069410965 0.12280448 0.07606291
-0.05708264 -0.080843456 0.048832517 0.005468724 0.04437214 -0.106729515 -0.0056464523 0.08432001
0.052070405 0.015035596 0.013136522 -0.010275647 -0.07057295 -0.050841972 -0.11020085 0.0952968
0.054892145 0.020341448 -0.09796616 0.071690895 0.029184049 0.053429123 -0.05583878 -0.00491231
0.12608694 0.09329515 0.07111879 -0.035637304 0.07475364 -0.09770625 -0.028417459 -0.06392285
-0.03734292 -0.014630817 0.023403017 0.09562991 0.038756385 -0.0011959105 0.09874367 -0.064253114
0.08880702 0.0001685438 -0.014945068 0.012216442 -0.09212836 -0.0024447385 0.036522806 0.11386156
-0.05622919 0.05153625 0.107802756 -0.058845498 0.092149556 -0.07546533 0.04586648 0.037041467
0.03661958 0.06388647 -0.027949749 0.037607536 0.0052819736 -0.07626569 -0.03173233 -0.084444635
0.019029282 0.0015432012 -0.0069267848 -0.021629546 -0.010863489 -0.04412889 0.03244715 0.09286898
0.013057051 -0.076669954 -0.06492025 0.0004839903 -0.088701405 -0.10924263 -0.08868316 -0.043994024
-0.007286274 0.10139843 0.0432389 0.12002913 -0.048733063 0.016781755 -0.09832583 0.08321223
0.037499387 0.10945333 -0.09290547 0.09170554 0.120283425 0.14102778 0.08174253 0.14066064
0.08258459 0.072046466 -0.011076421 -0.10454479 -0.010812662 0.023219341 -0.08118677 -0.07500809
-0.11852736 -0.048163824 0.076770894 -0.013140222 0.012152143 0.0213251 0.08955113 -0.08333659
-0.068885855 -0.03369377 -0.061315723 0.061829537 0.06168685 -0.06250872 -0.06007836 -0.083264135
0.0724391 0.14558226 -0.0555357 -0.036949173 0.056806892 -0.062961005 0.1008462 0.022750838
-0.047439784 -0.0009642599 0.06035461 -0.027799735 -0.083460785 0.010190268 0.0009606322 -0.011083837
-0.019428391 0.07092016 -0.046043053 -0.0090547865 0.0729633 -0.03521729 0.05037851 -0.032809332
0.05697474 -0.060300756 0.034602236 0.039098866 -0.0745696 -0.062416922 0.05897628 -0.031752102
0.05914206 -0.077362224 -0.040400635 -0.067099415 0.07656973 0.034718532 0.0044228495 -0.012818666
-0.08466589 0.058656227 0.023325004 -0.059358448 0.062558845 -0.0037033455 -0.104575105 0.06918447
0.052726757 -0.022387471 -0.04409125 0.0019204628 0.08053746 0.09632714 -0.09200859 -0.067356855
0.06998511 0.05093391 0.050576452 -0.07577456 0.10292101 -0.097866006 -0.01974084 -0.01206246
00000000: e8ad 54bd 3a44 2f3c f053 41bd 4d03 8a3d
00000010: 9a01 93bd 6912 ce3d d10f 80bd cd3c 96bd
00000020: 9dd4 87bd 8979 163d 91be 23bd 2efb 453d
00000030: f08c a2bd 8f7f 76bd 383f 04bd 60e7 5cbc
00000040: 25b8 aabd ce54 8b3d 8fc7 4dbd 9966 b63c
00000050: b4fa 893d aeba ee3c 6cb6 3e3d b131 003e
00000060: 9dde e8bc 105b 503d ee60 45bd abee 8f3d
00000070: 9dd5 993d d61a f4bd 8044 e43d e7d3 933d
00000080: 1215 5b3d a68f 803d 5475 ed3d 86a1 34bc
00000090: 85da ccbd 9075 33bd 4ae0 b5bd 6979 f73c
000000a0: 4844 61bc 36ad 96bd c107 c8bb f80d fb3d
000000b0: a129 84ba f171 e0bb 68cc 09bd f9b3 2b3b
000000c0: fe06 df3d 0742 7d3d 794b 9e3c 34e5 c73c
000000d0: f575 1f3d 0d4e 443d 64c2 783b 0664 d0bd
000000e0: 2eec 84bd 12a8 ee3d b5e3 6d3b 85a5 e0bd
000000f0: 0837 9b3c e68c d83d 73d1 d3bd a97b 48bd
00000100: 0c1f 07bd c029 993c 4e77 b2ba 0f28 b0bb
00000110: f326 d8bd 5627 8e3d ea80 fb3d dfc6 9b3d
00000120: 7ccf 69bd 4191 a5bd 9b04 483d fb32 b33b
00000130: 90bf 353d 0195 dabd e005 b9bb f8af ac3d
00000140: c747 553d dc57 763c 913a 573c 305b 28bc
00000150: 8d88 90bd ac3f 50bd fcb0 e1bd f82a c33d
00000160: 96d6 603d 1ca3 a63c 7ba2 c8bd add2 923d
00000170: 6313 ef3c 7fd8 5a3d 34b7 64bd 71f7 a0bb
00000180: ef1c 013e 8711 bf3d baa6 913d 6cf8 11bd
00000190: 7018 993d 371a c8bd bbcb e8bc fce9 82bd
000001a0: e4f4 18bd 18b6 6fbc afb7 bf3c 9dd9 c33d
000001b0: 04bf 1e3d 19c0 9cba 1f3a ca3d 2397 83bd
000001c0: 74e0 b53d 22bb 3039 29dc 74bc 7927 483c
000001d0: cbad bcbd e837 20bb f098 153d 4030 e93d
000001e0: 9450 66bd ad17 533d b1c7 dc3d fa07 71bd
000001f0: e8b8 bc3d 918d 9abd 7dde 3b3d cbb8 173d
00000200: 6afe 153d e9d6 823d dff6 e4bc 5c0a 1a3d
00000210: 6814 ad3b 3031 9cbd c2f9 01bd 4ff1 acbd
00000220: 4ce3 9b3c 3d45 ca3a 15fa e2bb 7230 b1bc
00000230: c6fc 31bc 7fc0 34bd 4ee7 043d 1732 be3d
00000240: 3eed 553c 2305 9dbd e8f4 84bd 14c0 fd39
00000250: 15a9 b5bd 9aba dfbd 849f b5bd 1433 34bd
00000260: b2c1 eebb fba9 cf3d 461b 313d d5d1 f53d
00000270: 529c 47bd e479 893c 0e5f c9bd 2c6b aa3d
00000280: f598 193d 1129 e03d 3945 bebd 1dd0 bb3d
00000290: 2857 f63d 9669 103e a168 a73d 5809 103e
000002a0: 1c22 a93d 198d 933d e079 35bc 941b d6bd
000002b0: 9727 31bc 7d36 be3c 4045 a6bd d79d 99bd
000002c0: 79be f2bd 6e47 45bd 0f3a 9d3d 164a 57bc
000002d0: c819 473c fab1 ae3c 9566 b73d 60ac aabd
000002e0: 0714 8dbd 7b02 0abd 3226 7bbd f840 7d3d
000002f0: 5aab 7c3d 9204 80bd ba14 76bd 6386 aabd
00000300: f35a 943d 8413 153e 6779 63bd 0458 17bd
00000310: 58ae 683d b3f1 80bd 7488 ce3d f75f ba3c
00000320: 3850 42bd 63c6 7cba 6536 773d 45bc e3bc
00000330: 7ded aabd 15f5 263c f0d2 7b3a fb98 35bc
00000340: 4a28 9fbc 973e 913d a497 3cbd 875a 14bc
00000350: c86d 953d 0140 10bd b259 4e3d 1463 06bd
00000360: 585e 693d edfd 76bd 13bb 0d3d 2226 203d
00000370: f2b7 98bd e3a8 7fbd 1d91 713d 7e0e 02bd
00000380: f23e 723d 1670 9ebd 237b 25bd 6b6b 89bd
00000390: 97d0 9c3d 0535 0e3d 8ded 903b 6205 52bc
000003a0: 4f65 adbd 8341 703d 1414 bf3c d821 73bd
000003b0: da1e 803d d4b3 72bb 792b d6bd 96b0 8d3d
000003c0: 03f8 573d ee65 b7bc 0799 34bd 0ab8 fb3a
000003d0: d3f0 a43d 2a47 c53d 006f bcbd 64f2 89bd
000003e0: 5a54 8f3d 13a0 503d 4129 4f3d b12f 9bbd
000003f0: 40c8 d23d f96d c8bd 8bb7 a1bc a0a1 45bc

conv1.bias f4 [64]
-0.033938672 -0.03389367 0.009115047 -0.056938212 0.048027232 0.031100957 0.06292917 0.00088915636
0.12494786 -0.0162829 0.009517222 -2.065055e-05 -0.05131461 0.1442749 0.0696816 0.06281694
-0.022735672 -0.06522175 0.079092614 0.04740974 0.022780534 -0.013177638 -0.07062083 0.11696212
-0.0255626 0.10920957 -0.0028455718 -0.029912544 0.029172823 0.04175297 0.097582735 0.006960799
0.049574707 0.07965811 -0.017628409 -0.12585634 -0.018317591 0.08246528 -0.025695292 0.040932618
-0.10956649 -0.042086627 0.11411899 0.047155146 0.035490993 0.038016256 -0.0066573876 0.032227684
0.018967936 -0.023237735 -0.020396562 0.0027812137 0.0629782 0.0033933255 0.0011557936 -0.0053189155
0.1399112 -0.04449903 0.007992108 0.15872101 0.12085004 0.035815474 -0.020675585 -0.06478323
00000000: 4703 0bbd 17d4 0abd 4757 153c 0b38 69bd
00000010: 34b8 443d 6fc7 fe3c 02e1 803d 4616 693a
00000020: aae4 ff3d b763 85bc 1fee 1b3c b83a adb7
00000030: 452f 52bd cdbc 133e 3ab5 8e3d 2ba6 803d
00000040: 2940 babc fb92 85bd 4ffb a13d b730 423d
00000050: 3e9e ba3c 05e7 57bc a7a1 90bd d689 ef3d
00000060: a868 d1bc 44a9 df3d c67c 3abb 270b f5bc
00000070: d8fb ee3c 2a05 2b3d 75d9 c73d 6a17 e43b
00000080: d90e 4b3d cb23 a33d 7469 90bc 7ce0 00be
00000090: c60e 96bc 8fe3 a83d ef7e d2bc f6a8 273d
000000a0: 6564 e0bd 0763 2cbd 38b7 e93d c125 413d
000000b0: 015f 113d efb6 1b3d 3726 dabb 2d01 043d
000000c0: a562 9b3c 105d bebc b116 a7bc 0645 363b
000000d0: b7fa 803d 8e62 5e3b ff7d 973a 4c4a aebb
000000e0: e244 0f3e 9d44 36bd 55f1 023c c387 223e
000000f0: 3a80 f73d 3fb3 123d d85f a9bc 12ad 84bd

conv2.weight f4 [32, 64, 5, 5]
0.0004132355 -0.0021228567 0.018162077 0.0070791636 -0.005412708 -0.021642378 -0.028110657 -0.01947084
-0.023198623 -0.03075148 0.030498726 0.012917391 -0.0077083474 -0.029141739 -0.010959369 -0.0017846585
0.019774249 -0.011653298 -0.00887861 0.014702091 0.013597867 0.021915015 -0.011547427 0.027967127
0.023352304 -0.011942075 0.021468636 0.015935622 -0.0008835603 -0.024979599 -0.021508472 0.00028101535
-0.011163434 -0.010679335 -0.006490005 0.0068259654 -0.008942759 0.008996973 -0.009439201 0.016593494
-0.0009918463 0.012726908 0.0057130815 0.011549151 -0.010619325 -0.037226044 0.0076087946 0.019391187
0.026042018 0.008832461 0.0061527193 0.044674885 0.038045708 0.03445017 0.0025687555 0.021415293
0.031847574 0.050195593 0.023417473 -0.0044394745 0.023489866 -0.0106044365 -0.03543393 -0.02317997
-0.051288627 -0.01954367 0.008941623 0.0028304094 0.008831866 0.016925944 -0.0023991496 0.019900128
0.003187281 -0.0048529804 0.020580843 0.007368435 -0.024052206 -0.01746572 -0.025547167 -0.034988362
-0.002133634 0.0122691095 -0.023065386 -0.015783684 0.02414782 0.009942374 0.008805718 -0.011291306
0.04050293 0.016871752 -0.0061876853 0.02873298 0.020316578 0.020265471 -0.007532847 -0.007822954
-0.030310407 -0.007855307 -0.044316858 -0.03657058 -0.03185652 -0.019075066 0.02122105 0.04374959
0.027632343 -0.021519138 0.007952864 0.019332215 0.024926648 0.009338068 -0.033387 -0.01506815
0.030314444 0.023327522 -0.0325851 -0.013598457 0.025298929 -0.016060656 0.017939594 0.009837659
-0.013066366 0.006937753 -0.005579374 -0.021322576 0.022534681 -0.008289098 -0.056906898 0.037080936
-0.01795149 0.07757193 0.00994834 0.0057959077 -0.00085211254 -0.035000492 -0.0084004095 0.03977884
0.026443211 0.06767758 0.059339784 0.043379053 -0.0072227684 0.006071419 0.00049532513 -0.0028239843
0.008762184 -0.012540273 0.028114477 0.005518226 0.0047017653 -0.017191017 -0.0063920706 -0.0031548361
-0.0091849165 0.031800933 -0.039287243 0.021700827 0.0090275165 -0.020053655 -0.009453547 0.014078812
0.0056694816 -0.008896695 0.011881054 0.008181335 0.00408624 0.007473598 -0.022116037 -0.010024533
-0.002248712 0.024109542 -0.03197094 -0.022873169 0.009353671 0.018308593 0.011951594 0.015017126
-0.025795445 0.010297039 0.0064423024 -0.06511319 0.00030578277 -0.10538181 -0.013466626 0.071937196
-0.008301459 -0.062211398 -0.092584245 -0.058217928 -0.0070612296 -0.011829052 -0.02665942 0.04415022
0.090542495 0.03966158 -0.012202115 -0.12094889 -0.088219464 -0.013230253 -0.034349665 -0.033426203
-0.029112035 -0.04227351 -0.042759463 0.002226383 -0.017374678 0.0063731465 0.00043627515 -0.01285437
0.012207278 -0.0029345944 -0.014181066 0.018643886 0.02459116 0.013043021 -0.01852155 0.030693501
0.017900972 0.021246752 -0.009479497 -0.030484438 -0.027311923 -0.004348125 -0.011949602 -0.025689956
0.011047282 0.0045857285 0.012010474 0.00012158038 -0.0008002526 -6.69742e-05 0.01329169 0.007649026
0.036937766 0.039614473 -0.011746368 -0.01777088 -0.0009333006 0.003431351 0.011200104 -0.0033775067
-0.030650536 -0.0034792167 -0.0060738157 -0.053202145 -0.011360461 -0.0011955567 0.005480069 0.00027099292
-0.032531958 -0.0054718885 -0.015446694 0.01710538 0.009195919 -0.015346667 -0.012260729 -0.049308736
00000000: 88a7 d839 a01f 0bbb a3c8 943c 54f8 e73b
00000010: 165d b1bb 5b4b b1bc 5248 e6bc 5081 9fbc
00000020: 0a0b bebc 87ea fbbc 77d8 f93c 77a3 533c
00000030: 4e96 fcbb a8ba eebc ed8e 33bc 34eb e9ba
00000040: 9bfd a13c 79ed 3ebc 9777 11bc 0ae1 703c
00000050: 97c9 5e3c 1e87 b33c 6b31 3dbc 511b e53c
00000060: 554d bf3c b1a8 43bc fede af3c 6c8b 823c
00000070: ba9e 67ba 04a2 ccbc 8932 b0bc 3e55 9339
00000080: d6e6 36bc 61f8 2ebc 1caa d4bb 59ac df3b
00000090: a684 12bc 0a68 133c e1a6 1abc 14ef 873c
000000a0: d700 82ba 8584 503c cd34 bb3b a638 3d3c
000000b0: adfc 2dbc 567a 18bd 3253 f93b 44da 9e3c
000000c0: 1256 d53c 07b6 103c c09c c93b 03fd 363d
000000d0: d1d5 1b3d 9f1b 0d3d 9158 283b 206f af3c
000000e0: 9a72 023d e599 4d3d 00d6 bf3c 0379 91bb
000000f0: d26d c03c 3bbe 2dbc 2b23 11bd ece3 bdbc
00000100: 0614 52bd 0c1a a0bc e37f 123c 647e 393b
00000110: 88b3 103c 47a8 8a3c 0d3b 1dbb 9805 a33c
00000120: b4e1 503b c005 9fbb 2899 a83c ea72 f13b
00000130: 2209 c5bc 4514 8fbc 4b48 d1bc f54f 0fbd
00000140: 70d4 0bbb 6004 493c 9ff3 bcbc c94c 81bc
00000150: a6d1 c53c 57e5 223c dc45 103c 2bff 38bc
00000160: 66e6 253d a136 8a3c 11c2 cabb 6d61 eb3c
00000170: f46e a63c c603 a63c 1ad6 f6bb d92b 00bc
00000180: 884d f8bc 8cb3 00bc 9885 35bd 08cb 15bd
00000190: fb7b 02bd 5043 9cbc c4d7 ad3c c532 333d
000001a0: 395d e23c e748 b0bc bb4c 023c 985e 9e3c
000001b0: f832 cc3c b2fe 183c cfc0 08bd 67e0 76bc
000001c0: ff55 f83c 5c19 bf3c f477 05bd 10cc 5ebc
000001d0: b33f cf3c a391 83bc 0ef6 923c 222e 213c
000001e0: 5014 56bc 1756 e33b 2ed3 b6bb afac aebc
000001f0: a79a b83c ffce 07bc 3517 69bd 2ee2 173d
00000200: 010f 93bc 08de 9e3d 5dfe 223c 99eb bd3b
00000210: 4e60 5fba ad5c 0fbd dfa1 09bc 23ef 223d
00000220: 6f9f d83c 8b9a 8a3d 460e 733d 3cae 313d
00000230: f9ac ecbb c1f2 c63b b5d8 013a 9812 39bb
00000240: 438f 0f3c b875 4dbc 5550 e63c 3cd2 b43b
00000250: 4411 9a3b 2dd4 8cbc 9374 d1bb 5ec1 4ebb
00000260: 557c 16bc b241 023d a9eb 20bd efc5 b13c
00000270: 26e8 133c 9047 a4bc 0de3 1abc d1aa 663c
00000280: 0fc7 b93b 72c3 11bc c1a8 423c 020b 063c
00000290: dee5 853b 15e5 f43b b12c b5bc f03d 24bc
000002a0: 205f 13bb 6081 c53c f6f3 02bd 8360 bbbc
000002b0: 2440 193c e7fb 953c 9ed0 433c 640a 763c
000002c0: f850 d3bc e9b4 283c f319 d33b 105a 85bd
000002d0: 7851 a039 6bd2 d7bd 20a3 5cbc cf53 933d
000002e0: d802 08bc 61d1 7ebd cf9c bdbd ec75 6ebd
000002f0: e361 e7bb a4ce 41bc db64 dabc dcd6 343d
00000300: 586e b93d 2e74 223d 61eb 47bc 0db4 f7bd
00000310: 68ac b4bd b4c3 58bc 3cb2 0cbd eae9 08bd
00000320: 5d7c eebc fd26 2dbd 8c24 2fbd 82e8 113b
00000330: 5755 8ebc d4d5 d03b dcbb e439 239b 52bc
00000340: 0901 483c 5352 40bb b457 68bc 10bb 983c
00000350: 6673 c93c 65b2 553c 81ba 97bc f070 fb3c
00000360: 0fa5 923c ab0d ae3c e44f 1bbc 80ba f9bc
00000370: 41bd dfbc b77a 8ebb 43c8 43bc be73 d2bc
00000380: a9ff 343c e143 963b 94c7 443c f8f8 fe38
00000390: 0bc8 51ba 8074 8cb8 63c5 593c aea4 fa3b
000003a0: 0e4c 173d c942 223d d773 40bc 3d94 91bc
000003b0: bea8 74ba 84e0 603b a480 373c 2959 5dbb
000003c0: d516 fbbc 9203 64bb dc06 c7bb 7eea 59bd
000003d0: 3a21 3abc 3ab4 9cba 2792 b33b 0e14 8e39
000003e0: 3b40 05bd 874d b3bb 2114 7dbc 9520 8c3c
000003f0: 7baa 163c 9670 7bbc 3ae1 48bc f5f7 49bd

conv2.bias f4 [32]
-0.004180892 -0.037051413 -0.0024045047 0.02171863 0.024800397 0.017646387 -0.013388977 0.007720001
0.0071974765 -0.013242524 -0.0009123058 0.012283966 0.02272272 0.017922478 0.021858506 0.02212976
-0.015312843 -0.019108737 0.019123608 0.019364186 0.050461624 -0.015571263 -0.019945895 0.019525548
0.013668412 0.012208416 0.01854031 0.03871851 0.008511797 -0.014995716 0.008591778 -0.0010498386
00000000: ddff 88bb 39c3 17bd e594 1dbb 45eb b13c
00000010: 342a cb3c 288f 903c 715d 5bbc 10f8 fc3b
00000020: cfd8 eb3b 2cf7 58bc ce27 6fba b042 493c
00000030: ff24 ba3c 29d2 923c 9c10 b33c 7849 b53c
00000040: b8e2 7abc ed89 9cbc 1da9 9c3c a4a1 9e3c
00000050: d9b0 4e3d 9c1e 7fbc 9365 a3bc 0bf4 9f3c
00000060: 7af1 5f3c cf05 483c d9e1 973c 4d97 1e3d
00000070: 1075 0b3c 97b0 75bc 87c4 0c3c bd9a 89ba

conv3.weight f4 [1, 32, 5, 5]
0.017479165 0.018714955 -0.00086062535 0.030107135 0.03433701 -0.024251647 0.010043317 -0.031424627
0.0039647017 0.015922219 -0.0063994955 0.027587665 0.011611947 -0.03783824 -0.00931396 -0.018293716
-0.032386065 -0.0025286544 -0.035178475 0.021033088 0.008759052 0.01553693 0.025461156 0.032903943
-0.012553456 0.0010545867 -0.037853766 0.0073665883 0.027073715 -0.025482183 0.019942004 -0.020229122
0.010315777 -0.01592826 0.004312429 -0.03444211 0.023650952 -0.009107396 0.031231565 -0.0165966
0.016229678 -0.020176766 -0.019372486 -0.009099549 0.014752367 0.015687147 0.019941464 -0.0073676785
0.004974743 0.01991771 -0.013811041 -0.011612039 0.02691843 -0.029819584 -0.017104952 -0.0195987
-0.0074321274 -0.025981365 0.0082399435 -0.024683163 -0.0155402105 -0.03440629 0.023564009 -0.021663524
-0.004234502 -0.021101471 -0.004920376 -0.0067300904 -0.011505421 -0.0005050955 0.015026932 0.029078985
0.02624367 -0.026236948 -0.0040924074 -0.0559119 -0.03121796 -0.015748145 -0.012175778 -0.006800804
0.033449467 -0.0025323762 -0.03018884 -0.0037975835 0.025363434 0.049846727 0.04599876 0.08320228
0.03837895 -0.005793544 -0.03236238 -0.053472456 -0.03837725 -5.4708973e-05 -0.023131624 0.008620218
0.0029262495 -0.02377742 -0.016337967 0.0023988988 0.0053218245 0.007210354 0.013844085 -0.003689124
0.0033135149 -0.008124726 0.031592444 -0.00039164908 0.024481941 -0.021658005 -0.028007336 0.004197038
-0.03255177 0.020110229 0.01974193 0.028415376 0.03162237 0.01107129 0.01297185 -0.0060671745
0.031743538 0.014314317 -0.008946457 -0.033262145 0.0034322513 0.0038481117 0.024707394 0.026395816
0.04314279 -0.00097597024 0.013868311 -0.028948998 -0.0011192331 0.006445358 -0.026916537 -0.016975729
0.016301556 -0.020609591 -0.01185617 0.023746105 0.031508684 -0.023288682 -0.020921858 0.032575235
-0.01083228 0.009941966 -0.021687085 -0.0120186815 0.029098859 -0.0276123 0.012075111 0.0006243919
0.010909449 0.0011299057 -0.008445699 0.012616974 0.009230571 -0.0036850309 0.023592379 0.0315194
0.018845513 -0.009900578 -0.026367469 -0.02493936 -0.0185777 -0.0031184275 0.018150127 0.010063246
0.03159896 -0.035629164 -0.020239178 0.031898554 -0.025758412 0.022295048 0.00010639297 -0.0040476955
0.025044031 0.027304066 -0.014795159 -0.0023566594 0.03306108 0.029495547 0.014233181 -0.021612896
-0.024085702 0.025478706 0.020550637 -0.0037614366 0.03409126 0.02465445 -0.007660166 0.01563791
0.034590192 0.020469496 -0.017136062 -0.033429895 0.010872013 0.013351932 -0.0350104 0.0050831125
-0.021797538 0.014182532 -0.017266544 -0.026911668 0.03400078 0.021149507 -0.01429625 -0.025504552
0.023903133 -0.022078801 -0.010480226 -0.01575747 0.010537122 -0.0022568507 0.013140657 -0.019791134
0.026098093 0.0040899413 -0.024417643 -0.025828842 0.021485722 -0.015266715 0.009901051 0.0009082494
-0.016419875 0.033527587 -0.01504062 0.014736447 0.021593519 0.010936802 0.03610786 -0.024797382
0.0055292705 0.0002884031 0.015879044 -0.015230925 -0.02515403 -0.030086149 0.02298791 0.008482631
-0.034015365 -0.003908421 -0.03178621 -0.031408455 0.02285301 -0.015267481 0.023516476 0.034352377
0.0036730783 0.014554086 -0.030876609 -0.015019268 -0.0019541227 0.0076872185 0.014726317 0.019051831
00000000: 7730 8f3c 1b50 993c 979b 61ba 3da3 f63c
00000010: f7a4 0c3d 64ab c6bc ba8c 243c 1cb7 00bd
00000020: 54ea 813b 506f 823c dcb2 d1bb 87ff e13c
00000030: 0940 3e3c 45fc 1abd 9499 18bc b4dc 95bc
00000040: 40a7 04bd c8b7 25bb 4e17 10bd 954d ac3c
00000050: 2082 0f3c 9c8e 7e3c ea93 d03c 49c6 063d
00000060: 03ad 4dbc 0f3a 8a3a 8d0c 1bbd 6c63 f13b
00000070: b2c9 dd3c 03c0 d0bc 6a5d a33c 8bb7 a5bc
00000080: 8103 293c fb7b 82bc 474f 8d3b 2c13 0dbd
00000090: a4bf c13c 3037 15bc 57d9 ff3c 98f5 87bc
000000a0: 1af4 843c bf49 a5bc 0cb3 9ebc 4616 15bc
000000b0: e9b3 713c 5582 803c 485c a33c 916c f1bb
000000c0: 2b03 a33b 772a a33c b447 62bc 6c40 3ebc
000000d0: 0a84 dc3c 3348 f4bc af1f 8cbc 748d a0bc
000000e0: 3489 f3bb dfd6 d4bc d400 073c 5834 cabc
000000f0: 5e9c 7ebc 9ced 0cbd 4f09 c13c b477 b1bc
00000100: 94c1 8abb fedc acbc 1b3b a1bb 1788 dcbb
00000110: 3c81 3cbc 6368 04ba 8533 763c 0d37 ee3c
00000120: f7fc d63c deee d6bc 9a19 86bb e003 65bd
00000130: cfbc ffbc 4102 81bc ea7c 47bc 47d9 debb
00000140: 4f02 093d 39f6 25bb 964e f7bc e1e0 78bb
00000150: fac6 cf3c 152c 4c3d 3269 3c3d f565 aa3d
00000160: 3f33 1d3d c5d7 bdbb 6a8e 04bd ef05 5bbd
00000170: 7731 1dbd 5077 65b8 887e bdbc d13b 0d3c
00000180: 52c6 3f3b ddc8 c2bc 33d7 85bc d836 1d3b
00000190: b362 ae3b d544 ec3b 4dd2 623c 3bc5 71bb
000001a0: 8e27 593b 921d 05bc 1467 013d 4056 cdb9
000001b0: 5a8e c83c 216c b1bc a46f e5bc 4e87 893b
000001c0: 0155 05bd 35be a43c d4b9 a13c 5dc7 e83c
000001d0: 7586 013d 5b64 353c e287 543c 26cf c6bb
000001e0: 8305 023d 9986 6a3c 2994 12bc e33d 08bd
000001f0: 9fef 603b 9a30 7c3b 2967 ca3c 0a3c d83c
00000200: 7fb6 303d 41d8 7fba ea37 633c 7326 edbc
00000210: 3bb3 92ba 9533 d33b 1280 dcbc af10 8bbc
00000220: d78a 853c 72d5 a8bc 6240 42bc 3187 c23c
00000230: 400f 013d e8c7 bebc 5164 abbc 9c6d 053d
00000240: e079 31bc a1e3 223c 1da9 b1bc 01ea 44bc
00000250: bb60 ee3c 3133 e2bc b0d6 453c 3bae 233a
00000260: 8cbd 323c 5819 943a d45f 0abc 6db7 4e3c
00000270: d23b 173c 8f80 71bb ce44 c13c 7d1a 013d
00000280: e861 9a3c 0936 22bc 9700 d8bc a14d ccbc
00000290: 4330 98bc 885e 4cbb 93af 943c 50e0 243c
000002a0: e96d 013d e3ef 11bd a2cc a5bc 0fa8 023d
000002b0: 4e03 d3bc 1ba4 b63c 4a1f df38 88a2 84bb
000002c0: 2429 cd3c c7ac df3c 6567 72bc 2f72 1abb
000002d0: 0e6b 073d a5a0 f13c 4a32 693c 870d b1bc
000002e0: 614f c5bc b8b8 d03c cf59 a83c 6f82 76bb
000002f0: 47a3 0b3d 21f8 c93c 2102 fbbb 131b 803c
00000300: 72ae 0d3d a5af a73c ed60 8cbc c9ed 08bd
00000310: 8720 323c 10c2 5a3c 1167 0fbd 3d90 a63b
00000320: c090 b2bc da5d 683c 9172 8dbc dc75 dcbc
00000330: 6744 0b3d bb41 ad3c d23a 6abc ecee d0bc
00000340: 81d0 c33c 9ade b4bc 41b5 2bbc cf15 81bc
00000350: e5a3 2c3c ace7 13bb e94b 573c 0421 a2bc
00000360: abcb d53c ea04 863b 8207 c8bc 0297 d3bc
00000370: d302 b03c 3e21 7abc 0538 223c 9617 6e3a
00000380: f982 86bc 3954 093d ef6c 76bc 2371 713c
00000390: e4e4 b03c 4630 333c d6e5 133d e123 cbbc
000003a0: e22e b53b cf34 9739 c514 823c 218b 79bc
000003b0: d30f cebc 3a77 f6bc 2451 bc3c bcfa 0a3c
000003c0: b253 0bbd 3612 80bb 4232 02bd 27a6 00bd
000003d0: 3c36 bb3c 7524 7abc a0a5 c03c 14b5 0c3d
000003e0: 07b8 703b 4374 6e3c f1f0 fcbc 6013 76bc
000003f0: bd10 00bb 10e5 fb3b a646 713c 9612 9c3c
