output_x01/x2/epoch_314.pth (torch, 231335 bytes, 5 tensors)

conv1.weight f4 [64, 1, 9, 9]
-0.052527715 0.011018227 -0.046923634 0.06814393 -0.071401924 0.100715585 -0.062091246 -0.07291077
-0.06608407 0.036269054 -0.039474137 0.048829895 -0.07873051 -0.06042384 -0.03291766 -0.013801644
-0.08371235 0.06760488 -0.051099665 0.021971056 0.06709022 0.029517941 0.04652574 0.1250162
-0.028052665 0.050931174 -0.04864756 0.069783285 0.074773654 -0.11970758 0.11188576 0.071953885
0.052889608 0.062991336 0.1161897 -0.011401758 -0.10029057 -0.04415274 -0.08940256 0.030606514
-0.014345631 -0.07465845 -0.006311919 0.12273054 -0.0009789796 -0.007717864 -0.03475584 0.0014060981
0.10886844 0.06128476 0.018568482 0.02441619 0.03919794 0.048051354 0.0034102376 -0.10210984
-0.06490763 0.11733318 0.0035260855 -0.11002581 0.019196298 0.10621529 -0.10299328 -0.049367126
-0.03349698 0.018555664 -0.00090452307 -0.005421628 -0.10546293 0.06954857 0.12278488 0.07591768
-0.05714825 -0.08119389 0.048613675 0.0056406846 0.04409356 -0.10698701 -0.0061374945 0.083697386
0.051707733 0.015807254 0.013405191 -0.0100039095 -0.07047306 -0.05104086 -0.11107155 0.095380284
0.05557998 0.020268975 -0.09821748 0.071251385 0.028385116 0.05245526 -0.05673908 -0.0059599485
0.12633385 0.094148934 0.07055068 -0.03618685 0.07417017 -0.09884569 -0.029789677 -0.06446167
-0.037942998 -0.014623093 0.023813857 0.09479493 0.03853586 -0.00072564866 0.099206544 -0.06399709
0.09010549 0.00092426076 -0.014576041 0.012854262 -0.09189758 -0.0026661512 0.037219524 0.11439973
-0.05655552 0.0520459 0.10780405 -0.059065107 0.09209097 -0.075902104 0.045548026 0.037130974
0.036476143 0.062868804 -0.028142126 0.037310082 0.005348548 -0.07587631 -0.03197412 -0.08427181
0.018813984 0.0012873778 -0.007533053 -0.02195032 -0.011851847 -0.04475633 0.032540698 0.09236652
0.012692073 -0.07741038 -0.064871974 0.0007616462 -0.089224175 -0.110502504 -0.08923643 -0.043752745
-0.0074702133 0.1014926 0.0423923 0.120380014 -0.047958095 0.01677874 -0.09785771 0.0843347
0.038450047 0.10959151 -0.09444013 0.091035545 0.12056184 0.14242917 0.08384214 0.14152078
0.082302995 0.07082301 -0.011279849 -0.10591341 -0.011870464 0.022337843 -0.082530536 -0.076343775
-0.11978853 -0.049122572 0.0753513 -0.014335209 0.012749788 0.021778077 0.08979657 -0.08335427
-0.06807028 -0.03298002 -0.061092928 0.0615645 0.060735922 -0.061675493 -0.05936539 -0.0832509
0.07224018 0.14688174 -0.054525133 -0.036845405 0.056594092 -0.06341482 0.1004841 0.022558857
-0.048668094 -0.002945125 0.059529655 -0.028232183 -0.08378932 0.00965389 0.00023848918 -0.011863742
-0.019551344 0.07048242 -0.047608998 -0.009973993 0.07380688 -0.03370707 0.050459698 -0.033459824
0.057839174 -0.05969611 0.035546765 0.0399433 -0.07397932 -0.061121214 0.06014248 -0.03230639
0.059385877 -0.075998075 -0.039997295 -0.06713044 0.07676133 0.03525089 0.0052130744 -0.0123029165
-0.08506958 0.060374144 0.024352698 -0.059224118 0.06198862 -0.004727358 -0.1051543 0.069423914
0.05254208 -0.0230958 -0.04281284 0.0027859071 0.08129019 0.0970495 -0.09111617 -0.06739
0.069506265 0.051935654 0.050192863 -0.07646925 0.10400403 -0.097738706 -0.020384012 -0.012825352
00000000: 4d27 57bd cb85 343c ff32 40bd 0b8f 8b3d
00000010: 2c3b 92bd f943 ce3d 6453 7ebd 3e52 95bd
00000020: 1657 87bd dc8e 143d a2af 21bd db01 483d
00000030: 763d a1bd fd7e 77bd abd4 06bd 4a20 62bc
00000040: 6171 abbd 6d74 8a3d e24d 51bd a5fc b33c
00000050: 9966 893d 9ccf f13c c691 3e3d 3f04 003e
00000060: b4ce e5bc 359d 503d aa42 47bd 8aea 8e3d
00000070: ee22 993d 3f29 f5bd 5d24 e53d 8f5c 933d
00000080: c6a2 583d 9a01 813d def4 ed3d 70ce 3abc
00000090: 2465 cdbd 81d9 34bd b018 b7bd 83ba fa3c
000000a0: f009 6bbc 88e6 98bd 37d4 cebb 265a fb3d
000000b0: 1b51 80ba 23e6 fcbb 245c 0ebd d34c b83a
000000c0: 6bf6 de3d ba05 7b3d ee1c 983c 7604 c83c
000000d0: 058e 203d 7fd1 443d 4b7e 5f3b f71e d1bd
000000e0: 4bee 84bd 614c f03d e615 673b 3655 e1bd
000000f0: 8e41 9d3c 6787 d93d 24ee d2bd 2f35 4abd
00000100: 2134 09bd 0c02 983c 841d 6dba e9a7 b1bb
00000110: f3fc d7bd 7b6f 8e3d a476 fb3d bb7a 9b3d
00000120: 4914 6abd fb48 a6bd 221f 473d 7ed5 b83b
00000130: 739b 343d 011c dbbd 091d c9bb 8969 ab3d
00000140: 7dcb 533d 377e 813c 72a1 5b3c 70e7 23bc
00000150: 2e54 90bd 3910 51bd 7b79 e3bd bd56 c33d
00000160: d5a7 633d 1f0b a63c 3f26 c9bd 3fec 913d
00000170: e787 e83c 54db 563d 3d67 68bd ac4b c3bb
00000180: a95d 013e 28d1 c03d e07c 903d aa38 14bd
00000190: 88e6 973d 9c6f cabd 7b09 f4bc 7b04 84bd
000001a0: 1e6a 1bbd b395 6fbc 4715 c33c d823 c23d
000001b0: c7d7 1d3d 7539 3eba cd2c cb3d e810 83bd
000001c0: 3a89 b83d 174a 723a 59d0 6ebc af9a 523c
000001d0: cc34 bcbd 98ba 2ebb 8073 183d 684a ea3d
000001e0: c3a6 67bd 152e 553d 5fc8 dc3d 41ee 71bd
000001f0: 319a bc3d 9072 9bbd 9190 3a3d a616 183d
00000200: 0268 153d 5cc1 803d 518a e6bc 75d2 183d
00000210: df42 af3b 0a65 9bbd 4bf7 02bd b396 acbd
00000220: c91f 9a3c 3bbd a83a d4d7 f6bb 28d1 b3bc
00000230: 402e 42bc 6a52 37bd 6549 053d a82a bd3d
00000240: 6af2 4f3c 5589 9ebd 99db 84bd 36a9 473a
00000250: 2abb b6bd 234f e2bd 97c1 b6bd 1436 33bd
00000260: b1c8 f4bb 5adb cf3d 8ca3 2d3d cc89 f63d
00000270: b56f 44bd 9173 893c a069 c8bd acb7 ac3d
00000280: cc7d 1d3d 8371 e03d d469 c1bd d870 ba3d
00000290: 20e9 f63d f4d8 113e 6eb5 ab3d d3ea 103e
000002a0: 798e a83d a70b 913d 1ecf 38bc 21e9 d8bd
000002b0: 567c 42bc dafd b63c c505 a9bd 205a 9cbd
000002c0: b053 f5bd c034 49bd c851 9a3d 39de 6abc
000002d0: 7de4 503c f067 b23c 44e7 b73d a5b5 aabd
000002e0: 6e68 8bbd 0f16 07bd 943c 7abd 0f2b 7c3d
000002f0: 3bc6 783d 719f 7cbd 2029 73bd 737f aabd
00000300: a9f2 933d 2b68 163e bf55 5fbd 35eb 16bd
00000310: 35cf 673d a1df 81bd 9cca cd3d 5acd b83c
00000320: 3258 47bd 0003 41bb 5ed5 733d 2e47 e7bc
00000330: bc99 abbd 592b 1e3c f412 7a39 2460 42bc
00000340: 242a a0bc 1659 903d a701 43bd f569 23bc
00000350: 1028 973d 6d10 0abd d4ae 4e3d 2b0d 09bd
00000360: c5e8 6c3d e983 74bd 7c99 113d 969b 233d
00000370: 7882 97bd 3d5a 7abd f657 763d b553 04bd
00000380: 9b3e 733d e1a4 9bbd 34d4 23bd af7b 89bd
00000390: 0b35 9d3d 3d63 103d 70d2 aa3b 2c92 49bc
000003a0: f638 aebd e14a 773d 4f7f c73c fd94 72bd
000003b0: c7e7 7d3d f4e7 9abb 235b d7bd 202e 8e3d
000003c0: 5d36 573d 6733 bdbc 845c 2fbd c493 363b
000003d0: 797b a63d e3c1 c63d 1d9b babd c503 8abd
000003e0: 4d59 8e3d 7bba 543d 0897 4d3d e99b 9cbd
000003f0: 1100 d53d 3b2b c8bd 5ffc a6bc 6d21 52bc

conv1.bias f4 [64]
-0.03341119 -0.03384489 0.00986522 -0.055935416 0.048930656 0.03169269 0.06333496 0.0011149088
0.1247458 -0.016215507 0.009459129 -9.187271e-05 -0.05087014 0.14538255 0.06941597 0.06154428
-0.022440787 -0.065171845 0.07978303 0.047793373 0.02298173 -0.012795801 -0.07050657 0.11776755
-0.026082918 0.10995043 -0.002805871 -0.03045936 0.029053349 0.040777773 0.09673958 0.006908203
0.050114255 0.07952337 -0.018460948 -0.12882806 -0.018383514 0.082757026 -0.025724139 0.0412019
-0.10960399 -0.042532545 0.114268675 0.04760554 0.035731487 0.038049456 -0.007513704 0.033206224
0.018758906 -0.022566948 -0.020542238 0.0031255577 0.06195476 0.003761967 0.0011513674 -0.0056990907
0.1403231 -0.044316437 0.008166312 0.15977551 0.12086301 0.03492963 -0.020076547 -0.06294742
00000000: 2cda 08bd f0a0 0abd bba1 213c 891c 65bd
00000010: 836b 483d 32d0 013d c2b5 813d 2222 923a
00000020: ba7a ff3d 62d6 84bc 76fa 1a3c c9ab c0b8
00000030: 355d 50bd 2adf 143e f629 8e3d db15 7c3d
00000040: bed5 b7bc d178 85bd 4965 a33d fcc2 433d
00000050: 2e44 bc3c 7ba5 51bc c065 90bd 1d30 f13d
00000060: d8ab d5bc b12d e13d b4e2 37bb e885 f9bc
00000070: 4a01 ee3c 9806 273d 671f c63d 355e e23b
00000080: 9b44 4d3d 26dd a23d 6a3b 97bc 81eb 03be
00000090: 0699 96bc 847c a93d 6ebb d2bc 53c3 283d
000000a0: 0f78 e0bd 9b36 2ebd b205 ea3d 07fe 423d
000000b0: 2e5b 123d bfd9 1b3d 8435 f6bb 4003 083d
000000c0: 47ac 993c 52de b8bc 3248 a8bc 28d6 4c3b
000000d0: 46c4 7d3d 558b 763b 7be9 963a 70bf babb
000000e0: dcb0 0f3e 2785 35bd ffcb 053c 319c 233e
000000f0: 0787 f73d 5f12 0f3d 9277 a4bc 94ea 80bd

conv2.weight f4 [32, 64, 5, 5]
0.00040186287 -0.0020340518 0.017269392 0.006530573 -0.0049182563 -0.021368071 -0.02791969 -0.019932302
-0.023501212 -0.030021962 0.03084845 0.013439062 -0.008185485 -0.02953556 -0.01085174 -0.0015159462
0.020325128 -0.0116439825 -0.008928427 0.0150694745 0.014213744 0.022223257 -0.011548669 0.027250875
0.02332742 -0.011719517 0.02130642 0.01585253 -0.0011591773 -0.024962831 -0.021948118 -0.0004901515
-0.0118753575 -0.011876082 -0.007053185 0.0071194144 -0.008507561 0.009551505 -0.009668077 0.016351344
-0.0011276142 0.012656802 0.006313003 0.011858298 -0.011134337 -0.037597284 0.00713709 0.019151643
0.025691232 0.0078086364 0.0067109712 0.04548382 0.038691293 0.034904473 0.0027401838 0.021532318
0.031159896 0.04998034 0.023612622 -0.00437934 0.024319502 -0.011279124 -0.03601649 -0.023290593
-0.051990923 -0.019573392 0.008395795 0.0021025336 0.008418044 0.01677903 -0.0027868082 0.019658584
0.0026702771 -0.0054043685 0.020355193 0.007836619 -0.02353224 -0.017598085 -0.025594702 -0.03470948
-0.002030751 0.012273985 -0.02333834 -0.016025573 0.024818469 0.009661905 0.008636553 -0.01098067
0.04053485 0.01693172 -0.005797159 0.028963318 0.020388246 0.01977128 -0.0077929576 -0.0074969223
-0.03072911 -0.008788358 -0.045403395 -0.037038326 -0.031716533 -0.018550353 0.021504544 0.043505155
0.026748486 -0.021933937 0.008313831 0.018984623 0.024287242 0.008915058 -0.034289163 -0.015558143
0.030179612 0.023448316 -0.032244757 -0.013254716 0.025825834 -0.015917074 0.017591573 0.009398975
-0.0125764515 0.006883896 -0.006243274 -0.022164648 0.02238782 -0.0056853085 -0.058629192 0.036464
-0.019479828 0.07464321 0.009557838 0.005767546 -0.0009969688 -0.035060886 -0.0071929656 0.03939578
0.02590632 0.06763839 0.059492514 0.04356006 -0.00803852 0.0054995795 0.0004727355 -0.0031906914
0.008112613 -0.010545858 0.030010493 0.0072386633 0.007091522 -0.01557095 -0.006273762 -0.003100219
-0.009423157 0.032039434 -0.039355747 0.02113281 0.008508568 -0.020926947 -0.009793873 0.014028711
0.0054046325 -0.008339264 0.011966045 0.008314137 0.0046608686 0.0075523895 -0.022122173 -0.010243274
-0.0029676917 0.023886742 -0.032414913 -0.023541188 0.008689329 0.017546814 0.011728382 0.014473682
-0.025422718 0.0125576975 0.006046638 -0.06456833 -0.00175445 -0.1078395 -0.012780977 0.07234242
-0.008157804 -0.0624433 -0.095098056 -0.056661792 -0.005508603 -0.010921654 -0.026282959 0.04343496
0.09107672 0.040316492 -0.011706352 -0.12136831 -0.08675351 -0.012441491 -0.03421322 -0.031516816
-0.028983219 -0.042299837 -0.04300561 0.0019314839 -0.017817143 0.006090877 0.00023165264 -0.013098586
0.01199092 -0.0033281718 -0.01418962 0.018977106 0.024823027 0.013105529 -0.018483268 0.030500248
0.018124092 0.021300342 -0.009554832 -0.03026409 -0.027470507 -0.004572412 -0.0123974765 -0.02618142
0.0111233145 0.0060583777 0.013062796 0.0010493828 0.00027624314 0.0016699809 0.012862784 0.007664263
0.03709638 0.03986763 -0.010818591 -0.018129783 -0.00070120057 0.0038378462 0.011307146 -0.0028914055
-0.029011674 -0.0021524196 -0.0051547694 -0.0535081 -0.011265126 -0.0017406064 0.0055532283 0.00037594078
-0.03394322 -0.0058359965 -0.015435954 0.016978577 0.009134534 -0.015331658 -0.012228169 -0.0492718
00000000: 1fb1 d239 ba4d 05bb 8a78 8d3c 6bfe d53b
00000010: 5329 a1bb 180c afbc d5b7 e4bc 1149 a3bc
00000020: 9d85 c0bc 9ef0 f5bc e3b5 fc3c 832f 5c3c
00000030: 6a1c 06bc 8ff4 f1bc 7fcb 31bc b7b2 c6ba
00000040: e280 a63c 67c6 3ebc 8948 12bc f5e5 763c
00000050: c3e0 683c 8c0d b63c a136 3dbc 3a3d df3c
00000060: 2519 bf3c 3803 40bc cd8a ae3c 2add 813c
00000070: 89ef 97ba da7e ccbc 8acc b3bc 837d 00ba
00000080: dc90 42bc e693 42bc 671e e7bb fa49 e93b
00000090: 4c63 0bbc ea7d 1c3c db66 1ebc 41f3 853c
000000a0: 74cc 93ba 7a5e 4f3c 4fdd ce3b 4f49 423c
000000b0: cb6c 36bc 9cff 19bd 40de e93b e8e3 9c3c
000000c0: 6b76 d23c 97df ff3b b5e7 db3b 3e4d 3a3d
000000d0: c37a 1e3d fef7 0e3d a894 333b 8b64 b03c
000000e0: 0a43 ff3c 2fb8 4c3d 426f c13c 9180 8fbb
000000f0: b139 c73c 13cc 38bc 0786 13bd eacb bebc
00000100: 6ff4 54bd 6158 a0bc 848e 093c a9ca 093b
00000110: d6eb 093c 2d74 893c e2a2 36bb 0a0b a13c
00000120: d1ff 2e3b 2117 b1bb efbf a63c 2a65 003c
00000130: afc6 c0bc dc29 90bc fbab d1bc 872b 0ebd
00000140: 5916 05bb d318 493c 0c30 bfbc 1048 83bc
00000150: 1a50 cb3c f74c 1e3c 5480 0d3c 45e8 33bc
00000160: df07 263d 64b4 8a3c 18f6 bdbb 7b44 ed3c
00000170: 4005 a73c 61f7 a13c 115c ffbb bea8 f5bb
00000180: 9dbb fbbc 0cfd 0fbc e9f8 39bd 80b5 17bd
00000190: 32e9 01bd e9f6 97bc 4c2a b03c 7632 323d
000001a0: a41f db3c cdae b3bc bc36 083c a485 9b3c
000001b0: 0af6 c63c 7710 123c cb72 0cbd 95e7 7ebc
000001c0: 3c3b f73c af16 c03c 1413 04bd 4f2a 59bc
000001d0: b390 d33c 8664 82bc 341c 903c 29fe 193c
000001e0: 760d 4ebc 4e92 e13b 6194 ccbb a392 b5bc
000001f0: a966 b73c d34b babb 2a25 70bd 465b 153d
00000200: 2994 9fbc 8ade 983d 7a98 1c3c affd bc3b
00000210: b9ac 82ba 019c 0fbd f8b2 ebbb 785d 213d
00000220: 7e39 d43c ff85 8a3d 6cae 733d 096c 323d
00000230: ffb3 03bc d135 b43b 7cd9 f739 eb1a 51bb
00000240: c4ea 043c 89c8 2cbc 91d8 f53c 4f32 ed3b
00000250: 0060 e83b 4c1d 7fbc 2194 cdbb 0b2d 4bbb
00000260: 9663 1abc c83b 033d 7e33 21bd b71e ad3c
00000270: 8567 0b3c fd6e abbc 7b76 20bc aed8 653c
00000280: 5819 b13b 69a1 08bc 3b0d 443c 0538 083c
00000290: 33ba 983b 097a f73b 8f39 b5bc 68d3 27bc
000002a0: 9b7d 42bb 21ae c33c 80c5 04bd 73d9 c0bc
000002b0: b05d 0e3c 56be 8f3c 6628 403c 0623 6d3c
000002c0: 4e43 d0bc cdbe 4d3c e022 c63b 673c 84bd
000002d0: 93f5 e5ba f5da dcbd 4e67 51bc 4328 943d
000002e0: 4fa8 05bc 8cc4 7fbd c5c2 c2bd 3216 68bd
000002f0: 8381 b4bb bdf0 32bc 5c4f d7bc dbe8 313d
00000300: 6e86 ba3d e822 253d 00cc 3fbc f38f f8bd
00000310: d3ab b1bd 65d7 4bbc 2923 0cbd c717 01bd
00000320: 376e edbc 9842 2dbd a726 30bd d829 fd3a
00000330: 42f5 91bc fb95 c73b c8e7 7239 749b 56bc
00000340: 9075 443c 751d 5abb 947b 68bc e075 9b3c
00000350: a959 cb3c 93b8 563c 396a 97bc a8db f93c
00000360: fa78 943c 0e7e ae3c df8b 1cbc 66ec f7bc
00000370: d409 e1bc 2cd4 95bb c91e 4bbc 6b7a d6bc
00000380: 903e 363c 5b85 c63b 5605 563c 728b 893a
00000390: bad4 9039 43e3 da3a 6dbe 523c 7f24 fb3b
000003a0: 60f2 173d 3d4c 233d 7640 31bc e984 94bc
000003b0: c6d0 37ba 6084 7b3b 9c41 393c bc7d 3dbb
000003c0: e4a9 edbc 9c0f 0dbb 57e9 a8bb 4f2b 5bbd
000003d0: 5d91 38bc 0f25 e4ba dbf7 b53b eb19 c539
000003e0: 0c08 0bbd e33b bfbb 15e7 7cbc a816 8b3c
000003f0: 03a9 153c a231 7bbc a858 48bc 3ad1 49bd

conv2.bias f4 [32]
-0.003977956 -0.03767301 -0.0024045047 0.021659153 0.024745697 0.017236194 -0.01351181 0.007644381
0.0071974765 -0.013307013 -0.0009123058 0.012392544 0.02278396 0.017947182 0.022175742 0.02221966
-0.015335468 -0.01919809 0.019210538 0.019343577 0.050548073 -0.015698247 -0.020595917 0.019867172
0.013700083 0.012049885 0.018556993 0.0399387 0.008502624 -0.014995716 0.008283419 -0.0010766425
00000000: 8359 82bb 044f 1abd e594 1dbb 896e b13c
00000010: 7db7 ca3c eb32 8d3c a460 5dbc b77d fa3b
00000020: cfd8 eb3b a805 5abc ce27 6fba 190a 4b3c
00000030: 6da5 ba3c f805 933c e7a9 b53c 0106 b63c
00000040: 9d41 7bbc 5045 9dbc 6b5f 9d3c 6c76 9e3c
00000050: 7f0b 4f3d 9c99 80bc c5b8 a8bc 7bc0 a23c
00000060: 5076 603c e16c 453c d604 983c c396 233d
00000070: 974e 0b3c 97b0 75bc 2db7 073c 211e 8dba

conv3.weight f4 [1, 32, 5, 5]
0.017395472 0.018762458 -0.00079569936 0.030154128 0.03423518 -0.024083203 0.010288483 -0.031297192
0.0040195994 0.01601791 -0.006517478 0.027588585 0.011612196 -0.038018003 -0.009467369 -0.018353127
-0.03258988 -0.0027722314 -0.03543549 0.020898478 0.008840982 0.01572289 0.025762174 0.033085026
-0.0123675065 0.0010446141 -0.037966765 0.007359645 0.027183168 -0.025557434 0.019937444 -0.02035641
0.0103147095 -0.015883414 0.004270415 -0.034445204 0.02357595 -0.009143105 0.03125716 -0.01662858
0.016294096 -0.02027565 -0.019559031 -0.00905816 0.014701796 0.01577964 0.019987004 -0.007412326
0.005016542 0.01988213 -0.013811041 -0.011612039 0.02691843 -0.029819584 -0.017104952 -0.0195987
-0.0074321274 -0.025981365 0.0082399435 -0.024683163 -0.0155402105 -0.03440629 0.023564009 -0.021663524
-0.004234502 -0.021101471 -0.004920376 -0.0067300904 -0.011505421 -0.0005050955 0.015026932 0.029078985
0.02624367 -0.026236948 -0.0040924074 -0.055494193 -0.032362618 -0.0165514 -0.012382748 -0.007112936
0.033630647 -0.002341578 -0.029798284 -0.0032504944 0.025961462 0.05002067 0.046402898 0.08409574
0.03842343 -0.0057607903 -0.03248645 -0.054498933 -0.03871777 -0.00025529764 -0.023547884 0.008768099
0.0031963245 -0.023942491 -0.01624197 0.0021637206 0.0052893623 0.0071946033 0.013837653 -0.003703207
0.0033068657 -0.008153408 0.031580996 -0.00039894838 0.024468068 -0.021672588 -0.028028833 0.0041825986
-0.032563884 0.02010088 0.019733002 0.028404362 0.031605802 0.011063982 0.012957439 -0.0060841735
0.03173319 0.014295286 -0.008963806 -0.033283565 0.0034150674 0.003773704 0.024577105 0.026375422
0.043491933 -0.0011194323 0.013894328 -0.028953038 -0.0013783373 0.0063061547 -0.027164074 -0.016973231
0.016201997 -0.020764578 -0.011907763 0.023629233 0.03149869 -0.023331394 -0.020752398 0.032817494
-0.010835924 0.010148894 -0.021683719 -0.01197597 0.029148942 -0.02774475 0.0120408395 0.00059678435
0.0108903665 0.0011148632 -0.008476554 0.012583467 0.009205036 -0.0037057714 0.023593187 0.03152131
0.018836435 -0.009919488 -0.026395382 -0.024956947 -0.018610757 -0.0031288483 0.018129442 0.010052567
0.031587623 -0.03567169 -0.020266715 0.031872388 -0.025784107 0.022272123 7.382585e-05 -0.004063118
0.025033023 0.027298575 -0.014805948 -0.002364608 0.03304705 0.02948796 0.01423113 -0.021620233
-0.02409286 0.02546769 0.020546759 -0.0037558507 0.034087084 0.024646508 -0.0076642223 0.015634649
0.034595188 0.020466248 -0.017142948 -0.033438805 0.010863485 0.013346093 -0.035020873 0.005075005
-0.021797538 0.014182532 -0.017266544 -0.026911668 0.03400078 0.021149507 -0.01429625 -0.025504552
0.023903133 -0.022078801 -0.010480226 -0.01575747 0.010537122 -0.0022568507 0.013140657 -0.019791134
0.026098093 0.0040899413 -0.024417643 -0.025828842 0.021485722 -0.015266715 0.009901051 0.0009082494
-0.016419875 0.033567447 -0.015140893 0.014684157 0.021587748 0.010951883 0.036196433 -0.024842553
0.0055816066 0.0003109694 0.015845696 -0.015155832 -0.025320962 -0.030210976 0.022923643 0.008448678
-0.033989754 -0.0039644088 -0.03186102 -0.0314878 0.022894511 -0.015134619 0.02365902 0.034474645
0.0036100477 0.014555412 -0.030876609 -0.015019268 -0.0019541227 0.0076872185 0.014726317 0.019051831
00000000: f380 8e3c bab3 993c 7b96 50ba ca05 f73c
00000010: 303a 0c3d 234a c5bc 0791 283c 7c31 00bd
00000020: d8b6 833b fe37 833c 9190 d5bb 7501 e23c
00000030: 1541 3e3c c4b8 1bbd 061d 1bbc 4c59 96bc
00000040: f77c 05bd 53ae 35bb ce24 11bd 4933 ab3c
00000050: c4d9 103c 4acd 803c 320b d33c 2a84 073d
00000060: 15a1 4abc 6feb 883a 0a83 1bbd 2d29 f13b
00000070: 3caf de3c d35d d1bc da53 a33c 7cc2 a6bc
00000080: 07ff 283c ef1d 82bc d6ee 8b3b 6a16 0dbd
00000090: 5a22 c13c f6cc 15bc 8207 003d a938 88bc
000000a0: 327b 853c 1f19 a6bc 433a a0bc ad68 14bc
000000b0: cddf 703c 4e44 813c c9bb a33c 19e3 f2bb
000000c0: ce61 a43b d9df a23c b447 62bc 6c40 3ebc
000000d0: 0a84 dc3c 3348 f4bc af1f 8cbc 748d a0bc
000000e0: 3489 f3bb dfd6 d4bc d400 073c 5834 cabc
000000f0: 5e9c 7ebc 9ced 0cbd 4f09 c13c b477 b1bc
00000100: 94c1 8abb fedc acbc 1b3b a1bb 1788 dcbb
00000110: 3c81 3cbc 6368 04ba 8533 763c 0d37 ee3c
00000120: f7fc d63c deee d6bc 9a19 86bb e14d 63bd
00000130: aa8e 04bd cd96 87bc 02e1 4abc a213 e9bb
00000140: 4ac0 093d 2975 19bb 881b f4bc 3f06 55bb
00000150: 22ad d43c 79e2 4c3d f710 3e3d 633a ac3d
00000160: e361 1d3d 03c5 bcbb 8310 05bd 463a 5fbd
00000170: 8696 1ebd 78d9 85b9 7ee7 c0bc 13a8 0f3c
00000180: 6d79 513b 0b23 c4bc e10d 85bc 35cd 0d3b
00000190: 6352 ad3b b5c0 eb3b 53b7 623c 81b1 72bb
000001a0: 00b8 583b df95 05bc 135b 013d f229 d1b9
000001b0: 4271 c83c b68a b1bc b99c e5bc 2e0e 893b
000001c0: b561 05bd 9aaa a43c 1ba7 a13c 44b0 e83c
000001d0: 1675 013d b445 353c 704b 543c bf5d c7bb
000001e0: a9fa 013d c636 6a3c eddc 12bc 5954 08bd
000001f0: 53cf 5f3b 3f50 773b ed55 c93c 4511 d83c
00000200: 9924 323d eab9 92ba 09a5 633c ec2e edbc
00000210: 53a9 b4ba dca3 ce3b 3187 debc 720b 8bbc
00000220: 0dba 843c 7a1a aabc c718 43bc 1892 c13c
00000230: c504 013d 7b21 bfbc ef00 aabc a36b 063d
00000240: 2989 31bc 8c47 263c 0ea2 b1bc dc36 44bc
00000250: c3c9 ee3c f548 e3bc f146 453c 8571 1c3a
00000260: 826d 323c 9a20 923a 3fe1 0abc e32a 4e3c
00000270: b8d0 163c 87dc 72bb 8046 c13c 7d1c 013d
00000280: de4e 9a3c 5985 22bc 213b d8bc 8372 ccbc
00000290: 9675 98bc 5d0d 4dbb 3284 943c 86b3 243c
000002a0: 0662 013d 7a1c 12bd 6206 a6bc 9f8c 023d
000002b0: 3139 d3bc 0774 b63c f4d2 9a38 e723 85bb
000002c0: 0e12 cd3c 43a1 df3c a694 72bc 8af7 1abb
000002d0: 585c 073d bc90 f13c af29 693c ea1c b1bc
000002e0: 645e c5bc 9ea1 d03c ad51 a83c b824 76bb
000002f0: e69e 0b3d 79e7 c93c 2824 fbbb 3c14 803c
00000300: afb3 0d3d d5a8 a73c 5e6f 8cbc 21f7 08bd
00000310: c2fc 313c 92a9 5a3c 0c72 0fbd 3a4c a63b
00000320: c090 b2bc da5d 683c 9172 8dbc dc75 dcbc
00000330: 6744 0b3d bb41 ad3c d23a 6abc ecee d0bc
00000340: 81d0 c33c 9ade b4bc 41b5 2bbc cf15 81bc
00000350: e5a3 2c3c ace7 13bb e94b 573c 0421 a2bc
00000360: abcb d53c ea04 863b 8207 c8bc 0297 d3bc
00000370: d302 b03c 3e21 7abc 0538 223c 9617 6e3a
00000380: f982 86bc 057e 093d 8211 78bc d295 703c
00000390: cad8 b03c 876f 333c b642 143d 9c82 cbbc
000003a0: e9e5 b63b 9b09 a339 d5ce 813c 2b50 78bc
000003b0: e86d cfbc 027d f7bc 5dca bb3c 536c 0a3c
000003c0: d738 0bbd dfe7 81bb b380 02bd 5af9 00bd
000003d0: 458d bb3c 31f7 77bc 90d0 c13c 4935 0d3d
000003e0: 8d96 6c3b d379 6e3c f1f0 fcbc 6013 76bc
000003f0: bd10 00bb 10e5 fb3b a646 713c 9612 9c3c
