output_x01/x2/epoch_267.pth (torch, 231335 bytes, 5 tensors)

conv1.weight f4 [64, 1, 9, 9]
-0.04925979 0.0095338635 -0.04792454 0.064222425 -0.07376503 0.09930223 -0.06440945 -0.07490859
-0.06599415 0.038499843 -0.04202787 0.046404243 -0.08229151 -0.059750497 -0.030750131 -0.012384071
-0.081717655 0.07078331 -0.04621716 0.024209334 0.06910302 0.027338084 0.045852195 0.12462842
-0.030551028 0.050341528 -0.045840867 0.07204563 0.07676619 -0.11699168 0.108889736 0.071836926
0.05440966 0.060974546 0.11448094 -0.009144288 -0.09995171 -0.04297761 -0.0871481 0.027230414
-0.012660262 -0.0706525 -0.0062721362 0.12129235 -0.0010731984 -0.00270543 -0.02848049 0.0077921534
0.1089883 0.06409404 0.022148648 0.024344243 0.037915803 0.048401993 0.0039179507 -0.10183593
-0.066559255 0.11190671 0.0031001815 -0.10932791 0.017244572 0.10302923 -0.104890175 -0.048640106
-0.032459885 0.017422637 -0.0048568323 -0.006750881 -0.10763142 0.06720652 0.12108944 0.07617908
-0.05735671 -0.08029025 0.048437115 0.0035606606 0.04401106 -0.1074342 -0.0049825152 0.0855046
0.05319256 0.010807514 0.012135518 -0.011605611 -0.07151594 -0.0504839 -0.10622646 0.09361799
0.05244558 0.021190573 -0.097038426 0.07404576 0.03245251 0.057131328 -0.05238634 4.3330525e-05
0.12399103 0.08984343 0.07395837 -0.03385538 0.07660782 -0.094434015 -0.024243155 -0.06346181
-0.0353777 -0.016141508 0.021106623 0.09843837 0.040515054 -0.0032679394 0.095546946 -0.06646821
0.081595376 -0.0032767223 -0.016587932 0.009894575 -0.09350158 -0.0009122572 0.03291679 0.109540574
-0.056173403 0.047520865 0.10716664 -0.057944898 0.09287605 -0.073986724 0.047847643 0.036531776
0.035682175 0.067187406 -0.02828927 0.0386737 0.0048131244 -0.07790732 -0.031459052 -0.08335299
0.021602266 0.0026585676 -0.0043532336 -0.02028811 -0.005485204 -0.040713254 0.032546546 0.09494494
0.015143167 -0.07247559 -0.06533382 -0.0007570835 -0.08611065 -0.10246952 -0.08512262 -0.044466365
-0.006406471 0.101004414 0.046445586 0.11678603 -0.053442076 0.016319145 -0.09996501 0.07876759
0.033515327 0.10789385 -0.0856886 0.09346148 0.11683338 0.1328449 0.07063044 0.13698636
0.08637504 0.07918457 -0.009124416 -0.09772951 -0.0063395957 0.026680646 -0.07406225 -0.06732964
-0.110106036 -0.040060736 0.08496177 -0.0065243524 0.008790367 0.01858778 0.08766591 -0.0826353
-0.07240462 -0.035293423 -0.059563853 0.063579135 0.06556882 -0.0692159 -0.06529592 -0.08451942
0.0731316 0.13734335 -0.06176382 -0.037736353 0.05586154 -0.063589424 0.10220167 0.025376612
-0.03831669 0.012005632 0.06521372 -0.024828576 -0.08030057 0.013129571 0.0043913326 -0.0076303873
-0.017730381 0.07558978 -0.03475421 -0.003172055 0.06976627 -0.04060577 0.05021565 -0.029370923
0.05296336 -0.06351075 0.029459823 0.03540654 -0.0777331 -0.06792602 0.056458984 -0.027552325
0.05849934 -0.08409622 -0.0435509 -0.06859887 0.074438386 0.029971918 -0.00012279887 -0.013305593
-0.0826167 0.048758414 0.018718714 -0.061138775 0.063960016 0.00090009486 -0.103283904 0.06703739
0.05536709 -0.019369138 -0.052961983 0.00057793263 0.07909901 0.09543059 -0.09233186 -0.06307716
0.07692528 0.05099519 0.055972043 -0.069007665 0.0970965 -0.099339224 -0.016860362 -0.0076258224
00000000: a2c4 49bd ec33 1c3c 864c 44bd 0c87 833d
00000010: 1f12 97bd f85e cb3d 1ae9 83bd ad69 99bd
00000020: f127 87bd 03b2 1d3d 6a25 2cbd 6012 3e3d
00000030: 7488 a8bd f0bc 74bd b3e7 fbbc 8fe6 4abc
00000040: 965b a7bd d7f6 903d 344e 3dbd a752 c63c
00000050: e285 8d3d 1ef4 df3c 83cf 3b3d 2f3d ff3d
00000060: 2646 fabc eb32 4e3d a2c3 3bbd a98c 933d
00000070: 9837 9d3d 5599 efbd 9501 df3d 3d1f 933d
00000080: aadc 5e3d 72c0 793d fc74 ea3d ecd1 15bc
00000090: 7bb3 ccbd 4a09 30bd b47a b2bd 5112 df3c
000000a0: fd6c 4fbc 42b2 90bd 7e86 cdbb 2068 f83d
000000b0: 90aa 8cba 954d 31bb eb4f e9bc 5255 ff3b
000000c0: 4235 df3d bc43 833d 1571 b53c 946d c73c
000000d0: 9a4d 1b3d 2b41 463d 2762 803b 5b8f d0bd
000000e0: 3850 88bd 582f e53d 6a2c 4b3b 50e7 dfbd
000000f0: 7d44 8d3c fd00 d33d a9d0 d6bd d93a 47bd
00000100: a8f4 04bd ebb9 8e3c 1026 9fbb 7f36 ddbb
00000110: dd6d dcbd 92a3 893d befd f73d c703 9c3d
00000120: dfee 6abd 376f a4bd ff65 463d f959 693b
00000130: f144 343d 7606 dcbd 5e44 a3bb 091d af3d
00000140: 71e0 593d 0012 313c 0dd4 463c 7625 3ebc
00000150: f376 92bd 35c8 4ebd 428d d9bd caba bf3d
00000160: 2dd1 563d da97 ad3c 15bc c6bd 4ea5 973d
00000170: ecec 043d 8a02 6a3d 0f93 56bd ccbd 3538
00000180: 02ef fd3d d5ff b73d 7c77 973d f0ab 0abd
00000190: 90e4 9c3d 9f66 c1bd 9599 c6bc 44f8 81bd
000001a0: 35e8 10bd 323b 84bc cce7 ac3c 0e9a c93d
000001b0: 1df3 253d ed2a 56bb 1eae c33d 7c20 88bd
000001c0: 7a1b a73d 47be 56bb 6ae3 87bc db1c 223c
000001d0: c27d bfbd 8b24 6fba c2d3 063d cf56 e03d
000001e0: 1516 66bd 3da5 423d 2f7a db3d a157 6dbd
000001f0: cc35 be3d 5a86 97bd e4fb 433d 58a2 153d
00000200: 7927 123d 8d99 893d e6be e7bc 5068 1e3d
00000210: 6ab7 9d3b df8d 9fbd 35db 00bd f9b4 aabd
00000220: 3cf7 b03c 5d3b 2e3b 92a5 8ebb 4033 a6bc
00000230: 3abd b3bb f1c2 26bd 874f 053d 7e72 c23d
00000240: 0c1b 783c 156e 94bd bdcd 85bd 0377 46ba
00000250: c85a b0bd 8adb d1bd c554 aebd 5d22 36bd
00000260: 60ed d1bb 67db ce3d ba3d 3e3d 842d ef3d
00000270: 14e6 5abd baaf 853c 75ba ccbd e750 a13d
00000280: 5e47 093d 73f7 dc3d 817d afbd bc68 bf3d
00000290: 5746 ef3d 7e08 083e b1a6 903d 2746 0c3e
000002a0: 66e5 b03d 852b a23d 937e 15bc 6926 c8bd
000002b0: 62bc cfbb 5f91 da3c f3ad 97bd 1fe4 89bd
000002c0: 467f e1bd ba16 24bd 7000 ae3d 3cca d5bb
000002d0: 7905 103c 6645 983c 2f8a b33d b23c a9bd
000002e0: e048 94bd d68f 10bd 3af9 73bd c735 823d
000002f0: f248 863d 11c1 8dbd deb9 85bd 8518 adbd
00000300: 05c6 953d bca3 0c3e 0ffc 7cbd 6f91 1abd
00000310: 12cf 643d 2c3b 82bd 1c4f d13d 9de2 cf3c
00000320: f6f1 1cbd 45b3 443c c58e 853d 4c65 cbbc
00000330: a074 a4bd 6a1d 573c 2be5 8f3b 5408 fabb
00000340: 4e3f 91bc d1ce 9a3d 6e5a 0ebd 40e2 4fbb
00000350: 9ee1 8e3d 3c52 26bd edae 4d3d 4a9b f0bc
00000360: 1cf0 583d ed11 82bd ba55 f13c 7306 113d
00000370: 8832 9fbd cc1c 8bbd 8941 673d 6ab5 e1bc
00000380: 019d 6f3d a43a acbd 6e62 32bd 907d 8cbd
00000390: 2773 983d ab87 f53c 92c3 00b9 b4ff 59bc
000003a0: f232 a9bd e7b6 473d fd57 993c a76c 7abd
000003b0: 78fd 823d 58f4 6b3a 8386 d3bd e64a 893d
000003c0: 9ac8 623d 07ac 9ebc aaee 58bd 6780 173a
000003d0: a9fe a13d 1d71 c33d 7c18 bdbd 992e 81bd
000003e0: 008b 9d3d 55e0 503d f142 653d e453 8dbd
000003f0: 88da c63d 5d72 cbbd be1e 8abc 09e2 f9bb

conv1.bias f4 [64]
-0.03538538 -0.037599023 0.007702368 -0.06072117 0.044466507 0.028999953 0.061515775 -0.00040840765
0.12574522 -0.021033917 0.009852713 0.0010472513 -0.054936003 0.13997313 0.07101902 0.066493206
-0.024370808 -0.066342965 0.07824299 0.045726113 0.021810114 -0.014915009 -0.07102669 0.10929855
-0.023736972 0.10318173 -0.003652154 -0.02823297 0.029524302 0.04456633 0.09912082 0.00810667
0.04770131 0.0771746 -0.014739389 -0.11228549 -0.017611593 0.082474135 -0.026976708 0.040183183
-0.11008346 -0.039276045 0.11291082 0.045598336 0.0346592 0.03736473 -0.003301863 0.028484534
0.0188635 -0.023947706 -0.019490866 0.0032534695 0.06804966 0.002215217 0.0014478844 -0.0024661666
0.13528043 -0.045039408 0.007398488 0.1546346 0.12036339 0.038600065 -0.024097437 -0.07288353
00000000: 43f0 10bd 6f01 1abd 2564 fc3b c3b6 78bd
00000010: 8322 363d 4f91 ed3c f7f7 7b3d 8c1f d6b9
00000020: 5bc3 003e 524f acbc 466d 213c ec43 893a
00000030: 9304 61bd 1e55 0f3e 6c72 913d 972d 883d
00000040: 4aa5 c7bc d2de 87bd dc3d a03d 4e4b 3b3d
00000050: 20ab b23c 155e 74bc 7176 91bd ebd7 df3d
00000060: 0a74 c2bc f150 d33d fa58 6fbb d448 e7bc
00000070: f3dc f13c 2f8b 363d dbff ca3d d7d1 043c
00000080: 7362 433d b70d 9e3d 7a7d 71bc eff5 e5bd
00000090: 3046 90bc 33e8 a83d 42fe dcbc 1f97 243d
000000a0: 7073 e1bd ebdf 20bd ca3d e73d 52c5 3a3d
000000b0: cef6 0d3d c20b 193d 1264 58bb 6658 e93c
000000c0: a087 9a3c fb2d c4bc 4fab 9fbc 2938 553b
000000d0: 9f5d 8b3d 2d2d 113b f0c6 bd3a 699f 21bb
000000e0: f486 0a3e 3e7b 38bd 046f f23b 8858 1e3e
000000f0: 1581 f63d 1a1b 1e3d fd67 c5bc f643 95bd

conv2.weight f4 [32, 64, 5, 5]
0.00016650841 -0.0021678226 0.021110522 0.007776658 -0.009844895 -0.022798631 -0.02870962 -0.018344028
-0.023553323 -0.036123123 0.028326657 0.01002147 -0.0065969713 -0.02900736 -0.013786064 -0.0022837783
0.018282842 -0.0113971215 -0.009407669 0.011623027 0.011249423 0.021440808 -0.011609973 0.029497154
0.021324031 -0.013340472 0.022064373 0.015867407 -0.0010262958 -0.026581123 -0.019140707 0.0049141767
-0.0077025597 -0.005430192 -0.0048147645 0.005276005 -0.011011206 0.0056110136 -0.008987596 0.016895395
-0.00013983084 0.013194082 0.0026833427 0.0096665155 -0.008807014 -0.035702087 0.009649944 0.020156084
0.027289892 0.013151555 0.0018615203 0.040842224 0.03357379 0.029288242 0.0010016733 0.019218788
0.035200585 0.05108294 0.022397395 -0.0035830552 0.018483376 -0.0076228757 -0.032320578 -0.021982513
-0.046949044 -0.020863103 0.010128218 0.0043470166 0.00885057 0.014994212 -0.0025147335 0.019389953
0.003319606 -0.0045709773 0.020187523 0.0055171144 -0.025192896 -0.016018288 -0.025323607 -0.036136094
-0.0024839903 0.012806127 -0.021843947 -0.015921507 0.020110985 0.011869675 0.0099454075 -0.012485605
0.039320633 0.016258216 -0.0077309133 0.027948895 0.020434689 0.022343818 -0.0063834568 -0.0088126855
-0.027505256 -0.0028057704 -0.03909138 -0.033736855 -0.032608986 -0.021643877 0.019097963 0.043629233
0.03054177 -0.019398235 0.0061702793 0.020595687 0.027525932 0.011506424 -0.028893186 -0.012654651
0.031215169 0.022310102 -0.033801366 -0.01455091 0.02355145 -0.016325686 0.018831205 0.011425427
-0.015200083 0.0073153297 -0.0029292156 -0.01836331 0.023357518 -0.018719444 -0.04607866 0.038333952
-0.012749068 0.0948641 0.008576375 0.004688221 -0.0028045187 -0.036930658 -0.015535925 0.039468832
0.02761333 0.06667092 0.057294905 0.04137988 -0.004541898 0.007715908 -0.00030436562 -0.0024491386
0.010434623 -0.021373356 0.019041171 -0.0038166486 -0.008610479 -0.026697254 -0.008172573 -0.003824592
-0.009536826 0.029257275 -0.038846605 0.023553535 0.011010754 -0.018040266 -0.010088301 0.015446085
0.00748975 -0.010446375 0.010722195 0.006281659 0.0028075883 0.0066866586 -0.02300778 -0.009633096
-8.425876e-05 0.024870213 -0.030665737 -0.02059206 0.011875507 0.020430274 0.010553303 0.016541919
-0.028745547 -0.0019840968 0.0071823252 -0.06681565 0.007911091 -0.09320399 -0.01656111 0.06821097
-0.008908329 -0.06222435 -0.07866515 -0.06334956 -0.014299931 -0.015316989 -0.02889951 0.046216916
0.08966836 0.04044769 -0.009614924 -0.118432775 -0.09596928 -0.018217556 -0.033684596 -0.03990852
-0.02938114 -0.04206317 -0.041452132 0.0034193874 -0.014880299 0.008119696 0.0015713616 -0.011814389
0.012690897 -0.0012491706 -0.014006634 0.017216114 0.02341602 0.0122964615 -0.018621838 0.031469397
0.017030692 0.021224795 -0.009053858 -0.030731296 -0.026487514 -0.0032287573 -0.009474948 -0.023271598
0.011328607 -0.0022845583 0.006558741 -0.0050316234 -0.005207265 -0.005982207 0.018251346 0.010456581
0.03767986 0.039654765 -0.013359758 -0.013530141 -4.1199044e-05 0.0034494298 0.012503539 -0.001600582
-0.038329728 -0.010857015 -0.010983329 -0.051391523 -0.010896594 0.001194909 0.004403592 -0.0018165889
-0.027413689 -0.004465906 -0.015447652 0.017260123 0.00931037 -0.01595536 -0.012428446 -0.049559556
00000000: c398 2e39 0712 0ebb f9ef ac3c 56d3 fe3b
00000010: 7c4c 21bc 32c4 babc 7030 ebbc 3746 96bc
00000020: e6f2 c0bc d7f5 13bd 4e0d e83c 1731 243c
00000030: 682b d8bb d8a0 edbc f2de 61bc 71ab 15bb
00000040: e6c5 953c feba 3abc a022 1abc 826e 3e3c
00000050: 804f 383c a2a4 af3c c237 3ebc 04a4 f13c
00000060: bcaf ae3c ff91 5abc 58c0 b43c 5dfc 813c
00000070: c684 86ba a8c0 d9bc f9cc 9cbc 1a07 a13b
00000080: c165 fcbb c1ef b1bb 2cc5 9dbb 56e2 ac3b
00000090: 5868 34bc 98dc b73b b640 13bc 3668 8a3c
000000a0: 8e9f 12b9 fe2b 583c 05db 2f3b 4e60 1e3c
000000b0: 4b4b 10bc 5a3c 12bd cc1a 1e3c 5f1e a53c
000000c0: 0d8f df3c 9f79 573c 42fe f33a 2d4a 273d
000000d0: ac84 093d e5ed ef3c 944a 833a b870 9d3c
000000e0: 7d2e 103d 583c 513d be7a b73c b1d1 6abb
000000f0: 736a 973c 51c9 f9bb 9562 04bd ac14 b4bc
00000100: a44d 40bd 19e9 aabc d3f0 253c 6b71 8e3b
00000110: fb01 113c 49aa 753c 3ace 24bb aed7 9e3c
00000120: bf8d 593b 23c8 95bb 4e60 a53c e9c8 b43b
00000130: 5561 cebc c938 83bc 7473 cfbc 7103 14bd
00000140: 71ca 22bb cad0 513c 14f2 b2bc d26d 82bc
00000150: cbbf a43c 0679 423c 10f2 223c 6c90 4cbc
00000160: ac0e 213d f32f 853c 9a53 fdbb 15f5 e43c
00000170: a666 a73c 620a b73c 512c d1bb 1563 10bc
00000180: b452 e1bc 04e1 37bb 481e 20bd a82f 0abd
00000190: 0091 05bd 804e b1bc 5573 9c3c 91b4 323d
000001a0: bc32 fa3c 0ce9 9ebc 0e30 ca3b 49b8 a83c
000001b0: 107e e13c 7185 3c3c 67b1 ecbc 7455 4fbc
000001c0: f4b6 ff3c adc3 b63c 4d73 0abd f166 6ebc
000001d0: f8ee c03c 72bd 85bc e643 9a3c b731 3b3c
000001e0: c509 79bc 6fb5 ef3b 15f8 3fbb a76e 96bc
000001f0: 4458 bf3c 8559 99bc fabc 3cbd 1004 1d3d
00000200: 78e1 50bc 1c48 c23d ed83 0c3c a69f 993b
00000210: 04cc 37bb 9a44 17bd 648a 7ebc 12aa 213d
00000220: 5a35 e23c c38a 883d 10ae 6a3d f37d 293d
00000230: 34d4 94bb bad5 fc3b 4393 9fb9 ba81 20bb
00000240: fbf5 2a3c 2d17 afbc 3bfc 9b3c bd20 7abb
00000250: f712 0dbc 33b4 dabc 41e6 05bc 02a6 7abb
00000260: 5940 1cbc f4ac ef3c 9e1d 1fbd 58f3 c03c
00000270: 7366 343c 2ec9 93bc 6749 25bc 9311 7d3c
00000280: 946c f53b 4627 2bbc 25ac 2f3c 60d6 cd3b
00000290: 84ff 373b c21b db3b d07a bcbc 22d4 1dbc
000002a0: 14b4 b0b8 9ebc cb3c b636 fbbc aeb0 a8bc
000002b0: 7d91 423c 645d a73c c3e7 2c3c eb82 873c
000002c0: c87b ebbc 9f07 02bb b659 eb3b a5d6 88bd
000002d0: 859d 013c bce1 bebd 2aab 87bc 31b2 8b3d
000002e0: 3df4 11bc f6de 7ebd 321b a1bd 6abd 81bd
000002f0: 424a 6abc 1cf4 7abc aabe ecbc f34d 3d3d
00000300: 0ca4 b73d 7aac 253d ea87 1dbc e28c f2bd
00000310: 8b8b c4bd fc3c 95bc dcf8 09bd 1e77 23bd
00000320: b7b0 f0bc 6e4a 2cbd b6c9 29bd cd17 603b
00000330: 7fcc 73bc 7908 053c 25f6 cd3a 2491 41bc
00000340: 7bed 4f3c 36bb a3ba 157c 65bc cf08 8d3c
00000350: f4d2 bf3c 1977 493c d38c 98bc 0ee6 003d
00000360: f383 8b3c 9fdf ad3c a256 14bc 33c0 fbbc
00000370: 58fc d8bc 8f99 53bb d03c 1bbc 14a4 bebc
00000380: 9f9b 393c 87b8 15bb b5ea d63b 51e0 a4bb
00000390: b4a1 aabb 6406 c4bb d983 953c 1452 2b3c
000003a0: 3256 1a3d 096d 223d e3e2 5abc 86ad 5dbc
000003b0: 23cd 2cb8 d40f 623b a5db 4c3c 9fca d1ba
000003c0: a2ff 1cbd 9fe1 31bc 6cf3 33bc eb7f 52bd
000003d0: a187 32bc 7e9e 9c3a 024c 903b 9c1a eeba
000003e0: ac92 e0bc bc56 92bb 2618 7dbc 1a65 8d3c
000003f0: 868a 183c d1b4 82bc aea0 4bbc f6fe 4abd

conv2.bias f4 [32]
-0.0054375567 -0.034623776 -0.0024045047 0.02248765 0.025196329 0.019722974 -0.012701776 0.008183157
0.0071974765 -0.012833355 -0.0009123058 0.011325728 0.023975117 0.017953273 0.019760652 0.019130394
-0.015005617 -0.019089183 0.018612437 0.019808028 0.04932171 -0.014299753 -0.016414616 0.018246422
0.013198254 0.0123664485 0.018372582 0.033760544 0.008776869 -0.014995716 0.009756258 -0.000850157
00000000: 882d b2bb a9d1 0dbd e594 1dbb 0538 b83c
00000010: 8868 ce3c 1392 a13c 1c1b 50bc a612 063c
00000020: cfd8 eb3b fe42 52bc ce27 6fba 8c8f 393c
00000030: 7767 c43c be12 933c 17e1 a13c 58b7 9c3c
00000040: 1fda 75bc eb60 9cbc 1c79 983c 7244 a23c
00000050: 9005 4a3d 8349 6abc f277 86bc 8579 953c
00000060: 7d3d 583c a59c 4a3c 1982 963c 7f48 0a3d
00000070: dbcc 0f3c 97b0 75bc b6d8 1f3c 12dd 5eba

conv3.weight f4 [1, 32, 5, 5]
0.017903699 0.018508853 -0.0011842181 0.029728493 0.034622397 -0.025218902 0.008676757 -0.03212591
0.0036541214 0.015335532 -0.0057988493 0.027650561 0.011681826 -0.036865406 -0.0084527675 -0.01793653
-0.031477846 -0.0014747414 -0.033938836 0.021679081 0.008265167 0.014610363 0.024021441 0.031981014
-0.013534263 0.0010721222 -0.03727399 0.0073867654 0.026666414 -0.025033265 0.019985117 -0.019573402
0.010257616 -0.016041642 0.0046256618 -0.03436337 0.024114233 -0.008902783 0.03124043 -0.016190339
0.015960336 -0.019569676 -0.01845964 -0.009266071 0.015151022 0.015277382 0.019840937 -0.0071270256
0.0048326156 0.02025002 -0.013811041 -0.011612039 0.02691843 -0.029819584 -0.017104952 -0.0195987
-0.0074321274 -0.025981365 0.0082399435 -0.024683163 -0.0155402105 -0.03440629 0.023564009 -0.021663524
-0.004234502 -0.021101471 -0.004920376 -0.0067300904 -0.011505421 -0.0005050955 0.015026932 0.029078985
0.02624367 -0.026236948 -0.0040924074 -0.057341125 -0.025690548 -0.01111748 -0.010954826 -0.00550499
0.032022465 -0.004309459 -0.031498693 -0.0057593486 0.022165235 0.049297146 0.043814674 0.079062715
0.03837013 -0.0057501667 -0.03146994 -0.048319057 -0.036692593 0.00063989556 -0.02143716 0.0073183747
0.001698455 -0.022734448 -0.016613087 0.0034409217 0.005465037 0.0072814985 0.013879101 -0.0036165817
0.0033572318 -0.007994808 0.03163324 -0.00035951188 0.024552753 -0.021581247 -0.027900936 0.0042598485
-0.032488078 0.020157421 0.019783756 0.028478099 0.03171324 0.011124974 0.01304963 -0.0059800604
0.0317972 0.014412861 -0.008851342 -0.033156004 0.0035280006 0.0040737726 0.025293982 0.026430355
0.04143043 -0.00036559763 0.013602852 -0.028931508 0.000102893755 0.007072302 -0.025741383 -0.016947573
0.016763447 -0.019897047 -0.01157916 0.0243409 0.031564258 -0.023067849 -0.0217435 0.031498406
-0.01077454 0.00886793 -0.021674953 -0.012322708 0.028838577 -0.027040599 0.012229062 0.00075434113
0.010983009 0.0011838522 -0.008305512 0.012764793 0.0093580205 -0.0035847425 0.02360036 0.03152299
0.018889545 -0.00980314 -0.026236478 -0.024858266 -0.018410249 -0.0030849073 0.018263103 0.010124156
0.03165024 -0.035407294 -0.020123607 0.032032754 -0.025622906 0.022404775 0.00026894576 -0.0039842115
0.025091967 0.027332647 -0.014736913 -0.0023076714 0.033116065 0.029520331 0.014239466 -0.021578645
-0.024050804 0.025527546 0.02056522 -0.0037836216 0.03411022 0.024693795 -0.00763348 0.015660916
0.03457944 0.020490432 -0.01710187 -0.033381417 0.010919517 0.013389353 -0.034954768 0.0051256167
-0.021797538 0.014182532 -0.017266544 -0.026911668 0.03400078 0.021149507 -0.01429625 -0.025504552
0.023903133 -0.022078801 -0.010480226 -0.01575747 0.010537122 -0.0022568507 0.013140657 -0.019791134
0.026098093 0.0040899413 -0.024417643 -0.025828842 0.021485722 -0.015266715 0.009901051 0.0009082494
-0.016419875 0.033388738 -0.014604927 0.014977535 0.021677619 0.010851454 0.035630394 -0.024662143
0.0052473643 0.00013505465 0.015989142 -0.015496897 -0.024326392 -0.029483918 0.023275143 0.008698503
-0.03407523 -0.0036137826 -0.031393882 -0.031135978 0.022585021 -0.015945898 0.022816438 0.033803653
0.0038684937 0.014463308 -0.030876609 -0.015019268 -0.0019541227 0.0076872185 0.014726317 0.019051831
00000000: c7aa 923c e19f 973c c437 9bba 2b89 f33c
00000010: 37d0 0d3d df97 cebc f528 0e3c 7596 03bd
00000020: fc79 6f3b e241 7b3c 4604 bebb 6e83 e23c
00000030: 2165 3f3c 2e00 17bd 7a7d 0abc a1ef 92bc
00000040: eaee 00bd 1c4c c1ba 7303 0bbd 5498 b13c
00000050: 9f6a 073c 4e60 6f3c 9dc8 c43c 86fe 023d
00000060: d0be 5dbc 7486 8c3a 9dac 18bd ae0c f23b
00000070: 8673 da3c 9012 cdbc d4b7 a33c 6658 a0bc
00000080: 8f0f 283c c369 83bc dd92 973b 9bc0 0cbd
00000090: 368b c53c fadc 11bc eeeb ff3c 9aa1 84bc
000000a0: 40bf 823c 9650 a0bc ac38 97bc b8d0 17bc
000000b0: fe3b 783c fc4d 7a3c 7689 a23c d389 e9bb
000000c0: eb5a 9e3b 5fe3 a53c b447 62bc 6c40 3ebc
000000d0: 0a84 dc3c 3348 f4bc af1f 8cbc 748d a0bc
000000e0: 3489 f3bb dfd6 d4bc d400 073c 5834 cabc
000000f0: 5e9c 7ebc 9ced 0cbd 4f09 c13c b477 b1bc
00000100: 94c1 8abb fedc acbc 1b3b a1bb 1788 dcbb
00000110: 3c81 3cbc 6368 04ba 8533 763c 0d37 ee3c
00000120: f7fc d63c deee d6bc 9a19 86bb 87de 6abd
00000130: fc74 d2bc 1726 36bc df7b 33bc 3463 b4bb
00000140: fd29 033d 5d36 8dbb c604 01bd ebb8 bcbb
00000150: de93 b53c ceeb 493d 0477 333d a2eb a13d
00000160: ff29 1d3d e56b bcbb a0e6 00bd 34ea 45bd
00000170: f94a 16bd aabe 273a fc9c afbc face ef3b
00000180: b19e de3a 983d babc 2b18 88bc 1681 613b
00000190: 0e14 b33b a399 ee3b 2b65 633c 2c04 6dbb
000001a0: 0105 5c3b a8fc 02bc db91 013d de7c bcb9
000001b0: db22 c93c 28cb b0bc 8190 e4bc 3396 8b3b
000001c0: 3812 05bd 2d21 a53c 8b11 a23c e74a e93c
000001d0: bee5 013d 8645 363c 1ece 553c 62f4 c3bb
000001e0: c83d 023d ec23 6c3c 3805 11bc 97ce 07bd
000001f0: 0736 673b 487d 853b 5335 cf3c 7984 d83c
00000200: f4b2 293d afad bfb9 7fde 5e3c c501 edbc
00000210: aac8 d738 c5be e73b 98df d2bc a3d5 8abc
00000220: 7f53 893c 22ff a2bc 84b6 3dbc 9166 c73c
00000230: 8649 013d c9f8 bcbc 6d1f b2bc 7904 013d
00000240: b287 30bc cb4a 113c ac8f b1bc 2fe5 49bc
00000250: e13e ec3c 3f84 ddbc 675c 483c fabe 453a
00000260: 14f2 333c 7d2b 9b3a d813 08bc 6c23 513c
00000270: 6252 193c 00ee 6abb 8b55 c13c 401e 013d
00000280: 3fbe 9a3c 599d 20bc e2ed d6bc 90a3 cbbc
00000290: 17d1 96bc 282c 4abb 819c 953c cadf 253c
000002a0: afa3 013d 3d07 11bd 43da a4bc c734 033d
000002b0: 21e7 d1bc 388a b73c 4a01 8d39 fd8d 82bb
000002c0: ab8d cd3c b7e8 df3c 1873 71bc 4d3c 17bb
000002d0: b6a4 073d 9fd4 f13c a64c 693c b3c5 b0bc
000002e0: 3106 c5bc 251f d13c 6478 a83c a3f6 77bb
000002f0: 28b7 0b3d a44a ca3c 4522 fabb 524b 803c
00000300: 2ca3 0d3d 8ddb a73c 3919 8cbc f4ba 08bd
00000310: c6e7 323c 045f 5b3c bb2c 0fbd caf4 a73b
00000320: c090 b2bc da5d 683c 9172 8dbc dc75 dcbc
00000330: 6744 0b3d bb41 ad3c d23a 6abc ecee d0bc
00000340: 81d0 c33c 9ade b4bc 41b5 2bbc cf15 81bc
00000350: e5a3 2c3c ace7 13bb e94b 573c 0421 a2bc
00000360: abcb d53c ea04 863b 8207 c8bc 0297 d3bc
00000370: d302 b03c 3e21 7abc 0538 223c 9617 6e3a
00000380: f982 86bc a1c2 083d 8149 6fbc 5664 753c
00000390: 4395 b13c 4cca 313c 2df1 113d 4308 cabc
000003a0: 15f2 ab3b 759d 0d39 a9fb 823c b2e6 7dbc
000003b0: 2448 c7bc 4288 f1bc 83ab be3c 2a84 0e3c
000003c0: 7892 0bbd 36d5 6cbb df96 00bd e110 ffbc
000003d0: 3904 b93c f9a0 82bc 8ae9 ba3c b375 0a3d
000003e0: 8e86 7d3b 83f7 6c3c f1f0 fcbc 6013 76bc
000003f0: bd10 00bb 10e5 fb3b a646 713c 9612 9c3c
