output_x01/x2/epoch_340.pth (torch, 231335 bytes, 5 tensors)

conv1.weight f4 [64, 1, 9, 9]
00000000: 0634 5fbd b32f 473c f6bd 3cbd 583b 903d
00000010: a966 90bd 1e23 ce3d a0a6 76bd 9cce 90bd
00000020: 8615 86bd e3a8 0e3d b2c7 19bd 14ec 4e3d
00000030: 1a3c 9dbd f4ef 7bbd 629c 10bd 6164 6cbc
00000040: faa9 acbd 98c8 863d b0c9 5cbd cfe6 ad3c
00000050: d886 873d 0382 fa3c d114 3d3d f902 ff3d
00000060: 0fc1 d5bc e759 543d 9850 4dbd 76ee 8c3d
00000070: ebe1 983d 6006 f7bd 0c0d e93d 8f3f 923d
00000080: 1d2d 523d 5367 843d fb6d f13d 6758 4bbc
00000090: cd52 cdbd 6360 34bd 4221 b9bd bc3c 053d
000000a0: 6c3f 84bc afcf 9fbd a4e9 d1bb 7672 fd3d
000000b0: c054 53ba d9f0 20bc 99f6 19bd 9a78 0cbb
000000c0: 6e08 df3d bc27 723d d9fb 803c bbc5 c83c
000000d0: 4b21 243d 2ecf 443d 688b 1f3b 1d67 d2bd
000000e0: febf 83bd 4277 f73d 8cf2 783b 3b79 e2bd
000000f0: 21b6 aa3c 0c3f de3d 7ded cfbd 5c22 4cbd
00000100: 0c57 0cbd a8cc 9c3c 9d97 0a3b 8857 88bb
00000110: f952 d4bd 556f 923d c569 fd3d 0fbb 9b3d
00000120: 8aec 68bd 5685 a7bd 2c1a 473d b70e f33b
00000130: 5fbd 353d c91c dabd 405d d1bb 48db a83d
00000140: 2501 523d 1da9 943c 937e 6d3c 380c 0bbc
00000150: f284 8dbd 70e2 50bd eec5 e7bd 7afb c43d
00000160: ec96 6e3d 59ef a73c cdd2 cabd b105 903d
00000170: 8ca9 db3c 9ffe 4f3d 6542 70bd 56a9 09bc
00000180: 3f17 033e 72fe c73d 11d6 8d3d 9690 19bd
00000190: 8137 953d 284a d0bd a517 07bd 39cc 85bd
000001a0: c315 20bd 09ff 61bc fa1c d33c c7d9 bc3d
000001b0: b3c3 1b3d 27d2 743a 72a2 ce3d 0c89 80bd
000001c0: 757b c13d 1b0d 643b 68a6 58bc 2637 763c
000001d0: 9e9c bbbd 2294 26bb 78f3 243d 10ef ee3d
000001e0: 6def 69bd c420 5d3d a488 dd3d c810 73bd
000001f0: 82d1 bc3d 46e5 9ebd c582 373d edad 1a3d
00000200: e521 133d 74d0 723d eb67 eebc 4f87 143d
00000210: 09b1 b03b 526b 99bd 00b1 08bd 835b acbd
00000220: 2198 933c ebf9 9b39 8927 1fbc d162 bebc
00000230: d9a3 74bc cea4 40bd fe8c 043d ce7f b83d
00000240: 79a0 3b3c 44ff a1bd b28f 81bd 60ee 553b
00000250: 0c66 b8bd 5602 e9bd eb46 b9bd fa65 2fbd
00000260: bbf8 06bc 7d7b d03d 2a56 243d 90d7 fb3d
00000270: 84ed 33bd df6f 8d3c 2361 c4bd 1a5a b53d
00000280: 7e6b 2b3d 9c20 e13d edc1 cabd a256 b53d
00000290: 9b11 f73d f1f4 143e b050 b63d b6a8 123e
000002a0: 224f a53d 6ba7 893d cba2 46bc ebd0 e0bd
000002b0: 182d 77bc 6852 9e3c 1bc2 b3bd c96c a7bd
000002c0: 1fd0 febd 7cab 56bd ed3e 923d 86d1 92bc
000002d0: 847c 7a3c 80c1 c03c 9aa0 b93d eb22 abbd
000002e0: 0048 86bd 46bb f6bc 3f8b 73bd 94c0 7e3d
000002f0: a6f8 6f3d dbb5 73bd cf70 6cbd c4f1 aabd
00000300: 428c 923d ce74 1a3e d7e2 51bd 80c1 15bd
00000310: 0f50 673d 839e 84bd 54b5 c93d b75d ae3c
00000320: d28e 57bd 789e 13bc af28 693d aadf f3bc
00000330: d8de afbd e1db e73b 7161 57bb 6f8a 6dbc
00000340: fabd a7bc 8423 8d3d cb4d 56bd 536f 4fbc
00000350: 6d75 9d3d 1114 f1bc 7116 4c3d 8f21 15bd
00000360: dd00 743d 5d67 72bd 4483 183d c738 2b3d
00000370: 258b 94bd f8e7 68bd dce8 813d dbea 0ebd
00000380: a39f 723d 29cf 92bd e4a6 1fbd 9c01 8abd
00000390: 3db5 9e3d d9a2 163d b512 fd3b 9168 30bc
000003a0: b87d b1bd 4348 853d 47f2 e63c bc27 71bd
000003b0: ef00 763d 5018 febb 475b dbbd b18b 8f3d
000003c0: 956f 553d 23c8 cfbc 6ff3 1fbd 1363 d83b
000003d0: 5ce3 ac3d a29f cc3d f743 b4bd beb1 89bd
000003e0: e596 893d 9904 5a3d 07dd 443d ed88 a1bd
000003f0: a6b0 dd3d c8c2 c5bd 0f6d b4bc 32b9 7ebc
-0.054492973 0.0121573685 -0.0460796 0.07042569 -0.07050831 0.10065292 -0.0602175 -0.070706576
-0.06547074 0.03482903 -0.03754396 0.05051811 -0.07677479 -0.061508134 -0.03530539 -0.014428229
-0.08430858 0.06581229 -0.05390328 0.021228222 0.06617516 0.030579573 0.04616243 0.12451739
-0.026093034 0.05184355 -0.05012569 0.0688142 0.074649654 -0.12061763 0.113794416 0.07141029
0.051312555 0.0646502 0.11788555 -0.0124112135 -0.100255586 -0.044037234 -0.090395465 0.032528624
-0.016143523 -0.078032844 -0.006406026 0.12375347 -0.000806164 -0.009823048 -0.03758869 -0.0021434189
0.1089028 0.059119925 0.01574509 0.024508348 0.040070813 0.048049144 0.0024344567 -0.102735735
-0.06433104 0.120832935 0.0037986366 -0.11058279 0.020838799 0.10851869 -0.10152719 -0.049837455
-0.034262702 0.019140556 0.0021147497 -0.004160825 -0.10367388 0.07150141 0.123736896 0.07604038
-0.056866206 -0.08179729 0.048608944 0.0074175256 0.04437005 -0.106500216 -0.00638929 0.082449496
0.051270623 0.018147046 0.01449551 -0.0084868 -0.06910123 -0.050997198 -0.11317049 0.09618278
0.0582494 0.020499872 -0.09903488 0.070323355 0.026814245 0.050779935 -0.05865707 -0.008402189
0.12801836 0.097653285 0.069255956 -0.037491404 0.07285977 -0.10170394 -0.032981534 -0.06533093
-0.039083254 -0.013793715 0.025770653 0.09221225 0.03802843 0.00093391765 0.10089578 -0.062761396
0.09447376 0.003479785 -0.013223268 0.015027797 -0.09160732 -0.0025417884 0.040271252 0.11666691
-0.0571131 0.053986326 0.10817078 -0.059342176 0.09219648 -0.07758574 0.044802446 0.037763525
0.035920996 0.059280828 -0.029102286 0.036261853 0.005392198 -0.07491173 -0.033371925 -0.08415892
0.018016877 0.00029750107 -0.009714016 -0.023240479 -0.014931642 -0.04703217 0.032361023 0.09008752
0.011451834 -0.07910016 -0.06326236 0.0032643303 -0.09003839 -0.11377399 -0.0904673 -0.04282186
-0.008238013 0.101798035 0.040121235 0.12296975 -0.043927684 0.017265258 -0.0958884 0.08855076
0.04185056 0.10992548 -0.0990027 0.088544145 0.12063905 0.14546563 0.08902109 0.1432217
0.08071734 0.067213856 -0.012123774 -0.10977348 -0.015086435 0.019326404 -0.08777257 -0.08175046
-0.1244204 -0.052409634 0.071409084 -0.017922174 0.015288476 0.023529768 0.090638354 -0.083562694
-0.06556702 -0.030118596 -0.059458967 0.062195376 0.05858674 -0.059499603 -0.05772477 -0.083468944
0.07155658 0.1508362 -0.051241722 -0.03656149 0.056472834 -0.06475546 0.09849039 0.021284921
-0.05262644 -0.00900995 0.056923565 -0.029769737 -0.08587426 0.007075772 -0.0032864476 -0.014498337
-0.02047633 0.0689154 -0.052320283 -0.012660819 0.07688413 -0.029428514 0.04982609 -0.036408957
0.059571136 -0.059180606 0.03723456 0.041802194 -0.07253102 -0.056861848 0.063432425 -0.034891944
0.059234273 -0.07168419 -0.03897752 -0.06738588 0.07749412 0.036776397 0.0077231773 -0.010767118
-0.08666557 0.065079235 0.028191699 -0.058875784 0.060059484 -0.007754363 -0.10710769 0.07009066
0.052108366 -0.025363987 -0.039050516 0.0066036074 0.08441803 0.09991385 -0.08802026 -0.06723355
0.06718234 0.05322704 0.04806235 -0.07887445 0.10824709 -0.09656292 -0.02202466 -0.015547084

conv1.bias f4 [64]
00000000: 287a 02bd d0f3 05bd 0073 543c d0d0 5dbd
00000010: c0e3 563d a29b 083d 24de 873d 1d82 053b
00000020: 866b ff3d 0b1a 69bc c711 183c f9b0 3a3a
00000030: 6130 43bd 2734 183e 7485 8c3d 27f1 703d
00000040: 5714 aebc 3f11 85bd a35e a83d e8ee 463d
00000050: 3b1d c23c bc79 3fbc bba6 8fbd 38dd f73d
00000060: f4fc e3bc aa7f e63d c240 f8ba 590d 02bd
00000070: 0d21 ec3c a7f5 203d 9e39 c43d fc33 c43b
00000080: f0fd 543d 6324 a23d a68a abbc 52de 0cbe
00000090: 1222 96bc 6b3a ac3d 0c20 cabc 0081 323d
000000a0: f955 dfbd e1b6 35bd c5c2 eb3d efc4 453d
000000b0: 6f9f 163d c691 1c3d 0bd7 1ebc 235d 123d
000000c0: a834 993c a8c5 a4bc ff04 acbc 3504 973b
000000d0: 2572 713d 5e6c 9f3b 8e05 8f3a 8f85 e2bb
000000e0: dcdd 103e 856e 32bd 312c 0f3c f83f 253e
000000f0: 6fae fa3d 76d1 043d 18fb 94bc 6824 6fbd
-0.03185478 -0.03270322 0.012966871 -0.054154217 0.052463293 0.033351548 0.06634167 0.0020371743
0.1247168 -0.0142274005 0.009281582 0.0007121708 -0.04765356 0.14863645 0.06861392 0.05882373
-0.021249933 -0.0649743 0.082211755 0.048567683 0.023695579 -0.011686739 -0.07014223 0.12102741
-0.027830578 0.11254819 -0.0018940198 -0.03175101 0.028824354 0.039296772 0.09581302 0.0059876423
0.051999986 0.079170965 -0.020940136 -0.13756683 -0.018326793 0.0840958 -0.024673484 0.043580055
-0.1090507 -0.04436386 0.11511759 0.048283514 0.03677314 0.038224958 -0.009694825 0.035733353
0.018701866 -0.020113781 -0.020998476 0.004608656 0.058946747 0.0048652133 0.001091169 -0.006912894
0.14147133 -0.04356243 0.008738563 0.16137683 0.12240302 0.03242632 -0.018186137 -0.05838433

conv2.weight f4 [32, 64, 5, 5]
00000000: 901d c83a 9b92 28ba bddf 6f3c 4a22 ad3b
00000010: 3b93 2fbb d765 9fbc 50a8 d6bc a09e aabc
00000020: c39c c2bc f1e6 ddbc 42fb 033d e05d 7b3c
00000030: 2d28 16bc 0c27 f7bc b20f 29bc b4f6 49ba
00000040: 7201 b23c b73f 38bc 09ab 0bbc e1f3 843c
00000050: 67ac 803c b6d4 b43c 5904 41bc bf89 cb3c
00000060: a705 b93c d084 3ebc 67cd a63c a40b 843c
00000070: fc8d 9eba 74a7 c6bc ab12 c1bc a1a9 2fbb
00000080: fb73 59bc 7c1a 6dbc 1ee2 04bc 966a 0e3c
00000090: 02b9 c6bb 6920 503c ca7a 0fbc b3cb 8c3c
000000a0: a4b6 deba d292 453c f85a 083c 3402 5a3c
000000b0: b6c3 48bc de32 20bd ba39 af3b ce63 993c
000000c0: 62e6 cf3c d3ae b33b 4f96 103c 822a 493d
000000d0: 057c 2c3d e86b 1e3d 6378 ac3b 16ec b23c
000000e0: 49e7 ef3c 6c5a 4a3d 6e9d d03c 8e1a 3ebb
000000f0: 98ac df3c b2b1 5abc 58a5 1abd 5406 bbbc
00000100: d90f 5abd 3cf4 92bc 715e 003c 5b8e 173a
00000110: 429e 043c b27c 8b3c 6467 2fbb ed46 a33c
00000120: fd75 033b e7db d0bb 0b37 a53c 3761 1c3c
00000130: 28c1 b4bc ea5c 98bc b59d d3bc 7eb7 08bd
00000140: 1e5a bdba 9368 4c3c e540 c4bc 8d98 81bc
00000150: 34d1 e63c f862 123c 81df 043c 6616 23bc
00000160: 3e90 293d 400d 933c 3c19 92bb 708f f23c
00000170: d530 a53c 2b3b 973c 17ad 0abc 2c8a d7bb
00000180: 1e9c 03bd 4077 48bc 8570 47bd 8818 1ebd
00000190: 1430 fbbc 7d2d 89bc 69f3 b63c 402c 2f3d
000001a0: b7ff cb3c 0b43 bcbc c3ce 193c ba73 933c
000001b0: e711 b93c aafe 0c3c a1cc 17bd eddb 8ebc
000001c0: 3bb8 f33c 4512 c43c 5244 f9bc bf56 46bc
000001d0: c374 e03c e8d6 78bc ed2a 8a3c 5b83 0c3c
000001e0: 8c55 36bc cbfe e33b cbbc 03bc ab1f c6bc
000001f0: bc6d b73c 05d7 423b 6726 84bd 43ef 093d
00000200: 0bef cdbc da3a 7d3d fc7b 1d3c bd25 ae3b
00000210: 7195 8bba 8f41 10bd 04a1 3fbb 75e2 213d
00000220: 6487 cb3c c3ef 8b3d 0c44 773d 896a 353d
00000230: b4d5 2abc d811 4b3b ec89 d339 692c 9bbb
00000240: 7ff5 a83b e911 30bb d109 143d 6adf 543c
00000250: e4bb 783c 36a6 1abc 01d2 aebb 3b12 25bb
00000260: f6d2 29bc 41e1 033d 7eed 21bd 7372 a33c
00000270: 47e8 e63b 81ec c3bc ba88 3cbc 4068 673c
00000280: 1861 b23b 87a5 b6bb fe3f 443c 18aa 093c
00000290: f068 f43b 113c 013c 46c6 b1bc 49f7 2ebc
000002a0: 05b4 a7bb 1e7f cd3c c7de 0dbd 580a d5bc
000002b0: 48a7 f63b b53a 7a3c 61e7 4c3c 069d 703c
000002c0: 4416 bfbc 7c36 c13c ca18 043c 1cd8 80bd
000002d0: 0464 0ebc 09e0 edbd a072 1cbc 1d4d 993d
000002e0: b0a2 0bbc 9802 7fbd b46c d1bd 273a 52bd
000002f0: 169b f5b7 7bfa 0ebc 7815 d1bc 09d7 2a3d
00000300: 69c3 bd3d bd20 303d b39a 2fbc 56d0 fbbd
00000310: c4d4 a3bd d6a8 17bc 0868 07bd e400 cabc
00000320: 4b03 e9bc 67a4 2dbd 3d0b 34bd 1971 7c3a
00000330: cf20 9fbc 02fd b03b b109 b5b9 7d8c 62bc
00000340: c6a2 3d3c fd38 8fbb 3ca1 6abc d9be a43c
00000350: c359 d13c 1d5a 5d3c 2bdb 93bc 398b f33c
00000360: 60fb 9a3c dd18 b03c 10b8 1abc 18a2 eebc
00000370: ba83 e3bc 2830 a5bb 2bce 60bc a6b3 dfbc
00000380: cb1a 403c 7160 2b3c d6d6 863c 8341 863b
00000390: 6ae3 5d3b 4405 d13b 88b7 233c addc cc3b
000003a0: 6b77 163d a575 213d 1c70 13bc 2353 a2bc
000003b0: 9898 67ba f8b4 9c3b 20e6 293c 19fb 39bb
000003c0: ea58 bebc 19b5 ea3a af2e 18bb 6595 60bd
000003d0: a74e 4abc 15ae 3ebb 69e3 c43b d495 523a
000003e0: 7245 20bd 2531 16bc 95df 7abc 212e 893c
000003f0: 17fc 143c 8817 75bc a056 40bc f525 48bd
0.0015267599 -0.00064305373 0.014640746 0.0052836286 -0.0026790637 -0.01945774 -0.026203305 -0.020827591
-0.02375639 -0.02708766 0.03222204 0.015342206 -0.009164852 -0.030169986 -0.010318683 -0.0007704303
0.021729205 -0.01124566 -0.008524665 0.016229572 0.015707208 0.022074085 -0.011780822 0.024845956
0.022585703 -0.011628345 0.020361615 0.016118832 -0.0012096758 -0.02424977 -0.023568472 -0.0026803988
-0.013272281 -0.014471646 -0.008110551 0.008692404 -0.006064535 0.01270304 -0.008757303 0.017186975
-0.0016991687 0.0120589305 0.00832247 0.013306189 -0.012253692 -0.03911101 0.0053474577 0.018724348
0.02537841 0.005483487 0.008824899 0.049112804 0.04211046 0.038677126 0.0052633747 0.02184109
0.02928509 0.04940264 0.025465693 -0.0029007527 0.027303979 -0.01334803 -0.03775534 -0.022830166
-0.05323777 -0.017938726 0.007835017 0.00057814055 0.008094372 0.017027233 -0.0026764506 0.019931281
0.002005934 -0.0063738707 0.020167848 0.009544662 -0.02206476 -0.018598992 -0.025832037 -0.033378117
-0.0014446413 0.012476104 -0.023956725 -0.015819812 0.028175928 0.008934729 0.008109928 -0.009954071
0.041397326 0.017950654 -0.0044585746 0.029609412 0.020164886 0.01846083 -0.008464119 -0.0065777507
-0.032131307 -0.012235463 -0.04869129 -0.038597614 -0.030662574 -0.016745323 0.022332864 0.04276681
0.024902208 -0.022981187 0.009387675 0.017999519 0.022591544 0.0086056385 -0.037060384 -0.017438853
0.029750934 0.023934493 -0.030428085 -0.012105643 0.027399426 -0.015187956 0.016866172 0.008576239
-0.011128794 0.006957864 -0.008040617 -0.024185022 0.022391193 0.0029730212 -0.06452637 0.033675443
-0.025138399 0.061823703 0.00961208 0.0053145573 -0.0010649395 -0.03521877 -0.002924026 0.039522607
0.024844833 0.0683284 0.06036763 0.044291053 -0.010426927 0.0030985978 0.00040347816 -0.0047355187
0.0051562185 -0.0026866144 0.036142174 0.012992719 0.015181515 -0.009439042 -0.005335093 -0.0025187868
-0.010365238 0.03219724 -0.03953313 0.019952035 0.0070467326 -0.023916485 -0.0115072075 0.014123976
0.0054437034 -0.0055739316 0.011978148 0.00840237 0.0074587986 0.007887856 -0.02170099 -0.010679075
-0.0051178955 0.025085028 -0.034636285 -0.026005909 0.0075272657 0.015272786 0.012506337 0.014685875
-0.023326047 0.02358555 0.008062551 -0.062912196 -0.008690838 -0.11614997 -0.009548813 0.07485411
-0.008522674 -0.062258333 -0.102258116 -0.05132499 -2.9278493e-05 -0.008726711 -0.025522932 0.04170898
0.09265787 0.04299997 -0.0107180355 -0.12295596 -0.07999566 -0.009256562 -0.033058196 -0.024658628
-0.028443953 -0.042393114 -0.04395603 0.000962989 -0.019424824 0.0054012546 -0.0003453023 -0.01382744
0.011574453 -0.004370807 -0.014320668 0.020110535 0.025555497 0.013510254 -0.018048843 0.029729472
0.018918693 0.02149623 -0.009443298 -0.029130027 -0.027772773 -0.005041141 -0.013721029 -0.027307343
0.011725138 0.010460005 0.016459864 0.004097165 0.0033857473 0.0063788015 0.009992488 0.0062518925
0.03673498 0.039418835 -0.008998897 -0.019815033 -0.0008834689 0.0047823153 0.0103698075 -0.0028378426
-0.023235757 0.0017906755 -0.0023221185 -0.054829974 -0.012347854 -0.002909546 0.0060085547 0.00080331904
-0.03912873 -0.00916699 -0.015312095 0.016745629 0.009093306 -0.014959224 -0.011739403 -0.048864324

conv2.bias f4 [32]
00000000: 5c71 54bb 61bc 20bd e594 1dbb 1044 ae3c
00000010: 74a1 c93c b6ae 823c 3ee7 61bc 5990 f63b
00000020: cfd8 eb3b 2874 61bc ce27 6fba 79e2 593c
00000030: a09f b33c 42d1 933c c631 bf3c decd bf3c
00000040: 50e2 7bbc 6533 9ebc 255b 9e3c 7617 9d3c
00000050: 427c 513d e6d1 88bc b284 bbbc 0cbe a73c
00000060: 763c 663c 10bc 463c 84fe 993c 4f5e 303d
00000070: ef62 0b3c 97b0 75bc 957a fd3b 356b 96ba
-0.00324162 -0.039242152 -0.0024045047 0.02127269 0.02461312 0.01595245 -0.013788043 0.007524532
0.0071974765 -0.013760604 -0.0009123058 0.013298624 0.021926701 0.018044118 0.023339164 0.023413595
-0.015373781 -0.019311616 0.01933057 0.019176226 0.051143892 -0.01670165 -0.022890422 0.020476364
0.014052501 0.0121297985 0.01879812 0.04305869 0.008507474 -0.014995716 0.00773556 -0.0011476042

conv3.weight f4 [1, 32, 5, 5]
00000000: 3461 8d3c e625 9c3c 1ae2 05ba 9235 f83c
00000010: 70b8 0a3d 3243 c1bc 37c5 343c 1e36 fdbc
00000020: 6c5a 893b 9148 853c bd32 e3bb 4229 e23c
00000030: 2622 3e3c 4022 1ebd 7e38 23bc 4865 97bc
00000040: b4fb 07bd 4300 67bb 5439 14bd 948f a83c
00000050: 3fa0 153c eac5 853c 2b30 db3c d3fe 093d
00000060: acbc 40bc 519b 883a f9fa 1cbd bbf4 ef3b
00000070: c47d e13c 07ac d3bc 3497 a33c 2cd3 a9bc
00000080: a4a1 293c f1b2 80bc a077 873b ff12 0dbd
00000090: 0162 bf3c 9ee6 16bc e274 003d 1de1 88bc
000000a0: ad15 873c b1aa a8bc 74ea a4bc 85e3 11bc
000000b0: 1a58 6e3c 68ad 833c 26d2 a43c c8e8 f7bb
000000c0: afd9 a83b 3514 a23c b447 62bc 6c40 3ebc
000000d0: 0a84 dc3c 3348 f4bc af1f 8cbc 748d a0bc
000000e0: 3489 f3bb dfd6 d4bc d400 073c 5834 cabc
000000f0: 5e9c 7ebc 9ced 0cbd 4f09 c13c b477 b1bc
00000100: 94c1 8abb fedc acbc 1b3b a1bb 1788 dcbb
00000110: 3c81 3cbc 6368 04ba 8533 763c 0d37 ee3c
00000120: f7fc d63c deee d6bc 9a19 86bb 17cf 5dbd
00000130: a0f0 15bd 7408 9fbc 87aa 50bc e709 01bc
00000140: 2269 0d3d cf75 f6ba ccdc e8bc 99c3 e3ba
00000150: cfbc e03c 3553 4f3d f17a 423d 925e b23d
00000160: f894 1d3d 7a3f bcbb 4543 07bd 89d5 6dbd
00000170: ada5 23bd 4ee2 8cba 903c ccbc 5c1d 153c
00000180: 8af5 873b c5fe c6bc f077 81bc 2b0b cd3a
00000190: 744d aa3b 1368 ea3b 8761 623c c441 76bb
000001a0: 8cb6 563b 76f7 06bc eb3b 013d c051 ddb9
000001b0: 2a0c c83c 24f7 b1bc 1927 e6bc a9b6 873b
000001c0: cf89 05bd 166e a43c 5166 a13c a45a e83c
000001d0: 1239 013d b7ad 343c ce6d 533c d86f c9bb
000001e0: 5bd5 013d ba2b 693c 2dfe 13bc db9c 08bd
000001f0: 8913 5c3b 3b28 6b3b f819 c63c d5ae d73c
00000200: fead 363d 0881 d4ba a88b 643c 6767 edbc
00000210: 32a1 0dbb fff2 bf3b a883 e4bc a2e2 8abc
00000220: adce 813c 3c06 aebc bbc7 46bc 0bbc be3c
00000230: 7ecc 003d 138e c0bc 3106 a5bc 458d 093d
00000240: 7be9 30bc 868e 313c 4d6c b1bc 98bf 40bc
00000250: 834d f03c e17d e6bc 91e4 433c 96c5 053a
00000260: 0970 313c 9433 8b3a dbc0 0cbc 06d9 4c3c
00000270: e36e 153c 0e43 77bb 7e48 c13c 3c17 013d
00000280: ef33 9a3c deaf 23bc ea05 d9bc a2fa ccbc
00000290: 3973 99bc f92c 4fbb 57ec 933c 3822 243c
000002a0: 973b 013d 9db6 12bd 85c3 a6bc 512a 023d
000002b0: 75f2 d3bc 35d5 b53c 03c7 5bb8 8c46 86bb
000002c0: c4d8 cc3c 8f76 df3c 3344 73bc 4a18 1dbb
000002d0: a03b 073d 0370 f13c 6603 693c b457 b1bc
000002e0: 8b91 c5bc a267 d03c e13e a83c 4863 75bb
000002f0: c38b 0b3d 8aaf c93c 4fb2 fbbb 70e0 7f3c
00000300: 89b5 0d3d 8481 a73c 22a8 8cbc 521c 09bd
00000310: c16f 313c b61c 5a3c 319f 0fbd 9a4d a53b
00000320: c090 b2bc da5d 683c 9172 8dbc dc75 dcbc
00000330: 6744 0b3d bb41 ad3c d23a 6abc ecee d0bc
00000340: 81d0 c33c 9ade b4bc 41b5 2bbc cf15 81bc
00000350: e5a3 2c3c ace7 13bb e94b 573c 0421 a2bc
00000360: abcb d53c ea04 863b 8207 c8bc 0297 d3bc
00000370: d302 b03c 3e21 7abc 0538 223c 9617 6e3a
00000380: f982 86bc 4243 0a3d f20d 7ebc d3cc 6d3c
00000390: 73b6 b03c 21be 333c 7d9b 153d 8514 cdbc
000003a0: 354b bd3b b3f3 d439 debf 803c cb65 73bc
000003b0: 4f4c d4bc 77ff fabc a514 ba3c f4b2 083c
000003c0: 8a98 0abd 599e 88bb 3679 03bd f5f7 01bd
000003d0: bdd2 bc3c ce80 70bc f37f c53c 7e0a 0f3d
000003e0: 118a 643b 66b4 6f3c f1f0 fcbc 6013 76bc
000003f0: bd10 00bb 10e5 fb3b a646 713c 9612 9c3c
0.017258264 0.01906104 -0.0005107239 0.030298982 0.0338673 -0.023591612 0.011033348 -0.030909594
0.0041916873 0.016269954 -0.0069335387 0.027607564 0.011604821 -0.038606882 -0.009962199 -0.018480912
-0.033199027 -0.0035247959 -0.036187485 0.020576276 0.009132444 0.016329724 0.026756367 0.033690285
-0.011763733 0.0010422264 -0.038325284 0.0073228753 0.02752579 -0.025838865 0.01996956 -0.020730577
0.01035348 -0.015710326 0.0041341335 -0.034441944 0.023362162 -0.009210257 0.031361468 -0.016708905
0.016489828 -0.020589205 -0.020131327 -0.008904343 0.014547372 0.016073897 0.020119738 -0.0075655915
0.005152903 0.019785026 -0.013811041 -0.011612039 0.02691843 -0.029819584 -0.017104952 -0.0195987
-0.0074321274 -0.025981365 0.0082399435 -0.024683163 -0.0155402105 -0.03440629 0.023564009 -0.021663524
-0.004234502 -0.021101471 -0.004920376 -0.0067300904 -0.011505421 -0.0005050955 0.015026932 0.029078985
0.02624367 -0.026236948 -0.0040924074 -0.054152574 -0.03660643 -0.01941321 -0.012735969 -0.007875896
0.03452409 -0.001880342 -0.028425597 -0.0017377018 0.027433781 0.05061646 0.047480527 0.08709444
0.038472146 -0.0057448717 -0.033023138 -0.05806497 -0.039952923 -0.0010748596 -0.024931222 0.009101238
0.0041491436 -0.024291405 -0.015804261 0.0015643587 0.0051972214 0.00715352 0.013817198 -0.003757582
0.0032762615 -0.00823771 0.031551283 -0.00042213313 0.024419863 -0.021724291 -0.028094815 0.004141648
-0.032602128 0.020072024 0.019702109 0.028363533 0.031548567 0.011027745 0.012904597 -0.006147366
0.031697612 0.014231617 -0.009032768 -0.033352714 0.003358098 0.0035882134 0.024182305 0.026328484
0.044599526 -0.0016212771 0.013949312 -0.02897997 -0.0021610972 0.005857825 -0.02789481 -0.01695377
0.015845621 -0.021243207 -0.01213258 0.023283025 0.03144502 -0.023505246 -0.020144554 0.03358199
-0.010797854 0.010837203 -0.021658087 -0.0117644295 0.029333835 -0.028136196 0.01195635 0.000510299
0.010829934 0.001062023 -0.008590902 0.012502914 0.009120676 -0.0037729177 0.023594137 0.0315163
0.018823592 -0.0099906605 -0.026492078 -0.025021855 -0.0187317 -0.00316125 0.018057032 0.010017924
0.03155097 -0.035818685 -0.020356903 0.031778637 -0.025872448 0.022196392 -5.2399013e-05 -0.0040977653
0.025005706 0.027278213 -0.014847803 -0.0023970776 0.033015847 0.029472357 0.014222002 -0.021648265
-0.024117252 0.025440041 0.020537795 -0.003744321 0.034068834 0.024619836 -0.007681168 0.015617475
0.034596954 0.0204475 -0.017170016 -0.033474274 0.010829867 0.013312509 -0.035063926 0.005044651
-0.021797538 0.014182532 -0.017266544 -0.026911668 0.03400078 0.021149507 -0.01429625 -0.025504552
0.023903133 -0.022078801 -0.010480226 -0.01575747 0.010537122 -0.0022568507 0.013140657 -0.019791134
0.026098093 0.0040899413 -0.024417643 -0.025828842 0.021485722 -0.015266715 0.009901051 0.0009082494
-0.016419875 0.03375555 -0.0155062545 0.014514166 0.021571374 0.010970623 0.03652524 -0.025034199
0.0057767876 0.0004061736 0.01571649 -0.014855812 -0.025915293 -0.030639393 0.022714922 0.008343447
-0.03383688 -0.004169267 -0.032098018 -0.03173061 0.023049707 -0.014679147 0.024108863 0.034922116
0.0034872333 0.014630413 -0.030876609 -0.015019268 -0.0019541227 0.0076872185 0.014726317 0.019051831
