output_x01/x2/epoch_295.pth (torch, 231335 bytes, 5 tensors)

conv1.weight f4 [64, 1, 9, 9]
00000000: 8381 50bd 414b 2b3c 4906 42bd 3073 883d
00000010: 10be 93bd c8ca cd3d 25ff 80bd 6726 97bd
00000020: 73d1 87bd afcd 193d 528c 25bd db42 443d
00000030: 11c0 a3bd 1c91 74bd 7adc 00bd 9bcb 53bc
00000040: a670 a9bd 5721 8d3d c371 48bd 8850 bb3c
00000050: 3e11 8b3d 57af eb3c bef9 3e3d 9b5a 003e
00000060: c230 ecbc 575f 503d 3b25 42bd 474b 913d
00000070: 19db 9a3d 63d0 f2bd 2cf1 e23d 0519 943d
00000080: 7d59 5d3d a7c0 7f3d 70d3 ec3d 16a4 2abc
00000090: 17ad ccbd babd 32bd a005 b5bd 629d f03c
000000a0: f199 59bc dd7d 94bd 68ee c3bb 8c90 fa3d
000000b0: 9316 7cba 1fe8 bbbb d93a 04bd 47bd 843b
000000c0: 650e df3d 2226 803d 2e2a a63c 5fc7 c83c
000000d0: f9c1 1e3d 4623 453d dc2f 863b 010c d0bd
000000e0: 1d89 85bd 3b1e ec3d 8012 6c3b 7a35 e0bd
000000f0: 9ec7 973c 691d d73d 7f9b d4bd 5e59 47bd
00000100: d6df 05bd 8858 973c eef9 19bb a4e6 bcbb
00000110: 1389 d9bd 61bc 8c3d 7a79 fa3d 2ebd 9b3d
00000120: f398 69bd b70a a5bd b116 483d abe4 a13b
00000130: 8540 353d cc3d dbbd f4e1 b5bb 9458 ad3d
00000140: dd5f 563d dcdf 663c 2646 553c c1b3 2dbc
00000150: 340b 91bd 5495 4fbd a62c dfbd 40dd c23d
00000160: 07b6 5d3d fb58 a73c d2ce c7bd 4358 943d
00000170: a2a4 f63c eb12 5f3d 1aa6 60bd 8b65 67bb
00000180: 97aa 003e 22c2 bc3d 30cd 923d 03ab 0fbd
00000190: d573 9a3d 46ee c5bd 7a47 debc e96d 82bd
000001a0: a7a9 16bd e631 74bc fb9c b93c cf47 c53d
000001b0: 24b0 203d a810 e3ba ce61 c83d 02f1 84bd
000001c0: c398 b13d c214 7eba e069 7dbc e997 393c
000001d0: fdd1 bdbd dce3 fcba 4dc8 113d cfcf e63d
000001e0: 3a3e 66bd d72e 4e3d 0f0f dc3d 644e 70bd
000001f0: 36d3 bc3d eebb 99bd a098 3e3d f85f 173d
00000200: d50f 153d cbda 843d 51ee e5bc 5fc0 1a3d
00000210: bcf4 a73b 956e 9dbd d8ea 01bd d756 acbd
00000220: f3f6 a03c 6947 da3a 6725 cfbb edb9 aebc
00000230: b645 1bbc 71b7 30bd 0f5a 043d b5ea be3d
00000240: 518c 603c f3e8 9abd 7607 86bd 015a 99b9
00000250: dcb1 b4bd e050 dcbd 5aba b3bd 4426 36bd
00000260: 413b f7bb b8ce cf3d fe6c 353d 25bd f33d
00000270: 0fd7 4dbd f5a2 873c 6194 cabd 22f5 a73d
00000280: 9032 143d 0baf de3d f203 bbbd e447 bc3d
00000290: 2227 f43d 553b 0e3e 318f a13d 7c22 0f3e
000002a0: c050 ab3d e31e 983d 3777 26bc dcfa d2bd
000002b0: ab22 21bc ac8d c43c 0058 a2bd de4e 95bd
000002c0: a33e eebd 41e8 3cbd 213c a23d ee57 33bc
000002d0: 856c 363c 7ab9 a83c 7360 b63d 9e45 aabd
000002e0: 4411 8fbd ee81 0cbd 0708 7abd 6c0c 803d
000002f0: 01cf 813d f119 83bd d481 7abd cce1 aabd
00000300: 5cf2 943d 75f9 123e d6b6 69bd d782 17bd
00000310: 31a3 693d c7cb 7ebd f1da ce3d 8581 bd3c
00000320: ba86 3abd 2882 073b 63b5 7b3d e6c9 debc
00000330: 07c7 a9bd 0224 343c 6d70 143b de55 2abc
00000340: 78c3 9cbc a21c 933d 5a70 31bd 3a54 f6bb
00000350: b37a 933d a1d8 17bd 4c28 4e3d b444 01bd
00000360: 0d13 643d f40c 7abd c8f4 083d ec26 1d3d
00000370: ebfd 99bd b826 83bd dd3e 6c3d aed6 fcbc
00000380: a1b7 713d 9ecb a2bd f5db 28bd effc 89bd
00000390: 2601 9c3d 0394 093d a069 453b 010b 5dbc
000003a0: 7a7f acbd 171a 663d b734 b23c 41bd 74bd
000003b0: cd24 813d d52d 20bb 3784 d5bd 620e 8c3d
000003c0: 4628 593d bfa4 afbc 38ee 3bbd b5ab 673a
000003d0: fa11 a33d f482 c33d 18a6 bebd 27e1 88bd
000003e0: 9f0e 923d bce2 4e3d 5c2a 553d cd74 97bd
000003f0: 935f cf3d 6311 c9bd 8b7c 9abc 00bb 33bc
-0.050904762 0.010454954 -0.047369275 0.06662595 -0.07213986 0.10048443 -0.06298665 -0.073803715
-0.06631746 0.03754967 -0.040417023 0.04791532 -0.07995618 -0.0597087 -0.031460263 -0.012926961
-0.08273439 0.06891125 -0.048936617 0.022865549 0.06790398 0.028770132 0.04662489 0.12534563
-0.028831843 0.050872173 -0.047398787 0.07094436 0.07561321 -0.11856153 0.11081156 0.072313346
0.05404042 0.062439587 0.11563766 -0.010415098 -0.09993952 -0.04363797 -0.088389635 0.029371921
-0.013281331 -0.07250569 -0.005979348 0.122346014 -0.0009616401 -0.005734458 -0.032282684 0.004050884
0.108914174 0.06257273 0.020283785 0.02450913 0.038759205 0.048129342 0.0040950608 -0.101585396
-0.06520293 0.115292035 0.003602177 -0.109477 0.018527802 0.105036564 -0.10381221 -0.04866921
-0.03268417 0.018474832 -0.0023494917 -0.005764799 -0.10621848 0.06871868 0.12230201 0.076044425
-0.05703063 -0.08058684 0.048849765 0.0049405894 0.044250984 -0.10705146 -0.0055506174 0.084641606
0.052337516 0.014091458 0.013017213 -0.010601939 -0.07082215 -0.05067952 -0.10897188 0.09514856
0.054128673 0.020428171 -0.09756245 0.07243397 0.0301078 0.0544614 -0.054845907 -0.0035308327
0.12565075 0.092167154 0.07168043 -0.0350752 0.075416245 -0.09664588 -0.027133692 -0.0636862
-0.036782887 -0.014904475 0.022657862 0.09632837 0.03923048 -0.001732369 0.0978428 -0.06491281
0.08671715 -0.0009692424 -0.015467137 0.011327722 -0.09268568 -0.0019293982 0.035591412 0.11270105
-0.056211688 0.05033764 0.1074506 -0.05866851 0.09219973 -0.07506548 0.046532273 0.036956757
0.03639205 0.06487044 -0.02806774 0.037781116 0.00512561 -0.076871075 -0.031718105 -0.08415001
0.019649005 0.0016653362 -0.0063215974 -0.02132889 -0.00947707 -0.043143693 0.03231245 0.093221106
0.013705329 -0.07563963 -0.06544392 -0.00029249492 -0.088229865 -0.10757613 -0.08775778 -0.044470087
-0.0075449054 0.1014685 0.044293396 0.11901311 -0.050253924 0.016557196 -0.09891582 0.08201052
0.036181033 0.108732305 -0.09131612 0.091933995 0.119215265 0.13889821 0.0788864 0.13977998
0.08365011 0.07427766 -0.010160259 -0.10301754 -0.009834926 0.023993336 -0.07926941 -0.07290433
-0.11633041 -0.046119932 0.07921625 -0.010946257 0.0111342715 0.020596255 0.08905115 -0.0831406
-0.06985715 -0.034303598 -0.06104281 0.06252369 0.06338311 -0.06401432 -0.06115897 -0.083438486
0.07272789 0.14352973 -0.05705913 -0.036990013 0.057040397 -0.062206056 0.101003535 0.023133049
-0.04553864 0.0020676944 0.06145228 -0.027195882 -0.082899146 0.010994913 0.0022650019 -0.010396449
-0.019136176 0.07183196 -0.043320037 -0.007517365 0.072011374 -0.037071828 0.0503314 -0.03155966
0.05568223 -0.06104751 0.033436567 0.038367197 -0.07519134 -0.064038694 0.05767714 -0.030864086
0.059013013 -0.07948993 -0.041225392 -0.067376964 0.076174065 0.03358842 0.0030122772 -0.013491393
-0.08422752 0.056177225 0.021753652 -0.0597508 0.06305847 -0.002444138 -0.104256086 0.06838681
0.053016923 -0.021440862 -0.04588148 0.0008837537 0.07962413 0.09546462 -0.093090236 -0.066835694
0.07131695 0.0505092 0.05204235 -0.07395325 0.10125651 -0.098177694 -0.018858215 -0.010969877

conv1.bias f4 [64]
00000000: c871 0cbd 5d8f 0dbd d6b2 043c 7a68 6dbd
00000010: 494b 3f3d 3f11 f93c ac23 7f3d d4a2 1c3a
00000020: 4f17 003e defc 8fbc 83ed 1c3c 3191 a1b8
00000030: edfd 55bd 3b4c 123e d75d 8f3d 6c4c 823d
00000040: fd30 bebc 24d4 85bd abfb a03d 00f8 3f3d
00000050: 84aa b83c 174c 5fbc b0e5 90bd 90a9 eb3d
00000060: a0b4 cabc d963 dc3d 7841 4dbb 0742 f3bc
00000070: 18a7 ef3c 450a 2d3d 03a7 c83d 770f f13b
00000080: 5dc1 4a3d 3b29 a33d bb90 89bc 2996 f9bd
00000090: 9781 98bc 9bce a83d 47a8 d9bc 9518 243d
000000a0: b382 e0bd 91cf 29bd 7bea e83d 448a 413d
000000b0: 54eb 103d bcd3 1a3d 05df c7bb 4b2e fe3c
000000c0: d28e 9c3c fa52 c2bc a153 a5bc 5bd7 343b
000000d0: a28b 833d 9fd8 513b 8ae4 9e3a eff9 91bb
000000e0: 681a 0e3e dc0a 37bd 90a7 ff3b 6e8e 213e
000000f0: 5fcb f63d e6a6 173d 4a36 b0bc c44c 89bd
-0.034288198 -0.03456055 0.008099278 -0.057960965 0.046702657 0.030403731 0.06228988 0.0005975191
0.12508892 -0.017576631 0.009578112 -7.704122e-05 -0.052244116 0.14286892 0.070003204 0.063622326
-0.023216719 -0.06534603 0.07860502 0.04686737 0.022542246 -0.013628981 -0.070750594 0.11506951
-0.024744332 0.10761232 -0.003131954 -0.02969457 0.029254481 0.042246122 0.0979748 0.00735658
0.04950081 0.079668485 -0.016792646 -0.12186844 -0.01861648 0.08242532 -0.026569499 0.040062506
-0.10962429 -0.041457716 0.113728486 0.047251 0.035380676 0.037799582 -0.006099584 0.031027934
0.01911107 -0.023721207 -0.020181479 0.0027594182 0.06423117 0.0032019985 0.0012122553 -0.0044548432
0.1387726 -0.04468809 0.0078019574 0.15776989 0.12050509 0.0370244 -0.021510262 -0.06704095

conv2.weight f4 [32, 64, 5, 5]
00000000: 27e8 3939 c700 1cbb d7b1 9a3c 0830 f23b
00000010: c53b d8bb a9d1 b4bc 8030 e9bc be77 9ebc
00000020: e472 bfbc 96d0 04bd ce6a f53c 6981 463c
00000030: 87e7 f4bb fba2 eebc 9cef 3fbc 2e6f f9ba
00000040: 9b8d 9e3c 50ef 3ebc 41f8 13bc ff86 633c
00000050: b1ed 543c 2a41 b33c bfca 3bbc c83e eb3c
00000060: b98f bd3c 9959 4abc bb83 b13c 1b22 823c
00000070: 1cd0 6dba 4886 d0bc 21d1 acbc 6c35 aa3a
00000080: 051e 2abc 184c 19bc 2387 c5bb 279f ca3b
00000090: 3fe9 1fbc f888 013c 5e20 1bbc f3af 873c
000000a0: d483 3fba 3039 533c 85b5 a03b 1fab 343c
000000b0: 267a 25bc 7e94 16bd 819b 053c 4b0b a03c
000000c0: a3d0 d73c 124d 243c fc8f 9e3b 43ad 313d
000000d0: 3693 153d 6350 063d de9c f73a 0869 ab3c
000000e0: 00a7 063d 0965 4e3d 1689 bb3c 478d 93bb
000000f0: 02c5 b53c 73a9 1cbc 2ec3 0dbd 76cd bcbc
00000100: 7539 4ebd 7ff8 a2bc 6eee 193c 23d1 593b
00000110: 0d7b 123c ce8f 873c fbf9 1fbb b0a6 a13c
00000120: 4862 4f3b 4782 99bb 79a1 a73c 0f2c dc3b
00000130: d123 c8bc ce74 8bbc a3c8 d1bc 4bce 11bd
00000140: 8339 1ebb 567d 4a3c 62df b9bc a6c2 81bc
00000150: c318 ba3c 1484 283c c62b 153c cbef 3ebc
00000160: 63db 243d 3235 873c 48d3 e2bb b5b3 e83c
00000170: 45e4 a53c 7b73 aa3c c6aa f0bb bab8 06bc
00000180: 4f33 f2bc 16b5 d2bb 066e 2fbd 4488 12bd
00000190: abb9 04bd f48e a4bc e7a5 a83c 5205 343d
000001a0: 4a9c e93c d2f0 adbc 0756 ea3b f727 a03c
000001b0: 3858 d23c c3d0 203c 87aa 03bd 8d6f 6dbc
000001c0: 94c8 f93c 648b bd3c 191e 07bd f554 62bc
000001d0: c656 ca3c 87e6 84bc 3387 953c 6fe5 283c
000001e0: 5f48 5dbc 00ae ea3b 7f57 9abb 202e a7bc
000001f0: 747c ba3c 691e 2fbc bd20 5dbd c570 1b3d
00000200: f9f4 82bc cfe4 a83d c27f 243c 4e32 ae3b
00000210: 4ff4 c7ba d3e1 11bd bc44 2dbc d39a 243d
00000220: a35d dd3c c52a 8a3d 2c0f 713d fbb6 2f3d
00000230: 4e38 c9bb 858c db3b aeb4 8539 2f2a 2dbb
00000240: 7202 1a3c a904 7abc 9f1b d13c a2a6 483b
00000250: e770 683a 6c41 a3bc 7291 debb 6562 5cbb
00000260: 64bf 17bc c6bd fe3c 6290 1fbd 0eb5 b63c
00000270: e380 1c3c 5af5 9ebc 1fec 1fbc ed5c 6b3c
00000280: 263e cf3b e843 18bc b003 403c 99be fa3b
00000290: 735b 6d3b fa7c ee3b 91ba b6bc e194 21bc
000002a0: 88cc d8ba 9f23 c73c 2066 01bd 8d60 b5bc
000002b0: e601 273c 5de0 9b3c 4720 3f3c 5fe6 7c3c
000002c0: 6636 d9bc ffbf d63b 89cd d33b 6769 87bd
000002d0: fc8d 2f3b f63b d1bd 3268 73bc 120b 913d
000002e0: 9b38 10bc ec2d 7fbd 2892 b6bd 7e44 76bd
000002f0: 8b63 15bc a9ea 54bc 2142 ddbc 1ae2 373d
00000300: 4704 b83d 6582 203d 91b0 46bc 9347 f6bd
00000310: ae67 b9bd 612c 72bc 5887 0cbd 5318 13bd
00000320: d0f1 eebc 8771 2cbd 453b 2dbd 8ff5 2a3b
00000330: 0050 88bc 6767 de3b 314c 473a 5158 4dbc
00000340: 1b1d 4a3c 6302 21bb 07b2 69bc 4781 943c
00000350: 866a c63c 73a3 513c 8b25 98bc b133 fc3c
00000360: 958d 8f3c 0aa7 ad3c 3f59 1abc 0103 fbbc
00000370: 3d06 debc 912f 84bb 7b27 38bc 1eed ccbc
00000380: 6d76 363c f028 333b 049c 2d3c fbda 9cba
00000390: 2566 0cbb a844 06bb 5371 6f3c a81f 083c
000003a0: 002c 183d b23e 223d 2f7a 4bbc 7f2c 8abc
000003b0: a681 7dba 2fed 563b 17a2 3b3c eef6 51bb
000003c0: 501b 04bd 1b70 a7bb d779 e9bb 8ff1 56bd
000003d0: ca14 33bc 96b9 a6b8 950d b03b 6d1f f8b8
000003e0: f24e fbbc 6be1 93bb ad7a 7fbc 27bc 8b3c
000003f0: 53a8 153c 0a41 7fbc 5eaf 4abc 976b 4abd
0.00017729458 -0.0023804174 0.018883629 0.0073909797 -0.006598922 -0.02207263 -0.02846551 -0.019344207
-0.023370214 -0.032425486 0.029958155 0.012115815 -0.0074738893 -0.02913045 -0.011714842 -0.0019030327
0.019354632 -0.011653736 -0.009031356 0.013887166 0.012996123 0.021881659 -0.011461913 0.02871646
0.023139821 -0.012350463 0.02166926 0.015885403 -0.0009071843 -0.025454655 -0.021095814 0.0012985892
-0.010383134 -0.009356521 -0.0060280724 0.006183523 -0.0097602 0.007906191 -0.009468166 0.016563391
-0.00073057157 0.0128920525 0.0049044513 0.011027127 -0.010099923 -0.036762707 0.008154751 0.019536635
0.026344603 0.010028141 0.0048389416 0.043378126 0.036517344 0.032791506 0.0018891355 0.020924106
0.032874107 0.050389323 0.022892516 -0.0045029256 0.022188667 -0.009561884 -0.034609966 -0.02304719
-0.050347764 -0.019893883 0.009395225 0.0033236227 0.00894047 0.016548064 -0.0024410475 0.019732803
0.0031644274 -0.0046847197 0.020462738 0.0067191194 -0.024431141 -0.01702347 -0.025608366 -0.035597127
-0.0024143166 0.012358984 -0.022689525 -0.015839886 0.022716885 0.010285396 0.009104675 -0.011653851
0.040248286 0.016504858 -0.0069221593 0.028406003 0.020250449 0.020807019 -0.0073445765 -0.008222753
-0.029565481 -0.0064302785 -0.042829536 -0.035774484 -0.03240363 -0.020087697 0.02058692 0.043950386
0.028516907 -0.021232996 0.0071513685 0.019550307 0.025676832 0.009815398 -0.03214505 -0.014491928
0.03049115 0.023137756 -0.032987688 -0.013814201 0.02469958 -0.016223205 0.018252945 0.0103086075
-0.013506024 0.0071618557 -0.0047101374 -0.020407736 0.022764422 -0.010688403 -0.0539863 0.037949342
-0.015985953 0.08246767 0.010040225 0.0053160554 -0.0015255305 -0.035615753 -0.01057547 0.040186714
0.027022189 0.06746439 0.05885236 0.042899113 -0.0061407452 0.006700101 0.00025502354 -0.0026422848
0.009399997 -0.0152599 0.025525866 0.00306169 0.00088669214 -0.019928657 -0.006792241 -0.0033627984
-0.00926194 0.03109635 -0.038956054 0.02230313 0.009552213 -0.019404102 -0.0097608855 0.014365417
0.0063245473 -0.009293534 0.011719629 0.0076521155 0.0036217838 0.007278082 -0.022305759 -0.009862156
-0.0016540447 0.024308978 -0.031591535 -0.022140766 0.010193324 0.019027883 0.01166541 0.015435784
-0.026515197 0.0065536494 0.0064637107 -0.06611901 0.002678751 -0.10216515 -0.014856385 0.070821896
-0.008802558 -0.062299654 -0.08914596 -0.060123913 -0.009117971 -0.0129954005 -0.027009072 0.04489336
0.08985191 0.039186854 -0.012127058 -0.120253704 -0.090529785 -0.014781089 -0.03430876 -0.03591187
-0.02916804 -0.042100456 -0.042292852 0.0026086306 -0.01663971 0.006787229 0.0007602601 -0.012533263
0.012336041 -0.0024568073 -0.014263636 0.01812805 0.024220716 0.012795317 -0.01857259 0.030786367
0.017523566 0.021197814 -0.009420692 -0.03064108 -0.027102584 -0.0040339907 -0.011239882 -0.02501541
0.011136633 0.0027337633 0.010596279 -0.0011967117 -0.0021423188 -0.00204877 0.014614421 0.008308329
0.037151337 0.039610572 -0.012419268 -0.01686692 -0.0009670503 0.003279518 0.011452219 -0.003203805
-0.03225261 -0.0051097996 -0.00712512 -0.052476462 -0.0109302495 -7.950065e-05 0.005372713 -0.00011831415
-0.030677292 -0.004512956 -0.015593213 0.017057491 0.00913437 -0.015579471 -0.012370912 -0.049419012

conv2.bias f4 [32]
00000000: 1805 96bb 8b50 16bd e594 1dbb 8f70 b33c
00000010: 5bfa cb3c e505 953c 80ef 58bc 1063 003c
00000020: cfd8 eb3b bc42 58bc ce27 6fba 7199 433c
00000030: 20ff bc3c 12dd 923c 8178 ae3c ee24 ad3c
00000040: b2f9 79bc 66f4 9cbc ebc2 9b3c bf4b 9f3c
00000050: 7bdc 4d3d 4526 78bc bb46 9bbc 1a6c 9b3c
00000060: 62e2 5b3c f91b 473c 1d5f 973c 772f 193d
00000070: a1b1 0c3c 97b0 75bc cf36 113c e147 82ba
-0.004578244 -0.036697906 -0.0024045047 0.021904258 0.024899652 0.018191287 -0.013240695 0.007836118
0.0071974765 -0.013199504 -0.0009123058 0.011938439 0.023070872 0.01792768 0.021297695 0.021135774
-0.015257286 -0.019159507 0.019013843 0.019445298 0.050259095 -0.015145843 -0.018954625 0.018972445
0.013420673 0.012152665 0.01847797 0.03739878 0.008587272 -0.014995716 0.008863165 -0.0009939634

conv3.weight f4 [1, 32, 5, 5]
00000000: b01e 903c b3ab 983c 2fea 7fba 55c7 f53c
00000010: b30a 0d3d 538f c8bc 63e0 1e3c 9870 01bd
00000020: a2dd 7e3b 4a4f 813c 65d9 cbbb 421a e23c
00000030: 0277 3e3c c7e2 19bd 1ec1 14bc 552f 95bc
00000040: e397 03bd c78a 11bb 92a8 0ebd 0eb5 ad3c
00000050: c73f 0d3c 0149 7a3c e125 cd3c 3bb1 053d
00000060: 1039 52bc 9890 8a3a 3c69 1abd fc6e f13b
00000070: 47bf dc3c 54ba cfbc a063 a33c 294a a4bc
00000080: f59f 283c ccdf 82bc 6e0b 903b 4e0a 0dbd
00000090: 91aa c23c 739b 14bc 9da9 ff3c cc50 87bc
000000a0: e643 843c 6907 a4bc cfaa 9cbc 06f8 15bc
000000b0: eb16 733c 9cf7 7e3c 8601 a33c 235e efbb
000000c0: eb8e a13b feb4 a33c b447 62bc 6c40 3ebc
000000d0: 0a84 dc3c 3348 f4bc af1f 8cbc 748d a0bc
000000e0: 3489 f3bb dfd6 d4bc d400 073c 5834 cabc
000000f0: 5e9c 7ebc 9ced 0cbd 4f09 c13c b477 b1bc
00000100: 94c1 8abb fedc acbc 1b3b a1bb 1788 dcbb
00000110: 3c81 3cbc 6368 04ba 8533 763c 0d37 ee3c
00000120: f7fc d63c deee d6bc 9a19 86bb 8af2 66bd
00000130: 3f3e f2bc 192a 6dbc 0ce3 41bc d294 d4bb
00000140: d63f 073d 4619 42bb e839 fbbc 56cc 8dbb
00000150: 1c54 c93c f39b 4b3d 9f36 3a3d 94f4 a73d
00000160: 2b11 1d3d 6c4d bebb 1579 03bd 93fa 54bd
00000170: 8324 1bbd 9f29 4539 b92f b9bc 6740 093c
00000180: 6248 2b3b 5464 c0bc 376f 86bc 09d1 2f3b
00000190: 6db7 af3b 54ea ec3b 11fe 623c 0e50 70bb
000001a0: 3d0c 5a3b 0b85 04bc 4072 013d 6d68 c8b9
000001b0: 4cb9 c83c f33c b1bc 2d33 e5bc 490d 8a3b
000001c0: ec42 05bd 40da a43c 31d4 a13c 96e7 e83c
000001d0: 4c9e 013d 66a1 353c 10e2 543c 66f6 c5bb
000001e0: ad15 023d 4cfb 6a3c 3217 12bc bd1d 08bd
000001f0: 61bd 623b beeb 803b a3d3 cb3c 064c d83c
00000200: c6b7 2e3d 3223 4fba d366 623c 6a1f edbc
00000210: d095 4fba a7fc d83b c7ce d9bc d614 8bbc
00000220: e0a8 863c a749 a7bc 8dfa 40bc e5cf c33c
00000230: 9714 013d d22c bebc d45e adbc e92d 043d
00000240: a36a 31bc 6b12 1e3c 6583 b1bc 233d 46bc
00000250: ffce ed3c 80f2 e0bc b187 463c 0e1c 2e3a
00000260: bc1f 333c 1c24 963a 57b0 09bc f95a 4f3c
00000270: 39d9 173c c184 6fbb cd4a c13c bf1c 013d
00000280: 246b 9a3c 85cb 21bc 5db3 d7bc c21c ccbc
00000290: 91ca 97bc 91fb 4bbb 86f2 943c dd29 253c
000002a0: 7f7c 013d e0ad 11bd bb8d a5bc d5cf 023d
000002b0: 1eb0 d2bc 59e4 b63c aeb5 2039 0f19 84bb
000002c0: 4e46 cd3c 8ec0 df3c d021 72bc bf98 19bb
000002d0: ac79 073d ffae f13c 4541 693c 47f7 b0bc
000002e0: 613b c5bc 09d0 d03c fd5e a83c 4feb 76bb
000002f0: 1ba9 0b3d 380d ca3c 74da fabb 2925 803c
00000300: 08ab 0d3d a9bc a73c c04d 8cbc 63e0 08bd
00000310: 9858 323c fcf3 5a3c 0156 0fbd adec a63b
00000320: c090 b2bc da5d 683c 9172 8dbc dc75 dcbc
00000330: 6744 0b3d bb41 ad3c d23a 6abc ecee d0bc
00000340: 81d0 c33c 9ade b4bc 41b5 2bbc cf15 81bc
00000350: e5a3 2c3c ace7 13bb e94b 573c 0421 a2bc
00000360: abcb d53c ea04 863b 8207 c8bc 0297 d3bc
00000370: d302 b03c 3e21 7abc 0538 223c 9617 6e3a
00000380: f982 86bc 531b 093d b03c 74bc 1b98 723c
00000390: 1a06 b13c 8ad8 323c c05a 133d 4bad cabc
000003a0: 9fcd b23b 2fc1 8339 9470 823c bee0 7abc
000003b0: 3a05 ccbc aff1 f4bc be19 bd3c 2516 0c3c
000003c0: c067 0bbd b8e4 79bb 97b6 01bd c53b 00bd
000003d0: a2be ba3c ba33 7dbc 9f1c bf3c a70c 0c3d
000003e0: 650b 753b 6819 6e3c f1f0 fcbc 6013 76bc
000003f0: bd10 00bb 10e5 fb3b a646 713c 9612 9c3c
0.017592758 0.01863656 -0.0009762374 0.030002275 0.03443403 -0.024482405 0.009697053 -0.03160152
0.0038889428 0.015784878 -0.006220984 0.027600411 0.011625053 -0.037569787 -0.009079246 -0.018211046
-0.032127272 -0.0022207962 -0.03482873 0.021204498 0.008621163 0.015276195 0.025042476 0.032639723
-0.012830988 0.0010571657 -0.037698016 0.0073679667 0.026946677 -0.025357403 0.019944966 -0.020054894
0.010292043 -0.015975855 0.004395894 -0.034433655 0.023762973 -0.009070265 0.031208808 -0.01651802
0.016145658 -0.020023065 -0.019124417 -0.009153372 0.014837007 0.015561964 0.019898187 -0.007304923
0.004930367 0.019983765 -0.013811041 -0.011612039 0.02691843 -0.029819584 -0.017104952 -0.0195987
-0.0074321274 -0.025981365 0.0082399435 -0.024683163 -0.0155402105 -0.03440629 0.023564009 -0.021663524
-0.004234502 -0.021101471 -0.004920376 -0.0067300904 -0.011505421 -0.0005050955 0.015026932 0.029078985
0.02624367 -0.026236948 -0.0040924074 -0.056383647 -0.029570697 -0.014475369 -0.011833917 -0.0064874673
0.033019863 -0.0029617115 -0.03066726 -0.0043273373 0.02457624 0.04970927 0.045462247 0.082009465
0.03834645 -0.0058075693 -0.032097895 -0.05199678 -0.037876617 0.00018802889 -0.022605764 0.008377171
0.0026135673 -0.02348534 -0.016410453 0.0026827476 0.005362442 0.0072300825 0.013854519 -0.003666881
0.0033271455 -0.008088361 0.031603098 -0.00038224776 0.024502419 -0.021635508 -0.027978504 0.0042130095
-0.032534525 0.020123601 0.019754501 0.028430741 0.031645104 0.011085844 0.012993351 -0.006041336
0.031758953 0.01434214 -0.008916663 -0.033231486 0.0034597742 0.0039343527 0.02488119 0.026403438
0.04265573 -0.0007901668 0.0138184605 -0.028945643 -0.0007918747 0.0066219154 -0.026587857 -0.016977709
0.016437948 -0.020420862 -0.011778486 0.023902843 0.031513777 -0.023214731 -0.021163382 0.032270346
-0.010828647 0.009647946 -0.0216691 -0.012099537 0.029029367 -0.027459383 0.012117312 0.0006641754
0.010932859 0.0011454853 -0.008403859 0.012655967 0.0092680985 -0.0036547633 0.023595238 0.031521555
0.018849917 -0.009875183 -0.026330644 -0.024916057 -0.018529208 -0.0031125287 0.01818205 0.010080782
0.03161287 -0.03556621 -0.020209184 0.031936485 -0.025718745 0.022325682 0.0001532647 -0.0040313075
0.025057938 0.027313497 -0.014778569 -0.002343699 0.03307502 0.02950239 0.014236753 -0.021602286
-0.024076166 0.025489824 0.020553106 -0.0037676876 0.03409682 0.024664506 -0.007655436 0.01564272
0.034586936 0.020475702 -0.017126918 -0.033417117 0.01088538 0.0133638345 -0.03499413 0.005094132
-0.021797538 0.014182532 -0.017266544 -0.026911668 0.03400078 0.021149507 -0.01429625 -0.025504552
0.023903133 -0.022078801 -0.010480226 -0.01575747 0.010537122 -0.0022568507 0.013140657 -0.019791134
0.026098093 0.0040899413 -0.024417643 -0.025828842 0.021485722 -0.015266715 0.009901051 0.0009082494
-0.016419875 0.033473324 -0.014907047 0.014806773 0.021609355 0.010915885 0.035975218 -0.024740836
0.005456641 0.000251302 0.015922822 -0.015312372 -0.024904836 -0.0299004 0.023083564 0.008550202
-0.03403449 -0.0038130712 -0.031668272 -0.031307 0.022795979 -0.015454227 0.023329077 0.034191754
0.0037390825 0.0145324245 -0.030876609 -0.015019268 -0.0019541227 0.0076872185 0.014726317 0.019051831
