output_x01/x2/epoch_232.pth (torch, 231335 bytes, 5 tensors)

conv1.weight f4 [64, 1, 9, 9]
-0.047085788 0.009152907 -0.048130896 0.06135432 -0.07610979 0.097018115 -0.06631128 -0.07589034
-0.064866304 0.040926486 -0.042304188 0.04584453 -0.08439819 -0.059804976 -0.030627951 -0.012013518
-0.080468 0.073421985 -0.041404333 0.02715032 0.07153733 0.026245208 0.0449204 0.12331739
-0.032530334 0.049614184 -0.044221435 0.07489672 0.079389304 -0.11429225 0.10704515 0.07090342
0.054110195 0.05909007 0.11289626 -0.008014987 -0.09845017 -0.041219123 -0.085368335 0.024513299
-0.01305024 -0.06982602 -0.007348519 0.119563095 -0.0014059071 0.0021121968 -0.02334135 0.012344766
0.10908211 0.065254316 0.023904406 0.024462212 0.037365213 0.049615543 0.003872949 -0.1019414
-0.0676407 0.10880406 0.0028147956 -0.108726665 0.016670031 0.101540826 -0.10457834 -0.04948185
-0.033045355 0.01564186 -0.007804627 -0.008220786 -0.1092749 0.06533266 0.11902774 0.07641349
-0.057838324 -0.08008298 0.04806122 0.0024340344 0.04356224 -0.10808576 -0.0047081625 0.085639454
0.054411456 0.0066870246 0.01163816 -0.012826545 -0.072106674 -0.049681544 -0.10241059 0.09121286
0.051738948 0.023380792 -0.09620219 0.07673574 0.03491652 0.060379267 -0.049140174 0.0050111613
0.12169509 0.0880553 0.07775609 -0.032257814 0.07853853 -0.0925873 -0.020981332 -0.0634001
-0.03361276 -0.018115018 0.019882739 0.101652406 0.043214798 -0.0033295779 0.093977004 -0.06624996
0.07694386 -0.00477688 -0.017050968 0.009817344 -0.092789836 0.0013418235 0.03215341 0.10781964
-0.053304855 0.045944106 0.10794273 -0.05624458 0.094602995 -0.071954615 0.049860053 0.037863586
0.035597317 0.07044379 -0.028659677 0.03963312 0.0044896747 -0.07894597 -0.0307956 -0.08166415
0.02573233 0.004221445 -0.002621674 -0.020304 -0.0013481058 -0.038166847 0.033036273 0.09819305
0.016891034 -0.0670171 -0.063589826 6.9832204e-05 -0.0833892 -0.095514566 -0.081481755 -0.043261513
-0.002667325 0.0984376 0.047080193 0.11212626 -0.05901399 0.013528179 -0.10283427 0.07188566
0.027417501 0.10412762 -0.07797264 0.096167944 0.11444301 0.12600031 0.061718926 0.13448912
0.09042862 0.08302752 -0.008448832 -0.090556666 -0.0010126373 0.030752037 -0.06697921 -0.059163854
-0.10084399 -0.030695524 0.091101855 -0.0004417274 0.005941718 0.016645068 0.08627578 -0.08109196
-0.07300488 -0.03308565 -0.054308075 0.06547697 0.070158966 -0.07829005 -0.07206999 -0.08743796
0.07214488 0.12935063 -0.066848546 -0.036971133 0.05396368 -0.06365241 0.10182456 0.02817173
-0.029159846 0.022506785 0.06718375 -0.023417098 -0.07660252 0.013816899 0.0074903094 -0.0051902714
-0.015806874 0.08086384 -0.024853483 0.00056378264 0.06637543 -0.042890463 0.04717409 -0.02716816
0.048387878 -0.06791756 0.023028404 0.029909806 -0.081865296 -0.07268847 0.056858763 -0.027394949
0.05700568 -0.08999136 -0.04694272 -0.07197913 0.06970387 0.02425758 -0.0041885274 -0.011453132
-0.08422044 0.038415316 0.016606309 -0.062592864 0.06373076 0.0047722002 -0.099965505 0.06742591
0.060476124 -0.019145027 -0.061988346 0.0013914197 0.079983175 0.09693612 -0.089604825 -0.05880472
0.080874324 0.050419047 0.05811411 -0.066558205 0.09512065 -0.098649375 -0.013624383 -0.0032147646
00000000: 07dd 40bd 13f6 153c e724 45bd ab4e 7b3d
00000010: 73df 9bbd 6fb1 c63d 35ce 87bd 656c 9bbd
00000020: a0d8 84bd 88a2 273d 2847 2dbd 79c7 3b3d
00000030: f5d8 acbd 10f6 74bd 78e7 fabc 59d4 44bc
00000040: 68cc a4bd 445e 963d 9797 29bd 596a de3c
00000050: 2a82 923d 3100 d73c 74fe 373d d48d fc3d
00000060: 873e 05bd 3e38 4b3d 8921 35bd 7463 993d
00000070: dc96 a23d 0e12 eabd 7d3a db3d d035 913d
00000080: a7a2 5d3d 6e08 723d 2836 e73d 4b51 03bc
00000090: 3ea0 c9bd 62d5 28bd 98d5 aebd 1dd0 c83c
000000a0: add0 55bc f200 8fbd d8cb f0bb 7fdd f43d
000000b0: 6a46 b8ba c86c 0a3b 5c36 bfbc b441 4a3c
000000c0: 7166 df3d 0ea4 853d 2cd3 c33c fa64 c83c
000000d0: 440c 193d ab39 4b3d 4dd1 7d3b a7c6 d0bd
000000e0: 3587 8abd aad4 de3d 6f78 383b 16ac debd
000000f0: 978f 883c a3f4 cf3d 2b2d d6bd 7bad 4abd
00000100: 915a 07bd 5c23 803c f5bd ffbb 7ab0 06bc
00000110: 85cb dfbd 21cd 853d d1c4 f33d ad7e 9c3d
00000120: e1e7 6cbd 8c02 a4bd d8db 443d 5284 1f3b
00000130: 526e 323d 115c ddbd ee46 9abb bd63 af3d
00000140: 8cde 5e3d d41e db3b fbad 3e3c 6e26 52bc
00000150: aaac 93bd e07e 4bbd a5bc d1bd cfcd ba3d
00000160: 38ec 533d 1389 bf3c a705 c5bd a127 9d3d
00000170: a004 0f3d 4050 773d 3547 49bd ab34 a43b
00000180: 463b f93d 5656 b43d 963e 9f3d c520 04bd
00000190: cfd8 a03d 699e bdbd 0be1 abbc e9d7 81bd
000001a0: 89ad 09bd f265 94bc 20e1 a23c 232f d03d
000001b0: 0002 313d 0c35 5abb 0477 c03d 0fae 87bd
000001c0: be94 9d3d 6087 9cbb 79ae 8bbc edd8 203c
000001d0: 9908 bebd 20e0 af3a 4bb3 033d 8bd0 dc3d
000001e0: 3156 5abd e32f 3c3d 1411 dd3d b760 66bd
000001f0: 37bf c13d f15c 93bd 0e3a 4c3d d916 1b3d
00000200: 7ece 113d d544 903d b3c7 eabc 5756 223d
00000210: 1f1e 933b 6dae a1bd 0e47 fcbc 893f a7bd
00000220: 9bcc d23c 0c54 8a3b 64d0 2bbb 9354 a6bc
00000230: edb2 b0ba d754 1cbd 0b51 073d 7019 c93d
00000240: 115f 8a3c 4340 89bd 623b 82bd e172 9238
00000250: f5c7 aabd 249d c3bd e8df a6bd fc32 31bd
00000260: 4ace 2ebb a799 c93d 29d7 403d 74a2 e53d
00000270: a7b8 71bd 4ca5 5d3c c69a d2bd ca38 933d
00000280: ab9a e03c dd40 d53d 1fb0 9fbd b3f3 c43d
00000290: 1961 ea3d 3a06 013e fccc 7c3d 84b7 093e
000002a0: a432 b93d 550a aa3d f86c 0abc c675 b9bd
000002b0: 78ba 84ba b2eb fb3c 652c 89bd cc55 72bd
000002c0: 4b87 cebd 2e75 fbbc 9c93 ba3d a697 e7b9
000002d0: beb2 c23b 3d5b 883c 5bb1 b03d 8b13 a6bd
000002e0: 9583 95bd d284 07bd 2572 5ebd ca18 863d
000002f0: 81af 8f3d 8956 a0bd 6e99 93bd ac12 b3bd
00000300: b2c0 933d 7e74 043e e4e7 88bd 0b6f 17bd
00000310: 0509 5d3d 325c 82bd 6589 d03d 66c8 e63c
00000320: a1e0 eebc 2660 b83c a297 893d 37d5 bfbc
00000330: c8e1 9cbd 4660 623c 4571 f53b 2713 aabb
00000340: 6b7d 81bc f19b a53d 8899 cbbc d0ca 133a
00000350: d7ef 873d e9ad 2fbd 9e39 413d c38f debc
00000360: 5e32 463d 5d18 8bbd 10a6 bc3c 6905 f53c
00000370: fea8 a7bd b1dd 94bd bce4 683d 5f6b e0bc
00000380: ca7e 693d 644d b8bd 0247 40bd cb69 93bd
00000390: e7c0 8e3d d5b7 c63c ea3f 89bb eba5 3bbc
000003a0: c47b acbd 6159 1d3d f409 883c b030 80bd
000003b0: 4685 823d 1e60 9c3b b7ba ccbd 9816 8a3d
000003c0: d0b5 773d 08d6 9cbc 7ee7 7dbd 4c60 b63a
000003d0: 38ce a33d 7286 c63d bc82 b7bd 38dd 70bd
000003e0: 70a1 a53d 3484 4e3d 1009 6e3d ab4f 88bd
000003f0: 9ece c23d af08 cabd ce38 5fbc cdae 52bb

conv1.bias f4 [64]
-0.03532988 -0.043269116 0.010122782 -0.061822467 0.043845475 0.027774718 0.06133788 -0.0017100001
0.12658598 -0.025934486 0.010306377 0.0021109493 -0.056163438 0.13700846 0.07234864 0.068145536
-0.025730304 -0.06767869 0.076785065 0.044354316 0.02087914 -0.015559597 -0.07125728 0.09814946
-0.022643737 0.095157266 -0.0038384446 -0.027273104 0.029747939 0.046684083 0.09822562 0.008029289
0.04451965 0.0733155 -0.013380738 -0.10078204 -0.01425659 0.083756216 -0.028275546 0.04122524
-0.10882924 -0.035036214 0.11188185 0.041497253 0.03367155 0.036648028 0.0005008513 0.026407616
0.012712556 -0.022504823 -0.018579237 0.007136635 0.07017435 0.0008792699 0.0019942787 -0.0015225409
0.12595068 -0.04541777 0.006715491 0.14997602 0.120642915 0.039776854 -0.027271569 -0.0770957
00000000: 10b6 10bd f53a 31bd 06da 253c 8e39 7dbd
00000010: 5097 333d ce87 e33c 6e3d 7b3d 1522 e0ba
00000020: c19f 013e 8f74 d4bc 14dc 283c da57 0a3b
00000030: a20b 66bd f24b 0c3e 862b 943d e38f 8b3d
00000040: 5cc8 d2bc 209b 8abd 7d41 9d3d dfac 353d
00000050: bb0a ab3c aeed 7ebc 56ef 91bd 9602 c93d
00000060: 5c7f b9bc d0e1 c23d 6a8e 7bbb d86b dfbc
00000070: f3b1 f33c cf37 3f3d 842a c93d 478d 033c
00000080: 3d5a 363d 7026 963d e23a 5bbc d066 cebd
00000090: 7994 69bc 6188 ab3d 1ea2 e7bc ccdb 283d
000000a0: dde1 debd 2282 0fbd 5022 e53d 06f9 293d
000000b0: 2eeb 093d 3e1c 163d 904b 033a c954 d83c
000000c0: 5348 503c 095c b8bc 7c33 98bc 6fda e93b
000000d0: 92b7 8f3d ce7e 663a 72b2 023b ff8f c7ba
000000e0: 37f9 003e fc07 3abd 9f0d dc3b 5093 193e
000000f0: a213 f73d 0eed 223d a068 dfbc 5ae4 9dbd

conv2.weight f4 [32, 64, 5, 5]
0.0012669391 -0.001229338 0.021966768 0.005789962 -0.015053636 -0.021491611 -0.027607592 -0.0169962
-0.02547701 -0.041448694 0.026967816 0.0075415727 -0.0043031774 -0.0283988 -0.017248558 -0.0015539987
0.017755 -0.009520284 -0.00914154 0.007949161 0.010327376 0.021930113 -0.010957444 0.029907987
0.01748191 -0.014717141 0.02190106 0.016178817 -0.00030035942 -0.026468279 -0.017119402 0.008688424
-0.0051790248 -0.0014757486 -0.004128122 0.004226187 -0.012252233 0.0028995124 -0.008543798 0.016494354
0.00050045765 0.013836087 0.00011426409 0.008698723 -0.0066046356 -0.0348855 0.011307416 0.019953476
0.027380554 0.016094375 -7.82318e-05 0.039672468 0.03023742 0.02490371 0.0013537052 0.016514327
0.037452113 0.05101258 0.022141485 -0.0005674371 0.013827287 -0.0072287354 -0.030965384 -0.020197421
-0.041881323 -0.020889966 0.010424763 0.004238441 0.0077317543 0.012218166 -0.0006278437 0.020085882
0.0037776148 -0.0045977877 0.020287298 0.005740533 -0.024835946 -0.01533676 -0.025010316 -0.035340723
-0.00085078896 0.014284099 -0.020879626 -0.016407134 0.017913632 0.014977678 0.01200404 -0.012623274
0.037613213 0.015996581 -0.007613082 0.027955852 0.021300146 0.023530953 -0.00567578 -0.009166404
-0.025285883 0.0009984614 -0.03487393 -0.03195072 -0.031748254 -0.021935023 0.01712617 0.041829187
0.031828508 -0.017311865 0.0054835677 0.021342993 0.02821759 0.012784856 -0.025955323 -0.011300587
0.031959407 0.02074497 -0.033871744 -0.015437248 0.022261107 -0.015648626 0.019620514 0.013455082
-0.017601585 0.0062615457 -0.002029404 -0.017311642 0.023770552 -0.032359127 -0.03682061 0.036609687
-0.014154208 0.10685949 0.0009408173 0.0024460775 -0.0034519567 -0.03768758 -0.020096146 0.03696966
0.02749242 0.06565954 0.05484871 0.0386457 -0.0015864659 0.010056561 0.0009200583 -0.0015872915
0.01128587 -0.026084345 0.013303364 -0.010710756 -0.018061498 -0.032890175 -0.009401908 -0.003428165
-0.01025073 0.027064448 -0.03837905 0.025067432 0.012399414 -0.017981485 -0.011398173 0.016810298
0.008873966 -0.0118221035 0.008954341 0.0043610763 0.002229968 0.007170386 -0.023354793 -0.010455025
0.00048632067 0.024592409 -0.029287763 -0.019327953 0.012042176 0.020339163 0.007929784 0.017932381
-0.029848086 -0.011593454 0.0079311645 -0.063697346 0.012292263 -0.080023825 -0.017435431 0.062466253
-0.006127552 -0.062094696 -0.06252906 -0.064939216 -0.023576334 -0.019240478 -0.030782737 0.047654293
0.09141087 0.042329058 -0.0038886934 -0.113380484 -0.09874689 -0.019966738 -0.03383191 -0.04054797
-0.029067125 -0.041845296 -0.040317807 0.004523088 -0.01218401 0.01050071 0.002791829 -0.011240362
0.01268432 7.929466e-05 -0.0132482955 0.016435968 0.022248402 0.011234048 -0.019060371 0.032022476
0.016234491 0.02070944 -0.009226919 -0.031235224 -0.026061812 -0.0026373314 -0.007824474 -0.02171574
0.011162437 -0.0072493027 0.0015189411 -0.009846938 -0.008114024 -0.008553338 0.023515915 0.013398566
0.037184395 0.038261946 -0.014058607 -0.007757461 0.0027391543 0.0044524735 0.013501805 0.0012690112
-0.044641986 -0.01659765 -0.014407825 -0.04941928 -0.011646659 0.004339979 0.0038404013 -0.0047871815
-0.024802903 -0.0056035216 -0.014982542 0.017287854 0.009308483 -0.01670403 -0.012413459 -0.050266366
00000000: 6c0f a63a bd21 a1ba a7f3 b33c b9b9 bd3b
00000010: 87a3 76bc 2d0f b0bc 5129 e2bc 9d3b 8bbc
00000020: 2ab5 d0bc 1bc6 29bd 9ceb dc3c 4c1f f73b
00000030: ab01 8dbb 9aa4 e8bc d94c 8dbc 8baf cbba
00000040: ef72 913c f7fa 1bbc 66c6 15bc 333d 023c
00000050: 2834 293c c8a6 b33c da86 33bc 9801 f53c
00000060: 3936 8f3c 2a20 71bc da69 b33c 7089 843c
00000070: 8f79 9db9 01d4 d8bc fd3d 8cbc e459 0e3c
00000080: cfb4 a9bb e86d c1ba 3245 87bb d37b 8a3b
00000090: 97bd 48bc bf05 3e3b 49fb 0bbc 2b1f 873c
000000a0: 2531 033a c1b0 623c 11a1 ef38 1785 0e3c
000000b0: b36b d8bb 19e4 0ebd bd42 393c 7975 a33c
000000c0: 2f4d e03c 5ad8 833c 6110 a4b8 997f 223d
000000d0: 77b4 f73c dd02 cc3c cf6e b13a 0e49 873c
000000e0: 6367 193d 91f2 503d 0f62 b53c 0fc0 14ba
000000f0: d88b 623c 07df ecbb 1eab fdbc 1075 a5bc
00000100: c08b 2bbd 6f21 abbc a0cc 2a3c 9fe2 8a3b
00000110: a85a fd3b b42e 483c e195 24ba 268b a43c
00000120: dc91 773b 0aa9 96bb 8c31 a63c 151b bc3b
00000130: c174 cbbc 0947 7bbc 6fe2 ccbc 6fc1 10bd
00000140: 7b07 5fba db07 6a3c c00b abbc 4168 86bc
00000150: 9cbf 923c ef64 753c 98ac 443c d9d1 4ebc
00000160: 5010 1a3d 430b 833c 2977 f9bb ac03 e53c
00000170: a57d ae3c fcc3 c03c e5fb b9bb af2e 16bc
00000180: 5724 cfbc cede 823a f7d7 0ebd c2de 02bd
00000190: 750a 02bd 14b1 b3bc 2f4c 8c3c 1555 2b3d
000001a0: 9c5e 023d 9dd1 8dbc 80af b33b 80d7 ae3c
000001b0: 9328 e73c 9377 513c 42a0 d4bc 1926 39bc
000001c0: dee7 023d 5bf1 a93c 19bd 0abd 83ec 7cbc
000001d0: ed5c b63c 8c31 80bc 33bb a03c b472 5c3c
000001e0: 3331 90bc a72d cd3b c0ff 04bb 25d1 8dbc
000001f0: 76ba c23c 018b 04bd 35d1 16bd 0af4 153d
00000200: 0de7 67bc 26d9 da3d 2ea1 763a 5f4e 203b
00000210: 393a 62bb 4b5e 1abd aca0 a4bc 806d 173d
00000220: c937 e13c 8278 863d 0aa9 603d f44a 1e3d
00000230: f6f0 cfba 46c4 243c 1130 713a aa0c d0ba
00000240: 5fe8 383c d6ae d5bc 5af6 593c 2b7c 2fbc
00000250: b5f5 93bc d9b7 06bd 760a 1abc 11ab 60bb
00000260: aef2 27bc 43b6 dd3c 5a33 1dbd 375a cd3c
00000270: e926 4b3c e84d 93bc 67bf 3abc c0b5 893c
00000280: 1c64 113c 7fb1 41bc 3ab5 123c 5ce7 8e3b
00000290: a824 123b 8ff5 ea3b 8d52 bfbc 8e4b 2bbc
000002a0: dbf8 fe39 0576 c93c e4ec efbc a855 9ebc
000002b0: 8c4c 453c 519e a63c edeb 013c eee6 923c
000002c0: f983 f4bc 78f2 3dbc b7f1 013c c173 82bd
000002d0: 7d65 493c 88e3 a3bd c0d4 8ebc 9ddc 7f3d
000002e0: a2c9 c8bb 0257 7ebd 3c0f 80bd dafe 84bd
000002f0: 2823 c1bc 359e 9dbc 142c fcbc 2631 433d
00000300: 9f35 bb3d 3c61 2d3d 73d9 7ebb 0734 e8bd
00000310: cf3b cabd 4991 a3bc 5493 0abd a115 26bd
00000320: 2e1e eebc f965 2bbd 4924 25bd 6a36 943b
00000330: 719f 47bc 2c0b 2c3c 1ef7 363b 7f29 38bc
00000340: e5d1 4f3c ff4a a638 610f 59bc b9a4 863c
00000350: 4842 b63c 030f 383c 7f24 9cbc 002a 033d
00000360: 32fe 843c d8a6 a93c 812c 17bc 03e1 ffbc
00000370: 957f d5bc 14d7 2cbb 3932 00bc 35e5 b1bc
00000380: a7e2 363c 8f8b edbb 3517 c73a 0d55 21bc
00000390: aff0 04bc 4d23 0cbc 73a4 c03c a985 5b3c
000003a0: aa4e 183d 8fb8 1c3d 1256 66bc 4d32 febb
000003b0: 6283 333b 0ee6 913b ad36 5d3c f354 a63a
000003c0: 84da 36bd cbf7 87bc cc0e 6cbc df6b 4abd
000003d0: a1d1 3ebc 6236 8e3b 3eaf 7b3b cadd 9cbb
000003e0: 752f cbbc bf9d b7bb 5679 75bc 429f 8d3c
000003f0: 9c82 183c e4d6 88bc d261 4bbc 1be4 4dbd

conv2.bias f4 [32]
-0.0065113134 -0.030876728 -0.0024045047 0.023424901 0.025670486 0.021649616 -0.011949611 0.00874696
0.0071974765 -0.012542899 -0.0009123058 0.01098138 0.025170602 0.017972484 0.016876735 0.016930005
-0.014539234 -0.019150076 0.01779915 0.020769898 0.04735457 -0.0131028 -0.012889177 0.017089415
0.013005926 0.012449783 0.018336536 0.028765142 0.00917234 -0.013560336 0.011847997 -0.0006071662
00000000: db5c d5bb 31f1 fcbc e594 1dbb 94e5 bf3c
00000010: e94a d23c 895a b13c 4dc8 43bc 694f 0f3c
00000020: cfd8 eb3b bb80 4dbc ce27 6fba 3feb 333c
00000030: 9432 ce3c 083b 933c 1441 8a3c cbb0 8a3c
00000040: f835 6ebc 9fe0 9cbc 86cf 913c a225 aa3c
00000050: def6 413d 20ad 56bc 202d 53bc 1aff 8b3c
00000060: cf16 553c 2dfa 4b3c 8136 963c e0a4 eb3c
00000070: 9547 163c 2c2c 5ebc 1a1e 423c 3c2a 1fba

conv3.weight f4 [1, 32, 5, 5]
0.018396974 0.018494848 -0.0013503904 0.02927677 0.03460099 -0.026145332 0.00738679 -0.032771062
0.0033781256 0.01465418 -0.0053538834 0.02777039 0.01180348 -0.035926793 -0.0076678647 -0.0176019
-0.030824997 -0.00080353697 -0.033015788 0.02214114 0.007767086 0.013816964 0.022813603 0.031191558
-0.014442138 0.0011875851 -0.03667857 0.0074097444 0.026414488 -0.024608182 0.020137263 -0.018916072
0.010207837 -0.016017972 0.0049458775 -0.034205727 0.024619697 -0.008607892 0.03140853 -0.01563185
0.015769122 -0.01896132 -0.017635105 -0.009403151 0.015564583 0.014968795 0.019848015 -0.006858818
0.0047692377 0.020647768 -0.013811041 -0.011612039 0.02691843 -0.029819584 -0.017104952 -0.0195987
-0.0074321274 -0.025981365 0.0082399435 -0.024683163 -0.0155402105 -0.03440629 0.023564009 -0.021663524
-0.004234502 -0.021101471 -0.004920376 -0.0067300904 -0.011505421 -0.0005050955 0.015026932 0.029078985
0.02624367 -0.026236948 -0.0040924074 -0.05825667 -0.021263255 -0.006797926 -0.0095387865 -0.0038763704
0.031202408 -0.006285657 -0.032252017 -0.0074035334 0.018262107 0.048696112 0.04110225 0.074949645
0.038236886 -0.0059446683 -0.030675756 -0.04374472 -0.035515204 0.0009185474 -0.020068383 0.005383691
0.00051890715 -0.021529466 -0.016635269 0.004625662 0.005590028 0.0073514814 0.013922799 -0.0035564795
0.0033862314 -0.007880452 0.03167511 -0.00031647776 0.024629941 -0.021510474 -0.027811794 0.0043109474
-0.032422964 0.020208772 0.019819422 0.028541336 0.03179281 0.011168919 0.013126772 -0.0059093772
0.031850073 0.014498021 -0.008779467 -0.03305908 0.0036148662 0.004227985 0.025763439 0.02641746
0.03998844 0.00017892598 0.013294563 -0.028876962 0.001238845 0.0075803464 -0.024648115 -0.016859688
0.017048696 -0.01930833 -0.011404187 0.02490747 0.03161823 -0.022958245 -0.022417283 0.030571723
-0.010579731 0.008041591 -0.021541901 -0.012546281 0.028570602 -0.026511138 0.012368047 0.0008510931
0.011030522 0.0012091317 -0.008208676 0.01290639 0.009463769 -0.003489275 0.023607716 0.03151888
0.018957634 -0.00971562 -0.02612337 -0.02479006 -0.018280039 -0.0030631474 0.018345147 0.0101838
0.031708274 -0.035230316 -0.020044377 0.032128382 -0.025502816 0.022509482 0.00038300522 -0.003927315
0.025131896 0.027353993 -0.014687238 -0.002262273 0.033167373 0.02954332 0.014241744 -0.021547686
-0.024015334 0.025569508 0.020575015 -0.0038101166 0.0341213 0.024728207 -0.007611457 0.015673714
0.034559473 0.02049917 -0.01708064 -0.033342894 0.01095339 0.013407335 -0.034916807 0.0051561776
-0.021797538 0.014182532 -0.017266544 -0.026911668 0.03400078 0.021149507 -0.01429625 -0.025504552
0.023903133 -0.022078801 -0.010480226 -0.01575747 0.010537122 -0.0022568507 0.013140657 -0.019791134
0.026098093 0.0040899413 -0.024417643 -0.025828842 0.021485722 -0.015266715 0.009901051 0.0009082494
-0.016419875 0.03340369 -0.014283066 0.015116605 0.021770429 0.010718176 0.035292644 -0.024553644
0.00502839 3.9340954e-05 0.016060665 -0.015597446 -0.02363267 -0.028992606 0.023533508 0.008897461
-0.034050386 -0.003356522 -0.031012973 -0.0309034 0.022301901 -0.016515603 0.02222273 0.033437684
0.0040743584 0.014422301 -0.030876609 -0.015019268 -0.0019541227 0.0076872185 0.014726317 0.019051831
00000000: 40b5 963c 8282 973c 95ff b0ba d6d5 ef3c
00000010: c5b9 0d3d bc2e d6bc e30c f23b f33a 06bd
00000020: 8b63 5d3b 1618 703c a16f afbb bb7e e33c
00000030: 6263 413c f927 13bd b642 fbbb dc31 90bc
00000040: b484 fcbc 74a4 52ba 903b 07bd 5661 b53c
00000050: 0a83 fe3b 8c60 623c 98e3 ba3c 7085 ff3c
00000060: b89e 6cbc bea8 9b3a 453c 16bd 71cd f23b
00000070: 3263 d83c 1997 c9bc e7f6 a43c e1f5 9abc
00000080: c63e 273c 1f38 83bc 0711 a23b 4e1b 0cbd
00000090: 3faf c93c 1e08 0dbc 3ba6 003d 5e0e 80bc
000000a0: 3f2e 813c c554 9bbc 7f77 90bc ad0f 1abc
000000b0: 9802 7f3c ad3f 753c 4e98 a23c efbf e0bb
000000c0: 4447 9c3b 8225 a93c b447 62bc 6c40 3ebc
000000d0: 0a84 dc3c 3348 f4bc af1f 8cbc 748d a0bc
000000e0: 3489 f3bb dfd6 d4bc d400 073c 5834 cabc
000000f0: 5e9c 7ebc 9ced 0cbd 4f09 c13c b477 b1bc
00000100: 94c1 8abb fedc acbc 1b3b a1bb 1788 dcbb
00000110: 3c81 3cbc 6368 04ba 8533 763c 0d37 ee3c
00000120: f7fc d63c deee d6bc 9a19 86bb 8c9e 6ebd
00000130: 4730 aebc 23c1 debb 9248 1cbc b40a 7ebb
00000140: 319c ff3c eaf7 cdbb b11a 04bd 5799 f2bb
00000150: 6a9a 953c 9375 473d d55a 283d 337f 993d
00000160: 489e 1c3d 7ecb c2bb b94b fbbc aa2d 33bd
00000170: 6478 11bd acca 703a 7366 a4bc ac69 b03b
00000180: 4507 083a 905e b0bc b046 88bc de92 973b
00000190: 8e2c b73b b2e4 f03b 741c 643c d313 69bb
000001a0: 89eb 5d3b 031d 01bc c3bd 013d edec a5b9
000001b0: bbc4 c93c bc36 b0bc 8fd5 e3bc d942 8d3b
000001c0: f1cd 04bd de8c a53c 575c a23c 85cf e93c
000001d0: 2d39 023d d7fd 363c ac11 573c 73a3 c1bb
000001e0: 3975 023d 1c89 6d3c c1d7 0fbc f568 07bd
000001f0: 64e7 6c3b e98a 8a3b d90d d33c 6e69 d83c
00000200: ebca 233d 149e 3b39 70d1 593c 618f ecbc
00000210: be60 a23a 8e64 f83b d8ea c9bc 541d 8abc
00000220: b5a9 8b3c 812c 9ebc a1d8 3abc c00a cc3c
00000230: 1e82 013d ee12 bcbc 73a4 b7bc 8d71 fa3c
00000240: 9c56 2dbc e1c0 033c a478 b0bc eb8e 4dbc
00000250: e50c ea3c e32d d9bc 59a3 4a3c e41b 5f3a
00000260: 5db9 343c ba7b 9e3a af7d 06bc 5375 533c
00000270: ed0d 1b3c 52ac 64bb f864 c13c f119 013d
00000280: 0a4d 9b3c 442e 1fbc ad00 d6bc 8614 cbbc
00000290: 05c0 95bc 16bf 48bb 9048 963c f4d9 263c
000002a0: 89e0 013d aa4d 10bd 1b34 a4bc 0d99 033d
000002b0: 48eb d0bc ce65 b83c 17ce c839 b5b0 80bb
000002c0: 68e1 cd3c 7b15 e03c bea2 70bc a542 14bb
000002d0: 83da 073d d504 f23c 3456 693c c684 b0bc
000002e0: cebb c4bc 2577 d13c ef8c a83c 26b3 79bb
000002f0: c7c2 0b3d cf92 ca3c 8769 f9bb 2966 803c
00000300: 3c8e 0d3d e0ed a73c b3ec 8bbc 8f92 08bd
00000310: d975 333c 70aa 5b3c ed04 0fbd 27f5 a83b
00000320: c090 b2bc da5d 683c 9172 8dbc dc75 dcbc
00000330: 6744 0b3d bb41 ad3c d23a 6abc ecee d0bc
00000340: 81d0 c33c 9ade b4bc 41b5 2bbc cf15 81bc
00000350: e5a3 2c3c ace7 13bb e94b 573c 0421 a2bc
00000360: abcb d53c ea04 863b 8207 c8bc 0297 d3bc
00000370: d302 b03c 3e21 7abc 0538 223c 9617 6e3a
00000380: f982 86bc 4fd2 083d 8503 6abc a3ab 773c
00000390: e657 b23c 4a9b 2f3c 058f 103d b924 c9bc
000003a0: 31c5 a43b 0702 2538 a891 833c 6e8c 7fbc
000003b0: 4d99 c1bc e781 edbc 58c9 c03c a8c6 113c
000003c0: 6b78 0bbd 18f9 5bbb eb0e febc 2129 fdbc
000003d0: 7ab2 b63c bb4b 87bc 710c b63c f4f5 083d
000003e0: 3282 853b 844b 6c3c f1f0 fcbc 6013 76bc
000003f0: bd10 00bb 10e5 fb3b a646 713c 9612 9c3c
