output_x01/x2/epoch_292.pth (torch, 231335 bytes, 5 tensors)

conv1.weight f4 [64, 1, 9, 9]
0	0xbd50b7b4	-0.050956443
1	0x3c26f67c	0.010190602
2	0xbd434c3c	-0.047680125
3	0x3d877518	0.06614131
4	0xbd945d69	-0.07244379
5	0x3dcd6441	0.100288875
6	0xbd8171e1	-0.06320549
7	0xbd97a65f	-0.0740478
8	0xbd87f2a2	-0.066380754
9	0x3d184e54	0.037184075
10	0xbd27ea92	-0.040995188
11	0x3d419e33	0.04727001
12	0xbda52d80	-0.08065319
13	0xbd75eb67	-0.06003895
14	0xbd019003	-0.03163148
15	0xbc56ce6e	-0.01311074
16	0xbda9d3ad	-0.08292327
17	0x3d8cfadb	0.068837844
18	0xbd48a8fc	-0.04898928
19	0x3cba2837	0.022724254
20	0x3d8a9354	0.06766382
21	0x3ce79040	0.028267026
22	0x3d3d99e1	0.04628933
23	0x3e0011c4	0.12506777
24	0xbcef70c9	-0.029228585
25	0x3d4f1bcf	0.05056363
26	0xbd425b63	-0.047450434
27	0x3d90b2f3	0.07065382
28	0x3d9a6bd6	0.07540099
29	0xbdf34725	-0.11878804
30	0x3de1c736	0.110243246
31	0x3d937a2e	0.07201038
32	0x3d5cbb38	0.053889483
33	0x3d7e3da5	0.062070508
34	0x3dec0868	0.11525041
35	0xbc2c8377	-0.010529391
36	0xbdcd5736	-0.100264
37	0xbd337598	-0.043813318
38	0xbdb556d1	-0.088544495
39	0x3cec9ba3	0.028882807
40	0xbc5abab5	-0.0133501785
41	0xbd943898	-0.07237357
42	0xbbc819fc	-0.006106613
43	0x3dfa00b8	0.12207168
44	0xba965c05	-0.0011471516
45	0xbbb9a368	-0.0056652315
46	0xbd035537	-0.03206369
47	0x3b896abc	0.004193632
48	0x3dde84dc	0.10865185
49	0x3d801e9d	0.06255839
50	0x3ca69c44	0.020338185
51	0x3cc70be7	0.024297668
52	0x3d1d66f6	0.03842827
53	0x3d444d9e	0.047925584
54	0x3b80d7f4	0.0039319936
55	0xbdd060c2	-0.10174705
56	0xbd866614	-0.065624386
57	0x3deaade3	0.114589475
58	0x3b566614	0.0032714652
59	0xbde0b1f6	-0.10971443
60	0x3c9457c1	0.01810825
61	0x3dd612af	0.10452782
62	0xbdd565e8	-0.10419828
63	0xbd47f149	-0.04881409
64	0xbd0637a9	-0.032767925
65	0x3c94c67c	0.018161051
66	0xbb3be773	-0.002867189
67	0xbbc63ca1	-0.006049708
68	0xbdda2139	-0.10650868
69	0x3d8c2920	0.068437815
70	0x3df9f79c	0.12205431
71	0x3d9b8ec0	0.07595587
72	0xbd6b1429	-0.057392273
73	0xbda57d78	-0.08080572
74	0x3d46a895	0.048500616
75	0x3b91e6a6	0.0044525443
76	0x3d34361e	0.043996923
77	0xbddba071	-0.10723961
78	0xbbb7d8d8	-0.0056105666
79	0x3dad3509	0.08457381
80	0x3d55fa19	0.052240465
81	0x3c5e5308	0.013569601
82	0x3c4f5e80	0.012656808
83	0xbc33771c	-0.010953691
84	0xbd919190	-0.07107842
85	0xbd50a329	-0.05093685
86	0xbddf5c2d	-0.10906253
87	0x3dc1fb95	0.094718136
88	0x3d5b768d	0.053579856
89	0x3ca6695f	0.020313917
90	0xbdc81519	-0.09769649
91	0x3d9422a5	0.072331704
92	0x3cf6d859	0.03013246
93	0x3d5fb040	0.054611444
94	0xbd607f96	-0.054809175
95	0xbb6444fa	-0.0034831152
96	0x3e003ddf	0.12523602
97	0x3dbba32a	0.091619805
98	0x3d93253d	0.07184837
99	0xbd0fcfda	-0.035110332
100	0x3d9a479b	0.07533189
101	0xbdc5bc8f	-0.09655105
102	0xbcdc2539	-0.026873218
103	0xbd829db7	-0.06377738
104	0xbd16e652	-0.036840744
105	0xbc78e78c	-0.015191924
106	0x3cb63829	0.022243576
107	0x3dc5ab4e	0.096518144
108	0x3d207e87	0.039183166
109	0xbb0aef78	-0.0021199863
110	0x3dc77c93	0.097405575
111	0xbd85827f	-0.06519031
112	0x3db03041	0.08602954
113	0xbab81841	-0.0014045314
114	0xbc80dbe5	-0.015729854
115	0x3c32b69a	0.010907793
116	0xbdbe3bbb	-0.092887364
117	0xbb003e02	-0.001956821
118	0x3d0fe5a4	0.03513111
119	0x3de5e2ad	0.112248756
120	0xbd665169	-0.056229983
121	0x3d4cba19	0.049982164
122	0x3ddbd607	0.10734182
123	0xbd701c4b	-0.058620732
124	0x3dbc9ecb	0.09209975
125	0xbd99a3e7	-0.07501965
126	0x3d3edec4	0.046599165
127	0x3d16d653	0.03682549
128	0x3d14db23	0.036341798
129	0x3d85a662	0.06525876
130	0xbce58816	-0.028018992
131	0x3d1b4f45	0.037917394
132	0x3baa8b65	0.0052046054
133	0xbd9da78b	-0.07697972
134	0xbd01860b	-0.031621974
135	0xbdac2ab7	-0.08406585
136	0x3ca261cf	0.01982203
137	0x3af460af	0.0018644537
138	0xbbc271f4	-0.0059339944
139	0xbcad50b0	-0.021156639
140	0xbc147d05	-0.00906301
141	0xbd2f5081	-0.042801384
142	0x3d049177	0.03236529
143	0x3dbf6d8b	0.093470655
144	0x3c63d173	0.013904917
145	0xbd9a5481	-0.07535649
146	0xbd85ef5d	-0.065397955
147	0xb9881b83	-0.0002596044
148	0xbdb44a1e	-0.08803199
149	0xbddb821e	-0.10718177
150	0xbdb344dd	-0.08753369
151	0xbd365ff7	-0.044525113
152	0xbbf37a2f	-0.007430337
153	0x3dcfd13e	0.10147332
154	0x3d3655ab	0.044515293
155	0x3df360c9	0.11883695
156	0xbd4ec2da	-0.050478794
157	0x3c87b61c	0.016566329
158	0xbdcb0ebe	-0.09914921
159	0x3da7156d	0.081583835
160	0x3d12b3e3	0.035816085
161	0x3dde91bf	0.108676426
162	0xbdb9b515	-0.09067742
163	0x3dbca722	0.092115656
164	0x3df3ca53	0.11903825
165	0x3e0d92ea	0.13825575
166	0x3d9fc54a	0.07801302
167	0x3e0eb705	0.13937004
168	0x3dabc359	0.08386869
169	0x3d9929c2	0.07478668
170	0xbc2439ec	-0.010023575
171	0xbdd1a20d	-0.10235987
172	0xbc19a2c9	-0.00937719
173	0x3cc7dc90	0.024397165
174	0xbda13674	-0.07871714
175	0xbd942e06	-0.07235341
176	0xbded4490	-0.11585343
177	0xbd3afbef	-0.04565042
178	0x3da34771	0.07972611
179	0xbc2c71c8	-0.010525174
180	0x3c340c89	0.010989317
181	0x3ca7c36d	0.020478928
182	0x3db64d5e	0.08901475
183	0xbdaa457d	-0.08314035
184	0xbd8fd239	-0.07022519
185	0xbd0e2f02	-0.0347128
186	0xbd7ac3af	-0.061221775
187	0x3d7f81f7	0.062379804
188	0x3d81f63c	0.063457936
189	0xbd83e1e2	-0.06439568
190	0xbd7be324	-0.061495915
191	0xbdaafa07	-0.0834847
192	0x3d94ec34	0.07271615
193	0x3e1242ef	0.14283346
194	0xbd6cb45f	-0.057789203
195	0xbd18db6d	-0.037318636
196	0x3d6879f4	0.05675693
197	0xbd7f8509	-0.06238273
198	0x3dcf6c4c	0.10128078
199	0x3cbfde27	0.02342136
200	0xbd376819	-0.04477701
201	0x3b49d7c1	0.0030798765
202	0x3d7d9584	0.061910167
203	0xbcddaff8	-0.027061448
204	0xbda99633	-0.08280601
205	0x3c365734	0.011129189
206	0x3b26e454	0.0025465684
207	0xbc201665	-0.009770964
208	0xbc98eb40	-0.018666863
209	0x3d947cd5	0.07250372
210	0xbd2d09ad	-0.042245556
211	0xbbde1907	-0.006777886
212	0x3d93488f	0.07191574
213	0xbd193187	-0.03740075
214	0x3d4ea1ba	0.050447203
215	0xbcfe96d6	-0.031077784
216	0x3d63c0e8	0.05560389
217	0xbd7a161d	-0.061056245
218	0x3d08486f	0.033272203
219	0x3d1c649a	0.03818188
220	0xbd9a28b3	-0.07527294
221	0xbd83f99d	-0.06444094
222	0x3d6b3f2f	0.057433303
223	0xbcfaaa1f	-0.030598698
224	0x3d7193ac	0.05897872
225	0xbda3dd31	-0.08001173
226	0xbd29e67c	-0.041479573
227	0xbd8a377e	-0.067488655
228	0x3d9b86f1	0.075940974
229	0x3d084587	0.03326943
230	0x3b2fe787	0.0026840882
231	0xbc5ce0ac	-0.0134813
232	0xbdac17f4	-0.08403006
233	0x3d636c84	0.05552341
234	0x3cae0b9a	0.021245766
235	0xbd75f29d	-0.060045827
236	0x3d8138e4	0.06309679
237	0xbb0ff613	-0.002196674
238	0xbdd55ca9	-0.10418064
239	0x3d8bb4e6	0.06821613
240	0x3d5a507d	0.053299416
241	0xbcad456f	-0.021151273
242	0xbd3e5cd9	-0.046475265
243	0x3a003f6e	0.0004892264
244	0x3da226c4	0.0791755
245	0x3dc2d11a	0.09512539
246	0xbdbf552f	-0.09342419
247	0xbd88c1b8	-0.06677574
248	0x3d92b6f4	0.07163802
249	0x3d4dffa7	0.050292637
250	0x3d566b5e	0.052348487
251	0xbd969e55	-0.07354418
252	0x3dce5394	0.10074535
253	0xbdc97be7	-0.098380856
254	0xbc9872d8	-0.01860945
255	0xbc2e1508	-0.010625131

conv1.bias f4 [64]
0	0xbd0e6d46	-0.03477218
1	0xbd0efcff	-0.034909245
2	0x3c0629f6	0.008188715
3	0xbd6fab3d	-0.058512915
4	0x3d3d7de9	0.046262655
5	0x3cf6ef1b	0.030143311
6	0x3d7e51c8	0.06208971
7	0x39ad1927	0.0003301587
8	0x3e002d17	0.125172
9	0xbc94a951	-0.018147143
10	0x3c1d54d1	0.009602741
11	0x39061241	0.00012786036
12	0xbd5989e9	-0.053110037
13	0x3e11f8f6	0.14255127
14	0x3d8fac14	0.07015243
15	0x3d82aaac	0.06380209
16	0xbcbf8741	-0.023379924
17	0xbd865235	-0.065586485
18	0x3da11a0a	0.07866295
19	0x3d3ff102	0.046860702
20	0x3cb808ec	0.022465192
21	0xbc622307	-0.0138022965
22	0xbd9102a8	-0.07080585
23	0x3deb1774	0.11479083
24	0xbccbbcd3	-0.024870312
25	0x3ddbccca	0.1073242
26	0xbb54c352	-0.0032465053
27	0xbcf0ab20	-0.029378474
28	0x3cef9e51	0.029250296
29	0x3d2cc6cc	0.042181775
30	0x3dc8d526	0.0980628
31	0x3bef7378	0.007307466
32	0x3d4a74fa	0.049427964
33	0x3da274fe	0.07932471
34	0xbc86cf5f	-0.016456304
35	0xbdf6830b	-0.12036713
36	0xbc97eea1	-0.018546404
37	0x3da87393	0.08225169
38	0xbcdb3375	-0.026757935
39	0x3d23e460	0.040012717
40	0xbde13e9c	-0.1099827
41	0xbd28189b	-0.04103909
42	0x3de8a0f9	0.11358828
43	0x3d3f658d	0.046727706
44	0x3d10a7b3	0.03531618
45	0x3d1a8d89	0.037732635
46	0xbbaf9be8	-0.0053591616
47	0x3cfa131d	0.030526692
48	0x3c9de00a	0.01927187
49	0xbcc2c672	-0.023776267
50	0xbca4920c	-0.020089172
51	0x3b31966c	0.0027097715
52	0x3d84e9da	0.06489916
53	0x3b48224c	0.003053802
54	0x3aa5c3da	0.0012646869
55	0xbb887f34	-0.0041655544
56	0x3e0de25a	0.13855878
57	0xbd373bc0	-0.044734716
58	0x3bfcc55f	0.007713958
59	0x3e214e9a	0.1575264
60	0x3df6866f	0.1203736
61	0x3d19075c	0.037360534
62	0xbcb1831e	-0.021668967
63	0xbd8a361b	-0.06748601

conv2.weight f4 [32, 64, 5, 5]
0	0x39838c69	0.0002509088
1	0xbb1ce365	-0.0023939249
2	0x3c9ce051	0.019149931
3	0x3bf596b5	0.0074947723
4	0xbbe47e80	-0.006973088
5	0xbcb50956	-0.022099178
6	0xbce94084	-0.028473146
7	0xbc9d3f5d	-0.019195253
8	0xbcbeea2b	-0.02330502
9	0xbd067276	-0.032824002
10	0x3cf4c2da	0.029878069
11	0x3c43fdec	0.011962395
12	0xbbf0405c	-0.007331891
13	0xbcedc997	-0.02902679
14	0xbc420239	-0.01184135
15	0xbafc5598	-0.0019251583
16	0x3c9dc731	0.01926002
17	0xbc3ec871	-0.011644469
18	0xbc141b5e	-0.009039728
19	0x3c60e743	0.013727012
20	0x3c52f619	0.012876057
21	0x3cb38eba	0.021918643
22	0xbc3b3b67	-0.011427737
23	0x3cecb555	0.02889506
24	0x3cbd347a	0.023096312
25	0xbc4f4a62	-0.012652012
26	0x3cb06160	0.021530807
27	0x3c8127d7	0.015766067
28	0xba83f82d	-0.0010068469
29	0xbcd22388	-0.025651708
30	0xbcab6ec3	-0.020926839
31	0x3ad022d5	0.0015879521
32	0xbc26405a	-0.010147179
33	0xbc12ad70	-0.008952484
34	0xbbc12a9f	-0.0058949734
35	0x3bc2ca5b	0.005944533
36	0xbc25b72c	-0.010114472
37	0x3bf49123	0.0074635907
38	0xbc1d0b2b	-0.009585182
39	0x3c86adbf	0.01644027
40	0xba4171cb	-0.0007379322
41	0x3c5230f7	0.012829057
42	0x3b976f64	0.004621433
43	0x3c327fcb	0.010894726
44	0xbc22fbeb	-0.009947757
45	0xbd167a28	-0.03673759
46	0x3c069307	0.008213765
47	0x3ca0206d	0.019546712
48	0x3cd8e592	0.026476655
49	0x3c2a1815	0.010381718
50	0x3b8d071c	0.004303826
51	0x3d2f865b	0.04285274
52	0x3d13d0e2	0.036087878
53	0x3d03fd02	0.03222371
54	0x3ac70067	0.0015182615
55	0x3caa37ec	0.020778619
56	0x3d07a124	0.03311266
57	0x3d4f4781	0.0506053
58	0x3cbadbe6	0.022809934
59	0xbb969bfe	-0.0045962324
60	0x3cb407a4	0.0219763
61	0xbc17c317	-0.009262822
62	0xbd0c1607	-0.034200694
63	0xbcbbbeb7	-0.022918088
64	0xbd4d69b8	-0.05014965
65	0xbca3b2e7	-0.019982768
66	0x3c19d48c	0.009389054
67	0x3b60f60c	0.0034326343
68	0x3c12aeb9	0.00895279
69	0x3c854475	0.016267994
70	0xbb21f4ef	-0.0024712642
71	0x3ca07dc0	0.019591212
72	0x3b4f8c74	0.003166941
73	0xbb942ed5	-0.0045221844
74	0x3ca83057	0.020530863
75	0x3bd5ab4b	0.006520664
76	0xbcc9bb5f	-0.024625478
77	0xbc8a351b	-0.016871026
78	0xbcd0cb18	-0.025487468
79	0xbd120b92	-0.035655566
80	0xbb2842bf	-0.002567455
81	0x3c47a80c	0.012186062
82	0xbcba8d42	-0.022772435
83	0xbc82bd40	-0.015959382
84	0x3cb62784	0.02223564
85	0x3c297e5d	0.010345069
86	0x3c141301	0.009037734
87	0xbc428b45	-0.011874025
88	0x3d247a53	0.04015572
89	0x3c86e5bf	0.016466973
90	0xbbe5bb0a	-0.007010822
91	0x3ce7a9d0	0.028279215
92	0x3ca5488a	0.02017619
93	0x3cabf0c3	0.020988828
94	0xbbec4aa5	-0.0072110468
95	0xbc074f0f	-0.008258595
96	0xbcf108cb	-0.029423138
97	0xbbc890ec	-0.0061207917
98	0xbd2dd989	-0.042443786
99	0xbd119fc9	-0.035552774
100	0xbd04ab5e	-0.03238999
101	0xbca6dbd7	-0.0203685
102	0x3ca68fbe	0.020332213
103	0x3d34200f	0.043975886
104	0x3ceb6f30	0.028739542
105	0xbcab9240	-0.02094376
106	0x3be59f03	0.007007481
107	0x3ca06cbb	0.019583097
108	0x3cd457c9	0.025920765
109	0x3c23ae86	0.00999034
110	0xbd01fe75	-0.03173681
111	0xbc6991b9	-0.014255934
112	0x3cfa13c1	0.030526998
113	0x3cbd19dc	0.02308362
114	0xbd07afbb	-0.033126574
115	0xbc626f52	-0.013820486
116	0x3cca31c7	0.024681939
117	0xbc84c47d	-0.016206974
118	0x3c9668bd	0.01836049
119	0x3c2ae644	0.010430876
120	0xbc5f3c57	-0.013625226
121	0x3bef6dca	0.007306789
122	0xbb91143f	-0.0044274624
123	0xbca5073b	-0.02014505
124	0x3cbaba29	0.022793846
125	0xbc32a6e2	-0.010904046
126	0xbd5918cc	-0.053002164
127	0x3d1c6456	0.038181625
128	0xbc7b4899	-0.015337133
129	0x3dab576c	0.08366284
130	0x3c2cdc9d	0.010550645
131	0x3bb645fe	0.005562543
132	0xbab64762	-0.0013906772
133	0xbd117e60	-0.03552091
134	0xbc3475ae	-0.011014385
135	0x3d243143	0.040086042
136	0x3cddbb63	0.027066892
137	0x3d8a02cf	0.06738817
138	0x3d706f93	0.058700155
139	0x3d2f1c06	0.042751335
140	0xbbc5c87d	-0.006035863
141	0x3bdebd63	0.006797479
142	0x39a27bcc	0.00030991284
143	0xbb20e22e	-0.0024548876
144	0x3c1ed7f8	0.009695046
145	0xbc865fa5	-0.016403029
146	0x3cc711ab	0.024300417
147	0x3af75e84	0.0018872772
148	0xba28c45d	-0.0006437952
149	0xbcadc490	-0.021211892
150	0xbbde1929	-0.0067779017
151	0xbb5410e6	-0.0032358705
152	0xbc16d86b	-0.0092068715
153	0x3cfd6409	0.03093149
154	0xbd1f8928	-0.03894916
155	0x3cb84188	0.022492185
156	0x3c21e79d	0.009881881
157	0xbc9cbe11	-0.0191336
158	0xbc20457d	-0.009782192
159	0x3c6c1bce	0.014410926
160	0x3bd2b2e5	0.0064300173
161	0xbc18868c	-0.009309422
162	0x3c40a389	0.01175774
163	0x3bfa93c0	0.0076470077
164	0x3b6cb41c	0.0036118096
165	0x3beada8c	0.007167166
166	0xbcb6d27b	-0.022317162
167	0xbc1f001c	-0.009704616
168	0xbaa99cf4	-0.0012940452
169	0x3cc8ca89	0.024510639
170	0xbd00b946	-0.03142669
171	0xbcb2ea74	-0.021840312
172	0x3c2d71c7	0.010586209
173	0x3c9fa8a8	0.019489601
174	0x3c4083d3	0.011750179
175	0x3c7eebe7	0.015559173
176	0xbcd9a25d	-0.026566679
177	0x3bc5d598	0.0060374252
178	0x3bd68519	0.006546628
179	0xbd8727a7	-0.0659936
180	0x3b59c780	0.0033230484
181	0xbdcee1c2	-0.10101654
182	0xbc6ff16c	-0.014644962
183	0x3d904fcf	0.07046472
184	0xbc0ee6d0	-0.008722022
185	0xbd7fa02a	-0.062408604
186	0xbdb3dfb0	-0.087828994
187	0xbd74f867	-0.059807207
188	0xbc1f2b39	-0.009714895
189	0xbc5635bc	-0.013074335
190	0xbce02b21	-0.027364315
191	0x3d392e02	0.045209892
192	0x3db950fe	0.09048651
193	0x3d1ff64f	0.039053258
194	0xbc41af90	-0.0118216425
195	0xbdf64b28	-0.12026054
196	0xbdbab303	-0.09116175
197	0xbc6d32d3	-0.0144774495
198	0xbd0c36f8	-0.03423211
199	0xbd14a928	-0.036294132
200	0xbcef352d	-0.02920016
201	0xbd2c7b7e	-0.04210996
202	0xbd2cc5a6	-0.04218068
203	0x3b39e63d	0.0028365992
204	0xbc862387	-0.016374363
205	0x3be1fc04	0.0068964977
206	0x3a55fc7b	0.00081629277
207	0xbc4c1c79	-0.01245796
208	0x3c4c7552	0.012479143
209	0xbb15ed20	-0.0022876933
210	0xbc687a2c	-0.014189284
211	0x3c93e8c3	0.018055325
212	0x3cc5f248	0.02416338
213	0x3c52db7d	0.012869713
214	0xbc9786e6	-0.018496942
215	0x3cfd6876	0.0309336
216	0x3c8f81d3	0.01751796
217	0x3cadc3e7	0.021211578
218	0xbc18bc93	-0.009322303
219	0xbcfb09fe	-0.030644413
220	0xbcdcd501	-0.026957037
221	0xbb7d43be	-0.0038645114
222	0xbc3495a1	-0.011022002
223	0xbccb11a1	-0.02478868
224	0x3c36cd07	0.011157281
225	0x3b0d6e56	0.0021580658
226	0x3c274a61	0.010210604
227	0xbabd0ef6	-0.0014424014
228	0xbb136e42	-0.0022496139
229	0xbb159b66	-0.002282822
230	0x3c7738e4	0.015089247
231	0x3c0e3a5f	0.008680909
232	0x3d196847	0.037452962
233	0x3d238af6	0.039927445
234	0xbc48e66f	-0.012261971
235	0xbc85a1fb	-0.01631259
236	0xba36d0ca	-0.0006973861
237	0x3b64b553	0.0034898117
238	0x3c408ca7	0.011752284
239	0xbb41161e	-0.0029462646
240	0xbd05aa60	-0.032633185
241	0xbbb48e6f	-0.0055101435
242	0xbbf2b4e8	-0.0074068196
243	0xbd56528c	-0.052324817
244	0xbc31ecfa	-0.010859722
245	0x39192a78	0.00014607038
246	0x3bb00d93	0.005372712
247	0xb8afad47	-8.376926e-05
248	0xbcf6a4cc	-0.030107878
249	0xbb8c16e0	-0.004275188
250	0xbc7ebd04	-0.0155479945
251	0x3c8c0791	0.017093452
252	0x3c15eece	0.009151174
253	0xbc7e981e	-0.015539197
254	0xbc4ae6c3	-0.012384119
255	0xbd4a66bc	-0.04941438

conv2.bias f4 [32]
0	0xbb96dcab	-0.0046039424
1	0xbd1567cc	-0.03647594
2	0xbb1d94e5	-0.0024045047
3	0x3cb5ecb7	0.022207601
4	0x3ccc21cd	0.024918461
5	0x3c96b718	0.018397853
6	0xbc581ccc	-0.013190459
7	0x3c00983c	0.0078487955
8	0x3bebd8cf	0.0071974765
9	0xbc576236	-0.013145974
10	0xba6f27ce	-0.0009123058
11	0x3c41c376	0.011826387
12	0x3cbb56ef	0.022868602
13	0x3c91f211	0.017815622
14	0x3cad0eee	0.021125283
15	0x3cab5998	0.020916745
16	0xbc797ce9	-0.015227535
17	0xbc9cbb67	-0.01913233
18	0x3c9ba0df	0.018997608
19	0x3c9f5ab0	0.019452423
20	0x3d4d8b79	0.05018184
21	0xbc746767	-0.014917231
22	0xbc98ef9e	-0.018668946
23	0x3c9ab17c	0.01888346
24	0x3c59ac0f	0.013285651
25	0x3c473823	0.01215938
26	0x3c973683	0.01845861
27	0x3d17e227	0.03708091
28	0x3c0d324a	0.008617947
29	0xbc75b097	-0.014995716
30	0x3c1209dc	0.0089134835
31	0xba810f39	-0.0009846456

conv3.weight f4 [1, 32, 5, 5]
0	0x3c906752	0.017627392
1	0x3c98907b	0.018623581
2	0xba822a57	-0.0009930831
3	0x3cf5a6bc	0.029986732
4	0x3d0d34fe	0.034474365
5	0xbcc92be3	-0.02455706
6	0x3c1d22ee	0.009590847
7	0xbd01a35c	-0.031649932
8	0x3b7de9bd	0.0038744055
9	0x3c810d0c	0.015753292
10	0xbbc9f2a7	-0.0061629596
11	0x3ce2298a	0.027607698
12	0x3c3ea34c	0.011635613
13	0xbd1992ab	-0.03749339
14	0xbc13ca8d	-0.00902046
15	0xbc94dc2c	-0.018171392
16	0xbd034661	-0.03204954
17	0xbb0bbfae	-0.0021323967
18	0xbd0e3e80	-0.034727573
19	0x3cae14ff	0.021250246
20	0x3c0ca93d	0.008585271
21	0x3c792349	0.015206167
22	0x3ccc44f5	0.024935225
23	0x3d0571fd	0.03257941
24	0xbc5348b8	-0.0128957555
25	0x3a8ba49c	0.0010653916
26	0xbd1a3938	-0.037652224
27	0x3bf18fe7	0.007371891
28	0x3cdc82a1	0.026917757
29	0xbccf6f5f	-0.02532166
30	0x3ca36f1a	0.019950438
31	0xbca3e29f	-0.020005522
32	0x3c288c52	0.010287361
33	0xbc82fba1	-0.015989127
34	0x3b908f53	0.004411617
35	0xbd0d013a	-0.034424998
36	0x3cc2f64e	0.023799088
37	0xbc144684	-0.009050015
38	0x3cffb50c	0.03121426
39	0xbc871289	-0.01648833
40	0x3c841d55	0.016127268
41	0xbca3a7ea	-0.019977529
42	0xbc9c120b	-0.019051572
43	0xbc1618a9	-0.009161153
44	0x3c73982a	0.014867822
45	0x3c7e751f	0.0155308535
46	0x3ca2e7fe	0.019886013
47	0xbbeebb6d	-0.0072855265
48	0x3ba11f05	0.004917028
49	0x3ca3de16	0.02000336
50	0xbc6247b4	-0.013811041
51	0xbc3e406c	-0.011612039
52	0x3cdc840a	0.02691843
53	0xbcf44833	-0.029819584
54	0xbc8c1faf	-0.017104952
55	0xbca08d74	-0.0195987
56	0xbbf38934	-0.0074321274
57	0xbcd4d6df	-0.025981365
58	0x3c0700d4	0.0082399435
59	0xbcca3458	-0.024683163
60	0xbc7e9c5e	-0.0155402105
61	0xbd0ced9c	-0.03440629
62	0x3cc1094f	0.023564009
63	0xbcb177b4	-0.021663524
64	0xbb8ac194	-0.004234502
65	0xbcacdcfe	-0.021101471
66	0xbba13b1b	-0.004920376
67	0xbbdc8817	-0.0067300904
68	0xbc3c813c	-0.011505421
69	0xba046863	-0.0005050955
70	0x3c763385	0.015026932
71	0x3cee370d	0.029078985
72	0x3cd6fcf7	0.02624367
73	0xbcd6eede	-0.026236948
74	0xbb86199a	-0.0040924074
75	0xbd671a2e	-0.05642145
76	0xbcee85a1	-0.029116454
77	0xbc66a292	-0.014076846
78	0xbc4097d4	-0.011754949
79	0xbbd0b24a	-0.00636891
80	0x3d071fe2	0.03298939
81	0xbb45fb7c	-0.003020971
82	0xbcfb517e	-0.030678507
83	0xbb92d3ab	-0.004480799
84	0x3cc72a4d	0.024312163
85	0x3d4b7988	0.049676448
86	0x3d39873f	0.045294996
87	0x3da75293	0.08170047
88	0x3d1d0a37	0.03833982
89	0xbbbe1232	-0.005800509
90	0xbd03220e	-0.0320149
91	0xbd535e9e	-0.051603906
92	0xbd1a9738	-0.03774187
93	0x396f2360	0.00022805994
94	0xbcb82267	-0.022477342
95	0x3c07bc74	0.008284677
96	0x3b25148d	0.0025189251
97	0xbcbfb7de	-0.023403104
98	0xbc86db95	-0.016462127
99	0x3b33776a	0.0027384409
100	0x3bb02627	0.005375642
101	0x3bed224a	0.0072367536
102	0x3c63099d	0.013857272
103	0xbb6fe6e2	-0.0036606123
104	0x3b5a3cf4	0.003330049
105	0xbc045023	-0.008075747
106	0x3d017714	0.031607702
107	0xb9c78aa6	-0.0003805954
108	0x3cc8c399	0.02450733
109	0xbcb1318f	-0.021630077
110	0xbce51d26	-0.027968
111	0x3b8a4988	0.0042201914
112	0xbd053d06	-0.0325289
113	0x3ca4e25b	0.020127466
114	0x3ca1db70	0.019757956
115	0x3ce8f5ad	0.02843746
116	0x3d01a880	0.031654835
117	0x3c35bd4e	0.011092497
118	0x3c55046f	0.013001545
119	0xbbc5ae89	-0.006032769
120	0x3d0219b4	0.031762794
121	0x3c6b1ffe	0.014350889
122	0xbc11f185	-0.00890768
123	0xbd0812a7	-0.033220913
124	0x3b635ba0	0.0034692064
125	0x3b81751d	0.0039507286
126	0x3ccc3419	0.024927186
127	0x3cd857d7	0.026409073
128	0x3d2e2b99	0.042522047
129	0xba42fbcc	-0.00074380334
130	0x3c621034	0.013797808
131	0xbced1d73	-0.028944707
132	0xba3654e6	-0.00069554
133	0x3bda88d8	0.006669145
134	0xbcd92236	-0.02650557
135	0xbc8b09b9	-0.01697241
136	0x3c86fc5b	0.016477754
137	0xbca6c71c	-0.020358615
138	0xbc408284	-0.011749867
139	0x3cc43050	0.023948818
140	0x3d01209a	0.031525232
141	0xbcbe0833	-0.023197269
142	0xbcade7ca	-0.02122869
143	0x3d03d3e1	0.032184485
144	0xbc316138	-0.010826401
145	0x3c1caf2d	0.00956325
146	0xbcb18797	-0.0216711
147	0xbc46b56e	-0.012128217
148	0x3ceda08d	0.02900722
149	0xbce08065	-0.027404973
150	0x3c46b656	0.012128433
151	0x3a307115	0.0006730718
152	0x3c333395	0.010937591
153	0x3a96c5b7	0.0011503015
154	0xbc098d5f	-0.008395522
155	0x3c4f932d	0.012669367
156	0x3c18023d	0.009277877
157	0xbb6f2073	-0.0036487847
158	0x3cc14b03	0.023595339
159	0x3d011b64	0.031520262
160	0x3c9a7d43	0.018858558
161	0xbc219fa2	-0.00986472
162	0xbcd79bc8	-0.0263194
163	0xbccc0b56	-0.02490775
164	0xbc97abc5	-0.018514523
165	0xbb4b8f84	-0.0031060884
166	0x3c95098a	0.018193025
167	0x3c253ef5	0.010085811
168	0x3d0181c7	0.031617906
169	0xbd119a83	-0.035547744
170	0xbca5768e	-0.020198133
171	0x3d02ddf2	0.031949945
172	0xbcd29664	-0.025706477
173	0x3cb6fb9f	0.02233678
174	0x39310ecc	0.00016885548
175	0xbb83e16d	-0.0040246756
176	0x3ccd4fe6	0.025062513
177	0x3cdfc606	0.027316105
178	0xbc720a56	-0.014772972
179	0xbb194867	-0.0023389102
180	0x3d0780a4	0.033081666
181	0x3cf1b5bc	0.029505603
182	0x3c6942b2	0.014237093
183	0xbcb0f241	-0.02159989
184	0xbcc535b2	-0.024073455
185	0x3cd0dd85	0.025496254
186	0x3ca865ab	0.020556292
187	0xbb76f70d	-0.0037683875
188	0x3d0bab84	0.034099117
189	0x3cca1554	0.024668373
190	0xbbfaae5a	-0.007650179
191	0x3c802f9e	0.015647706
192	0x3d0dace5	0.034588713
193	0x3ca7c550	0.020479828
194	0xbc8c430f	-0.01712182
195	0xbd08da57	-0.03341135
196	0x3c3271a3	0.010891351
197	0x3c5b08e5	0.01336882
198	0xbd0f4ee5	-0.03498735
199	0x3ba71eb4	0.0051000956
200	0xbcb290c0	-0.021797538
201	0x3c685dda	0.014182532
202	0xbc8d7291	-0.017266544
203	0xbcdc75dc	-0.026911668
204	0x3d0b4467	0.03400078
205	0x3cad41bb	0.021149507
206	0xbc6a3ad2	-0.01429625
207	0xbcd0eeec	-0.025504552
208	0x3cc3d081	0.023903133
209	0xbcb4de9a	-0.022078801
210	0xbc2bb541	-0.010480226
211	0xbc8115cf	-0.01575747
212	0x3c2ca3e5	0.010537122
213	0xbb13e7ac	-0.0022568507
214	0x3c574be9	0.013140657
215	0xbca22104	-0.019791134
216	0x3cd5cbab	0.026098093
217	0x3b8604ea	0.0040899413
218	0xbcc80782	-0.024417643
219	0xbcd39702	-0.025828842
220	0x3cb002d3	0.021485722
221	0xbc7a213e	-0.015266715
222	0x3c223805	0.009901051
223	0x3a6e1796	0.0009082494
224	0xbc8682f9	-0.016419875
225	0x3d090897	0.033455458
226	0xbc73c36e	-0.014878137
227	0x3c72d289	0.014820703
228	0x3cb107c6	0.021610152
229	0x3c32c276	0.010910621
230	0x3d13387a	0.035942532
231	0xbcca9370	-0.024728507
232	0x3bb209cc	0.005433297
233	0x39751150	0.0002337147
234	0x3c8280a7	0.015930487
235	0xbc7b3d40	-0.015334427
236	0xbccb7f11	-0.024840863
237	0xbcf48f18	-0.029853389
238	0x3cbd402d	0.02310189
239	0x3c0c554f	0.008565261
240	0xbd0b6f27	-0.03404155
241	0xbb78afa6	-0.0037946492
242	0xbd019ddb	-0.031644683
243	0xbd002fff	-0.031295773
244	0x3cba84c6	0.02276839
245	0xbc7e27ad	-0.015512389
246	0x3cbe96f0	0.023265332
247	0x3d0bd3de	0.0341376
248	0x3b754fe8	0.003743166
249	0x3c6de561	0.01452002
250	0xbcfcf0f1	-0.030876609
251	0xbc761360	-0.015019268
252	0xbb0010bd	-0.0019541227
253	0x3bfbe510	0.0076872185
254	0x3c7146a6	0.014726317
255	0x3c9c1296	0.019051831
