output_x01/x2/epoch_255.pth (torch, 231335 bytes, 5 tensors)

conv1.weight f4 [64, 1, 9, 9]
-0.048569135 0.009257536 -0.048130073 0.06313408 -0.07450248 0.098733984 -0.06491763 -0.07513333
-0.06557017 0.03917967 -0.042341463 0.046022587 -0.083171576 -0.059733804 -0.030505499 -0.012108132
-0.08113231 0.07178628 -0.04480783 0.025026113 0.06976236 0.026785055 0.045497075 0.124227375
-0.031294055 0.050078787 -0.04529146 0.07278944 0.07747709 -0.11621612 0.10811544 0.07151872
0.054359235 0.06026995 0.11392545 -0.008737707 -0.09965487 -0.042559326 -0.08665386 0.026178354
-0.012789297 -0.07034055 -0.0066892174 0.12068275 -0.0012016698 -0.0011555848 -0.026813384 0.009330156
0.10890766 0.064433575 0.022665236 0.024231382 0.037622396 0.04869782 0.0038004275 -0.102031246
-0.06708711 0.11057244 0.002792005 -0.10934375 0.01675269 0.102232486 -0.10517265 -0.04886244
-0.032652277 0.016831521 -0.0059612663 -0.007331766 -0.10828629 0.0664977 0.12039766 0.07621705
-0.057370074 -0.08013657 0.04841507 0.0032072742 0.04396012 -0.10754094 -0.0047368244 0.08578088
0.053754568 0.0096967835 0.0122286985 -0.0115728 -0.07126908 -0.04974841 -0.10458038 0.09312778
0.05246784 0.0219403 -0.09635675 0.075392514 0.033932842 0.058842395 -0.050612938 0.0022928729
0.123644315 0.08964269 0.07544419 -0.03302102 0.07762421 -0.09324836 -0.022704797 -0.062892504
-0.034275975 -0.016489403 0.02091584 0.09953556 0.041554138 -0.0031459134 0.09527562 -0.066375256
0.08024578 -0.0034855688 -0.016543062 0.009994199 -0.09339334 -0.00011401662 0.032623086 0.10898969
-0.055439156 0.047004983 0.10758056 -0.05729152 0.093608364 -0.07330014 0.04867285 0.037122022
0.035968207 0.06843815 -0.0281116 0.0392961 0.004853544 -0.077997826 -0.031015163 -0.082791604
0.023129612 0.0035237123 -0.0035474831 -0.01989564 -0.0037972266 -0.039802343 0.032794494 0.096097626
0.015598914 -0.070668004 -0.0647163 -0.00065967883 -0.085069 -0.10015596 -0.08417854 -0.0443281
-0.0053948537 0.09969109 0.046420593 0.11501013 -0.055903982 0.015105923 -0.10141418 0.075961426
0.031123994 0.10646063 -0.08285801 0.094241895 0.11574782 0.13003352 0.06682584 0.13566564
0.08745199 0.080492765 -0.009129323 -0.095068 -0.0046496345 0.027967284 -0.07171353 -0.06487044
-0.10720214 -0.037162784 0.0869632 -0.0046692574 0.007887905 0.017666023 0.08702936 -0.08228318
-0.07332551 -0.035256717 -0.058362238 0.06391161 0.066798754 -0.07202904 -0.06770253 -0.08550128
0.07286961 0.13413288 -0.06403107 -0.037929382 0.05507388 -0.06390482 0.10245821 0.026302218
-0.035099935 0.015859686 0.06593727 -0.024353309 -0.079232134 0.013489556 0.005410215 -0.006331177
-0.017056039 0.07741813 -0.031254463 -0.0019465121 0.068481684 -0.041853927 0.04926085 -0.028563995
0.051811833 -0.06490716 0.02737344 0.033474546 -0.07955456 -0.06991637 0.056112923 -0.027240762
0.058032807 -0.08580687 -0.044591524 -0.069389656 0.073079325 0.027789611 -0.0017362369 -0.01300119
-0.08286451 0.045207355 0.018406102 -0.061357286 0.064291306 0.002316659 -0.10261941 0.06683535
0.05691377 -0.019034509 -0.055956922 0.00084331783 0.07934482 0.09599115 -0.09104629 -0.061017565
0.07921669 0.05112356 0.05736134 -0.06739271 0.09603779 -0.09937186 -0.01576371 -0.005721611
00000000: 6ef0 46bd ecac 173c 0a24 45bd 714c 813d
00000010: c294 98bd 0b35 ca3d 89f3 84bd 81df 99bd
00000020: a749 86bd dd7a 203d 3e6e 2dbd 2e82 3c3d
00000030: dc55 aabd 6fab 74bd abe6 f9bc 3061 46bc
00000040: b228 a6bd af04 933d 6a88 37bd 9003 cd3c
00000050: 91df 8e3d 556c db3c 245b 3a3d ec6a fe3d
00000060: 322e 00bd 6a1f 4d3d 8a83 39bd a112 953d
00000070: 4fac 9e3d b802 eebd a16b dd3d 6878 923d
00000080: caa7 5e3d a0dd 763d bf51 e93d 9928 0fbc
00000090: da17 ccbd b052 2ebd 9477 b1bd fd73 d63c
000000a0: 338a 51bc b50e 90bd 3931 dbbb 8528 f73d
000000b0: 5981 9dba fe76 97ba bea7 dbbc 83dd 183c
000000c0: fb0a df3d c0f5 833d 72ac b93c e480 c63c
000000d0: f119 1a3d 5e77 473d 9810 793b c2f5 d0bd
000000e0: f764 89bd ce73 e23d 12fa 363b 9eef dfbd
000000f0: f03c 893c 445f d13d c264 d7bd fb23 48bd
00000100: 65be 05bd 42e2 893c ba56 c3bb 503f f0bb
00000110: 34c5 ddbd f22f 883d 0c93 f63d af17 9c3d
00000120: e2fc 6abd a41e a4bd e14e 463d 2231 523b
00000130: 870f 343d 6d3e dcbd 5d37 9bbb e3ad af3d
00000140: c02d 5c3d 42df 1e3c e15a 483c d79b 3dbc
00000150: 86f5 91bd fdc4 4bbd 3d2e d6bd c7b9 be3d
00000160: 85e8 563d 25bc b33c b056 c5bd 6467 9a3d
00000170: 2afd 0a3d b904 713d 834f 4fbd 0644 163b
00000180: 3b39 fd3d 9696 b73d 7c82 9a3d 0d41 07bd
00000190: 71f9 9e3d fff8 bebd 69ff b9bc c9cd 80bd
000001a0: f764 0cbd c914 87bc b257 ab3c 4dd9 cb3d
000001b0: ac34 2a3d ab2b 4ebb dd1f c33d c0ef 87bd
000001c0: e657 a43d 246e 64bb 5185 87bc b5be 233c
000001d0: 0245 bfbd 351c efb8 c99f 053d fd35 df3d
000001e0: 2b14 63bd 4c88 403d 3253 dc3d 83aa 6abd
000001f0: beb5 bf3d 621e 96bd 2f5d 473d 430d 183d
00000200: 6653 133d 4d29 8c3d 4c4a e6bc f3f4 203d
00000210: 7a0a 9f3b 53bd 9fbd 8313 febc a58e a9bd
00000220: 507a bd3c 15ee 663b e47c 68bb 2efc a2bc
00000230: e4da 78bb c807 23bd 8553 063d d5ce c43d
00000240: 9692 7f3c 63ba 90bd fb89 84bd 4cee 2cba
00000250: a838 aebd 911e cdbd cc65 acbd 6291 35bd
00000260: 50c7 b0bb d82a cc3d 8523 3e3d 6e8a eb3d
00000270: 93fb 64bd d57e 773c 3db2 cfbd aa91 9b3d
00000280: bff7 fe3c 0808 da3d 76b1 a9bd e501 c13d
00000290: 310d ed3d 8227 053e fcdb 883d efeb 0a3e
000002a0: 071a b33d 64d9 a43d 2893 15bc 03b3 c2bd
000002b0: f65b 98bb a51b e53c 8bde 92bd cbda 84bd
000002c0: cc8c dbbd 0138 18bd c319 b23d 9200 99bb
000002d0: 463c 013c 56b8 903c 733c b23d 1584 a8bd
000002e0: af2b 96bd 5969 10bd 3e0d 6fbd 17e4 823d
000002f0: c9cd 883d f683 93bd a0a7 8abd 4c1b afbd
00000300: a93c 953d 215a 093e b922 83bd d75b 1bbd
00000310: 2695 613d 88e0 82bd 9cd5 d13d c077 d73c
00000320: f3c4 0fbd 2cec 813c 1f0a 873d 9780 c7bc
00000330: 7544 a2bd 4c03 5d3c 2c48 b13b c375 cfbb
00000340: 1bb9 8bbc 668d 9e3d ae04 00bd 1c22 ffba
00000350: 2040 8c3d 066f 2bbd bfc5 493d 0aff e9bc
00000360: a538 543d 0cee 84bd 443e e03c 9b1c 093d
00000370: 80ed a2bd 5030 8fbd aad6 653d 0528 dfbc
00000380: cfb3 6d3d 83bb afbd 9aa5 36bd 2a1c 8ebd
00000390: 9daa 953d 0aa7 e33c 7192 e3ba f102 55bc
000003a0: deb4 a9bd 592b 393d 65c8 963c c751 7bbd
000003b0: 29ab 833d 17d3 173b 202a d2bd f9e0 883d
000003c0: 6a1e 693d 42ee 9bbc 1633 65bd 1a12 5d3a
000003d0: 897f a23d 0297 c43d 7a76 babd 8eed 79bd
000003e0: 5c3c a23d f066 513d b9f3 6a3d 3005 8abd
000003f0: 76af c43d 7983 cbbd e522 81bc 5a7c bbbb

conv1.bias f4 [64]
-0.035519272 -0.03942516 0.007787532 -0.06093142 0.0441538 0.028667288 0.061302457 -0.001035943
0.12601766 -0.022645282 0.009994116 0.0012150065 -0.05555016 0.13886115 0.07143829 0.0675069
-0.024830127 -0.06667582 0.07779538 0.045184843 0.021486947 -0.015184843 -0.07113071 0.10573043
-0.023266394 0.10065932 -0.003855654 -0.027907692 0.029584406 0.045562115 0.099002644 0.008211391
0.046652425 0.07660243 -0.01412556 -0.10821324 -0.016572896 0.082843184 -0.027499018 0.04038469
-0.109537005 -0.038480375 0.1124978 0.044533994 0.03431854 0.037147105 -0.0018182658 0.0280995
0.017800197 -0.02361561 -0.019184936 0.00431248 0.06886369 0.0017714405 0.0015871722 -0.0017642118
0.13292389 -0.045147575 0.0071711424 0.15301555 0.12042833 0.03936958 -0.025511192 -0.07472218
00000000: a87c 11bd 477c 21bd 8e2e ff3b 3a93 79bd
00000010: 9dda 343d a9d7 ea3c 4918 7b3d 7bc8 87ba
00000020: c60a 013e 9982 b9bc 5cbe 233c da40 9f3a
00000030: 9188 63bd 9e31 0e3e 3d4e 923d 0f41 8a3d
00000040: 8d68 cbbc 558d 88bd 2f53 9f3d be13 393d
00000050: 6505 b03c d9c9 78bc faac 91bd 3289 d83d
00000060: 2a99 bebc 7926 ce3d 24af 7cbb ac9e e4bc
00000070: ff5a f23c 579f 3a3d e6c1 ca3d 1289 063c
00000080: 9d16 3f3d bce1 9c3d e56e 67bc e79e ddbd
00000090: e2c3 87bc b0a9 a93d 9f45 e1bc 6b6a 253d
000000a0: f054 e0bd 999d 1dbd 3f65 e63d 4769 363d
000000b0: 9991 0c3d 9027 183d e052 eeba ec30 e63c
000000c0: b8d1 913c 8675 c1bc ba29 9dbc b44f 8d3b
000000d0: 6808 8d3d ae2f e83a a908 d03a 203d e7ba
000000e0: 331d 083e aaec 38bd e7fb ea3b 1cb0 1c3e
000000f0: 21a3 f63d ff41 213d d9fc d0bc f107 99bd

conv2.weight f4 [32, 64, 5, 5]
0.0003628512 -0.0019446206 0.021646429 0.00730758 -0.011791185 -0.022681817 -0.028532527 -0.017902162
-0.024041304 -0.038095232 0.027698696 0.009146133 -0.005925386 -0.02886999 -0.015016461 -0.0023807206
0.017878266 -0.010945033 -0.009429627 0.010303156 0.010643212 0.021391029 -0.011451041 0.029850615
0.020190587 -0.013753532 0.021945223 0.015733456 -0.00097486103 -0.026729373 -0.018263059 0.006297547
-0.006835947 -0.0039728326 -0.0044044354 0.0049270266 -0.011567725 0.0044510923 -0.009005345 0.016709648
0.00043180742 0.013636448 0.0018948994 0.009328702 -0.008092989 -0.03533356 0.010226146 0.020130437
0.02738569 0.014246698 0.000915784 0.04020334 0.03238034 0.027973568 0.0011765452 0.018369148
0.03603374 0.051100835 0.022359412 -0.002674975 0.01686462 -0.0073207617 -0.031665716 -0.021215156
-0.045111667 -0.020871706 0.01035578 0.0045021935 0.008757267 0.014191911 -0.0020525546 0.019442495
0.003377745 -0.004467836 0.020160733 0.0054750913 -0.025164504 -0.015834494 -0.025262728 -0.03613791
-0.0019675812 0.013334091 -0.021440417 -0.015975023 0.019249564 0.01300402 0.010613175 -0.012585282
0.03879849 0.016145717 -0.007808868 0.02786487 0.020699866 0.022897359 -0.006054359 -0.009129075
-0.02680412 -0.0014703035 -0.037574325 -0.03305042 -0.03244478 -0.021906983 0.018444886 0.043114424
0.031079946 -0.018647531 0.0059547783 0.02104495 0.027922617 0.011976275 -0.027740477 -0.012045778
0.03154417 0.021704752 -0.034089725 -0.01489634 0.023052799 -0.016204728 0.019025393 0.011935134
-0.016144289 0.006897396 -0.0025901417 -0.0178803 0.023512857 -0.02306506 -0.042689286 0.038066965
-0.012295379 0.0996887 0.0067801694 0.004402114 -0.0027967175 -0.03704494 -0.01724769 0.03857097
0.02756053 0.0663016 0.05649703 0.040443506 -0.003404356 0.008629161 0.00020685105 -0.001948676
0.010942771 -0.023612676 0.016477067 -0.00679915 -0.012617116 -0.029650684 -0.008605238 -0.003752472
-0.009572944 0.02858331 -0.03878396 0.024131076 0.011551009 -0.017765785 -0.010361342 0.01588051
0.0080700815 -0.010909671 0.010217399 0.005713809 0.0024730207 0.0065676277 -0.023382237 -0.009952599
0.0001690902 0.024714677 -0.030334558 -0.02025231 0.011922483 0.020354275 0.0095753595 0.017106876
-0.029523926 -0.004957556 0.007933251 -0.06666881 0.009517904 -0.08921028 -0.016891623 0.066691674
-0.00886287 -0.06257313 -0.07357158 -0.06402516 -0.017116383 -0.017008774 -0.029429333 0.046856724
0.09046602 0.04115968 -0.00828415 -0.11694445 -0.09712465 -0.018783651 -0.033920478 -0.041544158
-0.02920564 -0.041898713 -0.04097529 0.003920701 -0.013970197 0.008947046 0.0020023063 -0.011566078
0.012785399 -0.00079204 -0.013723517 0.016920151 0.023033021 0.011998091 -0.018798 0.031660143
0.016697695 0.021030575 -0.009050294 -0.03093118 -0.026388679 -0.0031216256 -0.008939595 -0.02264307
0.011290015 -0.0037401863 0.0052755396 -0.0062266123 -0.0058682086 -0.006873256 0.02014576 0.011651994
0.037892967 0.039558064 -0.01351528 -0.011960331 0.00050655665 0.0037336533 0.012891827 -0.0006342979
-0.04099891 -0.013481583 -0.012690245 -0.051096488 -0.0113262795 0.0021542604 0.0038680597 -0.002823464
-0.026250916 -0.004767927 -0.015178072 0.017513784 0.009438802 -0.016115917 -0.012447742 -0.04964432
00000000: 103d be39 a4e2 feba da53 b13c 6d74 ef3b
00000010: d02f 41bc 38cf b9bc 0cbd e9bc 8ea7 92bc
00000020: 45f2 c4bc bf09 1cbd 60e8 e23c aad9 153c
00000030: be29 c2bb c280 ecbc 9a07 76bc dd05 1cbb
00000040: 7175 923c cc52 33bc b97e 1abc 92ce 283c
00000050: de60 2e3c 3d3c af3c 269d 3bbc 4789 f43c
00000060: bb66 a53c 7f56 61bc 78c6 b33c 73e3 803c
00000070: d18d 7fba 8ff7 dabc 699c 95bc a75b ce3b
00000080: 1400 e0bb 892e 82bb 1553 90bb e572 a13b
00000090: 8e86 3dbc 78da 913b 288b 13bc ace2 883c
000000a0: 3664 e239 696b 5f3c 465e f83a 6ad7 183c
000000b0: 7598 04bc ecb9 10bd 918b 273c 96e8 a43c
000000c0: f457 e03c fb6a 693c 3911 703a 42ac 243d
000000d0: 3fa1 043d d328 e53c 4e36 9a3a e57a 963c
000000e0: 1d98 133d 1c4f 513d 162b b73c a24e 2fbb
000000f0: ac27 8a3c 00e3 efbb e9b3 01bd 68cb adbc
00000100: 03c7 38bd 24fb aabc 4aab 293c 2387 933b
00000110: a47a 0f3c 3085 683c 2784 06bb de45 9f3c
00000120: 285d 5d3b ed66 92bb 1f28 a53c 6568 b33b
00000130: ca25 cebc 57b7 81bc c8f3 cebc 5805 14bd
00000140: 89f2 00bb 3b77 5a3c d0a3 afbc 0dde 82bc
00000150: 43b1 9d3c d00e 553c e2e2 2d3c 8032 4ebc
00000160: 2aeb 1e3d 0644 843c 88e1 ffbb de44 e43c
00000170: c492 a93c 3e93 bb3c a563 c6bb 1e92 15bc
00000180: 5094 dbbc 33b7 c0ba 89e7 19bd e15f 07bd
00000190: d1e4 04bd 4676 b3bc bb19 973c c098 303d
000001a0: 5f9b fe3c b5c2 98bc 4d20 c33b 7566 ac3c
000001b0: f9bd e43c 2338 443c ff3f e3bc a85b 45bc
000001c0: 7634 013d 2ace b13c aba1 0bbd c70f 74bc
000001d0: 39d9 bc3c c7bf 84bc 24db 9b3c 958b 433c
000001e0: 0741 84bc 8d03 e23b 5ebf 29bb b579 92bc
000001f0: 099e c03c f0f2 bcbc f6da 2ebd 1bec 1b3d
00000200: 8f72 49bc 9729 cc3d 2f2c de3b 9c3f 903b
00000210: 2249 37bb 6fbc 17bd 074b 8dbc 98fc 1d3d
00000220: 9fc6 e13c 22c9 873d 6e69 673d 17a8 253d
00000230: 9e1b 5fbb 5361 0d3c 28e6 5839 b76a ffba
00000240: 4f49 333c 5f6f c1bc eafa 863c 67cb debb
00000250: 05b8 4ebc fee5 f2bc fcfc 0cbc 09ec 75bb
00000260: d6d7 1cbc 8c27 ea3c eedb 1ebd 89ae c53c
00000270: 7140 3d3c 8d89 91bc 9ec2 29bc d817 823c
00000280: 6038 043c 7abe 32bc e166 273c e73a bb3b
00000290: 6712 223b 4135 d73b 1b8c bfbc 3a10 23bc
000002a0: ce4d 3139 6f76 ca3c 2e80 f8bc 2ce8 a5bc
000002b0: 8556 433c 02be a63c f8e1 1c3c b823 8c3c
000002c0: 29dc f1bc fe72 a2bb 77fa 013c a889 88bd
000002d0: fcf0 1b3c e1b3 b6bd 4d60 8abc a595 883d
000002e0: 9235 11bc 5726 80bd b2ac 96bd a01f 83bd
000002f0: a837 8cbc fc55 8bbc c915 f1bc d6ec 3f3d
00000300: 4046 b93d 0d97 283d 3eba 07bc 9280 efbd
00000310: 4ae9 c6bd 2ce0 99bc 33f0 0abd 352a 2abd
00000320: ab40 efbc fc9d 2bbd b5d5 27bd 3979 803b
00000330: 41e3 64bc a196 123c 2039 033b a67f 3dbc
00000340: da79 513c e8a0 4fba 9ad8 60bc 219c 8a3c
00000350: bfaf bc3c a493 443c 43fe 99bc 11ae 013d
00000360: 9bc9 883c 5048 ac3c af47 14bc 6363 fdbc
00000370: 122d d8bc 3094 4cbb 6177 12bc f67d b9bc
00000380: c1f9 383c ea1d 75bb 6fde ac3b 9c08 ccbb
00000390: 1a4a c0bb 0d39 e1bb b908 a53c 01e8 3e3c
000003a0: a835 1b3d a307 223d 316f 5dbc 44f5 43bc
000003b0: 71ca 043a 4fb0 743b 3e38 533c 0347 26ba
000003c0: 79ee 27bd dce1 5cbc bfea 4fbc 8d4a 51bd
000003d0: dc91 39bc 7e2e 0d3b 467f 7d3b de09 39bb
000003e0: 290c d7bc 453c 9cbb 73ad 78bc 1179 8f3c
000003f0: 34a5 1a3c 8705 84bc 9df1 4bbc d857 4bbd

conv2.bias f4 [32]
-0.0057501453 -0.033045255 -0.0024045047 0.022848325 0.025360255 0.020313848 -0.01244095 0.008376213
0.0071974765 -0.012758778 -0.0009123058 0.011064065 0.024562888 0.017992336 0.01882915 0.018417059
-0.014867725 -0.019078573 0.018370653 0.020107403 0.04880692 -0.014357808 -0.015336426 0.017860409
0.012883235 0.012353536 0.018334892 0.0320554 0.008916813 -0.01348847 0.010322455 -0.0007704375
00000000: b76b bcbb 765a 07bd e594 1dbb 692c bb3c
00000010: 4fc0 cf3c 3a69 a63c 20d5 4bbc 623c 093c
00000020: cfd8 eb3b 320a 51bc ce27 6fba 0d46 353c
00000030: 1c38 c93c aa64 933c 973f 9a3c 5fdf 963c
00000040: c297 73bc ab4a 9cbc 0d7e 963c 48b8 a43c
00000050: c4e9 473d 033d 6bbc a245 7bbc fe4f 923c
00000060: 3414 533c 7c66 4a3c 0e33 963c 864c 033d
00000070: d317 123c befe 5cbc 841f 293c 2ff7 49ba

conv3.weight f4 [1, 32, 5, 5]
0.01806674 0.018483909 -0.0012587023 0.029586611 0.034647867 -0.025537143 0.008224907 -0.03235048
0.0035623698 0.015114005 -0.0056464756 0.027665965 0.011710307 -0.036556937 -0.0081865555 -0.017825507
-0.031241592 -0.0012148656 -0.033603065 0.02184825 0.008097609 0.014327341 0.023604339 0.031704932
-0.013854843 0.0010893423 -0.037080474 0.0074054617 0.026566956 -0.024894435 0.020017175 -0.019358575
0.01024955 -0.016047504 0.00472946 -0.034322735 0.024274688 -0.008805942 0.03127422 -0.016024727
0.015882459 -0.01937256 -0.018171573 -0.00931825 0.015280631 0.015163344 0.019828003 -0.0070361327
0.004802004 0.020371864 -0.013811041 -0.011612039 0.02691843 -0.029819584 -0.017104952 -0.0195987
-0.0074321274 -0.025981365 0.0082399435 -0.024683163 -0.0155402105 -0.03440629 0.023564009 -0.021663524
-0.004234502 -0.021101471 -0.004920376 -0.0067300904 -0.011505421 -0.0005050955 0.015026932 0.029078985
0.02624367 -0.026236948 -0.0040924074 -0.057759892 -0.02417134 -0.009676548 -0.010536442 -0.00500058
0.031745713 -0.0048902375 -0.03169306 -0.006236474 0.02108818 0.049100906 0.04294408 0.0777292
0.038340494 -0.0057607456 -0.031250138 -0.046851553 -0.036236398 0.0007492437 -0.02100996 0.0067388974
0.0012998702 -0.022310654 -0.016631028 0.0038446863 0.0055072443 0.007303599 0.013893043 -0.0035976197
0.0033673614 -0.007957072 0.031644393 -0.0003464756 0.024576947 -0.021558093 -0.027871538 0.0042743245
-0.03246797 0.020173462 0.019795228 0.028497653 0.0317374 0.011138164 0.013073227 -0.0059579825
0.03181464 0.014439752 -0.008827495 -0.033126246 0.0035532808 0.004119719 0.025445791 0.026424369
0.040916897 -0.00019323475 0.013502581 -0.028918304 0.00049267017 0.007249331 -0.0253649 -0.016932363
0.016871957 -0.019688958 -0.011529363 0.024535635 0.031576827 -0.023016455 -0.02197114 0.031170953
-0.010713399 0.008558668 -0.021638026 -0.012393167 0.028744625 -0.026866416 0.012272806 0.0007857014
0.011001277 0.0011927721 -0.008272307 0.012809342 0.009391612 -0.0035532636 0.02360223 0.03152181
0.018906679 -0.009778515 -0.026198512 -0.024835886 -0.018365087 -0.0030827266 0.018285628 0.010142663
0.031665497 -0.035348106 -0.020096919 0.03206206 -0.02558313 0.022436593 0.00030546216 -0.0039651715
0.025106622 0.027340546 -0.014719511 -0.0022916084 0.03313247 0.029527877 0.014240058 -0.021568023
-0.024038808 0.025541006 0.02056769 -0.0037935951 0.034113538 0.024704268 -0.0076260357 0.015665933
0.034572568 0.020492695 -0.017095543 -0.033367697 0.010931546 0.013395364 -0.034943633 0.0051337196
-0.021797538 0.014182532 -0.017266544 -0.026911668 0.03400078 0.021149507 -0.01429625 -0.025504552
0.023903133 -0.022078801 -0.010480226 -0.01575747 0.010537122 -0.0022568507 0.013140657 -0.019791134
0.026098093 0.0040899413 -0.024417643 -0.025828842 0.021485722 -0.015266715 0.009901051 0.0009082494
-0.016419875 0.033378463 -0.014486269 0.0150374845 0.02170832 0.010799752 0.03550917 -0.024622073
0.005171552 9.9699966e-05 0.01601011 -0.015551017 -0.024090562 -0.029323045 0.023356073 0.008765448
-0.034086283 -0.0035355282 -0.03128473 -0.03106824 0.02248784 -0.016147206 0.022608534 0.033658296
0.003929857 0.01443652 -0.030876609 -0.015019268 -0.0019541227 0.0076872185 0.014726317 0.019051831
00000000: b300 943c 916b 973c 0afb a4ba 9f5f f23c
00000010: ecea 0d3d 4533 d1bc c3c1 063c f081 04bd
00000020: a676 693b bba0 773c 1206 b9bb bca3 e23c
00000030: 96dc 3f3c babc 15bd e720 06bc cc06 92bc
00000040: 5eee ffbc 203c 9fba 5ea3 09bd 1afb b23c
00000050: d5ab 043c 39bd 6a3c e35d c13c 08dd 013d
00000060: 6cff 62bc 43c8 8e3a b2e1 17bd 84a9 f23b
00000070: f2a2 d93c 6aef cbbc 0ffb a33c e095 9ebc
00000080: bbed 273c 0e76 83bc 96f9 9a3b ff95 0cbd
00000090: b6db c63c cc46 10bc 6619 003d 4a46 83bc
000000a0: ee1b 823c 34b3 9ebc 8ddc 94bc 93ab 18bc
000000b0: 9d5b 7a3c ad6f 783c 566e a23c 5c8f e6bb
000000c0: 215a 9d3b e5e2 a63c b447 62bc 6c40 3ebc
000000d0: 0a84 dc3c 3348 f4bc af1f 8cbc 748d a0bc
000000e0: 3489 f3bb dfd6 d4bc d400 073c 5834 cabc
000000f0: 5e9c 7ebc 9ced 0cbd 4f09 c13c b477 b1bc
00000100: 94c1 8abb fedc acbc 1b3b a1bb 1788 dcbb
00000110: 3c81 3cbc 6368 04ba 8533 763c 0d37 ee3c
00000120: f7fc d63c deee d6bc 9a19 86bb a395 6cbd
00000130: f902 c6bc 628a 1ebc 0aa1 2cbc e8db a3bb
00000140: cb07 023d 493e a0bb 95d0 01bd 565b ccbb
00000150: 1ec1 ac3c 081e 493d 22e6 2f3d 7d30 9f3d
00000160: ec0a 1d3d a3c4 bcbb 2500 00bd 6ae7 3fbd
00000170: 9e6c 14bd e568 443a 141d acbc f8d1 dc3b
00000180: 6860 aa3a d5c4 b6bc cb3d 88bc 22f7 7b3b
00000190: 1d76 b43b 0753 ef3b a59f 633c 0bc6 6bbb
000001a0: f3ae 5c3b 615e 02bc 8d9d 013d 2ba7 b5b9
000001b0: 9855 c93c 999a b0bc da52 e4bc a20f 8c3b
000001c0: 22fd 04bd d142 a53c 9a29 a23c e973 e93c
000001d0: 13ff 013d d97c 363c 1731 563c 2e3b c3bb
000001e0: 1150 023d b694 6c3c 33a1 10bc 63af 07bd
000001f0: 29de 683b b5fe 863b b173 d03c eb77 d83c
00000200: 7a98 273d 0f9f 4ab9 ee39 5d3c 14e6 ecbc
00000210: 8926 013a cc8b ed3b 0dca cfbc bdb5 8abc
00000220: 0f37 8a3c bd4a a1bc a7e5 3cbc f5fe c83c
00000230: b456 013d 018d bcbc d2fc b3bc 3a5a ff3c
00000240: 4187 2fbc a839 0c3c 3b42 b1bc b60c 4bbc
00000250: d979 eb3c f516 dcbc e113 493c 87f7 4d3a
00000260: b33e 343c ca56 9c3a 9288 07bc 46de 513c
00000270: 47df 193c dfdd 68bb 7759 c13c 031d 013d
00000280: 2ee2 9a3c 1136 20bc 439e d6bc a174 cbbc
00000290: 6172 96bc 9207 4abb becb 953c 692d 263c
000002a0: aeb3 013d 2dc9 10bd 4ba2 a4bc 8253 033d
000002b0: b693 d1bc f2cc b73c 7026 a039 45ee 81bb
000002c0: 67ac cd3c 48f9 df3c 1b2a 71bc cf2e 16bb
000002d0: eab5 073d 72e4 f13c 224f 693c 6caf b0bc
000002e0: 09ed c4bc 5f3b d13c 927d a83c f79d 78bb
000002f0: a3ba 0b3d 9b60 ca3c d3e3 f9bb d855 803c
00000300: f79b 0d3d 4ce0 a73c f40b 8cbc 91ac 08bd
00000310: 3a1a 333c 3b78 5b3c 0e21 0fbd c338 a83b
00000320: c090 b2bc da5d 683c 9172 8dbc dc75 dcbc
00000330: 6744 0b3d bb41 ad3c d23a 6abc ecee d0bc
00000340: 81d0 c33c 9ade b4bc 41b5 2bbc cf15 81bc
00000350: e5a3 2c3c ace7 13bb e94b 573c 0421 a2bc
00000360: abcb d53c ea04 863b 8207 c8bc 0297 d3bc
00000370: d302 b03c 3e21 7abc 0538 223c 9617 6e3a
00000380: f982 86bc dbb7 083d d157 6dbc c85f 763c
00000390: a6d5 b13c 71f1 303c 1072 113d 3bb4 c9bc
000003a0: 1f76 a93b 0316 d138 a227 833c b1c9 7ebc
000003b0: 9259 c5bc e236 f0bc 3c55 bf3c f49c 0f3c
000003c0: 0f9e 0bbd 52b4 67bb 6b24 00bd d282 febc
000003d0: 6b38 b83c 2547 84bc 8835 b93c 48dd 093d
000003e0: 08c6 803b 2787 6c3c f1f0 fcbc 6013 76bc
000003f0: bd10 00bb 10e5 fb3b a646 713c 9612 9c3c
