output_x01/x2/epoch_259.pth (torch, 231335 bytes, 5 tensors)

conv1.weight f4 [64, 1, 9, 9]
000000 d3 46 48 bd 67 44 17 3c 06 75 45 bd 0e cc 81 3d
       -0.04889567 0.009232617 -0.048207305 0.063377485
000010 db 37 98 bd a3 7d ca 3d eb d5 84 bd d6 f8 99 bd
       -0.074325286 0.098872446 -0.06486114 -0.07518165
000020 aa d3 86 bd ad 45 1f 3d ce 63 2d bd ab 8a 3c 3d
       -0.065833405 0.038884807 -0.04233151 0.04603068
000030 36 ed a9 bd 29 f0 74 bd b1 f6 fa bc c7 b0 49 bc
       -0.082971975 -0.059799347 -0.03063521 -0.012310213
000040 f8 c9 a6 bd a8 16 92 3d 83 9c 39 bd f2 61 ca 3c
       -0.08143991 0.071332276 -0.045315277 0.024704907
000050 4f 4f 8e 3d 64 bb dc 3c b7 db 3a 3d 80 b9 fe 3d
       0.06948721 0.026944824 0.045619693 0.12437725
000060 15 8c fe bc b9 6c 4d 3d 2e 55 3a bd d6 65 94 3d
       -0.031072656 0.050152514 -0.04549139 0.07245986
000070 65 00 9e 3d 80 ba ee bd 7e cf dd 3d e0 9d 92 3d
       0.07714919 -0.11656666 0.108305916 0.071590185
000080 32 ac 5e 3d de a7 77 3d 37 a6 e9 3d 8f fb 11 bc
       0.054363437 0.060462825 0.11408656 -0.008910074
000090 82 8e cc bd 8c 69 2f bd 23 0d b2 bd b5 88 d8 3c
       -0.09988119 -0.042825267 -0.08693912 0.026432374
0000a0 ae e1 51 bc 59 5e 90 bd fc 4e d9 bb f1 6e f7 3d
       -0.012810154 -0.070492454 -0.00663173 0.12081707
0000b0 ab 1f a5 ba 7d 05 f1 ba d9 87 e1 bc 71 e8 0d 3c
       -0.0012597939 -0.0018388476 -0.027530598 0.008661375
0000c0 1b db de 3d 5a 93 83 3d 55 bd b7 3c ff 05 c6 3c
       0.10881635 0.064245895 0.022429148 0.024172781
0000d0 23 31 1a 3d a1 81 46 3d 1b 61 7a 3b a6 e5 d0 bd
       0.037644517 0.048463468 0.0038204852 -0.10200052
0000e0 c8 25 89 bd 43 48 e3 3d 4a 99 3e 3b 2a d7 df bd
       -0.06696659 0.11097767 0.0029083067 -0.10929711
0000f0 00 b7 8a 3c fb fa d1 3d 3b 47 d7 bd 84 5d 47 bd
       0.016932964 0.10252949 -0.10511633 -0.048673168
000100 92 10 05 bd 5a fb 8b 3c 08 05 b6 bb 14 52 e7 bb
       -0.032486506 0.017087627 -0.005554799 -0.007059345
000110 68 1d dd bd 87 d0 88 3d 24 38 f7 3d 14 27 9c 3d
       -0.107966244 0.066803984 0.12071255 0.07624641
000120 f5 88 6a bd ad 13 a4 bd c5 54 46 3d 0a 30 56 3b
       -0.05725952 -0.08011565 0.048420686 0.0032682442
000130 48 18 34 3d 51 1b dc bd c2 23 9e bb fc 76 af 3d
       0.04396847 -0.10747398 -0.00482604 0.08567616
000140 cd 20 5b 3d df d5 25 3c 63 3b 48 3c 33 31 3c bc
       0.05349808 0.010121792 0.01222119 -0.011486339
000150 5e 0c 92 bd 46 08 4d bd c8 6e d7 bd 86 fc be 3d
       -0.07131265 -0.05005672 -0.10519177 0.09325509
000160 ab 15 57 3d 64 7d b1 3c 46 8e c5 bd 9c 9e 99 3d
       0.0525109 0.021666236 -0.09646277 0.075009555
000170 15 86 09 3d 4f f4 6e 3d ef d6 51 bd 10 9a c4 3a
       0.033575136 0.05833846 -0.051230367 0.0014999527
000180 14 5c fd 3d a0 be b7 3d f7 53 99 3d 48 ff 07 bd
       0.12371078 0.08971906 0.07486718 -0.03320244
000190 23 5b 9e 3d 82 97 bf bd 5a 26 be bc 09 5a 81 bd
       0.07732227 -0.0935507 -0.023211647 -0.06316001
0001a0 8b 30 0e bd a7 7d 86 bc 86 db ab 3c 85 dc ca 3d
       -0.034714263 -0.016417338 0.0209787 0.09905342
0001b0 78 26 29 3d 77 91 4e bb 8a 75 c3 3d 67 0f 88 bd
       0.041296452 -0.003151981 0.09543903 -0.06643563
0001c0 98 15 a5 3d 1b 28 63 bb c4 bf 87 bc 5d 6b 23 3c
       0.08060759 -0.0034661356 -0.016570933 0.009974328
0001d0 bf 91 bf bd b6 04 80 b9 85 57 06 3d 57 cd df 3d
       -0.09353971 -0.00024417572 0.03279831 0.10927837
0001e0 db 1a 64 bd 92 fe 40 3d 6c 0d dc 3d 77 77 6b bd
       -0.055689674 0.047117777 0.107447475 -0.057486977
0001f0 d1 4a bf 3d 89 c8 96 bd 80 94 46 3d 8b 41 17 3d
       0.09340442 -0.07362468 0.048481464 0.03692774
000200 3c 15 13 3d 9f 2a 8b 3d fb e6 e7 bc 28 bc 1f 3d
       0.035908923 0.06795239 -0.028308382 0.0389978
000210 d7 8f 9b 3b dd dc 9f bd 62 9d 00 bd 1a ca a9 bd
       0.0047473717 -0.07805798 -0.031400092 -0.08290501
000220 9c 27 b9 3c ce e2 56 3b 55 e5 7b bb 76 ed a4 bc
       0.022601895 0.0032788995 -0.0038436253 -0.020132761
000230 7f b6 91 bb 4a 92 24 bd 44 b8 05 3d 65 91 c3 3d
       -0.004446804 -0.040178575 0.032646433 0.09549216
000240 fc dd 7e 3c 00 03 92 bd 6d e5 84 bd 29 84 31 ba
       0.015555855 -0.071294785 -0.06489072 -0.00067717076
000250 d9 02 af bd 77 d2 ce bd 78 0b ad bd 47 a9 35 bd
       -0.08545465 -0.10098737 -0.08449453 -0.04435089
000260 d3 3d c0 bb e3 2f cd 3d 0d e8 3d 3d 61 a4 ec 3d
       -0.005866745 0.10018899 0.04636388 0.1155479
000270 bb e3 61 bd e3 f7 7b 3c 35 15 cf bd cc 4c 9d 3d
       -0.05514882 0.015378925 -0.10111467 0.076806635
000280 18 9d 02 3d ab ad da 3d 36 09 ac bd e5 09 c0 3d
       0.031888098 0.10677656 -0.08400194 0.09376887
000290 83 41 ed 3d fa c4 05 3e f6 a7 8a 3d ac 13 0b 3e
       0.11584761 0.13063422 0.06770317 0.13581723
0002a0 c4 ad b1 3d 5a 96 a3 3d ce 8c 16 bc dd f9 c4 bd
       0.08675721 0.07987662 -0.009188844 -0.0961797
0002b0 77 09 b2 bb 60 a6 df 3c d0 14 95 bd 0c 48 87 bd
       -0.005433257 0.027301013 -0.0727936 -0.06605539
0002c0 63 22 de bd db 9d 1d bd 7b 62 b0 3d 5f 00 af bb
       -0.108464025 -0.03848062 0.08612534 -0.0053406204
0002d0 4d 61 01 3c bb ff 90 3c 90 2f b2 3d b7 55 a9 bd
       0.0078967335 0.017700067 0.08700478 -0.08268302
0002e0 b3 4b 96 bd 68 ad 11 bd df 0e 72 bd a6 66 82 3d
       -0.07338657 -0.035565764 -0.059096213 0.06367235
0002f0 77 f4 87 3d 14 1d 92 bd 08 87 89 bd 8a e1 ae bd
       0.06638425 -0.071344525 -0.06715208 -0.08539112
000300 27 eb 94 3d dc 20 0a 3e 98 0b 82 bd ab 18 1c bd
       0.07271414 0.13489097 -0.063498676 -0.038109463
000310 35 63 62 3d 42 a8 82 bd 53 4f d1 3d 9a 67 d3 3c
       0.055270392 -0.06379749 0.10220208 0.025806237
000320 7f cf 14 bd d1 19 6c 3c 81 23 86 3d ef aa c9 bc
       -0.036330696 0.014410452 0.065497406 -0.02461764
000330 96 4c a3 bd 3f 92 5a 3c ff c1 a5 3b ab e3 e4 bb
       -0.07973592 0.013340532 0.0050585265 -0.006985148
000340 d8 20 8f bc a8 fa 9c 3d 25 a4 05 bd 0c e7 2c bb
       -0.017471716 0.076649964 -0.032627244 -0.0026382832
000350 cc c6 8c 3d c1 a3 2a bd 2f dd 4a 3d 8b 3e ec bc
       0.06873855 -0.041660074 0.049527343 -0.028838417
000360 2c 7b 54 3d ab 6f 84 bd 9d 9b e4 3c ad c2 0a 3d
       0.05187528 -0.064666115 0.027906233 0.033877064
000370 f9 5c a2 bd 98 43 8e bd de 56 65 3d 08 f7 df bc
       -0.079278894 -0.06946486 0.055991046 -0.027339473
000380 c0 d7 6e 3d 97 bf ae bd fa 51 35 bd 77 7f 8d bd
       0.058311224 -0.085326366 -0.044267632 -0.069090776
000390 e4 75 96 3d 6a 5b e8 3c bd dc 9e ba f6 10 58 bc
       0.073467046 0.028363902 -0.0012120228 -0.013187638
0003a0 a0 4f a9 bd 0b c8 3e 3d 13 63 97 3c d6 29 7b bd
       -0.082671404 0.046577495 0.01847986 -0.061319195
0003b0 1d 67 83 3d d9 bf dd 3a 29 27 d3 bd 8a d9 88 3d
       0.06416152 0.0016918137 -0.103102036 0.06682117
0003c0 da 49 66 3d c2 b8 9c bc 37 da 60 bd f4 ec 33 3a
       0.056222774 -0.019131068 -0.054895606 0.0006863617
0003d0 61 43 a2 3d 8f 33 c4 3d 8a 63 bb bd 66 d0 7c bd
       0.07923008 0.095801465 -0.09149845 -0.06172218
0003e0 4f b6 a0 3d 12 3c 51 3d 0c 23 69 3d e9 09 8b bd
       0.078472726 0.05108268 0.05691819 -0.067889996
0003f0 3b fc c4 3d 07 d3 cb bd 28 d0 84 bc 21 58 d2 bb
       0.09618422 -0.0995236 -0.016212538 -0.006419197

conv1.bias f4 [64]
000000 96 37 11 bd aa 2e 1f bd 78 39 fb 3b ce 34 79 bd
       -0.0354534 -0.03886286 0.007666763 -0.060841374
000010 9f 35 35 3d e9 00 ea 3c 26 bc 7b 3d ea 34 88 ba
       0.04424059 0.028564887 0.06145873 -0.0010391746
000020 34 f3 00 3e b3 7a b1 bc 0b e6 22 3c 36 07 99 3a
       0.12592775 -0.021664953 0.009942542 0.0011675123
000030 15 93 62 bd 53 46 0e 3e 86 f6 91 3d c7 9a 89 3d
       -0.05531605 0.13894014 0.07127099 0.067189746
000040 40 0f ca bc 1b 51 88 bd b2 54 9f 3d 1e b4 39 3d
       -0.024665475 -0.06656095 0.07779826 0.04533779
000050 a5 b8 b0 3c 1a 15 77 bc 88 96 91 bd 1a 12 db 3d
       0.02157242 -0.015080715 -0.0710879 0.10696812
000060 80 c6 c0 bc b1 05 d0 3d 26 f5 7d bb 4d 5e e5 bc
       -0.023532152 0.101573355 -0.0038750856 -0.027999068
000070 2f 00 f2 3c e6 19 3a 3d 8b 1c cb 3d 9f ec 05 3c
       0.029541103 0.045434855 0.099175535 0.008174091
000080 8d 5d 3f 3d 8c 6e 9d 3d 31 26 6a bc 1f 31 e0 bd
       0.046720076 0.07687101 -0.014291332 -0.10946869
000090 ca 52 8b bc a7 6a a9 3d 33 ac df bc d3 c2 24 3d
       -0.01700725 0.082722954 -0.02730379 0.04022486
0000a0 09 e0 e0 bd 32 81 1e bd 3a a8 e6 3d 3f 4b 37 3d
       -0.10980231 -0.03869743 0.112625554 0.044749495
0000b0 3f e6 0c 3d e3 4f 18 3d b3 97 23 bb a6 67 e7 3c
       0.034399267 0.03718556 -0.0024962246 0.028247666
0000c0 f2 8b 94 3c 41 d4 c0 bc ca 23 9e bc 92 41 85 3b
       0.018133137 -0.02353871 -0.019304175 0.0040666545
0000d0 93 09 8d 3d fc 55 fd 3a 55 9d ca 3a 16 2a 09 bb
       0.06886592 0.0019327994 0.0015458266 -0.0020929626
0000e0 39 db 08 3e 3e a2 38 bd 27 6b ee 3b 6c 00 1d 3e
       0.13364877 -0.0450766 0.007275957 0.15332192
0000f0 42 66 f6 3d 8a a2 1f 3d 37 46 ce bc 06 c4 97 bd
       0.12031223 0.03897337 -0.025179965 -0.074104354

conv2.weight f4 [32, 64, 5, 5]
000000 c6 b7 9f 39 2b ee 08 bb 24 88 af 3c 6c 25 f9 3b
       0.00030463765 -0.0020893912 0.021427222 0.007603338
000010 39 26 35 bc fa 13 ba bc 88 d5 ea bc d9 1a 95 bc
       -0.011056476 -0.022714604 -0.028666273 -0.018201279
000020 a2 64 c3 bc ee 62 19 bd e8 e3 e4 3c 4d bd 1a 3c
       -0.023851696 -0.037447862 0.027940705 0.009444547
000030 7f de cc bb a3 fe ec bc 67 16 6f bc c5 f3 19 bb
       -0.0062521095 -0.028930014 -0.0145927435 -0.0023491245
000040 98 72 93 3c 2a 96 37 bc e4 50 1b bc f1 fc 2f 3c
       0.017998978 -0.0112052355 -0.009479735 0.010741458
000050 24 33 32 3c 29 80 af 3c 4f b0 3d bc 41 84 f3 3c
       0.010876451 0.021423416 -0.01157768 0.02972615
000060 c6 da a8 3c 07 11 60 bc 70 7b b3 3c c0 10 80 3c
       0.020612132 -0.013675935 0.021909446 0.015632987
000070 6b fb 97 ba 4c 32 dc bc 83 36 98 bc 7b 9a c0 3b
       -0.0011595314 -0.026879452 -0.01858068 0.0058777905
000080 9b 45 e9 bb ec 5c 92 bb 9b 9e 95 bb 11 28 a2 3b
       -0.0071188933 -0.0044666436 -0.0045660264 0.004948624
000090 fa 22 3b bc f7 c4 9d 3b ba 89 13 bc c4 a9 89 3c
       -0.011421913 0.00481474 -0.009005005 0.016804583
0000a0 b7 10 19 39 d1 cb 5b 3c da 1f 0d 3b 60 78 1a 3c
       0.00014597444 0.013415293 0.0021533878 0.009428114
0000b0 5c da 08 bc bb 96 11 bd 43 ca 22 3c b4 16 a5 3c
       -0.008352842 -0.03554414 0.009935918 0.020152427
0000c0 03 1c e0 3c 86 99 62 3c 7a 44 99 3a a2 7c 25 3d
       0.027357107 0.013830548 0.0011693381 0.040402062
0000d0 08 71 06 3d 28 47 e9 3c c5 a9 90 3a 80 3d 98 3c
       0.03282264 0.028476313 0.0011036923 0.018584013
0000e0 d6 71 12 3d d7 96 51 3d 5e b4 b7 3c 2d ca 44 bb
       0.035753094 0.051169243 0.022424873 -0.0030027733
0000f0 d8 91 8d 3c 3a 38 f4 bb 3f 6f 02 bd e7 e1 af bc
       0.017281458 -0.007452992 -0.031844374 -0.021470023
000100 45 7c 3b bd 3e d0 ab bc 32 75 28 3c f8 81 95 3b
       -0.04577281 -0.020973321 0.010281848 0.0045626126
000110 83 b0 11 3c b3 1b 6e 3c 90 c0 1b bb fc 27 9e 3c
       0.008892181 0.014532971 -0.00237659 0.019306175
000120 55 2f 57 3b 2c 2c 97 bb 7a 02 a4 3c cd 61 b2 3b
       0.0032834609 -0.00461342 0.020020712 0.0054437877
000130 5f fc ce bc b9 4c 83 bc 24 95 cf bc 5f 74 14 bd
       -0.025266824 -0.016027795 -0.02533967 -0.036243793
000140 b5 7f 0e bb 58 92 57 3c 65 08 b1 bc 55 1a 82 bc
       -0.00217436 0.01315745 -0.021610448 -0.015881697
000150 56 aa a0 3c c7 d2 4d 3c da 06 29 3c c0 cd 4f bc
       0.019612473 0.01256246 0.010316575 -0.012683332
000160 aa 7a 1f 3d e1 58 84 3c 42 44 00 bc c8 17 e4 3c
       0.03893534 0.016155662 -0.007828774 0.027843371
000170 17 28 a8 3c 3e 24 ba 3c 37 1c c9 bb eb fa 14 bc
       0.020526929 0.02272236 -0.0061373967 -0.009093027
000180 59 33 de bc 13 2f 03 bb c1 3a 1c bd 61 7b 08 bd
       -0.027124094 -0.0020017072 -0.03814197 -0.03332079
000190 f2 0f 05 bd b8 31 b3 bc c0 36 99 3c 6a af 31 3d
       -0.03248591 -0.021874294 0.018702865 0.04338018
0001a0 f0 88 fd 3c 3d 85 9a bc 69 31 c3 3b 19 06 ab 3c
       0.030949086 -0.018862361 0.005956818 0.020876931
0001b0 ff 48 e4 3c 41 e1 42 3c 75 cd e5 bc 53 0f 49 bc
       0.027866838 0.011894525 -0.028052071 -0.01227172
0001c0 69 9e 00 3d 59 a1 b3 3c de 0c 0b bd 6b 9b 71 bc
       0.03140107 0.021927522 -0.033947818 -0.014746527
0001d0 a4 b7 bd 3c 5f c4 85 bc 7d 04 9b 3c 27 ad 40 3c
       0.023158856 -0.016328989 0.018923039 0.011760033
0001e0 e4 dd 81 bc 02 b5 e4 3b 04 c7 34 bb 42 0c 94 bc
       -0.015852876 0.0069795856 -0.0027584443 -0.018072251
0001f0 99 59 bf 3c 78 87 b0 bc 89 b9 34 bd 0c 68 1b 3d
       0.023358153 -0.021548972 -0.044122253 0.037941024
000200 7c 7e 4a bc 7c e4 c7 3d fb 0f fe 3b c9 20 98 3b
       -0.012359258 0.09760377 0.00775337 0.00464258
000210 0b af 28 bb 8d ea 15 bd b2 75 86 bc a1 4b 1f 3d
       -0.00257391 -0.03660064 -0.016413543 0.038890485
000220 bb 85 e1 3c b8 f0 87 3d db 9c 68 3d ca 06 27 3d
       0.027529588 0.0663771 0.056790214 0.04077796
000230 71 2e 74 bb a7 57 08 3c 34 5f 59 37 85 7e 07 bb
       -0.0037259127 0.008321679 1.2956374e-05 -0.0020674777
000240 89 a1 31 3c 4f 6f bc bc 2d bc 8c 3c 29 94 c2 bb
       0.010841736 -0.023002295 0.017179573 -0.005938072
000250 f1 9a 3b bc 83 36 ed bc ee 67 0a bc 6d 06 79 bb
       -0.011450515 -0.028956657 -0.00844763 -0.0037998215
000260 79 51 1c bc dc f2 eb 3c 49 f6 1e bd 80 00 c4 3c
       -0.009540909 0.028802328 -0.038809095 0.02392602
000270 72 f8 39 3c e9 6e 92 bc f7 e5 28 bc 92 e6 80 3c
       0.011350738 -0.017875152 -0.010308734 0.015734944
000280 6a 8f 01 3c d1 07 30 bc ee 04 2a 3c db e2 be 3b
       0.007907728 -0.010744051 0.010377152 0.005825383
000290 b8 e8 23 3b 38 07 d9 3b 03 15 be bc 6a dd 1f bc
       0.0025010537 0.006623175 -0.023203379 -0.009757379
0002a0 74 01 b8 38 e2 6d ca 3c 90 9a f9 bc dc b6 a6 bc
       8.7740744e-05 0.0247106 -0.030469209 -0.020350866
0002b0 e2 f3 43 3c 57 01 a7 3c 3a 6e 21 3c 76 5e 8b 3c
       0.011960002 0.020386381 0.00985294 0.017012816
0002c0 f2 ef ee bc a7 19 7d bb d3 96 f4 3b 2e 82 89 bd
       -0.02916715 -0.0038620026 0.0074642687 -0.06714283
0002d0 4c d4 14 3c e5 10 b9 bd 5d 77 88 bc 97 45 89 3d
       0.009083819 -0.090364255 -0.01665848 0.06702726
0002e0 b2 ab 18 bc a0 67 7f bd 1b 6d 99 bd bf e5 81 bd
       -0.009318279 -0.062354684 -0.07491513 -0.06342649
0002f0 2f cb 84 bc 9f 5f 89 bc 0c 01 ef bc 45 32 40 3d
       -0.016210167 -0.016769229 -0.029175304 0.04692294
000300 4d 3b b9 3d 09 05 27 3d 7b 9f 15 bc d8 38 f0 bd
       0.09044514 0.040776286 -0.009132261 -0.11729592
000310 c9 c6 c5 bd f9 4e 97 bc 84 90 0a bd 44 78 29 bd
       -0.09657056 -0.018470274 -0.033829227 -0.04137446
000320 d5 36 ef bc 99 92 2b bd b9 52 28 bd f0 f7 74 3b
       -0.02920095 -0.041887853 -0.041094515 0.0037379228
000330 6c 8c 6a bc 59 88 0e 3c 87 32 f8 3a 3f 0e 3e bc
       -0.014315706 0.0086995 0.0018935957 -0.011600076
000340 f0 3f 51 3c c0 a3 76 ba c3 15 62 bc 16 69 8b 3c
       0.012771592 -0.0009408556 -0.013799134 0.017017882
000350 e1 df bd 3c fa 4b 46 3c c4 6d 99 bc e4 7a 01 3d
       0.023178043 0.012103075 -0.018729098 0.03161134
000360 07 c0 89 3c ef 19 ad 3c 17 fd 13 bc 8f a9 fc bc
       0.016815199 0.02113053 -0.009032509 -0.03084257
000370 03 37 d8 bc 9d fd 4c bb 7b 9e 14 bc df 16 bb bc
       -0.02639342 -0.0031279095 -0.009070988 -0.022838054
000380 31 5a 39 3c b2 3d 51 bb d0 f6 bc 3b 41 0c bf bb
       0.011313007 -0.0031927642 0.005766727 -0.005830318
000390 a4 35 bd bb 96 4a df bb f9 93 9f 3c bb 03 38 3c
       -0.0057742167 -0.0068143113 0.019479739 0.011231358
0003a0 e6 b3 1a 3d db a5 21 3d 51 98 5f bc af 70 4b bc
       0.03776922 0.039464813 -0.013647155 -0.012417003
0003b0 c3 ab f2 39 d2 93 74 3b 00 2f 50 3c e4 23 87 ba
       0.0004628581 0.0037319553 0.012706518 -0.0010310379
0003c0 be 3c 24 bd b7 b7 4d bc 8f 76 46 bc d1 95 52 bd
       -0.04009699 -0.012556008 -0.0121132275 -0.051412407
0003d0 f6 3d 3a bc 97 5f e5 3a 2f fd 86 3b 67 81 1d bb
       -0.011367312 0.0017499801 0.0041195373 -0.0024033429
0003e0 cc 15 db bc e6 2b 9e bb b3 b1 7a bc 08 4e 8e 3c
       -0.026743792 -0.0048270104 -0.015301156 0.017371193
0003f0 29 35 19 3c 21 b8 83 bc e1 7b 4c bc 15 35 4b bd
       0.009351053 -0.01607901 -0.012480707 -0.04961117

conv2.bias f4 [32]
000000 76 c5 b7 bb 82 f6 08 bd e5 94 1d bb 8f 94 b8 3c
       -0.005608256 -0.033438213 -0.0024045047 0.022531776
000010 6d 48 cf 3c 66 bd a5 3c 83 08 4d bc 48 29 08 3c
       0.02530309 0.020231914 -0.012514236 0.0083106235
000020 cf d8 eb 3b ec 07 52 bc ce 27 6f ba 32 03 38 3c
       0.0071974765 -0.012819272 -0.0009123058 0.011231231
000030 89 61 c6 3c 82 1a 93 3c b4 70 9d 3c 2c 38 9a 3c
       0.02421643 0.017956976 0.01921878 0.018825613
000040 21 4f 74 bc 70 b3 9c bc b7 56 97 3c 4d 1d a4 3c
       -0.014911444 -0.019128531 0.018473966 0.020033503
000050 a9 2b 48 3d 37 90 6f bc 97 bd 80 bc 12 7a 93 3c
       0.048869763 -0.014621786 -0.015715403 0.018002544
000060 d8 d5 54 3c 1b ab 4a 3c e6 4c 96 3c eb 27 05 3d
       0.012990437 0.012369896 0.018347215 0.032508772
000070 c4 4f 11 3c 97 b0 75 bc 48 60 25 3c 8c 3d 4f ba
       0.008869115 -0.014995716 0.010093756 -0.00079055945

conv3.weight f4 [1, 32, 5, 5]
000000 1b 98 93 3c ad 7f 97 3c 9c 30 a2 ba f7 c1 f2 3c
       0.018016865 0.018493498 -0.0012374106 0.029633505
000010 28 e5 0d 3d 5d 5e d0 bc b0 2d 09 3c d1 34 04 bd
       0.03464237 -0.02543562 0.008372709 -0.032276932
000020 f9 3a 6b 3b 36 e1 78 3c 42 9e ba bb ce 98 e2 3c
       0.0035893305 0.015190413 -0.0056951353 0.027660754
000030 0c bd 3f 3c e1 29 16 bd c1 99 07 bc eb 52 92 bc
       0.011702787 -0.036661033 -0.008276404 -0.017861804
000040 6a 49 00 bd 3c 23 aa ba 79 13 0a bd dc 92 b2 3c
       -0.031320013 -0.0012980471 -0.033709977 0.021798544
000050 56 b3 05 3c 24 53 6c 3c 3a 73 c2 3c cc 3c 02 3d
       0.008160433 0.014424119 0.023736585 0.03179626
000060 a7 1f 61 bc a0 fb 8d 3a 37 2a 18 bd d7 40 f2 3b
       -0.013740457 0.0010832436 -0.037149634 0.0073929834
000070 1a e4 d9 3c 1a 4f cc bc cf ed a3 3c 37 23 9f bc
       0.026598025 -0.024940062 0.020010857 -0.019425971
000080 e9 ff 27 3c 5d 6e 83 bc 26 04 9a 3b 5c 9e 0c bd
       0.010253885 -0.016043836 0.0047002016 -0.03433071
000090 1f 77 c6 3c 69 ca 10 bc 71 0d 00 3d ba b4 83 bc
       0.024226723 -0.008837321 0.03126282 -0.016077388
0000a0 55 60 82 3c 2d 34 9f bc be a7 95 bc 6e 68 18 bc
       0.015915075 -0.019434059 -0.018268462 -0.009302242
0000b0 ce bd 79 3c f2 2e 79 3c e5 80 a2 3c 8b b3 e7 bb
       0.015243007 0.015208947 0.019836852 -0.0070709637
0000c0 87 9a 9d 3b b6 9a a6 3c b4 47 62 bc 6c 40 3e bc
       0.004809681 0.020337444 -0.013811041 -0.011612039
0000d0 0a 84 dc 3c 33 48 f4 bc af 1f 8c bc 74 8d a0 bc
       0.02691843 -0.029819584 -0.017104952 -0.0195987
0000e0 34 89 f3 bb df d6 d4 bc d4 00 07 3c 58 34 ca bc
       -0.0074321274 -0.025981365 0.0082399435 -0.024683163
0000f0 5e 9c 7e bc 9c ed 0c bd 4f 09 c1 3c b4 77 b1 bc
       -0.0155402105 -0.03440629 0.023564009 -0.021663524
000100 94 c1 8a bb fe dc ac bc 1b 3b a1 bb 17 88 dc bb
       -0.004234502 -0.021101471 -0.004920376 -0.0067300904
000110 3c 81 3c bc 63 68 04 ba 85 33 76 3c 0d 37 ee 3c
       -0.011505421 -0.0005050955 0.015026932 0.029078985
000120 f7 fc d6 3c de ee d6 bc 9a 19 86 bb f5 02 6c bd
       0.02624367 -0.026236948 -0.0040924074 -0.057620008
000130 12 bf c9 bc 72 01 26 bc 5b 05 2e bc 98 65 a8 bb
       -0.024627242 -0.0101321805 -0.010621394 -0.005139064
000140 25 31 02 3d ad 73 9a bb 65 ba 01 bd 5e 39 c7 bb
       0.03178515 -0.0047134967 -0.0316719 -0.0060798367
000150 17 b7 af 3c 66 58 49 3d a2 18 31 3d 9f 1d a0 3d
       0.021449609 0.04915657 0.043236382 0.0781815
000160 b8 17 1d 3d ea 23 bd bb a4 49 00 bd ea f2 41 bd
       0.038352698 -0.0057721036 -0.03132023 -0.0473508
000170 a1 1b 15 bd 35 06 3e 3a a4 2b ad bc 1d 88 e3 3b
       -0.036403302 0.000724885 -0.021138974 0.006943716
000180 19 b1 bc 3a cb f9 b7 bc e1 30 88 bc 50 34 73 3b
       0.0014396041 -0.022457978 -0.01662487 0.0037110038
000190 21 f3 b3 3b 1b 00 ef 3b e1 7f 63 3c 97 5b 6c bb
       0.0054916297 0.0072937137 0.013885469 -0.0036065334
0001a0 62 55 5c 3b 58 91 02 bc 05 9a 01 3d f4 16 b8 b9
       0.0033620228 -0.007969223 0.031641025 -0.00035112316
0001b0 92 44 c9 3c 5c a8 b0 bc 40 6a e4 bc 5a e0 8b 3b
       0.02456883 -0.021564655 -0.027882695 0.004268688
0001c0 a6 05 05 bd ce 36 a5 3c a5 24 a2 3c bf 63 e9 3c
       -0.03247609 0.020167734 0.019792864 0.028489945
0001d0 f0 f5 01 3d 9d 65 36 3c 21 0e 56 3c 19 73 c3 bb
       0.031728685 0.011132625 0.013064892 -0.0059646484
0001e0 ed 47 02 3d a1 68 6c 3c 1b cb 10 bc ac ba 07 bd
       0.031806875 0.014429242 -0.008837487 -0.03313701
0001f0 b9 50 68 3b a5 9e 86 3b b8 11 d0 3c 02 8e d8 3c
       0.0035448505 0.0041082674 0.025399074 0.026434902
000200 eb 4b 28 3d 9a 4f 82 b9 67 d5 5d 3c 25 f9 ec bc
       0.041088026 -0.0002485484 0.013539649 -0.028927395
000210 46 45 be 39 b2 ae eb 3b a4 c0 d0 bc 4b af 8a bc
       0.00036291237 0.007192456 -0.025482483 -0.01692929
000220 a6 eb 89 3c ae d4 a1 bc b1 0e 3d bc aa 84 c8 3c
       0.016835999 -0.019754734 -0.011539147 0.024477322
000230 f2 5f 01 3d f1 a8 bc bc 2a 50 b3 bc 73 29 00 3d
       0.03158564 -0.023029776 -0.021888811 0.03128953
000240 e4 a9 2f bc ec 01 0e 3c 5c 6c b1 bc fc bd 4a bc
       -0.010721657 0.00866745 -0.021658115 -0.012374397
000250 c5 bf eb 3c 8d 7f dc bc e1 ca 48 3c ce 38 4a 3a
       0.028777966 -0.02691629 0.012255401 0.0007714153
000260 1c 1d 34 3c 80 a3 9b 3a 7e be 07 bc 66 99 51 3c
       0.010993268 0.0011874288 -0.008285163 0.012792921
000270 ed a4 19 3c 6a a4 69 bb dd 54 c1 3c 10 1c 01 3d
       0.0093777 -0.0035650977 0.023600036 0.031520903
000280 df d4 9a 3c 4e 5b 20 bc 85 b9 d6 bc 9d 84 cb bc
       0.018900333 -0.009787394 -0.02621151 -0.024843508
000290 76 91 96 bc f4 29 4a bb fd b9 95 3c 9f 0b 26 3c
       -0.018379908 -0.003084776 0.018277163 0.010134607
0002a0 8f ad 01 3d f7 dd 10 bd 83 b3 a4 bc 78 4b 03 3d
       0.03165966 -0.035367932 -0.02010513 0.032054394
0002b0 b7 ad d1 bc bc b9 b7 3c 41 54 9b 39 60 31 82 bb
       -0.025595529 0.022427432 0.00029626678 -0.003973171
0002c0 18 9e cd 3c 0c ef df 3c da 4c 71 bc 31 b1 16 bb
       0.025099799 0.027335666 -0.0147277955 -0.0022993798
0002d0 68 b0 07 3d de de f1 3c c7 4c 69 3c f4 b6 b0 bc
       0.03312722 0.029525217 0.014239497 -0.021571614
0002e0 3d f4 c4 bc 56 30 d1 3c 99 7a a8 3c 36 71 78 bb
       -0.024042243 0.025535744 0.020566272 -0.0037909276
0002f0 e2 b8 0b 3d e2 59 ca 3c bd 01 fa bb 91 50 80 3c
       0.034111865 0.024701063 -0.0076296018 0.015663417
000300 64 9d 0d 3d e3 dc a7 3c 91 10 8c bc e4 b2 08 bd
       0.034573928 0.02049107 -0.017097743 -0.03337373
000310 5d 04 33 3c f1 6b 5b 3c de 25 0f bd 1c 20 a8 3b
       0.010926333 0.013392434 -0.034948222 0.005130781
000320 c0 90 b2 bc da 5d 68 3c 91 72 8d bc dc 75 dc bc
       -0.021797538 0.014182532 -0.017266544 -0.026911668
000330 67 44 0b 3d bb 41 ad 3c d2 3a 6a bc ec ee d0 bc
       0.03400078 0.021149507 -0.01429625 -0.025504552
000340 81 d0 c3 3c 9a de b4 bc 41 b5 2b bc cf 15 81 bc
       0.023903133 -0.022078801 -0.010480226 -0.01575747
000350 e5 a3 2c 3c ac e7 13 bb e9 4b 57 3c 04 21 a2 bc
       0.010537122 -0.0022568507 0.013140657 -0.019791134
000360 ab cb d5 3c ea 04 86 3b 82 07 c8 bc 02 97 d3 bc
       0.026098093 0.0040899413 -0.024417643 -0.025828842
000370 d3 02 b0 3c 3e 21 7a bc 05 38 22 3c 96 17 6e 3a
       0.021485722 -0.015266715 0.009901051 0.0009082494
000380 f9 82 86 bc 26 bc 08 3d cf fb 6d bc 3b f5 75 3c
       -0.016419875 0.033382557 -0.014525368 0.015012081
000390 59 bc b1 3c 52 32 31 3c 62 9c 11 3d eb d2 c9 bc
       0.021696256 0.01081522 0.03554953 -0.024636706
0003a0 3a 16 aa 3b 65 8e e5 38 43 19 83 3c 81 8a 7e bc
       0.005190638 0.00010946094 0.016003257 -0.015535952
0003b0 d6 02 c6 bc f5 b3 f0 bc 7f 11 bf 3c c9 2e 0f 3c
       -0.024171274 -0.029382685 0.023323772 0.008739182
0003c0 bb 96 0b bd fe 28 69 bb 00 49 00 bd 22 af fe bc
       -0.034079295 -0.0035577412 -0.03131962 -0.03108937
0003d0 08 8e b8 3c be b7 83 bc bd cc b9 3c b2 0f 0a 3d
       0.022528663 -0.016078826 0.022680635 0.033706374
0003e0 e0 0f 80 3b e2 c9 6c 3c f1 f0 fc bc 60 13 76 bc
       0.0039081424 0.0144524295 -0.030876609 -0.015019268
0003f0 bd 10 00 bb 10 e5 fb 3b a6 46 71 3c 96 12 9c 3c
       -0.0019541227 0.0076872185 0.014726317 0.019051831
