output_x01/x2/epoch_121.pth (torch, 231335 bytes, 5 tensors)

conv1.weight f4 [64, 1, 9, 9]
0	0xbd2c6537	-0.042088713
1	0x3c0e2d87	0.008677847
2	0xbd4b0f05	-0.04957487
3	0x3d5388c6	0.05164411
4	0xbdadb89e	-0.084824786
5	0x3db94075	0.09045497
6	0xbd92b35f	-0.071631186
7	0xbda2236a	-0.07916911
8	0xbd75ef0d	-0.06004243
9	0x3d467620	0.048452497
10	0xbd24b7c1	-0.040214304
11	0x3d3a4e50	0.04548484
12	0xbdb93310	-0.090429425
13	0xbd80aa99	-0.06282539
14	0xbd01594f	-0.031579312
15	0xbc4b8b63	-0.012423369
16	0xbda4438c	-0.08020696
17	0x3da1807c	0.078858346
18	0xbcd959d5	-0.026532093
19	0x3d141f96	0.036162935
20	0x3da1b8c1	0.07896567
21	0x3cc8b073	0.0244982
22	0x3d23c3c5	0.039981622
23	0x3df46591	0.11933435
24	0xbd173d66	-0.03692379
25	0x3d3a8e71	0.045546
26	0xbd2ae371	-0.04172081
27	0x3da96f88	0.08273226
28	0x3db298d5	0.08720557
29	0xbdd91643	-0.10599949
30	0x3dd3b298	0.103367984
31	0x3d877bbe	0.06615399
32	0x3d5e36e5	0.05425157
33	0x3d65d31c	0.056109533
34	0x3ddd1fa7	0.10797053
35	0xbb9dd51e	-0.0048166653
36	0xbdbc87bc	-0.09205577
37	0xbd0856b3	-0.033285808
38	0xbda18587	-0.078867964
39	0x3c9e2af4	0.019307591
40	0xbc551399	-0.013005161
41	0xbd803f4c	-0.06262073
42	0xbbc153f9	-0.005899903
43	0x3df04451	0.1173178
44	0x3a804e3b	0.000978894
45	0x3c03d32f	0.008045956
46	0xbc5aa8d0	-0.013345912
47	0x3ca812d9	0.0205168
48	0x3dd9b7c8	0.106307566
49	0x3d8931a1	0.06698919
50	0x3d01b299	0.031664465
51	0x3cd13050	0.025535733
52	0x3d08dffe	0.03341674
53	0x3d4f9186	0.05067589
54	0xbb6de45a	-0.0036299438
55	0xbdcff4ff	-0.10154151
56	0xbd8b75f1	-0.06809605
57	0x3dd17c1c	0.1022875
58	0x3b9fe69b	0.0048797852
59	0xbdccd861	-0.100022085
60	0x3c971c95	0.018446246
61	0x3dc8c9ad	0.098040916
62	0xbdd06906	-0.10176282
63	0xbd75e8f9	-0.060036633
64	0xbd17a4d3	-0.037022423
65	0x3c263563	0.010144564
66	0xbc7d5056	-0.015461048
67	0xbc25975f	-0.01010689
68	0xbde252ea	-0.11050971
69	0x3d762a11	0.06009871
70	0x3de16b67	0.110068135
71	0x3d989358	0.074499786
72	0xbd868e14	-0.06570068
73	0xbda799bb	-0.08183619
74	0x3d3fe28c	0.04684691
75	0x3b033fbd	0.0020027005
76	0x3d38aa8d	0.045084525
77	0xbddcd259	-0.10782308
78	0xbb6e8667	-0.0036396028
79	0x3dabdb4f	0.08391439
80	0x3d66e0ad	0.05636661
81	0xbb841c35	-0.004031683
82	0x3c272a49	0.010202953
83	0xbc88eb0e	-0.016713645
84	0xbd8e90e6	-0.06961231
85	0xbd4632b0	-0.048388183
86	0xbda1f308	-0.07907683
87	0x3dacc5a9	0.08436138
88	0x3d51816c	0.051148817
89	0x3cd9379b	0.026515773
90	0xbdc43584	-0.0958052
91	0x3da36721	0.07978655
92	0x3d0b2809	0.033973727
93	0x3d8ce0e8	0.06878835
94	0xbd391cfb	-0.045193654
95	0x3cbdae62	0.023154441
96	0x3de3603f	0.11102342
97	0x3d9eafa7	0.07748347
98	0x3da4c074	0.0804452
99	0xbce3b7a6	-0.027797531
100	0x3da766ff	0.08173942
101	0xbdbdb90d	-0.09263811
102	0xbbc82e04	-0.006109001
103	0xbd861cd1	-0.06548465
104	0xbccf730f	-0.025323419
105	0xbcd133fe	-0.025537487
106	0x3c674f63	0.014118048
107	0x3dd30831	0.10304297
108	0x3d52c91f	0.051461335
109	0xbb4a2d4c	-0.0030849753
110	0x3daa22e1	0.08307434
111	0xbd7594f6	-0.059956513
112	0x3d7a680e	0.06113439
113	0xbc018598	-0.007905386
114	0xbc9f83be	-0.019472
115	0x3c500fbf	0.012699067
116	0xbdb9ba12	-0.09068693
117	0x3bde4eea	0.0067843096
118	0x3d06a4ab	0.032871883
119	0x3dcecaf2	0.100973025
120	0xbd13bc6d	-0.03606837
121	0x3d285968	0.04110089
122	0x3de115b4	0.10990468
123	0xbd5a8477	-0.053348985
124	0x3dce9891	0.100876935
125	0xbd8a445e	-0.06751321
126	0x3d4f04e0	0.05054176
127	0x3d20d585	0.039266128
128	0x3ce1a45d	0.027544195
129	0x3da7b70a	0.08189209
130	0xbd0cbb94	-0.034358576
131	0x3d25f759	0.040519092
132	0x3b1d4f74	0.0024003657
133	0xbda86edd	-0.082242705
134	0xbd0ad33a	-0.033892848
135	0xbd9c35de	-0.07627462
136	0x3d18f7e2	0.037345774
137	0xb96f6738	-0.00022831268
138	0x3b3a68c5	0.0028443795
139	0xbccc31c3	-0.024926072
140	0x3bd0de90	0.006374188
141	0xbd195aff	-0.037440296
142	0x3cfdfb09	0.031003492
143	0x3dcf8a5f	0.10133814
144	0x3c96200f	0.018325834
145	0xbd5bd3b9	-0.05366871
146	0xbd886eee	-0.06661783
147	0x3b9e936c	0.0048393514
148	0xbda34f4f	-0.07974111
149	0xbda7a6e1	-0.081861265
150	0xbda0e482	-0.078560844
151	0xbd2bdc03	-0.041957866
152	0x3a98e674	0.001166536
153	0x3dbafac9	0.09129865
154	0x3d517e74	0.051145986
155	0x3dcd05af	0.1001085
156	0xbd7d3904	-0.061821952
157	0x3c599d46	0.013282126
158	0xbdcbb6de	-0.099469885
159	0x3d726d5e	0.059186332
160	0x3ca0e1d7	0.019638939
161	0x3dc83fa5	0.09777764
162	0xbd95fa88	-0.07323176
163	0x3dc9f27a	0.09860702
164	0x3de40d44	0.11135343
165	0x3defdb2a	0.11711724
166	0x3d5128f7	0.051064458
167	0x3e071698	0.13192213
168	0x3dc43b69	0.09581644
169	0x3dbda5ba	0.092601255
170	0xba76e151	-0.000941773
171	0xbda077da	-0.0783536
172	0x3c3ae0c3	0.011406126
173	0x3d2c1ca8	0.042019516
174	0xbd5751c0	-0.052568197
175	0xbd2f4c15	-0.042797167
176	0xbdacfa37	-0.08446162
177	0xbc6a8017	-0.014312766
178	0x3de21762	0.11039616
179	0x3cad30c1	0.021141412
180	0x3b879161	0.0041372036
181	0x3c87e94b	0.016590735
182	0x3db0bd02	0.086298004
183	0xbd9f512f	-0.077791564
184	0xbd8e011c	-0.06933805
185	0xbcd5bf81	-0.026092293
186	0xbd37d951	-0.044884983
187	0x3d9f54b1	0.077798255
188	0x3db4d6b0	0.08830011
189	0xbdbafc38	-0.09130138
190	0xbda54e17	-0.08071535
191	0xbdbd43e4	-0.09241465
192	0x3d8a360f	0.06748592
193	0x3df15abd	0.11784885
194	0xbd957119	-0.07296962
195	0xbd130c8d	-0.03590064
196	0x3d751f20	0.059844136
197	0xbd55f535	-0.0522358
198	0x3dd3fa60	0.103504896
199	0x3d1648d4	0.036690548
200	0xbc7d6701	-0.015466453
201	0x3d0724b8	0.032994002
202	0x3d8413bd	0.06449077
203	0xbccdac0c	-0.025106452
204	0xbd95e35d	-0.07318757
205	0x3ca8ad13	0.02059034
206	0x3ca7dd41	0.020491244
207	0x3ab2def8	0.0013646772
208	0xbc22c3ea	-0.009934405
209	0x3db28fd6	0.08718841
210	0xbc767b20	-0.015044004
211	0x3afe1bcf	0.001938695
212	0x3d6b4f32	0.057448573
213	0xbd4a4501	-0.049382214
214	0x3d44ec2a	0.048076786
215	0xbc8192c9	-0.015817063
216	0x3d2a69c5	0.041604776
217	0xbd9b3ab8	-0.07579559
218	0x3c2e59ac	0.010641497
219	0x3ca76d0e	0.020437744
220	0xbdb110b5	-0.08645765
221	0xbda15e7a	-0.07879348
222	0x3d644c41	0.055736784
223	0xbcb74e4f	-0.022376208
224	0x3d85dcc3	0.065362476
225	0xbdd26a5b	-0.10274192
226	0xbd6bba21	-0.057550553
227	0xbdac7ba2	-0.084220186
228	0x3d715fe1	0.058929328
229	0x3c88e418	0.016710326
230	0xbc087fbe	-0.008331237
231	0xbc1b0f5a	-0.009464109
232	0xbda7dd2b	-0.08196481
233	0x3d083ae8	0.033259302
234	0x3c1c3a15	0.009535332
235	0xbd9092cc	-0.07059249
236	0x3d65f17b	0.056138497
237	0x3c2711d6	0.0101971235
238	0xbdb51b69	-0.08843119
239	0x3d964b9f	0.07338642
240	0x3d8a8aad	0.067647316
241	0xbc609ae9	-0.013708808
242	0xbd8c2029	-0.068420716
243	0x3b52dd7f	0.003217548
244	0x3da86d98	0.08224028
245	0x3dce4999	0.100726314
246	0xbdae084e	-0.08497678
247	0xbd596f44	-0.053084627
248	0x3dad3384	0.084570915
249	0x3d599f95	0.053130705
250	0x3d839f9c	0.064269274
251	0xbd812727	-0.06306296
252	0x3dc48f19	0.09597606
253	0xbdbfaa01	-0.093585975
254	0xbbcbf386	-0.0062240986
255	0x3b685f2b	0.0035457115

conv1.bias f4 [64]
0	0xbcd39779	-0.025829064
1	0xbd889a81	-0.06670094
2	0x3c8f3948	0.017483369
3	0xbd838be1	-0.06423164
4	0x3d33fbdf	0.043941375
5	0x3c85e487	0.016344322
6	0x3d7868b6	0.060646735
7	0x3b76cce3	0.0037658743
8	0x3e021de9	0.12706722
9	0xbd522623	-0.0513059
10	0x3c3abcb3	0.011397528
11	0x3bb60010	0.0055542067
12	0xbd71b8a8	-0.059013993
13	0x3df19537	0.117960386
14	0x3d9b76c5	0.07591013
15	0x3d855a7b	0.065113984
16	0xbcf9af1f	-0.030479012
17	0xbd813e1e	-0.06310676
18	0x3d7bec4e	0.061504655
19	0x3d295b61	0.04134691
20	0x3c9d8641	0.019229056
21	0xbc4ac2df	-0.012375562
22	0xbd937af6	-0.07201187
23	0x3d90d101	0.07071114
24	0xbcc21a87	-0.02369429
25	0x3db12c80	0.08651066
26	0xbbd600ad	-0.0065308423
27	0xbd0444a3	-0.03229202
28	0x3cffa7eb	0.031208
29	0x3d35cb52	0.044383354
30	0x3dbbce03	0.09170153
31	0xbbe0363c	-0.0068424027
32	0x3d4801b1	0.048829738
33	0x3d879377	0.066199236
34	0xbc509324	-0.012730394
35	0xbdcc9c1d	-0.09990714
36	0xbc136274	-0.008995641
37	0x3db0bdc6	0.086299464
38	0xbd1f56f8	-0.0389013
39	0x3d164762	0.03668917
40	0xbdc70667	-0.09718018
41	0xbb87fa46	-0.004149708
42	0x3ddead14	0.10872856
43	0x3b2839fa	0.0025669322
44	0x3d142059	0.03616366
45	0x3d111404	0.03541948
46	0xbc26c3b5	-0.010178496
47	0xbc031ef5	-0.008002986
48	0xbce33461	-0.027734937
49	0xbcd66995	-0.026173392
50	0xbc8c1cfb	-0.017103663
51	0x3c021964	0.007940624
52	0x3d7e3c81	0.06206942
53	0x3a76b36c	0.0009410891
54	0x3b968119	0.0045930264
55	0xbaa1c9cb	-0.0012343464
56	0x3dc821b7	0.097720556
57	0xbd4179d0	-0.04723531
58	0x3b282bf9	0.0025660975
59	0x3deb0de6	0.1147726
60	0x3de774e4	0.11301592
61	0x3d09c6ca	0.033636846
62	0xbd2b42e2	-0.04181183
63	0xbdb2057b	-0.086924516

conv2.weight f4 [32, 64, 5, 5]
0	0xba5c06d9	-0.00083933544
1	0x3bb1f9c4	0.0054313857
2	0x3c7f93f4	0.01559924
3	0xbc10bffb	-0.008834834
4	0xbcbb3ae1	-0.022855224
5	0xbc87c053	-0.0165712
6	0xbca5a576	-0.0202205
7	0xbc75a5aa	-0.014993111
8	0xbd1d652f	-0.038426574
9	0xbd516ac6	-0.051127218
10	0x3cb03bc8	0.02151288
11	0xbb4dd7a5	-0.0031409052
12	0x3b46bf6a	0.0030326494
13	0xbcdc3805	-0.026882181
14	0xbc98d00c	-0.018653892
15	0x3b22aeb5	0.0024823372
16	0x3c91485f	0.017734705
17	0x3b0d80a0	0.002159156
18	0xbb6b8591	-0.0035937766
19	0x3bec768b	0.00721628
20	0x3c54d97c	0.012991305
21	0x3cd24476	0.02566741
22	0xbc377675	-0.011197676
23	0x3cb50434	0.02209673
24	0x3a0ffb34	0.0005492449
25	0xbcb51bde	-0.022108015
26	0x3c8857cc	0.016643427
27	0x3c295197	0.010334394
28	0xbba8146f	-0.005129389
29	0xbcb4e876	-0.022083502
30	0xbc6db360	-0.014508098
31	0x3cb711f4	0.022347428
32	0x3c0215cb	0.007939766
33	0x3c0092b2	0.007847475
34	0xbb030e83	-0.0019997663
35	0x3b419fc4	0.002954469
36	0xbc112ec5	-0.008861248
37	0x3c018b18	0.007906698
38	0xbb3c3f9d	-0.002872444
39	0x3c6d633b	0.01448899
40	0xbba8f648	-0.005156312
41	0x3bcff4e9	0.0063463342
42	0xbbf30c23	-0.0074172183
43	0x3bd9c5dd	0.0066459016
44	0xbb38902c	-0.0028162105
45	0xbd014b32	-0.031565852
46	0x3c3be576	0.011468282
47	0x3c6d2eef	0.014476522
48	0x3caf30f1	0.021385642
49	0x3c5a93be	0.013340889
50	0xb8e86316	-0.00011081078
51	0x3d36483d	0.044502486
52	0x3cca34f1	0.024683448
53	0x3c27e249	0.010246822
54	0xbb059ee6	-0.00203889
55	0xbb9e6e65	-0.0048349374
56	0x3d0ebadb	0.034846168
57	0x3d3b923d	0.04579376
58	0x3c78dc7c	0.015189286
59	0xba2c8416	-0.00065809616
60	0xba80af61	-0.0009817892
61	0xbc1fba24	-0.009748969
62	0xbcafac7d	-0.021444554
63	0xbbd2f8c0	-0.0064383447
64	0xbcc1b81f	-0.023647366
65	0xbc9f0d22	-0.019415442
66	0x3bfe4df8	0.0077607594
67	0x3b9402ae	0.004516921
68	0x3c24a44a	0.010048935
69	0x3c022c39	0.007945114
70	0x3c269f17	0.010169766
71	0x3cdeaf43	0.02718318
72	0x3c0faa00	0.0087685585
73	0x3a99ece5	0.0011743574
74	0x3cbbaeed	0.02291056
75	0x3c24ee94	0.010066647
76	0xbc891029	-0.016731339
77	0xbc320392	-0.010865109
78	0xbc8eafd8	-0.017417833
79	0xbcadf156	-0.021233242
80	0x3b968845	0.0045938813
81	0x3cab9e9d	0.020949656
82	0xbc908680	-0.01764226
83	0xbc825730	-0.015910715
84	0x3ca4388e	0.020046499
85	0x3c8799f7	0.016552908
86	0x3c6dc2ca	0.014511773
87	0xbc67d4fb	-0.0141499
88	0x3cff45b6	0.03116117
89	0x3c7065bb	0.014672692
90	0xbbc035a5	-0.00586577
91	0x3cdf42dd	0.027253563
92	0x3ca1e55b	0.019762686
93	0x3cbb30ec	0.022850476
94	0xbbea942c	-0.0071587767
95	0xbabf95ae	-0.0014616752
96	0xbc9f1a2b	-0.019421658
97	0x3bd32137	0.0064431685
98	0xbcc839cd	-0.024441624
99	0xbce83df3	-0.028349852
100	0xbcdac8fc	-0.026707165
101	0xbc844f61	-0.016151132
102	0x3c87a2e0	0.016557157
103	0x3d08910a	0.033341445
104	0x3ce66336	0.02812348
105	0xbc1f78ce	-0.009733392
106	0x3ba111ae	0.0049154377
107	0x3c99f912	0.018795524
108	0x3ccac37a	0.024751414
109	0x3c444a90	0.011980668
110	0xbc9c4572	-0.019076083
111	0xbc3724b3	-0.011178183
112	0x3d004ee8	0.03132525
113	0x3c8ddd6b	0.017317494
114	0xbcf7a56b	-0.030230245
115	0xbc5ca0be	-0.013466058
116	0x3ca0a921	0.019611897
117	0xbc44e1af	-0.012016698
118	0x3cc1e7fb	0.023670187
119	0x3cc4dd0d	0.024031186
120	0xbc906934	-0.01762829
121	0x3b992f23	0.0046748086
122	0xbb957133	-0.0045606135
123	0xbc9b1d77	-0.018934948
124	0x3cd94ddd	0.026526386
125	0xbcff3e99	-0.031157779
126	0xbcaaaf5a	-0.020835567
127	0x3c98bb68	0.01864405
128	0xbd0b8e69	-0.03407136
129	0x3d9cbe56	0.07653491
130	0xbc5f48bc	-0.013628181
131	0xbb573212	-0.003283624
132	0x3b215354	0.0024616318
133	0xbca9215a	-0.020645786
134	0xbbbb4d69	-0.005716015
135	0x3cb3d1c8	0.021950617
136	0x3c491093	0.012272018
137	0x3d4ab31b	0.049487215
138	0x3d1ba5be	0.03799986
139	0x3cd3ea22	0.02586848
140	0x3c032d9d	0.0080064805
141	0x3c396765	0.011316155
142	0x3bfad72b	0.0076550446
143	0xbb693efd	-0.0035590522
144	0x3c04815c	0.008087482
145	0xbc5acdc2	-0.013354721
146	0x3c39bcb5	0.011336495
147	0xbb97ad07	-0.0046287808
148	0xbca20eba	-0.019782413
149	0xbcab6ac7	-0.020924939
150	0xbc708bd8	-0.014681779
151	0xb9cc26ae	-0.0003893873
152	0xbc391215	-0.011295815
153	0x3cbc8f34	0.023017503
154	0xbcfcb8c0	-0.030849814
155	0x3cc5452b	0.024080833
156	0x3c8a0c38	0.01685153
157	0xbc8e0af6	-0.017339211
158	0xbc7a44c0	-0.01527518
159	0x3cb2c1dd	0.021820957
160	0x3bc4d897	0.006007265
161	0xbc5c2401	-0.013436318
162	0x3bd754fa	0.0065714093
163	0xbaeaac79	-0.0017904184
164	0x3b2e8fdc	0.002663604
165	0x3c3ff31b	0.011715676
166	0xbc9a0b60	-0.018804252
167	0xbc32dc05	-0.010916715
168	0xba8f7ebd	-0.0010947805
169	0x3cab7d97	0.02093391
170	0xbcbf8b62	-0.023381893
171	0xbc76d2ec	-0.015064936
172	0x3c2a90dc	0.010410514
173	0x3c8af0c8	0.016960517
174	0xbb5d2c13	-0.0033748194
175	0xbc119b6d	-0.008887154
176	0xbc7b9ebb	-0.0153576685
177	0xbd0c5e59	-0.034269664
178	0x3b0161d4	0.0019742148
179	0xbc243e23	-0.01002458
180	0x3c0f925b	0.008762921
181	0xbc463dd9	-0.012099707
182	0x3c108586	0.008820897
183	0x3d0150be	0.031571142
184	0x3cb85b0d	0.022504354
185	0xbd99a459	-0.0750205
186	0xbbf108ee	-0.007355801
187	0xbd052172	-0.0325026
188	0xbd1f06d6	-0.03882488
189	0xbcb9e900	-0.02269411
190	0xbcd25895	-0.025677005
191	0x3ced65f7	0.028979285
192	0x3d993d7d	0.07482431
193	0x3cebb623	0.028773373
194	0xbc17705d	-0.009243098
195	0xbd69548e	-0.056965403
196	0xbdb477d5	-0.08811919
197	0xbc356cfe	-0.011073349
198	0xbcde3f45	-0.027129779
199	0xbcdd8063	-0.027038759
200	0xbccce168	-0.025009826
201	0xbd266b5a	-0.040629722
202	0xbd15eb3f	-0.0366013
203	0x3c15390b	0.009107838
204	0xbb61ec80	-0.003447324
205	0x3ca24cf7	0.01981209
206	0x3bcdb721	0.006277934
207	0xbc373c81	-0.011183859
208	0x3c3ea15e	0.011635153
209	0x3b5a5f2d	0.003332089
210	0xbc15a962	-0.009134622
211	0x3c8fbf6c	0.017547332
212	0x3c960322	0.01831204
213	0x3be5b0ba	0.007009593
214	0xbc9e1bb4	-0.01930032
215	0x3d021018	0.03175363
216	0x3c82ece5	0.0159821
217	0x3c8eebb2	0.017446373
218	0xbc419d65	-0.011817311
219	0xbcfd1d6d	-0.03089782
220	0xbce319ed	-0.027722323
221	0xbab4840d	-0.0013772264
222	0xbbc01dc7	-0.0058629247
223	0xbcb5e62b	-0.02220448
224	0x3c0942c4	0.008377735
225	0xbca2ef7e	-0.01988959
226	0xbc9da104	-0.019241817
227	0xbcc957b1	-0.024577947
228	0xbbe6cd91	-0.0070435484
229	0xbb06838f	-0.0020525192
230	0x3d25d137	0.040482726
231	0x3c844671	0.01614687
232	0x3cf18bf3	0.029485678
233	0x3d041e5d	0.03225552
234	0xbbcb6d7b	-0.0062081194
235	0x3c68ca91	0.014208452
236	0x3c23d40a	0.0099992845
237	0x3c189849	0.009313651
238	0x3c41e7b8	0.011835031
239	0x3b360951	0.002777655
240	0xbd1d9f3c	-0.038481936
241	0xbcc3128c	-0.023812555
242	0xbc9a3316	-0.018823188
243	0xbd28d325	-0.041216988
244	0xbc8ff113	-0.017571008
245	0x3c4c285d	0.012460795
246	0xbb368b80	-0.0027854145
247	0xbc7f7e8f	-0.015594139
248	0xbc29fe96	-0.010375639
249	0x3aadf267	0.0013271094
250	0xbc52c93d	-0.012865362
251	0x3c804dd9	0.01566212
252	0x3c1cff68	0.009582378
253	0xbc982ac7	-0.018575085
254	0xbc2ce554	-0.010552723
255	0xbd533133	-0.051560592

conv2.bias f4 [32]
0	0xbc096fff	-0.008388518
1	0xbccf0e4d	-0.025275374
2	0xba838fb1	-0.001003733
3	0x3cc15bd0	0.02360335
4	0x3cddc0eb	0.02706953
5	0x3cc1f17f	0.023674725
6	0xbc384263	-0.011246297
7	0x3c1e0bac	0.0096463375
8	0x3bebd8cf	0.0071974765
9	0xbc4d9f84	-0.0125502385
10	0x399adcaa	0.00029537576
11	0x3c342dd0	0.010997251
12	0x3cdd1942	0.026989583
13	0x3c83cf0d	0.01608994
14	0x3ba8d28f	0.0051520537
15	0x3bbf9dca	0.0058476673
16	0xbc61f0f0	-0.013790354
17	0xbc97688f	-0.018482475
18	0x3c77951c	0.015111234
19	0x3cbd34d3	0.023096478
20	0x3d23e976	0.040017568
21	0xbbba9f23	-0.00569524
22	0xbb22d685	-0.0024847102
23	0x3c3ece25	0.011645828
24	0x3c838b74	0.016057707
25	0x3c27ffe9	0.010253885
26	0x3c978b93	0.018499171
27	0x3c89b860	0.01681155
28	0x3c20ce4c	0.00981481
29	0xbc5e2c2c	-0.013560336
30	0x3c7797ce	0.015111877
31	0xb9a9f7cd	-0.00032418818

conv3.weight f4 [1, 32, 5, 5]
0	0x3c9caf4b	0.019126555
1	0x3c95ba74	0.018277384
2	0xbacc5b01	-0.0015591086
3	0x3cdf72ff	0.027276514
4	0x3d06b7f3	0.03289027
5	0xbce7c7a4	-0.028293438
6	0x3b8a4311	0.0042194207
7	0xbd0c980d	-0.034324694
8	0x3b31d0cc	0.002713251
9	0x3c4a2b9f	0.012339502
10	0xbb852f53	-0.0040644794
11	0x3ced3785	0.028957138
12	0x3c4f06b8	0.012635879
13	0xbd04b165	-0.03239574
14	0xbb9b2f5c	-0.0047358703
15	0xbc88db51	-0.01670614
16	0xbcf0ecb8	-0.029409751
17	0x391e15d7	0.0001507619
18	0xbd00d23f	-0.031450506
19	0x3cbd59b8	0.02311407
20	0x3bba3750	0.0056828633
21	0x3c41539e	0.011799721
22	0x3ca42c23	0.020040577
23	0x3cef139f	0.02918416
24	0xbc87a4d7	-0.016558094
25	0x3af3b5ef	0.0018593649
26	0xbd0d861d	-0.03455173
27	0x3bf72fbc	0.007543532
28	0x3cd64a21	0.026158394
29	0xbcbd5c53	-0.023115313
30	0x3ca880cb	0.020569226
31	0xbc8ad1c9	-0.016945736
32	0x3c23ba09	0.009993085
33	0xbc81d36c	-0.015847884
34	0x3bc151f9	0.0058996645
35	0xbd09d8bd	-0.033653963
36	0x3cd6a9ba	0.026203979
37	0xbc005677	-0.007833115
38	0x3d0569ef	0.03257173
39	0xbc5d9dea	-0.013526419
40	0x3c7a34fb	0.015271421
41	0xbc8db7d1	-0.017299565
42	0xbc7dbf98	-0.015487574
43	0xbc177ef9	-0.009246581
44	0x3c88d44f	0.0167028
45	0x3c65aabb	0.014017756
46	0x3ca56476	0.020189505
47	0xbbc5ce75	-0.0060365745
48	0x3b981b14	0.0046419
49	0x3cb331c4	0.021874316
50	0xbc6247b4	-0.013811041
51	0xbc3e406c	-0.011612039
52	0x3cdc840a	0.02691843
53	0xbcf44833	-0.029819584
54	0xbc8c1faf	-0.017104952
55	0xbca08d74	-0.0195987
56	0xbbf38934	-0.0074321274
57	0xbcd4d6df	-0.025981365
58	0x3c0700d4	0.0082399435
59	0xbcca3458	-0.024683163
60	0xbc7eb473	-0.015545952
61	0xbd0ce8d8	-0.034401745
62	0x3cc13e08	0.02358915
63	0xbcb177b4	-0.021663524
64	0xbb8ac194	-0.004234502
65	0xbcacc1e7	-0.021088554
66	0xbba03c21	-0.0048899804
67	0xbbddccaf	-0.006768785
68	0xbc3c813c	-0.011505421
69	0xba046863	-0.0005050955
70	0x3c76710c	0.015041601
71	0x3cee6f6f	0.02910587
72	0x3cd6c6cb	0.026217839
73	0xbcd6eede	-0.026236948
74	0xbb86199a	-0.0040924074
75	0xbd668ffe	-0.056289665
76	0xbb9ef1cb	-0.0048506013
77	0x3c0f0f99	0.008731746
78	0xbb34dd36	-0.0027597672
79	0x3b0cbb79	0.0021474047
80	0x3d0d7fae	0.034545593
81	0xbbfda0a8	-0.007740099
82	0xbd04266a	-0.032263197
83	0xbc6776c4	-0.014127437
84	0xbb88d9c8	-0.004176352
85	0x3d381e3b	0.044950705
86	0x3cdff9d7	0.027340813
87	0x3d5db63a	0.054128863
88	0x3d0be87a	0.034157254
89	0xbc0efb67	-0.008726931
90	0xbcc344a9	-0.02383645
91	0xbcd7a2fc	-0.026322834
92	0xbd0c8d72	-0.03431458
93	0xbb2adbdc	-0.0026070988
94	0xbc86ea50	-0.01646915
95	0xbb622549	-0.0034507087
96	0xbb71a6dd	-0.003687314
97	0xbc8d4020	-0.017242491
98	0xbc878690	-0.016543657
99	0x3bcb1f73	0.0061988174
100	0x3bc33c7d	0.0059581385
101	0x3bf94698	0.0076072924
102	0x3c67a176	0.014137616
103	0xbb59271e	-0.0033134888
104	0x3b65dd6f	0.0035074612
105	0xbbf3c204	-0.0074389
106	0x3d028647	0.031866338
107	0xb8e05213	-0.0001069644
108	0x3cccaf2e	0.024985876
109	0xbcadd77c	-0.021220915
110	0xbce14534	-0.027498819
111	0x3b923f08	0.0044630803
112	0xbd0392ae	-0.032122307
113	0x3ca7e125	0.0204931
114	0x3ca414c7	0.020029439
115	0x3cec6fab	0.028861841
116	0x3d034068	0.032043844
117	0x3c396d9d	0.011317638
118	0x3c5be02c	0.013420146
119	0xbbb7a370	-0.0056042
120	0x3d03a7fb	0.03214262
121	0x3c73449e	0.014847903
122	0xbc0c1a66	-0.008551216
123	0xbd063b22	-0.032771237
124	0x3b81e51f	0.003964081
125	0x3b88027b	0.0041506863
126	0x3cde015e	0.027100261
127	0x3ccf7c91	0.025327953
128	0x3d12f9b0	0.03588265
129	0x3b0669d7	0.0020509863
130	0x3c4a4c90	0.0123473555
131	0xbce3cac5	-0.027806649
132	0x3b958c83	0.0045638694
133	0x3c12e26c	0.008965116
134	0xbcafba82	-0.021451239
135	0xbc8705e7	-0.016482307
136	0x3c9260c7	0.017868413
137	0xbc91805a	-0.017761398
138	0xbc297d69	-0.0103448415
139	0x3cdcec11	0.026968034
140	0x3cfc80f6	0.030823212
141	0xbcc29240	-0.023751378
142	0xbccc58d8	-0.024944708
143	0x3ce777a3	0.02825529
144	0xbc1a7e24	-0.009429488
145	0x3bc298f8	0.0059386455
146	0xbcacbe53	-0.021086847
147	0xbc573c2c	-0.013136905
148	0x3ce6724e	0.028130677
149	0xbcc7409d	-0.024322802
150	0x3c5181df	0.012787311
151	0x3a9b3439	0.0011841125
152	0x3c365d05	0.011130576
153	0x3ab84130	0.0014057513
154	0xbc01908a	-0.007907996
155	0x3c59bb8b	0.013289343
156	0x3c1f25f2	0.009713637
157	0xbb5d89cf	-0.0033804064
158	0x3cc22bfc	0.023702614
159	0x3d015537	0.031575408
160	0x3c9e1d30	0.019301027
161	0xbc1a6846	-0.009424275
162	0xbcd3c6c1	-0.02585161
163	0xbcc872e2	-0.024468843
164	0xbc926c84	-0.01787401
165	0xbb3c89d1	-0.0028768668
166	0x3c981f05	0.018569479
167	0x3c27f64b	0.010251592
168	0x3d02afda	0.031905986
169	0xbd0e5c40	-0.034755945
170	0xbca29612	-0.01984695
171	0x3d0496d7	0.032370415
172	0xbcce6941	-0.025196673
173	0x3cbaa82e	0.022785272
174	0x3a31e22c	0.00067857164
175	0xbb74be04	-0.0037344703
176	0x3ccf0221	0.02526957
177	0x3ce0bfe3	0.027435249
178	0xbc6d3e2e	-0.014480157
179	0xbb06ea8b	-0.0020586576
180	0x3d088bbd	0.03333639
181	0x3cf2ad8b	0.029623767
182	0x3c693fc6	0.014236396
183	0xbcaf8bcf	-0.02142897
184	0xbcc39fcc	-0.023879908
185	0x3cd2611f	0.025681077
186	0x3ca8811d	0.020569379
187	0xbb80c33d	-0.003929524
188	0x3d0be26f	0.03415149
189	0x3ccb675e	0.024829563
190	0xbbf743a1	-0.007545904
191	0x3c80755f	0.015680967
192	0x3d0d3da1	0.034482602
193	0x3ca825f4	0.02052591
194	0xbc8b849a	-0.017031003
195	0xbd081e7e	-0.033232205
196	0x3c3497b0	0.011022493
197	0x3c5bc774	0.013414253
198	0xbd0ea6d7	-0.03482708
199	0x3babd189	0.0052434844
200	0xbcb290c0	-0.021797538
201	0x3c685dda	0.014182532
202	0xbc8d7291	-0.017266544
203	0xbcdc75dc	-0.026911668
204	0x3d0b4467	0.03400078
205	0x3cad41bb	0.021149507
206	0xbc6a3ad2	-0.01429625
207	0xbcd0eeec	-0.025504552
208	0x3cc3d081	0.023903133
209	0xbcb4de9a	-0.022078801
210	0xbc2bb541	-0.010480226
211	0xbc8115cf	-0.01575747
212	0x3c2ca3e5	0.010537122
213	0xbb13e7ac	-0.0022568507
214	0x3c574be9	0.013140657
215	0xbca22104	-0.019791134
216	0x3cd5cbab	0.026098093
217	0x3b8604ea	0.0040899413
218	0xbcc80782	-0.024417643
219	0xbcd39702	-0.025828842
220	0x3cb002d3	0.021485722
221	0xbc7a213e	-0.015266715
222	0x3c223805	0.009901051
223	0x3a6e1796	0.0009082494
224	0xbc8682f9	-0.016419875
225	0x3d0b4b48	0.03400734
226	0xbc5c2c85	-0.013438349
227	0x3c7975dc	0.015225854
228	0x3cb5e08a	0.022201795
229	0x3c314933	0.010820675
230	0x3d0c9f15	0.0343314
231	0xbcc8d5a5	-0.024515936
232	0x3b8b43ff	0.004250049
233	0xb911f12a	-0.00013918118
234	0x3c889c5c	0.01667612
235	0xbc7abdc2	-0.015304031
236	0xbcb1ed05	-0.021719465
237	0xbce24870	-0.027622432
238	0x3cc778a7	0.024349524
239	0x3c1fc690	0.009751931
240	0xbd08f9ce	-0.033441357
241	0xbb218f60	-0.0024652109
242	0xbcf2cd3f	-0.029638885
243	0xbcf53b53	-0.029935515
244	0x3cb34666	0.021884155
245	0xbc90ff2e	-0.017699804
246	0x3cad1ea9	0.021132784
247	0x3d07b2f4	0.033129647
248	0x3ba51231	0.005037569
249	0x3c75eb66	0.015009737
250	0xbcfcf14d	-0.03087678
251	0xbc771a91	-0.0150820175
252	0xbafe277d	-0.001939043
253	0x3bf7c83f	0.007561713
254	0x3c6a4c78	0.014300458
255	0x3c9c32e5	0.019067237
