output_x01/x2/epoch_291.pth (torch, 231335 bytes, 5 tensors)

conv1.weight f4 [64, 1, 9, 9]
00000000: 5c34 50bd ca48 273c f7ec 42bd 727c 873d
00000010: 9d4c 94bd f180 cd3d f050 81bd 716c 97bd
00000020: 3f8a 87bd 2ad3 183d 8cd8 27bd 27fc 413d
00000030: 490e a5bd 8f5c 75bd 0cd8 00bd a8ad 53bc
00000040: 3152 a9bd 14a3 8d3d c209 48bd dc0a bb3c
00000050: 7ff3 8a3d f643 e83c 87fa 3d3d 932b 003e
00000060: 55ca eebc eca5 4f3d 216b 41bd 7bef 903d
00000070: d4a8 9a3d 9ede f2bd 42ea e13d 54b6 933d
00000080: 7061 5d3d 85bd 7e3d 5b50 ec3d 918b 28bc
00000090: 692d cdbd f324 33bd 0214 b5bd 7189 ec3c
000000a0: 5a27 59bc a4e0 93bd 4620 c3bb 9f53 fa3d
000000b0: fc0d 73ba 3a28 b5bb 3ccd 02bd 5a8f 8e3b
000000c0: 8391 de3d 9b4f 803d 78cd a73c 7041 c83c
000000d0: 4ffc 1d3d 9422 453d adb5 843b 2735 d0bd
000000e0: fd41 86bd 8ea6 ea3d f8e8 5d3b 7756 e0bd
000000f0: 7dc3 953c 674b d63d cb1d d5bd 8ec0 47bd
00000100: 471f 06bd 3e96 943c 5548 42bb 38c7 c6bb
00000110: de28 dabd b329 8c3d bdeb f93d f1ad 9b3d
00000120: 2758 6bbd 98a2 a5bd 5733 463d 6f86 8c3b
00000130: f7cd 333d d9d3 dbbd 2e96 b9bb e415 ad3d
00000140: e4fc 553d 4e28 5e3c 3952 523c 22bf 2ebc
00000150: 04d8 90bd 2386 4ebd 55ec ddbd d70b c33d
00000160: d96c 5d3d b58e aa3c 84cc c7bd 47b9 943d
00000170: 9555 fa3c 0c9b 613d 9b21 5ebd 500c 38bb
00000180: 9baf 003e 5568 bc3d 6316 943d 1c14 0fbd
00000190: f4e1 9a3d b2dc c4bd 893b d8bc fa95 81bd
000001a0: 7978 14bd 060b 72bc f531 b93c 8c8e c63d
000001b0: ba6d 213d 27aa f8ba 9304 c83d 06e7 84bd
000001c0: 4ac2 b03d e2e4 81ba 8fdf 7bbc dc0c 383c
000001d0: 0e99 bdbd 36c4 e5ba 1b84 103d 1b43 e63d
000001e0: 6a1b 65bd 80f1 4d3d ebb0 dc3d 0fba 6ebd
000001f0: 8f4b bd3d a5f5 98bd 267c 3f3d 4f5d 173d
00000200: 0580 153d 642a 863d 2f48 e3bc 07c6 1c3d
00000210: 7074 b13b 4a56 9dbd bdbe 00bd 251b acbd
00000220: b175 a33c f77d 033b b617 bdbb 9926 abbc
00000230: 465c 0dbc 2a2a 2ebd 2f33 053d b0d0 bf3d
00000240: ebdd 643c 63e5 99bd bfa6 85bd 1c02 4bb9
00000250: 9bb8 b3bd 3496 dabd 10b2 b2bd 42d5 35bd
00000260: 7e8a efbb 74e4 cf3d 9d59 373d 75a9 f33d
00000270: a58b 4ebd eac8 893c 747b cabd 995c a73d
00000280: ba28 133d ccc9 de3d 153c b9bd d3db bc3d
00000290: 8896 f33d 4060 0d3e 464d 9f3d dfaf 0e3e
000002a0: 3215 ac3d 1971 993d 241c 24bc 1b2a d1bd
000002b0: 1a56 17bc 4f0e c83c 54e7 a0bd 83b2 93bd
000002c0: c6b4 ecbd dfe2 39bd 309b a33d 5599 2abc
000002d0: 2f08 343c af99 a73c 9e29 b63d dd27 aabd
000002e0: 2ec9 8fbd a0f3 0dbd 7c1a 7abd 2bc8 7f3d
000002f0: 4721 823d e81b 84bd b73a 7cbd 010f abbd
00000300: 4c0e 953d 4021 123e ab2b 6dbd a2b4 18bd
00000310: 7543 683d bcf6 7fbd bf58 cf3d c2f6 bf3c
00000320: 66e2 36bd 34cf 5b3b 5fed 7d3d 8ead ddbc
00000330: d985 a9bd f10b 353c 866b 1f3b 5d96 21bc
00000340: 1e9d 99bc 0362 943d 4475 2cbd 2b42 debb
00000350: 87c1 923d 3230 1abd e1bf 4d3d e800 00bd
00000360: 3eef 623d 2182 7abd 5b57 073d 8f7f 1b3d
00000370: 629f 9abd 778b 84bd 14fe 6a3d fcae fabc
00000380: 66c1 703d 8d2c a4bd e3e4 29bd 176b 8abd
00000390: 0b28 9b3d 075d 073d 685b 233b db95 5cbc
000003a0: 4c2c acbd 41bc 613d b2e2 ac3c 520b 76bd
000003b0: 70f3 803d 4ed7 19bb a1b8 d5bd 6e3a 8b3d
000003c0: cc09 5a3d 01ca aebc 6ea7 40bd 9da9 fe39
000003d0: 3731 a23d 9bd8 c23d b331 bfbd c12b 88bd
000003e0: b456 933d 5f92 4e3d 1d78 573d d5e6 95bd
000003f0: c1e3 cd3d 149c c9bd 585f 98bc b42a 2dbc
-0.050831184 0.010210225 -0.04758927 0.06615533 -0.07241175 0.10034359 -0.06314266 -0.073937304
-0.06618165 0.037310757 -0.040978 0.04735961 -0.08059365 -0.059902724 -0.03145604 -0.012919821
-0.0826763 0.0691587 -0.04883743 0.022832327 0.067847244 0.028352719 0.0463815 0.12516622
-0.029149214 0.050695345 -0.047221307 0.07076927 0.07551733 -0.11858867 0.11031009 0.07212511
0.054048 0.06219246 0.11538764 -0.0102871815 -0.10018427 -0.04373641 -0.08841707 0.02887413
-0.013254011 -0.07220581 -0.005954775 0.12222981 -0.0009271798 -0.005528477 -0.031934008 0.004350585
0.10867598 0.062651835 0.020483717 0.024445266 0.0385707 0.04812868 0.0040499778 -0.10166388
-0.06555555 0.11457549 0.0033860784 -0.10953992 0.018281693 0.104636006 -0.10406073 -0.04876762
-0.032744672 0.018138047 -0.0029645164 -0.006066229 -0.10652326 0.06843891 0.12203167 0.07601536
-0.057457116 -0.08087653 0.048388805 0.0042884867 0.043897595 -0.10733766 -0.0056636548 0.08451441
0.05224313 0.013559414 0.012836986 -0.010665687 -0.07072452 -0.05042089 -0.108360924 0.09523743
0.054058883 0.020820001 -0.09755805 0.07261901 0.030558387 0.055079505 -0.054231267 -0.002808351
0.12566988 0.09199587 0.072308324 -0.034931287 0.075626284 -0.09612407 -0.026395576 -0.06327434
-0.036247704 -0.014773136 0.02260683 0.096951574 0.039411284 -0.0018971608 0.097664975 -0.06489377
0.08630808 -0.0009910131 -0.015373125 0.011233535 -0.092577085 -0.0017529789 0.035282236 0.11243268
-0.055934347 0.05027914 0.10775932 -0.058282908 0.09242927 -0.07468728 0.046749257 0.03695422
0.036499042 0.06551054 -0.02774438 0.03827479 0.0054154918 -0.07682474 -0.031431902 -0.08403615
0.01995358 0.0020064095 -0.005770649 -0.020892428 -0.008627957 -0.04252068 0.032519516 0.09365976
0.013968925 -0.07514455 -0.06525945 -0.00019360374 -0.08775445 -0.1067318 -0.08725369 -0.04439283
-0.0073102107 0.10150996 0.044763196 0.11897556 -0.050426144 0.016819436 -0.09886828 0.081719585
0.03592751 0.108783334 -0.09044663 0.09221616 0.11893946 0.13806248 0.077784106 0.13934277
0.0840248 0.07492275 -0.010016475 -0.10213109 -0.009236837 0.024420885 -0.07856622 -0.07211783
-0.11557917 -0.045382377 0.07988584 -0.010412534 0.010988279 0.020459024 0.088946566 -0.083083846
-0.07020794 -0.034656167 -0.061060414 0.062446754 0.063540034 -0.06450635 -0.061579432 -0.08352471
0.072781175 0.14270496 -0.057902973 -0.03728164 0.056704957 -0.062491164 0.10124349 0.023433093
-0.044649504 0.003354025 0.061993953 -0.027060296 -0.082774825 0.01105021 0.0024325564 -0.00986251
-0.018751677 0.07245257 -0.04210402 -0.00678279 0.07165819 -0.03764362 0.050231818 -0.031250864
0.05540394 -0.061159257 0.033042293 0.037963446 -0.07549931 -0.06471913 0.057371214 -0.030601017
0.05877819 -0.0801631 -0.04147805 -0.06758707 0.07575997 0.033047702 0.0024926309 -0.013463463
-0.084068865 0.055111174 0.02110419 -0.06006939 0.06296432 -0.002347428 -0.10435606 0.06798254
0.053232 -0.021336557 -0.047034673 0.00048573027 0.07919543 0.095139705 -0.09335651 -0.066489704
0.07194272 0.05043256 0.052604783 -0.07319418 0.10053206 -0.09844223 -0.018600151 -0.010569263

conv1.bias f4 [64]
00000000: 6bd2 0dbd 7ea6 0dbd 05c8 053c a8f7 6ebd
00000010: ab1a 3d3d ecbb f73c c720 7e3d cc07 d439
00000020: 872c 003e 9f39 93bc d443 1d3c 7485 4239
00000030: a103 58bd 43cc 113e b3a5 8f3d 34f6 823d
00000040: 08d7 bfbc d2f9 85bd 3801 a13d 55ae 3f3d
00000050: 09ab b73c 0e4f 62bc db00 91bd 0a50 ea3d
00000060: 71c1 cbbc 3a1d db3d a0fa 4fbb 3fa2 efbc
00000070: 0bf2 ef3c 36ed 2d3d 7e2b c93d a7f8 ef3b
00000080: 8eb5 483d 8a36 a23d e29c 86bc e9b7 f6bd
00000090: 8604 99bc dc55 a83d 846f ddbc 0f47 233d
000000a0: 041e e1bd dfd6 29bd f398 e83d 7014 413d
000000b0: 338f 103d b293 1a3d 5d15 bebb a968 f93c
000000c0: 6144 9e3c c9fa c2bc 7b80 a4bc e911 3a3b
000000d0: fcea 843d e4f8 4a3b 0df8 9f3a f3bc 88bb
000000e0: a777 0d3e bf2d 37bd 3641 fc3b 886b 213e
000000f0: 773c f63d 6600 183d b783 b2bc afc6 8abd
-0.0346245 -0.034582607 0.008165364 -0.058341652 0.04616801 0.030240975 0.062042978 0.000404416
0.12516986 -0.017971812 0.009598691 0.00018550997 -0.052737836 0.14238076 0.070140265 0.06394616
-0.023417965 -0.0654179 0.078615606 0.046797115 0.022420423 -0.013812793 -0.07080241 0.114410475
-0.024872513 0.10698934 -0.0031735078 -0.02925217 0.02929022 0.04246255 0.098227486 0.007323343
0.04900127 0.07920559 -0.01643223 -0.12046797 -0.018678915 0.082195014 -0.027030714 0.03986269
-0.10992053 -0.041464683 0.11357298 0.04713863 0.035292815 0.03773851 -0.0058008865 0.030445414
0.019319715 -0.023801224 -0.020080796 0.0028392023 0.06490132 0.0030971104 0.0012204662 -0.004172915
0.13815175 -0.04472136 0.0076982034 0.15763676 0.120232515 0.037109755 -0.021791322 -0.06776177

conv2.weight f4 [32, 64, 5, 5]
00000000: d9ee 3c39 4424 1dbb 0e9c 9d3c 92ac f63b
00000010: 7e61 e5bb c733 b6bc cf17 eabc 1c77 9dbc
00000020: 314e bfbc 3ae8 06bd 1ba4 f33c 134b 413c
00000030: 1cdf f1bb 844f eebc 6113 43bc 91c8 feba
00000040: 7137 9d3c 5a1e 3fbc b9f9 14bc 4d15 603c
00000050: f9e9 503c 728e b23c 2c45 3dbc 40cb eb3c
00000060: e301 bc3c 02e7 4ebc 423e b13c 7c18 813c
00000070: cb40 8aba a497 d2bc 4669 abbc d8fd d93a
00000080: fb87 26bc 34c5 12bc f284 c2bb 48e5 c43b
00000090: f950 24bc 1830 f53b 2ec2 1bbc ec9b 873c
000000a0: a062 30ba 12a9 533c 1cc7 953b b735 313c
000000b0: 8bf7 22bc 3236 16bd 7655 083c 9358 a03c
000000c0: 9ce3 d83c c5ed 2a3c a3ee 8a3b 6200 2f3d
000000d0: 62d2 123d ecf4 023d c67c b03a d123 ab3c
000000e0: 5792 083d 2763 4f3d e2a4 ba3c dd98 94bb
000000f0: 414e b33c d61c 15bc bbd2 0bbd 5a8e bbbc
00000100: a4e1 4cbd 86f1 a3bc 75d8 1b3c d9c7 673b
00000110: 13cc 133c c7bc 853c 7410 21bb 77d8 a03c
00000120: 1ab7 4f3b dfe6 94bb 2ad5 a73c 0d12 d23b
00000130: ce90 cabc eb0a 8bbc b5c7 d1bc 284a 12bd
00000140: 259f 23bb bb7e 4a3c a944 b9bc ceef 81bc
00000150: 99ce b63c f125 2a3c 0e44 153c 4786 43bc
00000160: dfef 233d 1843 863c 70e6 eabb 6c32 e73c
00000170: 1cdb a43c 4b78 ab3c 4414 edbb 7623 08bc
00000180: fd1c f0bc fdcc c3bb 3e61 2dbd 3e1b 11bd
00000190: 3608 05bd a33d a7bc 8664 a63c 7eed 333d
000001a0: 00a6 ec3c d9a0 abbc af5b e53b 2284 a13c
000001b0: 0a27 d53c 535e 263c c0c9 01bd 939b 68bc
000001c0: f7bc fa3c ce1d bd3c f871 07bd a8a6 64bc
000001d0: cf29 c93c 2de4 84bc c16d 963c d2f1 2b3c
000001e0: df7d 62bc 4b51 eb3b 89e4 91bb e756 a5bc
000001f0: 367d ba3c 75f7 39bc 34f2 58bd 2fc6 1c3d
00000200: 9d53 7bbc 057b ab3d 3cc0 253c d68c ab3b
00000210: 83ae c6ba 96b9 11bd b80b 36bc 2f9a 243d
00000220: 6cb8 de3c de42 8a3d 71b1 703d 5a5b 2f3d
00000230: 680f c9bb 0136 d93b 94eb 9838 6ba0 33bb
00000240: 4266 1a3c d3b2 87bc a8ca c53c 1ae9 eb3a
00000250: 400e 67ba f9c9 aebc c99d e1bb a26a 5cbb
00000260: 747b 18bc 65fa fb3c 1ccc 1fbd d415 b93c
00000270: 45df 223c fb2d 9cbc 08f0 1fbc 50d3 6d3c
00000280: 20f1 d33b 4680 1abc 4475 3e3c 0d44 f63b
00000290: 684c 653b 714b e83b 89f0 b7bc 9464 21bc
000002a0: 1ab1 b3ba 1b1c c83c a0e7 00bd 3a87 b3bc
000002b0: 6fae 2b3c f203 9f3c e527 3f3c 452e 7c3c
000002c0: d223 ddbc 14e9 ad3b 488f d73b 7275 87bd
000002d0: 88fd 633b c3b0 cebd 83ff 76bc 2c49 903d
000002e0: a3c5 0fbc 3fff 7fbd 0bdb b3bd 5afe 77bd
000002f0: 82a4 21bc 8313 58bc 5436 e1bc 5c0f 383d
00000300: c5c7 b73d 6dae 1f3d 6181 41bc 4c85 f6bd
00000310: 31a9 bbbd 3545 77bc 64c1 0bbd 1936 15bd
00000320: f267 f0bc dbf1 2cbd e415 2dbd 9662 343b
00000330: 0bf1 85bc c872 e03b 5e38 493a 3aab 4cbc
00000340: 9d92 4b3c 5dd1 12bb 9911 6abc 48d1 923c
00000350: e80e c53c 9f31 513c 37c3 97bc 07f5 fc3c
00000360: 25d2 8e3c 266a ad3c 273e 19bc 48fd fabc
00000370: 3c6f ddbc 711f 80bb d46a 34bc 16e1 cabc
00000380: ad4a 373c 3634 eb3a a503 223c 854d e1ba
00000390: 6681 22bb 91fa 25bb e56e 783c 7c5f 0e3c
000003a0: 8b54 193d 5c7c 233d d290 49bc b5c8 85bc
000003b0: 7225 62ba 86f9 583b 9de5 3e3c 50d1 46bb
000003c0: 8e39 07bd 0e07 c1bb bf86 fabb 7c4e 56bd
000003d0: a590 32bc 4ef8 33b8 036a a83b 6aeb 8eb9
000003e0: b3f5 f5bc 55a8 8dbb db93 80bc aa2d 8b3c
000003f0: 4347 143c d276 80bc 3619 4cbc 6b9d 4abd
0.00018018055 -0.0023977915 0.019239452 0.007527896 -0.0070001474 -0.022241486 -0.028575806 -0.019221835
-0.023352714 -0.032936312 0.029741338 0.011797684 -0.007381333 -0.02909065 -0.011906476 -0.0019438436
0.019191476 -0.011664951 -0.009092742 0.0136769535 0.012751096 0.021796439 -0.011552136 0.02878344
0.022950118 -0.012628319 0.021636132 0.015758745 -0.0010547874 -0.025707074 -0.020924222 0.0016631437
-0.010164256 -0.00895815 -0.0059362585 0.006008778 -0.010029071 0.00748254 -0.009506745 0.016553842
-0.00067285635 0.0129187275 0.004570855 0.010816029 -0.009946714 -0.03667278 0.008321157 0.019573485
0.02647572 0.010432665 0.0042398735 0.042724974 0.035845168 0.031971857 0.001346492 0.020891102
0.033342686 0.05063167 0.0227837 -0.0045348243 0.0218879 -0.009101113 -0.034136515 -0.022895027
-0.050019875 -0.020012628 0.009512057 0.0035366921 0.009020823 0.016325368 -0.0024576457 0.019634468
0.003169483 -0.0045441235 0.020487387 0.006410843 -0.024727251 -0.01697298 -0.025607923 -0.035715252
-0.0024966684 0.012359316 -0.022615748 -0.015861418 0.02231531 0.0103850225 0.009110464 -0.01193387
0.04002368 0.016389415 -0.0071685836 0.028222285 0.02012401 0.020931384 -0.007235082 -0.008309236
-0.029310698 -0.0059753642 -0.042329066 -0.03542637 -0.032478534 -0.020415133 0.020311605 0.043927662
0.028887749 -0.020950722 0.006999455 0.019716326 0.026019592 0.010154325 -0.031686544 -0.014197248
0.030607684 0.023085501 -0.033067673 -0.01395575 0.024556069 -0.016222084 0.018362882 0.010494666
-0.013823955 0.0071813217 -0.0044522923 -0.02018304 0.022764783 -0.011350502 -0.052965358 0.03827494
-0.015339759 0.083730735 0.010116633 0.005235295 -0.001515821 -0.03557738 -0.011111192 0.040186103
0.027187549 0.06751035 0.05876297 0.04281173 -0.00613587 0.006628752 7.291805e-05 -0.002740885
0.009423794 -0.016564762 0.024144486 0.0017998547 -0.0008814074 -0.021336542 -0.0068852645 -0.0033632894
-0.009306777 0.030759046 -0.039013013 0.022593416 0.009940927 -0.019064894 -0.009761818 0.014515713
0.0064679533 -0.009429997 0.011624638 0.0075154365 0.0034988169 0.0070890714 -0.022453563 -0.00985064
-0.0013709397 0.024427464 -0.031470895 -0.021915067 0.0104786 0.019411061 0.011667226 0.015391891
-0.02699462 0.005307326 0.0065783598 -0.06614198 0.0034788568 -0.10092308 -0.015075567 0.070452064
-0.008775148 -0.06249928 -0.087820135 -0.060545303 -0.009865882 -0.013188246 -0.027491726 0.044936523
0.0897365 0.038984705 -0.0118106315 -0.12037143 -0.0916313 -0.015092184 -0.03411998 -0.036428545
-0.02934644 -0.04222284 -0.042257205 0.0027524582 -0.01635029 0.0068496205 0.0007675941 -0.0124919955
0.012425092 -0.0022402622 -0.014286422 0.017922059 0.02405496 0.012768178 -0.018525703 0.030878557
0.01743419 0.02116878 -0.009353197 -0.030638352 -0.02703058 -0.003909998 -0.011011798 -0.024765532
0.011187238 0.0017944637 0.009888564 -0.001718924 -0.0024796366 -0.0025326351 0.015163158 0.008689757
0.037434142 0.03991352 -0.012302594 -0.016331056 -0.00086267956 0.0033107712 0.011651424 -0.0030337162
-0.033013873 -0.0058907336 -0.0076454575 -0.052320942 -0.010898744 -4.2908177e-05 0.0051395907 -0.00027259748
-0.030024385 -0.0043230453 -0.015695503 0.016989548 0.009050193 -0.015681658 -0.012457183 -0.04946653

conv2.bias f4 [32]
00000000: f5cc 99bb 0b17 15bd e594 1dbb 91a6 b43c
00000010: 054e cc3c b496 973c a335 58bc d4f4 003c
00000020: cfd8 eb3b 072f 58bc ce27 6fba 3251 423c
00000030: b561 be3c 1af1 913c e0e2 ab3c 5b8f a83c
00000040: b38c 79bc c9df 9cbc 8d68 9b3c 306d 9f3c
00000050: 15ab 4d3d 77aa 74bc 0206 98bc 40f3 9a3c
00000060: c14b 5a3c f61d 463c 037b 973c 3b18 173d
00000070: 7b8e 0d3c 97b0 75bc b1c4 113c ae6f 80ba
-0.0046936222 -0.03639893 -0.0024045047 0.022052081 0.024939546 0.018504478 -0.013196382 0.007870872
0.0071974765 -0.013194806 -0.0009123058 0.011860179 0.02323995 0.017815161 0.020982206 0.02057617
-0.015231299 -0.019149678 0.018970752 0.019461244 0.050211985 -0.01493322 -0.018557552 0.018914819
0.013323725 0.012092104 0.018491274 0.036888342 0.008639927 -0.014995716 0.008896993 -0.0009798908

conv3.weight f4 [1, 32, 5, 5]
00000000: 6776 903c 6d81 983c 0908 83ba b491 f53c
00000010: 2f3b 0d3d 505f c9bc 1b92 1c3c b5b5 01bd
00000020: 202b 7d3b 47ec 803c 8d82 c9bb e627 e23c
00000030: 07a3 3e3c 0c7b 19bd 1d4d 13bc c3b6 94bc
00000040: 7523 03bd 542f 09bb e115 0ebd ec59 ae3c
00000050: 56b1 0c3c 3fee 783c a10b cc3c a85b 053d
00000060: 559c 53bc d2db 8a3a 012c 1abd 478b f13b
00000070: 755e dc3c ee55 cfbc e572 a33c d8b2 a3bc
00000080: 139b 283c 0c0c 83bc 47dc 903b 99ff 0cbd
00000090: eb16 c33c 6829 14bc b6a0 ff3c c103 87bc
000000a0: da0c 843c 0187 a3bc 76e3 9bbc ed60 16bc
000000b0: 01b4 733c f94b 7e3c 6bd9 a23c 06b6 eebb
000000c0: 4a94 a03b 37e9 a33c b447 62bc 6c40 3ebc
000000d0: 0a84 dc3c 3348 f4bc af1f 8cbc 748d a0bc
000000e0: 3489 f3bb dfd6 d4bc d400 073c 5834 cabc
000000f0: 5e9c 7ebc 9ced 0cbd 4f09 c13c b477 b1bc
00000100: 94c1 8abb fedc acbc 1b3b a1bb 1788 dcbb
00000110: 3c81 3cbc 6368 04ba 8533 763c 0d37 ee3c
00000120: f7fc d63c deee d6bc 9a19 86bb 557d 67bd
00000130: 349e edbc 2fb0 64bc 7236 3fbc c4bb cebb
00000140: 64f2 063d 126d 4bbb ce43 fcbc 17fd 94bb
00000150: 65b2 c63c 9070 4b3d e163 393d 701f a73d
00000160: 6c16 1d3d 9de2 bdbb 8205 03bd dabd 52bd
00000170: ad47 1abd b908 9a39 6b83 b7bc d00f 073c
00000180: 8c5f 223b 65ad bfbc ab0a 87bc 9dd0 333b
00000190: 493f b03b b823 ed3b c00c 633c 33d9 6fbb
000001a0: 5148 5a3b 2c46 04bc bf76 013d 579e c6b9
000001b0: 17c6 c83c f82f b1bc 1c1a e5bc b745 8a3b
000001c0: 413b 05bd b6e2 a43c 7dda a13c f6f6 e83c
000001d0: 47a8 013d aabd 353c 4305 553c 93a8 c5bb
000001e0: 291b 023d cd22 6b3c 94ec 11bc f211 08bd
000001f0: ce61 633b 8285 813b 2857 cc3c a75a d83c
00000200: c806 2e3d f3fb 3cba e7d1 613c 4420 edbc
00000210: 2463 2fba 0a23 db3b 64e1 d8bc a213 8bbc
00000220: af0c 873c 02b2 a6bc 4f75 40bc 904b c43c
00000230: 8026 013d c2f7 bdbc 4b17 aebc 58b8 033d
00000240: 013e 31bc 7162 1c3c a886 b1bc 1de0 46bc
00000250: 6d95 ed3c 5f51 e0bc 17c4 463c 5647 313a
00000260: 5d44 333c 95be 963a 487b 09bc b098 4f3c
00000270: 6d06 183c c8ec 6ebb 5e45 c13c c819 013d
00000280: 637a 9a3c 52a1 21bc 8e96 d7bc 800e ccbc
00000290: b5a6 97bc 2997 4bbb 2609 953c b93e 253c
000002a0: a97f 013d 4996 11bd 2d73 a5bc fbdd 023d
000002b0: 7493 d2bc ddfa b63c 7432 3439 d5d8 83bb
000002c0: d950 cd3c 34c6 df3c 7d07 72bc db41 19bb
000002d0: b781 073d 3fb6 f13c 7643 693c 40f0 b0bc
000002e0: 9334 c5bc bcdd d03c e563 a83c 640c 77bb
000002f0: 8cab 0b3d f115 ca3c 89b2 fabb 722d 803c
00000300: fbaa 0d3d e2c3 a73c 9043 8cbc 5fda 08bd
00000310: f76d 323c 3202 5b3c 1d50 0fbd cb13 a73b
00000320: c090 b2bc da5d 683c 9172 8dbc dc75 dcbc
00000330: 6744 0b3d bb41 ad3c d23a 6abc ecee d0bc
00000340: 81d0 c33c 9ade b4bc 41b5 2bbc cf15 81bc
00000350: e5a3 2c3c ace7 13bb e94b 573c 0421 a2bc
00000360: abcb d53c ea04 863b 8207 c8bc 0297 d3bc
00000370: d302 b03c 3e21 7abc 0538 223c 9617 6e3a
00000380: f982 86bc bf04 093d 688d 73bc b308 733c
00000390: 551d b13c 76b4 323c 5d27 133d 0a94 cabc
000003a0: 6ed4 b13b 1d08 7639 847a 823c b173 7bbc
000003b0: 165d cbbc 5572 f4bc 4856 bd3c 3e5c 0c3c
000003c0: 3c77 0bbd 486d 78bb a293 01bd 4b26 00bd
000003d0: e272 ba3c d167 7ebc d774 be3c 73c8 0b3d
000003e0: fff9 753b 78df 6d3c f1f0 fcbc 6013 76bc
000003f0: bd10 00bb 10e5 fb3b a646 713c 9612 9c3c
0.017634584 0.018616403 -0.0009996901 0.029976703 0.03448027 -0.024581581 0.009556319 -0.03166743
0.003863044 0.015737666 -0.006149596 0.027606916 0.011635548 -0.037470862 -0.008990553 -0.018153554
-0.032016236 -0.002093275 -0.034688834 0.021283112 0.008587202 0.015193521 0.024907889 0.032558113
-0.01291569 0.0010594076 -0.03763962 0.0073713395 0.02690051 -0.02530953 0.019952247 -0.01998274
0.010290879 -0.015996955 0.0044207904 -0.034423444 0.02381464 -0.009043075 0.031204563 -0.016481282
0.01611941 -0.019961836 -0.01902936 -0.009178382 0.014874459 0.015521043 0.019879064 -0.0072848825
0.00490049 0.020008666 -0.013811041 -0.011612039 0.02691843 -0.029819584 -0.017104952 -0.0195987
-0.0074321274 -0.025981365 0.0082399435 -0.024683163 -0.0155402105 -0.03440629 0.023564009 -0.021663524
-0.004234502 -0.021101471 -0.004920376 -0.0067300904 -0.011505421 -0.0005050955 0.015026932 0.029078985
0.02624367 -0.026236948 -0.0040924074 -0.05651601 -0.029006101 -0.013958021 -0.011670696 -0.0063090045
0.032946005 -0.0031040353 -0.03079405 -0.004546772 0.024254987 0.049667895 0.045261268 0.08160293
0.03835146 -0.0057948367 -0.031987675 -0.051450588 -0.03766601 0.00029379668 -0.022401532 0.008243516
0.0024776189 -0.02339811 -0.01648458 0.0027437576 0.005378638 0.007236924 0.01385802 -0.0036597967
0.0033307264 -0.008073371 0.031607386 -0.00037883475 0.02450852 -0.021629319 -0.027966551 0.0042197364
-0.032527212 0.020127635 0.019757504 0.028438073 0.031654622 0.011092583 0.013001743 -0.0060320585
0.031764183 0.014351559 -0.008906502 -0.03322024 0.0034695747 0.003952683 0.024943903 0.026410414
0.042486936 -0.0007209174 0.013782955 -0.02894605 -0.00066904933 0.0066875266 -0.026474662 -0.016977135
0.01648554 -0.020348553 -0.011746719 0.023961812 0.031530857 -0.02318943 -0.021251341 0.032158226
-0.010818006 0.009544955 -0.021670654 -0.012138394 0.029001916 -0.02738255 0.012131712 0.0006762644
0.010941592 0.001150089 -0.008391209 0.012670681 0.009278876 -0.003645705 0.023592647 0.031518728
0.018857187 -0.009865122 -0.026316907 -0.024909258 -0.01851211 -0.003106544 0.018192839 0.010085755
0.031615887 -0.035543714 -0.020196522 0.03194998 -0.025705077 0.022336418 0.00017184933 -0.004023651
0.025062965 0.02731619 -0.014772293 -0.00233852 0.03308269 0.029505847 0.014237275 -0.021598935
-0.02407292 0.025496356 0.020555446 -0.0037696594 0.034099147 0.024668666 -0.0076506776 0.01564667
0.034586888 0.020479146 -0.01712206 -0.03341138 0.0108904755 0.013367223 -0.03498851 0.005098795
-0.021797538 0.014182532 -0.017266544 -0.026911668 0.03400078 0.021149507 -0.01429625 -0.025504552
0.023903133 -0.022078801 -0.010480226 -0.01575747 0.010537122 -0.0022568507 0.013140657 -0.019791134
0.026098093 0.0040899413 -0.024417643 -0.025828842 0.021485722 -0.015266715 0.009901051 0.0009082494
-0.016419875 0.03345179 -0.014865257 0.014833617 0.021620432 0.010907283 0.03592621 -0.024728794
0.005426935 0.0002346341 0.01592756 -0.015347407 -0.02482466 -0.029839674 0.023112431 0.008566914
-0.034049258 -0.0037906934 -0.031634934 -0.03128652 0.022759859 -0.015527681 0.023249073 0.03412671
0.0037533042 0.014518611 -0.030876609 -0.015019268 -0.0019541227 0.0076872185 0.014726317 0.019051831
