output_x01/x2/epoch_223.pth (torch, 231335 bytes, 5 tensors)

conv1.weight f4 [64, 1, 9, 9]
00000000: 51fe 3fbd 5395 113c 009d 45bd 8351 783d
00000010: 934b 9dbd 1d33 c53d 2bd9 88bd 1cbe 9bbd
00000020: 5fc8 83bd 9678 293d 079c 2dbd c675 3b3d
00000030: ccbb adbd 9143 75bd 7790 fbbc bc97 43bc
00000040: a927 a4bd cb02 983d 35fb 24bd 87a7 e33c
00000050: 12aa 933d 05f8 d43c c191 363d a9ac fb3d
00000060: cef8 06bd c59d 4a3d 623b 33bd 7cb9 9a3d
00000070: aac4 a33d 27d3 e8bd 0d41 da3d 8266 903d
00000080: a1ef 5c3d 8484 703d 1d8b e63d dc46 fcbb
00000090: fcb0 c8bd debf 26bd 2ce5 adbd e5a5 c33c
000000a0: a6c5 58bc cf96 8ebd 5fb1 f4bb ce50 f43d
000000b0: 54de aeba 67a3 4a3b a107 b6bc 0db4 593c
000000c0: b43b df3d 0eec 853d ad29 c73c 020d c93c
000000d0: afa8 183d 6097 4c3d fbe5 733b bece d0bd
000000e0: 2107 8bbd fb66 dd3d 687b 343b 5319 debd
000000f0: 3406 893c cfaa cf3d 1f56 d5bd 49d8 4bbd
00000100: 0301 08bd 59ba 783c ad19 0bbc 4536 0cbc
00000110: de5d e0bd 9a0d 853d d5be f23d d9ce 9c3d
00000120: 106e 6dbd 95cc a3bd 83a8 443d 3e0c 143b
00000130: 5218 323d 6090 ddbd ade4 96bb a654 af3d
00000140: dc23 603d f5d1 ae3b 94ea 3a3c 8531 5abc
00000150: fa04 94bd 80b0 49bd 3878 cebd 7498 b93d
00000160: c7d0 533d 7a5d c43c 7890 c5bd 76cd 9d3d
00000170: 4c92 0f3d b38f 793d 7e1f 46bd dda2 d73b
00000180: 39d4 f73d b93e b33d b4a7 a03d 1511 05bd
00000190: 5ea3 a03d 8a15 bebd 6b57 a8bc 2c63 82bd
000001a0: 72b6 07bd cc98 9abc 1762 9f3c a03d d13d
000001b0: a3bc 313d cd6d 76bb feab be3d aeac 87bd
000001c0: 9310 9b3d 2c1a a4bb d86f 8dbc 3ed7 213c
000001d0: 14c3 bdbd 0aaa b13a 831d 013d daf0 da3d
000001e0: f96e 57bd cf75 3a3d 45ab dd3d a41a 65bd
000001f0: 8d62 c23d d81e 93bd 0efd 4b3d 743f 1a3d
00000200: b9c9 0e3d 8f52 913d 5ab6 ecbc 71f5 233d
00000210: 096b 903b 3b75 a2bd 2eff febc 7c3e a7bd
00000220: 0c90 d73c a2a5 7b3b e2fa 2cbb 2a86 a8bc
00000230: f2cb 30b9 d5a5 19bd 6ce0 073d 242d ca3d
00000240: b5a1 8a3c eb5e 87bd 4dd6 82bd 9a59 0eb9
00000250: c310 aabd e7c8 bfbd b9e6 a4bd 6848 2fbd
00000260: 42e3 e9ba e778 c83d 91c3 413d ed0a e33d
00000270: 89bf 75bd fd1b 583c f774 d2bd b594 903d
00000280: 1e1d d73c 5385 d33d 10d5 9dbd 3480 c53d
00000290: 71f7 e83d ae24 ff3d 9794 763d 473e 093e
000002a0: fd11 ba3d c576 ab3d dc2f 06bc fd2f b7bd
000002b0: f0b3 7e38 9b2e 013d 0917 86bd fbc2 69bd
000002c0: 431a cabd e97f ecbc 6fc5 bd3d d9ae a23a
000002d0: c986 aa3b fb1b 863c 56ed af3d 673f a5bd
000002e0: 4792 94bd 1eb3 03bd bdba 59bd 5afa 873d
000002f0: 47dd 923d 6e00 a5bd 8581 96bd 08b7 b4bd
00000300: 3ffe 923d 9bf1 023e 7dec 8abd cccf 17bd
00000310: 9bcf 5c3d 9039 81bd 5d27 d03d 9fd5 ee3c
00000320: bcaf ddbc f1ea c93c 591d 8a3d 7677 c0bc
00000330: a273 9cbd dbd5 633c 2484 093c 37b7 93bb
00000340: 5ac4 73bc 8f71 a83d 2849 b9bc c60d b93a
00000350: 95f0 853d a1be 33bd 333d 3e3d 8c0c d9bc
00000360: 8fb7 423d fd6b 8cbd d466 b23c 74a6 ee3c
00000370: 313b a8bd c56a 96bd 1212 683d 75ef e0bc
00000380: 057a 693d 1e45 bbbd 9b93 43bd a7b7 95bd
00000390: 74b2 8c3d e236 c13c e028 98bb aa60 38bc
000003a0: 071e adbd b199 163d f21f 823c 0dee 80bd
000003b0: 04d9 813d 04a9 c13b 9e29 c9bd d207 8c3d
000003c0: 248a 7c3d b5cb 98bc 6c72 81bd 9eca d63a
000003d0: 5f46 a43d 8536 c73d e4bd b6bd 6d5b 6ebd
000003e0: 4d65 a63d 4288 4e3d 0bd4 6f3d 327c 87bd
000003f0: f79a c23d 9e4b c9bd e894 53bc 1e1e 2abb
-0.046873394 0.008885699 -0.04824543 0.06062461 -0.0768043 0.0962889 -0.066820465 -0.0760462
-0.06434702 0.041374765 -0.042385127 0.045766614 -0.08483085 -0.05987889 -0.030708535 -0.011938032
-0.08015377 0.07422408 -0.040278632 0.027789844 0.07210173 0.025997171 0.044572596 0.12288792
-0.032952122 0.049466867 -0.043757804 0.075549096 0.07996495 -0.11368399 0.10656939 0.07050802
0.053939465 0.058720127 0.112570025 -0.007698877 -0.09799382 -0.040710323 -0.08490977 0.023882816
-0.013230717 -0.06962358 -0.0074674333 0.11929475 -0.0013341405 0.003092015 -0.022220435 0.013287556
0.10900059 0.065391645 0.024311865 0.024542335 0.037270244 0.04994905 0.0037215936 -0.10195683
-0.06788469 0.108106576 0.0027539376 -0.10844674 0.01672659 0.10140001 -0.10416817 -0.049766812
-0.03320409 0.0151811475 -0.008490008 -0.008557861 -0.10955404 0.06496735 0.118528046 0.076566406
-0.057966292 -0.07998005 0.048012268 0.0022590305 0.043480225 -0.10818553 -0.004604897 0.08561067
0.0547217 0.0053350874 0.011408467 -0.01331747 -0.07227512 -0.04924059 -0.10081524 0.09062281
0.051712777 0.023970354 -0.09646696 0.07705204 0.03505163 0.060928058 -0.048369877 0.006580694
0.12101025 0.08752198 0.07844487 -0.032486994 0.0784366 -0.09281452 -0.020549497 -0.06366572
-0.033132978 -0.018871687 0.019455953 0.10216832 0.04339279 -0.0037602067 0.09310149 -0.06624733
0.07571521 -0.0050080027 -0.017265245 0.009877978 -0.09265724 0.0013554704 0.031522285 0.1069047
-0.052596066 0.045522507 0.10823683 -0.05593361 0.09491453 -0.07183617 0.04980188 0.03765817
0.034860346 0.07095825 -0.028895546 0.040028993 0.004407291 -0.07932516 -0.031127539 -0.08166215
0.026313804 0.0038398285 -0.0026394655 -0.020571787 -0.00016860644 -0.037511665 0.03317301 0.09871891
0.016922811 -0.06609901 -0.06388531 -0.00013575554 -0.08303978 -0.09364491 -0.08051819 -0.04279366
-0.0017844217 0.09788685 0.047305647 0.11086068 -0.059997115 0.013190267 -0.102762155 0.070596136
0.026259001 0.10328164 -0.07706654 0.096435934 0.11375321 0.12458168 0.0602003 0.13402663
0.09085462 0.08372263 -0.0081901215 -0.089447 6.07259e-05 0.031538587 -0.06547362 -0.057070713
-0.0986829 -0.028869586 0.09266173 0.0012411728 0.005204056 0.016370764 0.0859019 -0.08068734
-0.07254463 -0.03215324 -0.053156603 0.06639548 0.071711116 -0.080567226 -0.07348923 -0.08823973
0.071774 0.12787478 -0.06783388 -0.037063405 0.053908926 -0.06309807 0.10163758 0.029154597
-0.027061336 0.024648162 0.06743879 -0.023494463 -0.07639243 0.013905968 0.008393321 -0.004507925
-0.014878357 0.082247846 -0.022617891 0.0014118485 0.06540028 -0.04388297 0.046445083 -0.02649524
0.047538336 -0.06856535 0.021777548 0.029132105 -0.08214415 -0.073445834 0.05665786 -0.027457932
0.057001133 -0.091440424 -0.04774819 -0.073104195 0.06869975 0.02358574 -0.0046435446 -0.011253515
-0.08452993 0.036767665 0.015884373 -0.062954046 0.063402206 0.005910041 -0.09822391 0.06837429
0.06165518 -0.018651823 -0.06320652 0.0016387289 0.08021235 0.09727196 -0.089229375 -0.05819266
0.0812479 0.050422914 0.05855183 -0.06615485 0.095022134 -0.09828876 -0.01291392 -0.0025957893

conv1.bias f4 [64]
00000000: 59ec 0fbd 464b 39bd e83e 393c cda4 7dbd
00000010: 90e3 333d dfe8 e03c ae38 7b3d d95a 0dbb
00000020: d3c4 013e 4c39 e1bc 80f9 2a3c b286 cc3a
00000030: 1851 65bd 7f13 0b3e 46de 943d f2ac 8b3d
00000040: dfc4 d5bc 0854 8cbd 7f85 9c3d c466 343d
00000050: 7e6e a93c 752e 80bc f70a 92bd 7068 c23d
00000060: 5bec b5bc 0307 bf3d 8740 7fbb 45df e0bc
00000070: e742 f43c 5638 413d b50b c83d 35f0 003c
00000080: 99db 343d bb63 943d 41ba 60bc 8bd1 c9bd
00000090: da36 64bc 753d ac3d 5ad3 e7bc ecbd 263d
000000a0: 4c2f dfbd c5c1 09bd ebbf e43d 1543 233d
000000b0: a9bc 083d b11c 153d 888a cd3a 50e6 d03c
000000c0: 59e2 1f3c 3cf4 b5bc ef51 96bc fd4b e93b
000000d0: a439 8f3d 017f bd39 778d 0a3b 5eb7 9eba
000000e0: 68c6 fa3d 6648 3abd c254 d73b 6f15 183e
000000f0: 7124 f73d 6e3d 243d a8f2 e8bc ec90 9ebd
-0.035137508 -0.045237802 0.011306502 -0.061924744 0.043918192 0.027454792 0.06133335 -0.0021569042
0.12672739 -0.027493142 0.010435462 0.0015604107 -0.05598554 0.13581656 0.07268958 0.06820096
-0.026094852 -0.06851965 0.0764265 0.044043317 0.02068257 -0.015647152 -0.07130998 0.09492576
-0.02220743 0.09327509 -0.0038948373 -0.027450213 0.029817058 0.047172867 0.09767858 0.00786977
0.044154737 0.072455846 -0.013716281 -0.0985442 -0.013929093 0.084101595 -0.028299022 0.040708467
-0.10897693 -0.03363206 0.11169418 0.039858896 0.033383045 0.036404315 0.0015681544 0.025500447
0.009758555 -0.022211187 -0.018349616 0.007119654 0.06993416 0.00036143514 0.0021141449 -0.0012109091
0.12244874 -0.0454792 0.006571383 0.14851926 0.120674975 0.040097646 -0.02843602 -0.077424854

conv2.weight f4 [32, 64, 5, 5]
00000000: 667d 9e3a 46d8 99ba 12bc b23c 364a a53b
00000010: e98b 84bc f726 adbc d665 dfbc 93f0 88bc
00000020: 7ddd d5bc 0fa5 2ebd 4b99 d93c 22e3 e03b
00000030: c951 67bb 07a6 e4bc e6dc 91bc 3174 adba
00000040: 36b4 903c 8d73 10bc 8648 0ebc ab69 f53b
00000050: 8c2b 2a3c 196e b63c 8116 2fbc 8333 f63c
00000060: d7d1 883c 3815 77bc b220 b43c d4d9 853c
00000070: 3749 01b8 1275 d7bc 870a 89bc 3599 1e3c
00000080: 5029 95bb 3372 16ba 6403 87bb e661 7c3b
00000090: 78b2 4dbc 383b 133b d7d5 0abc b4bc 843c
000000a0: 896a d439 4fb5 603c 89c1 3cba 8dd8 093c
000000b0: 5a91 c7bb 6a89 0fbd c3df 373c 503a 9e3c
000000c0: 8a72 dc3c 7ae1 843c 053e 14ba b8cd 223d
000000d0: f286 f23c 26f6 c13c 867e ad3a 772a 7e3c
000000e0: 4d0b 1c3d de66 513d c535 b53c 8260 b239
000000f0: cc9a 4c3c 823e edbb fe44 fabc 0834 a0bc
00000100: c481 25bd d6f8 abbc b87d 2a3c d5ef 853b
00000110: f19d ee3b 4b0b 3a3c 6c9a 29b9 9b5d a73c
00000120: 22da 833b f3d5 95bb 5ab7 a53c e403 c13b
00000130: 1456 c8bc 16de 73bc 5a87 c9bc e4d9 0dbd
00000140: cc6d 03ba feb4 703c c787 a9bc fdfc 87bc
00000150: 540c 903c f488 7d3c 9fac 4c3c 3bbe 4ebc
00000160: c774 183d 52ff 833c 6b6a fbbb 4a5e e43c
00000170: acac ae3c 7bf5 c03c d9b1 babb 5cd5 16bc
00000180: 78f6 cbbc 5071 d03a 6199 0bbd 83db 01bd
00000190: 11bf 01bd 5bbf b3bc 3c64 883c f5c6 283d
000001a0: 703e 023d d129 8cbc 6dfd a43b 6aa1 ad3c
000001b0: d24f e63c 6993 513c 228a d0bc 485a 39bc
000001c0: 04b4 023d cdac a63c 5d50 0abd 770e 7ebc
000001d0: 0fba b33c 3b48 7dbc a883 a23c 0b5e 683c
000001e0: 6657 93bc 0ae0 c43b 3e2c ffba 2028 8dbc
000001f0: 1a97 c43c 8fe3 0ebd b583 0dbd 2f88 163d
00000200: 110e 80bc 85ec de3d 875b 53ba 88db 023b
00000210: fcaf 45bb 5411 19bd 8010 aabc a65a 143d
00000220: a11f de3c d48a 853d b901 5d3d 9049 1a3d
00000230: 4a21 17ba a019 313c 5954 cf3a dd0d a6ba
00000240: 3457 3c3c 910e e0bc cc1d 413c 9683 48bc
00000250: b911 a4bc 078a 0abd 1148 20bc edb8 58bb
00000260: e732 2cbc 6594 d83c e256 1cbd f3bf ce3c
00000270: 51d9 4e3c 3595 95bc 75f6 44bc 7996 8b3c
00000280: 76f6 143c 9a50 46bc c303 0b3c 4080 733b
00000290: a82a 0c3b 219c f13b 9b73 bebc d6e2 2ebc
000002a0: f66b c639 ce44 c73c b23f edbc 6489 9abc
000002b0: 7f79 473c 3b9c a63c cdec e93b f201 963c
000002c0: d2bd edbc c312 60bc e7cd 0e3c 4895 7cbd
000002d0: df52 533c c796 9bbd 5f4f 8fbc f906 7b3d
000002e0: da06 8bbb d1f6 7ebd 5169 6dbd e0d9 85bd
000002f0: 8ab2 d2bc 149a a6bc 8c55 ffbc 4260 453d
00000300: 62f9 ba3d a8b2 303d 7bd8 27bb 92c3 e4bd
00000310: f795 cabd 81e1 a6bc 3695 07bd b2b3 21bd
00000320: 4a7f edbc 3750 2bbd 091d 24bd 86bb 9b3b
00000330: 9a7e 3dbc 9582 353c 27db 4a3b 0f8d 36bc
00000340: 090c 4e3c 4c1e 9e39 f32b 56bc 6692 853c
00000350: b4c4 b33c 0e5a 333c b307 9dbc 4013 033d
00000360: bfe8 823c 5c80 a73c 6b24 19bc 2d83 00bd
00000370: f254 d5bc 0ec2 26bb f4b6 f7bb 85f2 afbc
00000380: 4238 353c 198a 0abc b0c4 c138 291a 34bc
00000390: a80a 09bc 6353 0dbc a066 ca3c 81db 623c
000003a0: 77af 163d f22a 1b3d 2cb0 64bc e1c1 c6bb
000003b0: 06b2 5f3b 7ffe 9d3b dfc5 643c b956 083b
000003c0: 24b7 3abd 0ffc 91bc cbe8 75bc f4a6 46bd
000003d0: 29bd 43bc a154 b23b 47b5 883b 3e0f a5bb
000003e0: 511d bfbc f848 aabb cc75 73bc 7cba 8c3c
000003f0: 890b 183c 14e0 8abc 4ce9 4abc a8d2 4ebd
0.0012091815 -0.0011737428 0.021818195 0.005044247 -0.016179996 -0.021136744 -0.027270239 -0.016716277
-0.02610659 -0.04263788 0.026562354 0.006863014 -0.003529655 -0.0279112 -0.017805528 -0.001323348
0.017664056 -0.008816612 -0.008684283 0.0074894032 0.010386359 0.022269296 -0.010686518 0.03005386
0.016701622 -0.015080743 0.021988247 0.01633922 -3.0824183e-05 -0.02630094 -0.016728653 0.009680082
-0.004552044 -0.0005739063 -0.0041202772 0.00385105 -0.012554757 0.0022465717 -0.008473835 0.016203262
0.00040515166 0.013715102 -0.000720047 0.008413446 -0.0060903253 -0.035043158 0.011222783 0.019314915
0.026910085 0.016220797 -0.00056549936 0.03974697 0.029605363 0.023676943 0.001323656 0.015513054
0.038096715 0.051123492 0.022120366 0.0003402271 0.012488078 -0.0072401175 -0.030550476 -0.01955606
-0.040406957 -0.020992678 0.01040595 0.004087428 0.0072820117 0.0113552315 -0.00016174623 0.020430377
0.004023806 -0.004572624 0.02022903 0.0058903564 -0.024455108 -0.014884492 -0.024600673 -0.034631625
-0.00050136144 0.014691589 -0.020694626 -0.016600126 0.017584004 0.015474547 0.012492328 -0.012618597
0.037220743 0.016112957 -0.007672598 0.027876992 0.02132257 0.023554554 -0.0056974706 -0.009206142
-0.024897799 0.001590291 -0.03408182 -0.031703483 -0.031676356 -0.021941831 0.016649358 0.041205365
0.031797826 -0.017109783 0.0050350935 0.021195132 0.028114233 0.012791493 -0.025456492 -0.011313029
0.031909958 0.02034607 -0.033768047 -0.015506378 0.021939306 -0.015459116 0.01983817 0.014182578
-0.01798601 0.006008153 -0.0019468141 -0.017231047 0.023997832 -0.034884986 -0.034549434 0.03675097
-0.015631707 0.10884956 -0.000806265 0.0019967277 -0.003016471 -0.03737004 -0.020759821 0.03621926
0.027114691 0.0652062 0.05395672 0.03766781 -0.00057651533 0.010809332 0.0015817984 -0.0012668927
0.0114954 -0.027350696 0.011786889 -0.012238404 -0.020027982 -0.03382304 -0.009782807 -0.0033069209
-0.010510183 0.026437948 -0.038168795 0.025238013 0.012625054 -0.018259624 -0.012021651 0.017039524
0.009091964 -0.012104178 0.008484784 0.00371553 0.002138773 0.0073733483 -0.023248484 -0.010674199
0.0003784594 0.0243248 -0.028961036 -0.018864341 0.012174963 0.020338168 0.0071388246 0.018311474
-0.029021177 -0.013676348 0.008716083 -0.061665803 0.012898176 -0.07597118 -0.017493902 0.061285947
-0.00424276 -0.0622471 -0.057961766 -0.06535697 -0.0257199 -0.020337142 -0.031168722 0.0481875
0.09129597 0.04313913 -0.002561121 -0.111701146 -0.09891885 -0.0203712 -0.033101283 -0.03947801
-0.02899136 -0.041824546 -0.040066753 0.004752579 -0.011565829 0.011078496 0.003095338 -0.011142029
0.012576112 0.0003015868 -0.013072002 0.01630516 0.021944381 0.010946764 -0.01916871 0.03200078
0.015980123 0.020446949 -0.009347062 -0.0313751 -0.026041482 -0.0025445255 -0.0075596515 -0.021477947
0.011060776 -0.008455777 9.239593e-05 -0.010992565 -0.008364357 -0.008625838 0.024707139 0.013846279
0.03678843 0.037882753 -0.013958018 -0.0060655926 0.003413321 0.004821598 0.013963192 0.0020803644
-0.045584813 -0.017820386 -0.015009115 -0.048499063 -0.011946955 0.0054422175 0.0041720006 -0.0050372174
-0.023329409 -0.005196687 -0.014859628 0.017178766 0.009280094 -0.016952552 -0.012384724 -0.050493866

conv2.bias f4 [32]
00000000: 8155 ddbb 7a17 f7bc e594 1dbb 52d5 c13c
00000010: d176 d33c 81b9 b43c 8e6b 41bc 84a3 113c
00000020: cfd8 eb3b bd49 4bbc ce27 6fba cdfb 333c
00000030: 00f4 d03c be79 933c 1c9e 833c 1bd7 863c
00000040: dd35 6cbc 97ab 9cbc 02c1 8f3c 9180 ac3c
00000050: b36b 3f3d 8e50 4fbc 0f3e 47bc d7a2 8a3c
00000060: 02bd 553c 0434 483c 161f 963c 3fcf de3c
00000070: 69dd 173c 2c2c 5ebc 1834 493c 8e11 14ba
-0.0067545776 -0.030162562 -0.0024045047 0.02366129 0.025813492 0.022061111 -0.011805428 0.008889083
0.0071974765 -0.012407717 -0.0009123058 0.010985327 0.025506973 0.018002387 0.016066603 0.016459992
-0.014417139 -0.01912479 0.017548088 0.021057399 0.04673357 -0.012653483 -0.012160792 0.016923351
0.013045551 0.012219433 0.01832537 0.027198432 0.009269097 -0.013560336 0.0122804865 -0.0005648368

conv3.weight f4 [1, 32, 5, 5]
00000000: 99cb 973c 71a0 973c 958d b3ba 89c9 ee3c
00000010: a087 0d3d dd0e d8bc 12ad e73b f1da 06bd
00000020: 8c39 593b 5034 6d3c 3c02 acbb cbf3 e33c
00000030: 9926 423c 5326 12bd 72f8 f4bb 1c83 8fbc
00000040: 6b57 fbbc 3335 2fba 156f 06bd 3e1f b63c
00000050: ed38 f93b 04d5 5e3c fd65 b83c 7bdf fd3c
00000060: 6457 70bc 8058 a03a 878f 15bd acfd f23b
00000070: 5c04 d83c 989a c8bc 3354 a53c 918d 99bc
00000080: b0cd 263c 171d 83bc c2dd a43b 6cf2 0bbd
00000090: 55c9 ca3c 42c1 0bbc daee 003d d457 7dbc
000000a0: f5bd 803c 520d 9abc 17ca 8ebc fd9a 1abc
000000b0: 3f71 803c 56fe 733c 5bc0 a23c ab1a debb
000000c0: 8418 9c3b 1a25 aa3c b447 62bc 6c40 3ebc
000000d0: 0a84 dc3c 3348 f4bc af1f 8cbc 748d a0bc
000000e0: 3489 f3bb dfd6 d4bc d400 073c 5834 cabc
000000f0: 5e9c 7ebc 9ced 0cbd 4f09 c13c b477 b1bc
00000100: 94c1 8abb fedc acbc 1b3b a1bb 1788 dcbb
00000110: 3c81 3cbc 6368 04ba 8533 763c 0d37 ee3c
00000120: f7fc d63c deee d6bc 9a19 86bb e84a 6fbd
00000130: d1e0 a4bc 6bcb babb 378b 16bc b0ce 5fbb
00000140: bdb3 fe3c bf9a ddbb 0d1e 05bd ac2e 01bc
00000150: aafe 8b3c c415 473d 8d76 253d 013e 973d
00000160: da88 1c3d 5002 c3bb 0a55 f9bc b6f6 2dbd
00000170: 337d 10bd 45d5 723a 641f a1bc 3bcc 9e3b
00000180: dd41 7d39 c273 adbc fceb 87bc a125 a33b
00000190: 7f2f b83b a473 f13b a456 643c c9e1 67bb
000001a0: 2c91 5e3b 709b 00bc b7c8 013d bd66 9fb9
000001b0: 06f5 c93c 2e0c b0bc 11a1 e3bc 69a6 8d3b
000001c0: 86bb 04bd 97aa a53c d671 a23c fbfb e93c
000001d0: d74e 023d 2631 373c 1b6b 573c 79f3 c0bb
000001e0: 3785 023d 50e7 6d3c 1a84 0fbc 094d 07bd
000001f0: 38b4 6e3b 603e 8b3b 6209 d43c d448 d83c
00000200: 5255 223d eab9 a839 d871 583c f343 ecbc
00000210: 1efb c73a 35f2 fb3b 15c5 c7bc 93e7 89bc
00000220: 5528 8c3c 5e32 9dbc 8e62 3abc 1b18 cd3c
00000230: 9774 013d c805 bcbc 4619 b9bc 0196 f83c
00000240: 936a 2cbc fd45 003c 7819 b0bc ec8e 4ebc
00000250: 8a66 e93c 1c35 d8bc 1d2c 4b3c e1bc 643a
00000260: d2e6 343c f129 9f3a c022 06bc e501 543c
00000270: 836c 1b3c cb41 63bb f967 c13c 4718 013d
00000280: d370 9b3c f7df 1ebc e2c8 d5bc 87f2 cabc
00000290: fd7f 95bc 2678 48bb 646d 963c 4317 273c
000002a0: 91ef 013d 3a22 10bd e214 a4bc 8ab0 033d
000002b0: e5a8 d0bc 4f9e b83c dff6 d739 822d 80bb
000002c0: 2ef7 cd3c 7324 e03c f760 70bc 7e44 13bb
000002d0: 92e8 073d 780d f23c 6754 693c 1174 b0bc
000002e0: 43a7 c4bc 658f d13c b890 a83c 2927 7abb
000002f0: 94c5 0b3d daa6 ca3c 4230 f9bb 476d 803c
00000300: 098a 0d3d 82f4 a73c 77e1 8bbc ab86 08bd
00000310: 5fa0 333c c4c4 5b3c e5f8 0ebd 0241 a93b
00000320: c090 b2bc da5d 683c 9172 8dbc dc75 dcbc
00000330: 6744 0b3d bb41 ad3c d23a 6abc ecee d0bc
00000340: 81d0 c33c 9ade b4bc 41b5 2bbc cf15 81bc
00000350: e5a3 2c3c ace7 13bb e94b 573c 0421 a2bc
00000360: abcb d53c ea04 863b 8207 c8bc 0297 d3bc
00000370: d302 b03c 3e21 7abc 0538 223c 9617 6e3a
00000380: f982 86bc aceb 083d 22e1 68bc c70d 783c
00000390: 9497 b23c 2842 2f3c 1443 103d 34f9 c8bc
000003a0: f0f7 a23b ae73 ec37 1ad9 833c 12ac 7fbc
000003b0: 6b45 c0bc e68b ecbc 9463 c13c c8a8 123c
000003c0: 3763 0bbd 640c 58bb 4f37 fdbc 0693 fcbc
000003d0: 7d2b b63c 607e 88bc 2dcd b43c 51a4 083d
000003e0: c464 873b 4071 6c3c f1f0 fcbc 6013 76bc
000003f0: bd10 00bb 10e5 fb3b a646 713c 9612 9c3c
0.0185297 0.018509122 -0.0013698811 0.029148834 0.03455317 -0.026374275 0.007070192 -0.032923643
0.0033145873 0.014477804 -0.00524929 0.02782621 0.011850023 -0.03568108 -0.007475906 -0.017518573
-0.030681333 -0.00066836475 -0.03282078 0.022231694 0.007605663 0.013600592 0.02250957 0.030990353
-0.014669273 0.0012233406 -0.03651383 0.007415494 0.026369266 -0.024487779 0.02018175 -0.018744262
0.010180876 -0.016005082 0.0050313184 -0.03416674 0.024754206 -0.008529963 0.031477787 -0.015462834
0.015715579 -0.01880518 -0.017430348 -0.009436366 0.015679 0.014892181 0.019867113 -0.0067780814
0.0047636647 0.020769645 -0.013811041 -0.011612039 0.02691843 -0.029819584 -0.017104952 -0.0195987
-0.0074321274 -0.025981365 0.0082399435 -0.024683163 -0.0155402105 -0.03440629 0.023564009 -0.021663524
-0.004234502 -0.021101471 -0.004920376 -0.0067300904 -0.011505421 -0.0005050955 0.015026932 0.029078985
0.02624367 -0.026236948 -0.0040924074 -0.058421046 -0.020126732 -0.005700519 -0.009188465 -0.0034150295
0.031091565 -0.006762832 -0.03249936 -0.007884663 0.017089207 0.04860474 0.040396262 0.07384873
0.03821645 -0.0059512034 -0.030436058 -0.04247161 -0.03527565 0.0009263347 -0.019668289 0.0048461235
0.00024152496 -0.021173362 -0.016592018 0.004978851 0.0056208964 0.0073685218 0.013936672 -0.0035382381
0.003396104 -0.007849559 0.031685557 -0.0003040339 0.02465297 -0.021490183 -0.027786763 0.004322816
-0.0324054 0.020222945 0.019829672 0.028562536 0.03181347 0.0111811515 0.0131480945 -0.005888399
0.031865325 0.014520481 -0.008759523 -0.03303245 0.0036423337 0.004249379 0.02588338 0.026401915
0.03963215 0.00032181974 0.013210736 -0.028840994 0.0015257334 0.0076887854 -0.024385968 -0.016834056
0.017109076 -0.019189056 -0.011376036 0.025035908 0.03160533 -0.022951975 -0.02259506 0.030344965
-0.010523456 0.0078291865 -0.02149652 -0.012607317 0.028491277 -0.026392512 0.012400654 0.0008725655
0.01104136 0.0012143237 -0.008186996 0.012939905 0.00948632 -0.0034676667 0.023609148 0.031517293
0.018974697 -0.009696952 -0.026096765 -0.02477385 -0.018249506 -0.0030589192 0.018362708 0.010198417
0.03172261 -0.03518889 -0.020029489 0.032150783 -0.02547116 0.022536425 0.0004119193 -0.003911675
0.025142279 0.02736113 -0.014671556 -0.0022471244 0.03318078 0.029547438 0.0142413145 -0.02153972
-0.024005538 0.025581071 0.02057682 -0.0038170314 0.034123972 0.024737764 -0.0076046297 0.015677107
0.03455547 0.020502333 -0.017075283 -0.033331554 0.010963528 0.013413612 -0.034905333 0.0051652202
-0.021797538 0.014182532 -0.017266544 -0.026911668 0.03400078 0.021149507 -0.01429625 -0.025504552
0.023903133 -0.022078801 -0.010480226 -0.01575747 0.010537122 -0.0022568507 0.013140657 -0.019791134
0.026098093 0.0040899413 -0.024417643 -0.025828842 0.021485722 -0.015266715 0.009901051 0.0009082494
-0.016419875 0.03342788 -0.014213832 0.0151400035 0.021800794 0.010696925 0.03522022 -0.024532892
0.004973404 2.818726e-05 0.016094733 -0.01560499 -0.023470601 -0.028875303 0.023607053 0.008951373
-0.034030166 -0.003296637 -0.030910162 -0.030831825 0.022237534 -0.016661823 0.022070492 0.03335983
0.0041318852 0.014431298 -0.030876609 -0.015019268 -0.0019541227 0.0076872185 0.014726317 0.019051831
