output_x01/x2/epoch_326.pth (torch, 231335 bytes, 5 tensors)

conv1.weight f4 [64, 1, 9, 9]
0	0xbd5b1fcf	-0.053497132
1	0x3c3b3de3	0.011428329
2	0xbd3eab45	-0.046550054
3	0x3d8da154	0.069155365
4	0xbd914d44	-0.070948154
5	0x3dce6323	0.100775026
6	0xbd7b245e	-0.06131398
7	0xbd93b8f1	-0.07213009
8	0xbd87457b	-0.06605049
9	0x3d11b742	0.03557516
10	0xbd1e8cc6	-0.03870847
11	0x3d4b2a00	0.0496006
12	0xbd9f71a7	-0.07785349
13	0xbd794c81	-0.060863975
14	0xbd0afaea	-0.033930697
15	0xbc686c03	-0.014185908
16	0xbdac75e7	-0.084209256
17	0x3d88436e	0.06653486
18	0xbd56b2c2	-0.05241657
19	0x3cb0670e	0.021533515
20	0x3d88997b	0.06669899
21	0x3cf5ed85	0.030020485
22	0x3d3e31db	0.046434265
23	0x3dffa3fd	0.1248245
24	0xbcdf6168	-0.027268127
25	0x3d516fa9	0.051131878
26	0xbd4b001e	-0.04956066
27	0x3d8dcf50	0.06924307
28	0x3d98c800	0.07460022
29	0xbdf5f241	-0.12009097
30	0x3de6fe62	0.112789884
31	0x3d930d5e	0.07180284
32	0x3d55c481	0.052189354
33	0x3d823d18	0.06359309
34	0x3deef656	0.116680786
35	0xbc472480	-0.012154698
36	0xbdcd32ff	-0.10019492
37	0xbd342230	-0.043977916
38	0xbdb770e1	-0.08957077
39	0x3d01f529	0.031727944
40	0xbc744757	-0.014909587
41	0xbd9bd494	-0.076089054
42	0xbbd2db20	-0.006434813
43	0x3dfbe910	0.123003125
44	0xba8cadf7	-0.0010732998
45	0xbc0cd198	-0.008594893
46	0xbd13029b	-0.035891157
47	0x38e34ed5	0.00010838887
48	0x3ddf91fb	0.109165154
49	0x3d780cf9	0.060559247
50	0x3c8e6c7e	0.017385717
51	0x3cc820c8	0.024429694
52	0x3d21c6b0	0.039496124
53	0x3d445e59	0.04794154
54	0x3b45c5cf	0.0030177718
55	0xbdd19a61	-0.102345236
56	0xbd842482	-0.06452276
57	0x3df3b45b	0.118996345
58	0x3b7342c4	0.0037118653
59	0xbde1db4e	-0.11028157
60	0x3ca2efb0	0.019889683
61	0x3ddb720a	0.107151106
62	0xbdd1d290	-0.1024524
63	0xbd495ea6	-0.04916253
64	0xbd0920aa	-0.033478417
65	0x3c9d4c54	0.019201435
66	0x3a46422b	0.00075629604
67	0xbb95faa9	-0.004577
68	0xbdd5f493	-0.104470395
69	0x3d908746	0.07057051
70	0x3dfca673	0.12336435
71	0x3d9bc4e7	0.076059155
72	0xbd680301	-0.05664349
73	0xbda6397a	-0.081164315
74	0x3d487e2c	0.048948452
75	0x3bdafebc	0.0066831987
76	0x3d35fe62	0.04443205
77	0xbdda6780	-0.10664272
78	0xbbc8c6b3	-0.0061272024
79	0x3daabc2b	0.083366714
80	0x3d53a94e	0.051675133
81	0x3c8ca15e	0.01716679
82	0x3c64cecf	0.013965323
83	0xbc161c98	-0.009162091
84	0xbd8eda6c	-0.069752544
85	0xbd50ceab	-0.050978344
86	0xbde56df5	-0.11202613
87	0x3dc47d31	0.09594191
88	0x3d691782	0.056907184
89	0x3ca8ae44	0.020590909
90	0xbdc9b0b5	-0.09848157
91	0x3d90d6e7	0.07072239
92	0x3ce2d2c5	0.027688393
93	0x3d53a709	0.05167297
94	0xbd6c0ad9	-0.057627533
95	0xbbea09ee	-0.007142297
96	0x3e02409e	0.12719962
97	0x3dc431a1	0.095797785
98	0x3d8fb0d8	0.07016152
99	0xbd161926	-0.036645077
100	0x3d969df3	0.07354345
101	0xbdccedde	-0.10006307
102	0xbcff6a31	-0.031178566
103	0xbd84a6ae	-0.06477104
104	0xbd1dad69	-0.038495455
105	0xbc687ec3	-0.014190379
106	0x3ccab345	0.024743685
107	0x3dc04497	0.093880825
108	0x3d1d7539	0.03844187
109	0x38aac7ca	8.143445e-05
110	0x3dcd1918	0.10014552
111	0xbd81a967	-0.06331139
112	0x3dbce651	0.09223617
113	0x3b09e201	0.002103925
114	0xbc6376a5	-0.0138832675
115	0x3c649ae7	0.013952947
116	0xbdbb3575	-0.091410555
117	0xbb2884ac	-0.0025713844
118	0x3d1e287a	0.03861282
119	0x3decaccb	0.11556395
120	0xbd689101	-0.05677891
121	0x3d58f601	0.052968983
122	0x3ddcf4cf	0.10788881
123	0xbd727ddc	-0.05920206
124	0x3dbcd085	0.092194594
125	0xbd9c63a7	-0.07636195
126	0x3d39ef93	0.04539449
127	0x3d19a7bf	0.03751349
128	0x3d154a30	0.036447704
129	0x3d7b4af3	0.061350774
130	0xbce96459	-0.028490232
131	0x3d1681c5	0.03674485
132	0x3baf737a	0.005354342
133	0xbd9a668b	-0.0753909
134	0xbd046bdd	-0.03232943
135	0xbdabf356	-0.08396022
136	0x3c97a4e0	0.018511236
137	0x3a8b3cce	0.001062298
138	0xbc094dcc	-0.008380365
139	0xbcb76eef	-0.022391764
140	0xbc5a6737	-0.013330272
141	0xbd3babcc	-0.045818135
142	0x3d04f678	0.032461613
143	0x3dbb8364	0.0915592
144	0x3c4a5325	0.012348925
145	0xbda0309b	-0.07821771
146	0xbd832b8d	-0.06404791
147	0x3af388c6	0.001858019
148	0xbdb768a1	-0.08955503
149	0xbde5a01e	-0.112121806
150	0xbdb81006	-0.08987431
151	0xbd3178ec	-0.04332821
152	0xbbf8b9d2	-0.007590511
153	0x3dd0e7aa	0.102004364
154	0x3d2a2842	0.0415423
155	0x3df98459	0.121834464
156	0xbd3c71a3	-0.04600681
157	0x3c8cf932	0.01720867
158	0xbdc662c0	-0.09686804
159	0x3db0dd20	0.08635926
160	0x3d2470aa	0.040146507
161	0x3de18a39	0.11012692
162	0xbdc58a0b	-0.0964547
163	0x3db897b7	0.09013312
164	0x3df789d9	0.12086839
165	0x3e139644	0.1441279
166	0x3db13a95	0.08653752
167	0x3e11cd48	0.14238465
168	0x3da6a3e8	0.081367314
169	0x3d8ceff1	0.06881703
170	0xbc4490e0	-0.0119974315
171	0xbddc8e2f	-0.10769307
172	0xbc58801f	-0.01321414
173	0x3cac87e7	0.021060897
174	0xbdadd42c	-0.08487734
175	0xbda14d2e	-0.07876049
176	0xbdf9e211	-0.12201322
177	0xbd50bb57	-0.05095991
178	0x3d95c558	0.07313031
179	0xbc8640cc	-0.01638832
180	0x3c62bd9e	0.013839154
181	0x3cb9e18b	0.022690555
182	0x3db8c814	0.09022537
183	0xbdab1856	-0.08354251
184	0xbd894574	-0.067027
185	0xbd02dfc5	-0.031951685
186	0xbd793e03	-0.060850155
187	0x3d7b28db	0.06131826
188	0x3d72ae9d	0.059248555
189	0xbd78ace4	-0.060711756
190	0xbd6f9d32	-0.058499523
191	0xbdaac651	-0.08338607
192	0x3d92ebdd	0.071738936
193	0x3e182690	0.1485846
194	0xbd5a204d	-0.05325346
195	0xbd178f23	-0.03700174
196	0x3d66278b	0.056190055
197	0xbd83e632	-0.06440391
198	0x3dcbc8c1	0.099504
199	0x3cb3be4c	0.021941327
200	0xbd4f71b8	-0.05064556
201	0xbbc13cb1	-0.0058971276
202	0x3d6eca67	0.058298495
203	0xbcee0c46	-0.029058587
204	0xbdadbf66	-0.08483772
205	0x3c08644d	0.008324695
206	0xbad268d3	-0.0016052969
207	0xbc58a979	-0.013223999
208	0xbca46d5f	-0.020071683
209	0x3d8e9f87	0.06964021
210	0xbd4c22c0	-0.049837828
211	0xbc372152	-0.011177378
212	0x3d99cf95	0.07510296
213	0xbd026d23	-0.031842362
214	0x3d4d17b1	0.050071422
215	0xbd0f928a	-0.03505186
216	0x3d70153a	0.058613993
217	0xbd735b8b	-0.059413474
218	0x3d15167d	0.0363984
219	0x3d27e9a0	0.040994287
220	0xbd95b472	-0.07309808
221	0xbd729032	-0.059219547
222	0x3d7c1cdf	0.06155097
223	0xbd0964a9	-0.033543263
224	0x3d72ba57	0.05925974
225	0xbd975a64	-0.073902875
226	0xbd214727	-0.039374497
227	0xbd899392	-0.067176
228	0x3d9e3fb6	0.07726996
229	0x3d146c83	0.036236297
230	0x3bd3316e	0.0064451015
231	0xbc3e3c11	-0.011611001
232	0xbdafc2af	-0.08582055
233	0x3d802f68	0.06259042
234	0x3cd6a914	0.02620367
235	0xbd7120d7	-0.05886921
236	0x3d7a9665	0.061178584
237	0xbbc5597b	-0.00602263
238	0xbdd8b271	-0.1058091
239	0x3d8f0b35	0.069845594
240	0x3d55bfa2	0.05218471
241	0xbcc7c00a	-0.024383564
242	0xbd28f06e	-0.041244917
243	0x3b9af008	0.004728321
244	0x3da9da04	0.08293536
245	0x3dca23ec	0.09870133
246	0xbdb6c2f3	-0.08923902
247	0xbd899519	-0.06717891
248	0x3d8cdb46	0.068777606
249	0x3d59292b	0.053017776
250	0x3d4a1f59	0.0493463
251	0xbd9e80d3	-0.07739415
252	0x3dd8f38b	0.10593327
253	0xbdc73618	-0.097271144
254	0xbcacc106	-0.021088134
255	0xbc6284ad	-0.013825578

conv1.bias f4 [64]
0	0xbd065d83	-0.032804023
1	0xbd069878	-0.03286025
2	0x3c39b665	0.01133499
3	0xbd6164a8	-0.055027634
4	0x3d4f26aa	0.050573982
5	0x3d04ccfa	0.032422043
6	0x3d854a26	0.06508283
7	0x3ace0e59	0.0015720829
8	0x3dff444c	0.124641985
9	0xbc780a16	-0.015139123
10	0x3c19cd8e	0.009387387
11	0x3933d832	0.0001715131
12	0xbd48b94a	-0.04900483
13	0x3e1624fe	0.14662549
14	0x3d8d7d6b	0.06908687
15	0x3d76b598	0.060231775
16	0xbcb2f285	-0.021844158
17	0xbd8508a1	-0.064957865
18	0x3da4bb82	0.08043577
19	0x3d44e937	0.048073974
20	0x3cbef564	0.02331037
21	0xbc4a27c6	-0.012338584
22	0xbd900b02	-0.070333496
23	0x3df3fae9	0.11913092
24	0xbcdc6162	-0.026901904
25	0x3de4013a	0.111330464
26	0xbb1cf8f7	-0.0023952106
27	0xbcfe1999	-0.031018065
28	0x3ced32c9	0.02895488
29	0x3d24dfcc	0.04025249
30	0x3dc5658d	0.0963851
31	0x3bd7cf14	0.006585965
32	0x3d51143d	0.05104469
33	0x3da2ef6d	0.07955823
34	0xbc9ef50f	-0.019403962
35	0xbe086a8c	-0.13321894
36	0xbc9604fc	-0.018312924
37	0x3daa8f7d	0.083281495
38	0xbcd02ab0	-0.02541098
39	0x3d2c4bc8	0.042064458
40	0xbddf70bf	-0.109101765
41	0xbd31925c	-0.04335247
42	0x3deab011	0.11459363
43	0x3d425822	0.04744733
44	0x3d13f8d2	0.036125965
45	0x3d1c41e6	0.038148783
46	0xbc0604b4	-0.008179832
47	0x3d0cc57e	0.03436803
48	0x3c99f48c	0.018793367
49	0xbcb0754d	-0.021540308
50	0xbca9f9df	-0.02074903
51	0x3b856e61	0.004071996
52	0x3d77e4be	0.06052088
53	0x3b8a4672	0.0042198235
54	0x3a96157f	0.0011450498
55	0xbbc433a6	-0.0059876023
56	0x3e105639	0.14095391
57	0xbd341f67	-0.04397526
58	0x3c0b1c61	0.008490653
59	0x3e24711f	0.16058777
60	0x3df8a696	0.12141149
61	0x3d0aba68	0.033869177
62	0xbc9cfe4d	-0.019164229
63	0xbd795e18	-0.06088075

conv2.weight f4 [32, 64, 5, 5]
0	0x3a594c78	0.0008289288
1	0xbabbc1bb	-0.0014324704
2	0x3c851e34	0.016249754
3	0x3bc8a30e	0.0061229533
4	0xbb6e9761	-0.0036406147
5	0xbca902ba	-0.020631183
6	0xbcdf9ac1	-0.027295472
7	0xbca5fcfa	-0.02026223
8	0xbcc0fb7b	-0.023557415
9	0xbce9cd46	-0.028540265
10	0x3d00e6ff	0.031470295
11	0x3c6a491b	0.014299656
12	0xbc0c5e30	-0.008567378
13	0xbcf43e9d	-0.029815013
14	0xbc2ced57	-0.010554633
15	0xba9d1a0b	-0.0011985911
16	0x3cab8725	0.020938465
17	0xbc3c770d	-0.011502993
18	0xbc11f742	-0.0089090485
19	0x3c7e3f48	0.015518017
20	0x3c73c037	0.014877371
21	0x3cb571c6	0.022148978
22	0xbc3f26d4	-0.011666972
23	0x3cd53572	0.026026461
24	0x3cbb72c5	0.022881875
25	0xbc3ee122	-0.0116503555
26	0x3cab2495	0.020891467
27	0x3c82ae80	0.015952349
28	0xba9c9642	-0.0011946636
29	0xbcca1e09	-0.024672525
30	0xbcbb3045	-0.022850165
31	0xbad7b317	-0.0016456571
32	0xbc4fb7ae	-0.01267807
33	0xbc593cea	-0.013259152
34	0xbbfb0235	-0.007660175
35	0x3bfdd15a	0.007745904
36	0xbbf2dd05	-0.0074116015
37	0x3c33d29a	0.010975504
38	0xbc19be75	-0.009383787
39	0x3c880686	0.016604673
40	0xbac4bf0f	-0.0015010553
41	0x3c4a73b2	0.0123566855
42	0x3becc54f	0.0072256695
43	0x3c4bcd85	0.012439136
44	0xbc3fa0db	-0.011696066
45	0xbd1d3720	-0.03838265
46	0x3bcb35cc	0.0062014814
47	0x3c9a4556	0.01883189
48	0x3ccef2c6	0.025262248
49	0x3bd52adc	0.0065053534
50	0x3bfe4a76	0.0077603413
51	0x3d409a62	0.04702223
52	0x3d251ba8	0.04030958
53	0x3d167c2e	0.03673952
54	0x3b7a7be7	0.0038220824
55	0x3cb3489e	0.021885213
56	0x3cf8353a	0.030298818
57	0x3d4ba4ad	0.049717594
58	0x3cc8cfc6	0.024513137
59	0xbb77c5d2	-0.003780712
60	0x3cd36950	0.025807053
61	0xbc48d5b5	-0.012257983
62	0xbd17896d	-0.036996294
63	0xbcbea92c	-0.023274027
64	0xbd5849f6	-0.05280491
65	0xbc9a27b7	-0.018817766
66	0x3c049f74	0.008094657
67	0x3ab4cdce	0.0013794245
68	0x3c07b385	0.008282547
69	0x3c8b7ed0	0.017028242
70	0xbb362189	-0.0027790985
71	0x3ca1d2d3	0.01975385
72	0x3b1f3d0f	0.0024297868
73	0xbbbb4920	-0.0057155043
74	0x3ca7858b	0.02044942
75	0x3c0cab52	0.008585768
76	0xbcbc3a2b	-0.022976955
77	0xbc94fa0f	-0.018185643
78	0xbcd3b966	-0.02584524
79	0xbd0cc2f9	-0.034365628
80	0xbadb37f5	-0.001672505
81	0x3c4a8081	0.012359739
82	0xbcc1a54b	-0.023638388
83	0xbc826376	-0.015916567
84	0x3cd7f289	0.026360767
85	0x3c17ba90	0.009260789
86	0x3c08a1fd	0.008339402
87	0xbc2c27a9	-0.010507503
88	0x3d279cc8	0.040921003
89	0x3c8df5b9	0.017329084
90	0xbba7e6ab	-0.0051239333
91	0x3cf01131	0.029305073
92	0x3ca69e7f	0.020339249
93	0x3c9cd2ae	0.019143429
94	0xbc062be5	-0.008189176
95	0xbbea718a	-0.007154648
96	0xbd00e097	-0.031464186
97	0xbc2beb8a	-0.010493169
98	0xbd40d2e3	-0.047076117
99	0xbd1b444c	-0.03790693
100	0xbd002a67	-0.031290438
101	0xbc90635d	-0.017625505
102	0x3cb500c8	0.0220951
103	0x3d319285	0.043352623
104	0x3cd6433d	0.026155109
105	0xbcb8998a	-0.02253415
106	0x3c10fa89	0.008848795
107	0x3c98a1cd	0.01863184
108	0x3cc07c13	0.023496663
109	0x3c110081	0.008850218
110	0xbd11d506	-0.035603546
111	0xbc8589d5	-0.016301075
112	0x3cf757ce	0.030193236
113	0x3cc22414	0.023698844
114	0xbd009605	-0.03139307
115	0xbc507efc	-0.012725588
116	0x3cda2253	0.026627695
117	0xbc7cd5e2	-0.015431853
118	0x3c8d49f4	0.017247178
119	0x3c13db45	0.009024446
120	0xbc417800	-0.011808395
121	0x3be34588	0.006935779
122	0xbbe432dd	-0.006964071
123	0xbcbcd87a	-0.023052443
124	0x3cb7ea5a	0.022450615
125	0xbb161179	-0.0022898598
126	0xbd7e1b81	-0.06203795
127	0x3d0dcb0d	0.034617472
128	0xbcbce282	-0.023057226
129	0x3d89e9c0	0.067340374
130	0x3c224199	0.009903335
131	0x3bbf7f58	0.005844038
132	0xba28a957	-0.0006433925
133	0xbd0e7900	-0.034783363
134	0xbb9cbb59	-0.004783076
135	0x3d2221d1	0.03958303
136	0x3cd110d5	0.025520721
137	0x3d8b97f1	0.0681609
138	0x3d769198	0.060197443
139	0x3d35459e	0.044255845
140	0xbc122534	-0.008920003
141	0x3b96576c	0.004588058
142	0x3a38c8e1	0.0007048976
143	0xbb6a29a3	-0.0035730384
144	0x3bea7996	0.0071556075
145	0xbbe363e9	-0.0069394005
146	0x3d05eed0	0.032698452
147	0x3c1fa620	0.009744197
148	0x3c30ed3a	0.010798747
149	0xbc53a016	-0.012916585
150	0xbbc90d5b	-0.0061356253
151	0xbb4f9d42	-0.0031679426
152	0xbc246fa6	-0.010036385
153	0x3d03c38e	0.032168917
154	0xbd2188cc	-0.0394371
155	0x3ca7ebb3	0.020498132
156	0x3bf90df5	0.0076005408
157	0xbcb81dfb	-0.022475233
158	0xbc2c27b9	-0.0105075175
159	0x3c66e3f8	0.014092438
160	0x3bb38b64	0.005479263
161	0xbbebd132	-0.007196569
162	0x3c436d40	0.011927903
163	0x3c0a53aa	0.008442799
164	0x3bc28dbf	0.0059373076
165	0x3c019b31	0.007910536
166	0xbcb3b92e	-0.021938886
167	0xbc2ad95b	-0.010427798
168	0xbb7f466b	-0.0038951884
169	0x3cc6b024	0.024253912
170	0xbd0824b3	-0.033238124
171	0xbcc9f977	-0.024655087
172	0x3c05d9d0	0.008169606
173	0x3c879033	0.016548252
174	0x3c43ebdf	0.0119580915
175	0x3c6f6c5a	0.014613235
176	0xbcc6e6d3	-0.024279987
177	0x3c90e5d5	0.017687717
178	0x3bd86e95	0.0066049793
179	0xbd81f410	-0.06345379
180	0xbb9da0a5	-0.00481041
181	0xbde41795	-0.111373104
182	0xbc368ad6	-0.0111414995
183	0x3d96242a	0.073311165
184	0xbc05f1a9	-0.008175292
185	0xbd805256	-0.06265704
186	0xbdc938c4	-0.0982528
187	0xbd5d3f91	-0.0540157
188	0xbb45b0e3	-0.0030165247
189	0xbc1e5ca2	-0.00966564
190	0xbcd872e8	-0.02642198
191	0x3d2ebc00	0.04265976
192	0x3dbc93c9	0.09207875
193	0x3d2a9652	0.041647263
194	0xbc31b31c	-0.010845926
195	0xbdfac992	-0.12245478
196	0xbdab9e0d	-0.08379755
197	0xbc2c792d	-0.010526937
198	0xbd098a4a	-0.03357915
199	0xbce6f303	-0.028192049
200	0xbcebcd0d	-0.0287843
201	0xbd2d76c7	-0.042349603
202	0xbd31f055	-0.04344209
203	0x3ac24426	0.0014821335
204	0xbc98ecfc	-0.01866769
205	0x3bbaa6af	0.0056961398
206	0xb88d6cc3	-6.7436624e-05
207	0xbc5c05a8	-0.013429083
208	0x3c41854c	0.011811566
209	0xbb7c2e5f	-0.0038479788
210	0xbc6a919a	-0.014316941
211	0x3c9f9165	0.01947851
212	0x3cce41c2	0.02517784
213	0x3c5a06b5	0.013307263
214	0xbc95e49a	-0.018297482
215	0x3cf7b162	0.03023595
216	0x3c9820f3	0.018570399
217	0x3cafac05	0.02144433
218	0xbc1b675d	-0.009485093
219	0xbcf3de24	-0.02976901
220	0xbce26772	-0.027637217
221	0xbb9f0103	-0.0048524155
222	0xbc565573	-0.013081896
223	0xbcdba9db	-0.026814392
224	0x3c38f586	0.011289006
225	0x3c060f87	0.008182413
226	0x3c708169	0.014679291
227	0x3b24ff73	0.0025176674
228	0x3ae3d2dd	0.0017381568
229	0x3b78f9ae	0.0037990618
230	0x3c3b8a9d	0.011446622
231	0x3be32c5c	0.0069327783
232	0x3d16e07a	0.03683517
233	0x3d22116d	0.0395674
234	0xbc26a2bb	-0.010170634
235	0xbc9b9a9d	-0.018994624
236	0xba3f3638	-0.0007294151
237	0x3b8c9101	0.0042897468
238	0x3c339c47	0.010962552
239	0xbb38bad5	-0.0028187532
240	0xbcd7711d	-0.026299054
241	0xb90b9bc1	-0.00013314096
242	0xbb700f5b	-0.0036630246
243	0xbd5d677d	-0.054053772
244	0xbc3e6f42	-0.011623206
245	0xbb22fa15	-0.0024868299
246	0x3bb4fcbe	0.0055232933
247	0x39f0a4b2	0.00045899075
248	0xbd15a74b	-0.036536496
249	0xbbf599b2	-0.0074951285
250	0xbc7e09bb	-0.01550525
251	0x3c899322	0.016793791
252	0x3c13e78e	0.009027375
253	0xbc78a941	-0.015177072
254	0xbc45aa1a	-0.012064481
255	0xbd496b08	-0.04917434

conv2.bias f4 [32]
0	0xbb6cf882	-0.0036158864
1	0xbd1eed07	-0.038800266
2	0xbb1d94e5	-0.0024045047
3	0x3cafecac	0.021475159
4	0x3cca3a45	0.024685988
5	0x3c882e40	0.016623616
6	0xbc606aeb	-0.013697366
7	0x3bf928d0	0.007603742
8	0x3bebd8cf	0.0071974765
9	0xbc5c0534	-0.013428975
10	0xba6f27ce	-0.0009123058
11	0x3c5161a4	0.012779627
12	0x3cb878b4	0.022518493
13	0x3c93a4a6	0.018022846
14	0x3cbb1aee	0.02283999
15	0x3cbc4528	0.022982195
16	0xbc7bafde	-0.015361754
17	0xbc9da824	-0.019245215
18	0x3c9da487	0.019243492
19	0x3c9dd8db	0.019268444
20	0x3d506cd3	0.050885033
21	0xbc844f5f	-0.016151128
22	0xbcb22fb0	-0.021751255
23	0x3ca57968	0.020199493
24	0x3c63adda	0.01389643
25	0x3c471fde	0.012153594
26	0x3c990579	0.018679367
27	0x3d299b51	0.041407887
28	0x3c0b5722	0.008504661
29	0xbc75b097	-0.014995716
30	0x3c061b76	0.008185258
31	0xba930429	-0.001121645

conv3.weight f4 [1, 32, 5, 5]
0	0x3c8de8c3	0.017322903
1	0x3c9acfd1	0.018897923
2	0xba2d639c	-0.0006614269
3	0x3cf7ab9b	0.030233195
4	0x3d0ba008	0.034088165
5	0xbcc34586	-0.023836862
6	0x3c2ebed8	0.010665618
7	0xbcfeaa2e	-0.031087007
8	0x3b870627	0.0041206065
9	0x3c845975	0.016155938
10	0xbbdbc18b	-0.0067064217
11	0x3ce21f6a	0.02760287
12	0x3c3e4660	0.011613458
13	0xbd1cd699	-0.038290594
14	0xbc1ee6f7	-0.009698621
15	0xbc96f4cb	-0.018427273
16	0xbd06affe	-0.032882683
17	0xbb4d0b5b	-0.0031287286
18	0xbd129fff	-0.035797115
19	0x3ca9ee37	0.020743473
20	0x3c132cf4	0.008982886
21	0x3c832968	0.016010955
22	0x3cd6e994	0.026234426
23	0x3d08b8e1	0.03337944
24	0xbc45cdfe	-0.012073038
25	0x3a88dec5	0.0010442367
26	0xbd1c303b	-0.038131934
27	0x3bf09ef7	0.007343169
28	0x3cdff330	0.02733764
29	0xbcd27f0e	-0.02569535
30	0x3ca36dbf	0.019949792
31	0xbca83acb	-0.020535847
32	0x3c2946d7	0.010331831
33	0xbc818ab3	-0.015813207
34	0x3b89870f	0.0041970084
35	0xbd0d185a	-0.03444705
36	0x3cc04974	0.023472525
37	0xbc1643a4	-0.0091714
38	0x3d003339	0.03129885
39	0xbc88a639	-0.016680824
40	0x3c8636b0	0.016383499
41	0xbca759d3	-0.020428574
42	0xbca26950	-0.019825608
43	0xbc1353f1	-0.008992181
44	0x3c6f7aa9	0.014616647
45	0x3c824f69	0.015907006
46	0x3ca42b59	0.020040201
47	0xbbf52e2c	-0.0074823108
48	0x3ba652de	0.0050757965
49	0x3ca25c76	0.01981948
50	0xbc6247b4	-0.013811041
51	0xbc3e406c	-0.011612039
52	0x3cdc840a	0.02691843
53	0xbcf44833	-0.029819584
54	0xbc8c1faf	-0.017104952
55	0xbca08d74	-0.0195987
56	0xbbf38934	-0.0074321274
57	0xbcd4d6df	-0.025981365
58	0x3c0700d4	0.0082399435
59	0xbcca3458	-0.024683163
60	0xbc7e9c5e	-0.0155402105
61	0xbd0ced9c	-0.03440629
62	0x3cc1094f	0.023564009
63	0xbcb177b4	-0.021663524
64	0xbb8ac194	-0.004234502
65	0xbcacdcfe	-0.021101471
66	0xbba13b1b	-0.004920376
67	0xbbdc8817	-0.0067300904
68	0xbc3c813c	-0.011505421
69	0xba046863	-0.0005050955
70	0x3c763385	0.015026932
71	0x3cee370d	0.029078985
72	0x3cd6fcf7	0.02624367
73	0xbcd6eede	-0.026236948
74	0xbb86199a	-0.0040924074
75	0xbd60d033	-0.054886054
76	0xbd0c2611	-0.03421599
77	0xbc919ddd	-0.01777547
78	0xbc4e41ad	-0.0125889005
79	0xbbf20c35	-0.007386709
80	0x3d0aeecb	0.033919137
81	0xbb0eca27	-0.0021787973
82	0xbcf00cf8	-0.029303059
83	0xbb2d7c15	-0.0026471664
84	0x3cdaaafb	0.026692858
85	0x3d4dcc8c	0.0502439
86	0x3d401c38	0.04690191
87	0x3daef52d	0.08542857
88	0x3d1d657c	0.03842686
89	0xbbbc18e7	-0.0057402733
90	0xbd0617d8	-0.032737583
91	0xbd65df1b	-0.056120973
92	0xbd20de96	-0.039274774
93	0xba25bc61	-0.0006322321
94	0xbcc5fecf	-0.024169354
95	0x3c12df19	0.008964323
96	0x3b6db3da	0.003627053
97	0xbcc593a8	-0.02411826
98	0xbc83b3d0	-0.016076952
99	0x3af4b467	0.0018669487
100	0x3babef92	0.005247065
101	0x3beb2102	0.0071755657
102	0x3c62888a	0.013826499
103	0xbb74495d	-0.0037275173
104	0x3b57d900	0.0032935739
105	0xbc06364c	-0.008191656
106	0x3d014d7c	0.031568035
107	0xb9d77317	-0.00041093744
108	0x3cc844cf	0.024446873
109	0xbcb1b841	-0.021694304
110	0xbce5dab2	-0.028058384
111	0x3b887215	0.0041639903
112	0xbd0574c6	-0.032582067
113	0x3ca4938c	0.020089887
114	0x3ca18f22	0.019721571
115	0x3ce88a92	0.028386388
116	0x3d0158a0	0.03157866
117	0x3c3504b1	0.011048482
118	0x3c53f555	0.01293691
119	0xbbc83a6f	-0.0061104815
120	0x3d01ea89	0.03171781
121	0x3c69bbed	0.014265996
122	0xbc135995	-0.008993526
123	0xbd0871af	-0.033311542
124	0x3b5e4da2	0.0033920784
125	0x3b72d7ec	0.003705497
126	0x3cc7dfbc	0.024398677
127	0x3cd7e5f6	0.026354771
128	0x3d3437e7	0.043998625
129	0xbaaf0b0d	-0.0013354734
130	0x3c64a317	0.013954899
131	0xbced2589	-0.028948562
132	0xbae36598	-0.0017349003
133	0x3bc7dc92	0.006099292
134	0xbce13e5a	-0.027495552
135	0xbc8b0205	-0.016968736
136	0x3c836946	0.01604141
137	0xbcabe1c2	-0.020981673
138	0xbc44e4ab	-0.012017409
139	0x3cc03efe	0.023467537
140	0x3d00dddb	0.031461578
141	0xbcbfd39f	-0.023416338
142	0xbca7bab4	-0.02047477
143	0x3d07cb07	0.033152606
144	0xbc315ce3	-0.010825369
145	0x3c2ba609	0.010476598
146	0xbcb17cea	-0.021666009
147	0xbc427d2c	-0.011870664
148	0x3cef5956	0.029217403
149	0xbce4de9b	-0.027938178
150	0x3c44a813	0.012002963
151	0x3a12f1cf	0.00056054903
152	0x3c3202f2	0.01086496
153	0x3a8f6089	0.0010938804
154	0xbc0bb601	-0.00852728
155	0x3c4d8629	0.012544193
156	0x3c162858	0.009164892
157	0xbb74ea38	-0.003737105
158	0x3cc14d32	0.02359638
159	0x3d011b4c	0.031520173
160	0x3c9a449a	0.01883154
161	0xbc230a83	-0.009951237
162	0xbcd892d8	-0.026437208
163	0xbccca59b	-0.02498131
164	0xbc98e3bf	-0.018663285
165	0xbb4de90f	-0.0031419431
166	0x3c943cbd	0.018095369
167	0x3c247a04	0.010038856
168	0x3d01555a	0.03157554
169	0xbd126182	-0.035737522
170	0xbca65b1f	-0.020307122
171	0x3d025e12	0.031827994
172	0xbcd38983	-0.025822407
173	0x3cb63693	0.02224282
174	0x37ae2f02	2.0764306e-05
175	0xbb85a9d8	-0.004079085
176	0x3cccf7bc	0.025020473
177	0x3cdf8c3c	0.027288549
178	0xbc72e41b	-0.014824892
179	0xbb1bee9c	-0.0023793345
180	0x3d074d5b	0.033032756
181	0x3cf180c8	0.029480353
182	0x3c691738	0.014226727
183	0xbcb1338d	-0.021631027
184	0xbcc57203	-0.024102217
185	0x3cd087a5	0.025455305
186	0x3ca848e4	0.02054257
187	0xbb75c99e	-0.0037504206
188	0x3d0b986c	0.034080908
189	0x3cc9d107	0.024635805
190	0xbbfb64cc	-0.007671928
191	0x3c8002ba	0.0156263
192	0x3d0db4cf	0.03459626
193	0x3ca79aa9	0.02045949
194	0xbc8c8623	-0.017153805
195	0xbd090725	-0.03345408
196	0x3c31bbc0	0.010847986
197	0x3c5a6b66	0.01333127
198	0xbd0f848f	-0.035038527
199	0x3ba5e658	0.0050628595
200	0xbcb290c0	-0.021797538
201	0x3c685dda	0.014182532
202	0xbc8d7291	-0.017266544
203	0xbcdc75dc	-0.026911668
204	0x3d0b4467	0.03400078
205	0x3cad41bb	0.021149507
206	0xbc6a3ad2	-0.01429625
207	0xbcd0eeec	-0.025504552
208	0x3cc3d081	0.023903133
209	0xbcb4de9a	-0.022078801
210	0xbc2bb541	-0.010480226
211	0xbc8115cf	-0.01575747
212	0x3c2ca3e5	0.010537122
213	0xbb13e7ac	-0.0022568507
214	0x3c574be9	0.013140657
215	0xbca22104	-0.019791134
216	0x3cd5cbab	0.026098093
217	0x3b8604ea	0.0040899413
218	0xbcc80782	-0.024417643
219	0xbcd39702	-0.025828842
220	0x3cb002d3	0.021485722
221	0xbc7a213e	-0.015266715
222	0x3c223805	0.009901051
223	0x3a6e1796	0.0009082494
224	0xbc8682f9	-0.016419875
225	0x3d09db0f	0.033656176
226	0xbc7a76ff	-0.01528716
227	0x3c6f7ecd	0.014617634
228	0x3cb0d34e	0.021585133
229	0x3c33cc52	0.010974007
230	0x3d14e9b6	0.036355697
231	0xbccc0fed	-0.024909938
232	0x3bba4dd1	0.005685546
233	0x39bdb430	0.0003618314
234	0x3c815e7e	0.015792128
235	0xbc7612f9	-0.015019172
236	0xbcd198dd	-0.025585586
237	0xbcf90c7d	-0.030401463
238	0x3cbb039f	0.022828875
239	0x3c098fe6	0.0083961245
240	0xbd0aefa0	-0.03391993
241	0xbb84b5db	-0.004049999
242	0xbd02ea75	-0.031961877
243	0xbd015c3b	-0.0315821
244	0x3cbc45e2	0.022982541
245	0xbc744c08	-0.014910705
246	0x3cc39f1d	0.023879582
247	0x3d0e14b4	0.034687713
248	0x3b69fc4d	0.0035703362
249	0x3c6f4b22	0.014605315
250	0xbcfcf0f1	-0.030876609
251	0xbc761360	-0.015019268
252	0xbb0010bd	-0.0019541227
253	0x3bfbe510	0.0076872185
254	0x3c7146a6	0.014726317
255	0x3c9c1296	0.019051831
