output_x01/x2/epoch_30.pth (torch, 231327 bytes, 5 tensors)

conv1.weight f4 [64, 1, 9, 9]
-0.040169746 0.008466929 -0.04990443 0.047986727 -0.087918 0.08839126 -0.07264931 -0.08084401
-0.06164953 0.053171463 -0.037686348 0.046143074 -0.08978195 -0.062302746 -0.03424996 -0.013250501
-0.07771843 0.07946712 -0.023082847 0.038979303 0.0832373 0.027816307 0.03907029 0.114389665
-0.041659713 0.04415761 -0.04138326 0.0819091 0.09005793 -0.099918544 0.103558056 0.06388715
0.05399684 0.05190476 0.10167498 -0.0062499004 -0.09130293 -0.029430328 -0.07404338 0.018049626
-0.00925438 -0.053651508 -0.0034928315 0.11505059 -3.0258523e-05 0.0064028874 -0.012993546 0.023260234
0.106852144 0.07410947 0.04164784 0.028161624 0.0325953 0.0485975 -0.010102122 -0.10025873
-0.06377718 0.102005415 0.011155406 -0.08991287 0.019998843 0.09715718 -0.10063612 -0.068241015
-0.039600007 0.010121151 -0.018711356 -0.008327868 -0.10892162 0.054489683 0.103860565 0.072979346
-0.0709335 -0.08375433 0.050740387 0.007718701 0.050368458 -0.107314594 -0.0043855966 0.08349975
0.056254014 0.00064787106 0.019009378 -0.010855904 -0.05922379 -0.040076055 -0.06522549 0.09344358
0.062411465 0.039016612 -0.08708144 0.08448863 0.03422276 0.07733601 -0.041886672 0.026408723
0.11015013 0.07588363 0.088979505 -0.02395127 0.083128534 -0.08884131 0.00952187 -0.06135711
-0.024723358 -0.027009893 0.009704073 0.10187692 0.05361703 -0.0027837236 0.07871758 -0.05400946
0.059316806 -0.010406357 -0.01835773 0.014834797 -0.08356667 0.009875412 0.03523013 0.096196815
-0.030653607 0.0416607 0.10994388 -0.047942664 0.10718169 -0.054208316 0.04738523 0.042614162
0.031715266 0.09126604 -0.04054604 0.03258074 0.0026270703 -0.08108587 -0.025491096 -0.07712095
0.04599621 0.008309956 0.012444345 -0.03001696 0.0035390346 -0.033753455 0.03243217 0.10829253
0.014373663 -0.05217889 -0.06927382 0.009140301 -0.081222355 -0.08189301 -0.0713562 -0.036796235
0.008990076 0.07486231 0.040773228 0.084867135 -0.06846429 0.009552267 -0.09893414 0.06380685
0.023445774 0.1063408 -0.074137494 0.09731307 0.10991959 0.11346413 0.04413251 0.12940529
0.099549256 0.09920835 0.0036444531 -0.07701794 0.01278092 0.04344923 -0.050284553 -0.040553603
-0.081540674 -0.010056413 0.11954715 0.032696255 0.0032833177 0.017717807 0.08778782 -0.07664317
-0.06708802 -0.0200802 -0.04073067 0.08226507 0.096976146 -0.09547384 -0.081838764 -0.0926186
0.06403398 0.11265308 -0.069818124 -0.032423873 0.060791496 -0.048975617 0.10385335 0.038179882
-0.014352417 0.030094327 0.057921622 -0.023320584 -0.06831202 0.024189858 0.023808863 0.004220756
-0.008671972 0.086763166 -0.014585572 0.0016217701 0.05782555 -0.050195377 0.050229486 -0.011000751
0.03731244 -0.07743363 0.009049213 0.018669747 -0.08639642 -0.07626787 0.05567201 -0.021004181
0.069993876 -0.11505299 -0.064612895 -0.08559158 0.05654915 0.012158495 -0.0068701087 -0.0053478335
-0.07802362 0.03702272 0.0020108433 -0.07883038 0.051213875 0.009937112 -0.089028366 0.07573652
0.07194178 -0.010656652 -0.06651349 0.004510836 0.08418401 0.102426246 -0.08316097 -0.049741138
0.08692633 0.055263728 0.0693886 -0.05578214 0.09600526 -0.09120288 -0.0046190377 0.0038407969
00000000: 0889 24bd e0b8 0a3c 9668 4cbd bb8d 443d
00000010: 5a0e b4bd 7a06 b53d 29c9 94bd 8b91 a5bd
00000020: 3884 7cbd 52ca 593d 005d 1abd 8500 3d3d
00000030: 99df b7bd 2a31 7fbd b049 0cbd a118 59bc
00000040: d72a 9fbd a8bf a23d 3d18 bdbc c3a8 1f3d
00000050: 5178 aa3d 06df e33c 2b08 203d 2145 ea3d
00000060: 60a3 2abd 9cde 343d 7e81 29bd f5bf a73d
00000070: 4b70 b83d 18a2 ccbd 3f16 d43d 44d7 823d
00000080: ca2b 5d3d 169a 543d f93a d03d f7cb ccbb
00000090: 08fd babd df17 f1bc 0ea4 97bd cfdc 933c
000000a0: af9f 17bc afc1 5bbd fde7 64bb a59f eb3d
000000b0: afd3 fdb7 50cf d13b e2e2 54bc 3f8c be3c
000000c0: 4cd5 da3d b5c6 973d ed96 2a3d 35b3 e63c
000000d0: a682 053d 2c0e 473d 5f83 25bc 7354 cdbd
000000e0: 9c9d 82bd 37e8 d03d 2ac5 363c 3d24 b8bd
000000f0: 9dd4 a33c 58fa c63d 4f1a cebd f2c1 8bbd
00000100: 9e33 22bd 2fd3 253c 8f48 99bc 9c71 08bc
00000110: 4c12 dfbd 9330 5f3d d9b4 d43d 3276 953d
00000120: 9545 91bd 6487 abbd 27d5 4f3d 28ed fc3b
00000130: 284f 4e3d c1c7 dbbd 0db5 8fbb eb01 ab3d
00000140: 9c6a 663d e4d5 293a 8eb9 9b3c f6dc 31bc
00000150: a594 72bd ca26 24bd f194 85bd 595f bf3d
00000160: 2aa3 7f3d e2cf 1f3d c157 b2bd 6008 ad3d
00000170: 2a2d 0c3d 5862 9e3d 5c91 2bbd 1b57 d83c
00000180: 6496 e13d e068 9b3d e33a b63d 7435 c4bc
00000190: 4b3f aa3d 6ff2 b5bd 9e01 1c3c 9851 7bbd
000001a0: a488 cabc da43 ddbc d5fd 1e3c d9a4 d03d
000001b0: 889d 5b3d 226f 36bb af36 a13d 0639 5dbd
000001c0: 2ef6 723d 6d7f 2abc f362 96bc a60d 733c
000001d0: 0125 abbd 7bcc 213c 784d 103d d602 c53d
000001e0: 461d fbbc 69a4 2a3d 422a e13d 875f 44bd
000001f0: 1382 db3d 8a09 5ebd 0417 423d 308c 2e3d
00000200: dee7 013d b1e9 ba3d 9b13 26bd 6273 053d
00000210: ed2a 2c3b 5910 a6bd b4d2 d0bc 97f1 9dbd
00000220: 8666 3c3d 7b26 083c 5ee3 4b3c 21e6 f5bc
00000230: 26ef 673b 1041 0abd 98d7 043d 79c8 dd3d
00000240: 837f 6b3c 88b9 55bd 6fdf 8dbd 33c1 153c
00000250: e857 a6bd 86b7 a7bd 3323 92bd a6b7 16bd
00000260: 1d4b 133c 6951 993d d401 273d d2ce ad3d
00000270: 0137 8cbd 1d81 1c3c fb9d cabd 2aad 823d
00000280: 5a11 c03c 35c9 d93d 66d5 97bd 134c c73d
00000290: 861d e13d e25f e83d 4ac4 343d d282 043e
000002a0: 7be0 cb3d bf2d cb3d c7d7 6e3b 95bb 9dbd
000002b0: 1067 513c d2f7 313d 2df7 4dbd 891b 26bd
000002c0: ccfe a6bd a7c3 24bc 23d5 f43d 82ec 053d
000002d0: ee2c 573b ef24 913c 1aca b33d 18f7 9cbd
000002e0: 7265 89bd 3b7f a4bc 34d5 26bd 977a a83d
000002f0: 6e9b c63d ca87 c3bd 159b a7bd d2ae bdbd
00000300: 3f24 833d a8b6 e63d cefc 8ebd e5ce 04bd
00000310: 8100 793d a89a 48bd 11b1 d43d 8262 1c3d
00000320: 6626 6bbc 6188 f63c 393f 6d3d cf0a bfbc
00000330: 2ce7 8bbd cf29 c63c ce0a c33c 444e 8a3b
00000340: e314 0ebc e3b0 b13d 53f8 6ebc 9391 d43a
00000350: 7cda 6c3d ab99 4dbd 6fbd 4d3d 7e3c 34bc
00000360: eed4 183d 8695 9ebd 2643 143c 4cf1 983c
00000370: 9bf0 b0bd 5432 9cbd 5508 643d f610 acbc
00000380: f358 8f3d e7a0 ebbd c453 84bd a34a afbd
00000390: 15a0 673d 6d34 473c a61e e1bb e13c afbb
000003a0: d9ca 9fbd 23a5 173d 5ac8 033b d371 a1bd
000003b0: a4c5 513d 45cf 223c 8154 b6bd c01b 9b3d
000003c0: 3656 933d 3d99 2ebc 3a38 88bd a3cf 933b
000003d0: ab68 ac3d dac4 d13d 4c50 aabd 5dbd 4bbd
000003e0: 6f06 b23d 385c 623d 9c1b 8e3d d07b 64bd
000003f0: 689e c43d 93c8 babd 4c5b 97bb e1b5 7b3b

conv1.bias f4 [64]
-0.018806076 -0.06688173 0.014267206 -0.06425477 0.04008953 -0.016824337 0.06263357 0.045343015
0.124662876 -0.050332498 0.010590052 0.005275683 -0.09229752 0.08895973 0.07670939 0.06844035
-0.033840697 -0.057292953 0.057609342 0.04014738 0.016953433 0.004260455 -0.07461306 0.072971374
-0.053231858 0.083682165 -0.009410655 -0.029147407 0.032774977 0.040502254 0.09648247 -0.015073459
0.05001894 0.060652252 0.0019218927 -0.098622814 -0.016486567 0.090191446 -0.045729592 0.036799118
-0.054695193 0.011100609 0.10312576 -0.008079855 0.039965946 0.03198975 -0.0348099 -0.058461502
-0.04068941 -0.024735095 -0.019320864 0.012097968 0.0523248 -0.0040181237 0.009717136 -0.020298727
0.09316533 -0.049388107 -0.0015447398 0.06789631 0.10141206 -0.014548918 -0.06501778 -0.089337036
00000000: 330f 9abc 4af9 88bd 00c1 693c 0198 83bd
00000010: eb34 243d 31d3 89bc 0746 803d 99b9 393d
00000020: 404f ff3d 7329 4ebd e681 2d3c a3df ac3b
00000030: 7b06 bdbd 8530 b63d d019 9d3d 742a 8c3d
00000040: 8b9c 0abd 04ac 6abd c6f7 6b3d 9471 243d
00000050: ede1 8a3c 499b 8b3b bbce 98bd 0472 953d
00000060: a609 5abd 8e61 ab3d 262f 1abc 8bc6 eebc
00000070: 0e3f 063d b1e5 253d 9a98 c53d abf6 76bc
00000080: a9e0 4c3d 7f6e 783d 05e8 fb3a c2fa c9bd
00000090: d60e 87bc 4bb6 b83d f44e 3bbd acba 163d
000000a0: 1108 60bd 54df 353c 9933 d33d 5e61 04bc
000000b0: 55b3 233d af07 033d d394 0ebd 5475 6fbd
000000c0: f0a9 26bd 41a1 cabc ca46 9ebc 8e36 463c
000000d0: 8852 563d 77aa 83bb 9f34 1f3c 8449 a6bc
000000e0: 77cd be3d 2f4b 4abd de78 caba 380d 8b3d
000000f0: 20b1 cf3d 965e 6ebc 0b28 85bd 56f6 b6bd

conv2.weight f4 [32, 64, 5, 5]
0.0014122516 0.016636908 0.00096991216 -0.029970704 -0.027359309 -0.009361426 -0.0106467465 -0.014261052
-0.039033882 -0.034521583 0.017550755 -0.012020945 0.0047388677 -0.022372665 -0.00016340819 0.0024662002
0.017896092 0.011811808 -0.0014557965 0.013764718 0.017624017 0.027066302 -0.01068442 0.01042107
-0.020006936 -0.017532878 0.016766205 0.010935447 -0.011878822 -0.014320311 -0.012515766 0.021280043
0.011877699 0.00298881 -0.014442988 0.008373691 -0.005649242 0.017843422 0.006325322 0.010098566
-0.008296925 -0.0014032867 -0.010298974 0.010027772 -0.0015522076 -0.02071928 0.013063886 0.012543963
0.020381624 0.013447538 0.003077419 0.04582317 0.021069787 0.0045197294 -0.0016770462 -0.01871867
0.02673654 0.032533407 0.0017731575 -0.020311134 -0.016750706 -0.02184394 -0.025814267 -0.008837484
-0.033357322 -0.016302455 0.0024571212 0.010746354 0.022762641 0.009382996 0.02154182 0.025179824
0.007643365 0.0025487272 0.02322959 0.011218764 -0.012271914 -0.015743528 -0.020208804 -0.0140481675
6.031473e-05 0.021191593 -0.014569904 -0.02124642 0.01949427 0.01543189 0.011940822 -0.012988997
0.023264227 0.011211525 0.0043159476 0.02369711 0.012714071 0.020448634 -0.007093721 0.015399062
-0.011701326 0.0065722875 -0.015413446 -0.022613836 -0.018311493 -0.013925102 0.016615503 0.02391112
0.01760861 -0.00020323513 0.0026980673 0.009859964 0.02499145 0.011524415 -0.014338065 -0.0119304145
0.026285352 0.017329048 -0.026488798 -0.016898753 0.015934573 -0.009206797 0.023771439 0.020620242
-0.016358502 0.00724026 -0.004205692 -0.021302897 0.015201372 0.014620537 0.02452234 -0.008586739
-0.014300296 -0.007179296 -0.025326539 0.0033355185 -0.011276323 0.0012859988 -0.0017225085 -0.000107162974
0.0030095328 0.02624563 0.029722167 0.016088063 0.025416203 0.01858353 0.0058470466 0.009187674
0.026113536 0.015235374 0.021183241 0.023106003 0.0055117514 0.0041159177 -0.016811669 -0.0013201351
-0.014449621 0.025075095 -0.022005416 0.021382444 0.018744709 -0.017023996 -0.012636869 0.02387468
-0.0017361236 -0.015275572 0.0052328305 -0.002324949 0.003988118 0.012315144 -0.019958911 -0.011292469
0.0011869549 0.023303954 -0.018563917 -0.01437013 0.012350771 0.021755597 3.3099255e-05 0.0040520066
0.017052969 -0.002476658 0.018931555 0.031079717 0.019574488 -0.008605245 0.030405395 0.02482502
0.007974309 -0.013954025 0.0043835836 -0.0067476337 -0.008566595 0.007218696 -0.01701122 -0.012299818
-5.8923004e-05 -0.004172199 -0.00594348 -0.00994676 -0.027951969 0.0015648458 -0.010615865 -0.009740577
-0.020930633 -0.038756084 -0.032115232 0.011936871 0.0062401155 0.02497951 0.0041548307 -0.01202337
0.012462506 0.0064065577 -0.006817351 0.01653244 0.011559057 0.003394029 -0.019482968 0.03318357
0.021065375 0.012729811 -0.016156789 -0.028971564 -0.031229533 0.0042602383 -0.0029052815 -0.026979968
0.0038128553 -0.0049591092 0.0038970613 -0.0067849196 -0.0033718608 0.007289793 0.027864285 0.016314883
0.03356148 0.03119267 0.0011935973 0.00034423542 0.0021997576 0.0020557365 -0.0036057534 -0.019863755
-0.024542242 -0.015703522 -0.013591295 -0.028925011 -0.0111171 0.027783351 -0.001150164 -0.018596265
-0.0015325149 0.01603675 -0.0070927017 0.019116908 0.013474444 -0.012236231 -0.0017047295 -0.04755357
00000000: 4d1b b93a 204a 883c b441 7e3a 1f85 f5bc
00000010: a120 e0bc ab60 19bc b16f 2ebc 30a7 69bc
00000020: fee1 1fbd 8166 0dbd 9ac6 8f3c 7ff3 44bc
00000030: 8148 9b3b e146 b7bc 8d58 2bb9 f99f 213b
00000040: d39a 923c 5086 413c 6dd0 beba 6985 613c
00000050: 3e60 903c 26ba dd3c b50d 2fbc 23bd 2a3c
00000060: 96e5 a3bc 1ca1 8fbc 4859 893c 972a 333c
00000070: 649f 42bc bd9f 6abc ed0e 4dbc 7c53 ae3c
00000080: ae9a 423c e9df 433b 48a2 6cbc ce31 093c
00000090: 471d b9bb 5e2c 923c a644 cf3b 7574 253c
000000a0: d3ef 07bc 7dee b7ba 07bd 28bc 864b 243c
000000b0: 7273 cbba 7bbb a9bc e909 563c 3285 4d3c
000000c0: 5df7 a63c 1053 5c3c 86ae 493b 14b1 3b3d
000000d0: 8c9a ac3c 3d1a 943b 55d0 dbba e557 99bc
000000e0: 9706 db3c c041 053d 4b69 e83a 8963 a6bc
000000f0: c738 89bc 10f2 b2bc 7178 d3bc 18cb 10bc
00000100: b0a1 08bd ba8c 85bc a707 213b 7a11 303c
00000110: b878 ba3c 23bb 193c 7978 b03c eb45 ce3c
00000120: 3175 fa3b 8c08 273b fb4b be3c e8ce 373c
00000130: 2310 49bc 92f8 80bc ef8c a5bc 492a 66bc
00000140: 73fa 7c38 fe99 ad3c 9bb6 6ebc f90c aebc
00000150: 73b2 9f3c 0ad6 7c3c 70a3 433c cdcf 54bc
00000160: 9f94 be3c 8bb0 373c cb6c 8d3b 7120 c23c
00000170: ae4e 503c e583 a73c 7272 e8bb 594c 7c3c
00000180: ebb6 3fbc 585c d73b ae88 7cbc a740 b9bc
00000190: fc01 96bc 1c26 64bc 3c1d 883c 41e1 c33c
000001a0: ef3f 903c 841b 55b9 0fd2 303b b08b 213c
000001b0: dfba cc3c e6d0 3c3c 34ea 6abc c977 43bc
000001c0: 6154 d73c a6f5 8d3c 09ff d8bc 416f 8abc
000001d0: 3989 823c 1bd8 16bc 52bc c23c c8eb a83c
000001e0: 4402 86bc b43f ed3b e7cf 89bb 6a83 aebc
000001f0: 2d0f 793c fa8a 6f3c 13e3 c83c 65af 0cbc
00000200: ca4b 6abc 4d40 ebbb 9a79 cfbc b798 5a3b
00000210: 54c0 38bc f68e a83a cbc5 e1ba afbc e0b8
00000220: 953b 453b 1301 d73c e77b f33c 1dcb 833c
00000230: a435 d03c 7d3c 983c 9598 bf3b e687 163c
00000240: 0eec d53c ca9d 793c 7a88 ad3c cd48 bd3c
00000250: ec9b b43b d2de 863b a0b8 89bc 6208 adba
00000260: 1abe 6cbc 496a cd3c b444 b4bc 3c2a af3c
00000270: 818e 993c e875 8bbc df0a 4fbc d594 c33c
00000280: a48e e3ba 6546 7abc 2a78 ab3b 2c5e 18bb
00000290: c2ae 823b 75c5 493c df80 a3bc 0c04 39bc
000002a0: 9993 9b3a efe7 be3c 5b13 98bc b270 6bbc
000002b0: e35a 4a3c cb38 b23c 0ed4 0a38 b2c6 843b
000002c0: abb2 8b3c 6d4f 22bb 5916 9b3c e49a fe3c
000002d0: ad5a a03c 03fd 0cbc bc14 f93c d75d cb3c
000002e0: ada6 023c 6c9f 64bc 2aa4 8f3b 411b ddbb
000002f0: e75a 0cbc d08a ec3b 1d5b 8bbc 2d85 49bc
00000300: 1824 77b8 f1b6 88bb 86c1 c2bb bcf7 22bc
00000310: 87fb e4bc 831b cd3a 2aee 2dbc f196 1fbc
00000320: b876 abbc b3be 1ebd 438b 03bd de92 433c
00000330: e279 cc3b d4a1 cc3c 3f25 883b abfd 44bc
00000340: 8a2f 4c3c 1aee d13b 1664 dfbb 0a6f 873c
00000350: 3362 3d3c 5c6e 5e3b bf9a 9fbc 7feb 073d
00000360: 4b91 ac3c b290 503c 3e5b 84bc c655 edbc
00000370: 14d5 ffbc 7899 8b3b 8966 3ebb 1805 ddbc
00000380: 19e1 793b 0680 a2bb d765 7f3b 0854 debb
00000390: 70fa 5cbb 37df ee3b a443 e43c caa6 853c
000003a0: c377 093d c587 ff3c 7b72 9c3a 7f7a b439
000003b0: cf29 103b 89b9 063b 814e 6cbb 50b9 a2bc
000003c0: d00c c9bc aca4 80bc 06ae 5ebc 25f4 ecbc
000003d0: 7f24 36bc e999 e33c 1ac1 96ba 3257 98bc
000003e0: abde c8ba 815f 833c e569 e8bb 109b 9c3c
000003f0: eac3 5c3c 797a 48bc 3b71 dfba 88c7 42bd

conv2.bias f4 [32]
-0.008277432 -0.021008017 -0.001003733 0.0147502795 0.026881479 0.021225126 -0.010162766 0.0064823576
0.0071974765 -0.010973533 0.00029537576 0.0085745165 0.025710886 0.01106119 -0.001927616 -0.00509717
-0.015083947 -0.017228747 0.014848436 0.022715656 0.025584795 -0.000981383 -0.004038694 0.0024247074
0.018124461 0.0053092856 0.016600415 0.012361164 0.009641251 -0.013560336 0.009327683 -0.00120602
00000000: 119e 07bc 0119 acbc b18f 83ba 28ab 713c
00000010: 8c36 dc3c 51e0 ad3c bb81 26bc f569 d43b
00000020: cfd8 eb3b 55ca 33bc aadc 9a39 217c 0c3c
00000030: a39f d23c fe39 353c 0fa8 fcba 2906 a7bb
00000040: a922 77bc 4d23 8dbc db46 733c 2f16 ba3c
00000050: 3497 d13c c0a1 80ba 0557 84bb d7e7 1e3b
00000060: c079 943c 84f9 ad3b 98fd 873c 7b86 4a3c
00000070: 56f6 1d3c 2c2c 5ebc 23d3 183c 5113 9eba

conv3.weight f4 [1, 32, 5, 5]
0.019074507 0.018210493 -0.0016141342 0.025144426 0.031141331 -0.029212216 0.0018066249 -0.034272995
0.0037095954 0.010322644 -0.002522036 0.028468233 0.012491756 -0.03010855 -0.0032967406 -0.01577966
-0.028342642 0.00037546028 -0.03158325 0.023418115 0.004485589 0.012531925 0.020017043 0.028015265
-0.017280858 0.002302155 -0.033282124 0.0080919815 0.026532562 -0.022127172 0.020710256 -0.016249597
0.010226956 -0.015334172 0.0067819906 -0.033230092 0.02660021 -0.0079054115 0.03294214 -0.012609601
0.015606681 -0.016663406 -0.014598436 -0.008623026 0.01711339 0.014284428 0.020648498 -0.0054943347
0.00480796 0.022069218 -0.013811041 -0.011612039 0.02691843 -0.029819584 -0.017104952 -0.0195987
-0.0074321274 -0.025981365 0.0082399435 -0.024683163 -0.015545952 -0.034401745 0.02358915 -0.021663524
-0.004234502 -0.021088554 -0.0048899804 -0.006768785 -0.011505421 -0.0005050955 0.015041601 0.02910587
0.026217839 -0.026236948 -0.0040924074 -0.038285058 0.011016275 0.018711861 0.005158882 0.007851115
0.03441864 -0.006079909 -0.033317972 -0.0181392 -0.012716376 0.023931038 0.0050067017 0.031002076
0.021564374 -0.011351254 -0.011815885 -0.015157256 -0.033858232 -0.011127707 -0.018517736 -0.008987389
-0.009487519 -0.014862824 -0.017068265 0.0037140814 0.0063416976 0.007811153 0.014440265 -0.0028073157
0.0038252915 -0.007028629 0.032025035 8.5394815e-05 0.025402267 -0.020817222 -0.027253589 0.004634131
-0.031786766 0.020801729 0.020390192 0.029121198 0.032212447 0.011531456 0.013720053 -0.0051766466
0.0324383 0.015241997 -0.008258915 -0.032418627 0.0044616475 0.0042251674 0.02793801 0.022380715
0.03214889 0.0039937925 0.011799891 -0.02633092 0.0066524423 0.010359013 -0.018469252 -0.015811441
0.018772623 -0.016620185 -0.009693896 0.0281434 0.030086268 -0.025235526 -0.027698178 0.026027568
-0.008208066 0.004833162 -0.021171588 -0.013499935 0.028508386 -0.021652838 0.0131824305 0.0016640772
0.011304522 0.0017799239 -0.007426738 0.013388351 0.009988187 -0.0031627011 0.023898087 0.0317421
0.019348992 -0.009430871 -0.02559171 -0.024032207 -0.01741771 -0.0025697423 0.018670475 0.01021763
0.031991743 -0.03423994 -0.019616859 0.032605615 -0.025037678 0.02286103 0.0011527634 -0.0035954032
0.025386304 0.02751737 -0.014273747 -0.0018156784 0.033444323 0.029714866 0.014288214 -0.02128458
-0.023698289 0.025744885 0.020534161 -0.004025327 0.034205053 0.02490231 -0.007446934 0.015692368
0.03443812 0.020595951 -0.016999051 -0.03309189 0.011077667 0.013420338 -0.0346973 0.0053912736
-0.021797538 0.014182532 -0.017266544 -0.026911668 0.03400078 0.021149507 -0.01429625 -0.025504552
0.023903133 -0.022078801 -0.010480226 -0.01575747 0.010537122 -0.0022568507 0.013140657 -0.019791134
0.026098093 0.0040899413 -0.024417643 -0.025828842 0.021485722 -0.015266715 0.009901051 0.0009082494
-0.016419875 0.034645107 -0.0127049815 0.015181994 0.022609685 0.011774296 0.03400848 -0.023882769
0.004074478 -0.00034456432 0.017480329 -0.0146989925 -0.02054193 -0.026765801 0.024788115 0.010310932
-0.03266665 -0.0017710059 -0.028663157 -0.028892426 0.022271166 -0.017439209 0.021290729 0.033212606
0.0055552614 0.015676042 -0.03087678 -0.0150820175 -0.001939043 0.007561713 0.014300458 0.019067237
00000000: 2442 9c3c 2c2e 953c 5b91 d3ba affb cd3c
00000010: 1b1c ff3c 754e efbc 46cc ec3a d761 0cbd
00000020: af1c 733b 4f20 293c be48 25bb 3636 e93c
00000030: 39aa 4c3c 35a6 f6bc 210e 58bb 5844 81bc
00000040: d42e e8bc 6dd9 c439 705d 01bd 59d7 bf3c
00000050: d9fb 923b b452 4d3c c8fa a33c 4580 e53c
00000060: 9690 8dbc c0df 163b d652 08bd 3b94 043c
00000070: d15a d93c 0b44 b5bc 8ea8 a93c e01d 85bc
00000080: f68e 273c 2e3c 7bbc 763b de3b 471c 08bd
00000090: afe8 d93c b385 01bc 56ee 063d 8098 4ebc
000000a0: 2ab3 7f3c b281 88bc 472e 6fbc 9847 0dbc
000000b0: 6131 8c3c 3c09 6a3c 0a27 a93c d209 b4bb
000000c0: 178c 9d3b 81ca b43c b447 62bc 6c40 3ebc
000000d0: 0a84 dc3c 3348 f4bc af1f 8cbc 748d a0bc
000000e0: 3489 f3bb dfd6 d4bc d400 073c 5834 cabc
000000f0: 73b4 7ebc d8e8 0cbd 083e c13c b477 b1bc
00000100: 94c1 8abb e7c1 acbc 213c a0bb afcc ddbb
00000110: 3c81 3cbc 6368 04ba 0c71 763c 6f6f ee3c
00000120: cbc6 d63c deee d6bc 9a19 86bb cbd0 1cbd
00000130: 9b7d 343c 9e49 993c d70b a93b f7a1 003c
00000140: 8ffa 0c3d f939 c7bb 6d78 08bd a998 94bc
00000150: 5958 50bc 060b c43c 420f a43b 11f8 fd3c
00000160: c5a7 b03c 9cfa 39bc 6a97 41bc 2456 78bc
00000170: eeae 0abd fc50 36bc 82b2 97bc d73f 13bc
00000180: 8a71 1bbc 3483 73bc bfd2 8bbc f267 733b
00000190: 04ce cf3b b3f4 ff3b dc96 6c3c f1fa 37bb
000001a0: beb1 7a3b 6a50 e6bb af2c 033d fe15 b338
000001b0: 6a18 d03c e188 aabc eb42 dfbc e9d9 973b
000001c0: d732 02bd 6368 aa3c 5509 a73c 948f ee3c
000001d0: 33f1 033d 6fee 3c3c 13ca 603c dca0 a9bb
000001e0: 06de 043d 92b9 793c 6650 07bc 65c9 04bd
000001f0: 0333 923b 4673 8a3b 41de e43c c357 b73c
00000200: 8eae 033d 5cde 823b 5454 413c f1b3 d7bc
00000210: bbfc d93b dab8 293c d44c 97bc ff86 81bc
00000220: 0bc9 993c 0e27 88bc 26d3 1ebc fd8c e63c
00000230: 7a77 f63c bcba cebc 4ae7 e2bc c437 d53c
00000240: 207b 06bc 805f 9e3b 0a70 adbc d52e 5dbc
00000250: 6b8a e93c 4b61 b1bc 1ffb 573c 2a1d da3a
00000260: 9a36 393c 564c e93a fe5b f3bb d05a 5b3c
00000270: 7ea5 233c 5245 4fbb ecc5 c33c 0104 023d
00000280: c781 9e3c f183 1abc b5a5 d1bc 31df c4bc
00000290: 96af 8ebc 1f69 28bb d3f2 983c d967 273c
000002a0: c609 033d 2e3f 0cbd 89b3 a0bc 778d 053d
000002b0: d11b cdbc 0e47 bb3c 5218 973a dba0 6bbb
000002c0: f0f6 cf3c 1c6c e13c 6fdc 69bc 0ffc edba
000002d0: eafc 083d 976c f33c 1d19 6a3c 005d aebc
000002e0: ea22 c2bc f0e6 d23c 4237 a83c e4e6 83bb
000002f0: 991a 0c3d eeff cb3c 6905 f4bb 488d 803c
00000300: fc0e 0d3d d7b8 a83c 9841 8bbc 5d8b 07bd
00000310: 1a7f 353c fae0 5b3c c21e 0ebd 48a9 b03b
00000320: c090 b2bc da5d 683c 9172 8dbc dc75 dcbc
00000330: 6744 0b3d bb41 ad3c d23a 6abc ecee d0bc
00000340: 81d0 c33c 9ade b4bc 41b5 2bbc cf15 81bc
00000350: e5a3 2c3c ace7 13bb e94b 573c 0421 a2bc
00000360: abcb d53c ea04 863b 8207 c8bc 0297 d3bc
00000370: d302 b03c 3e21 7abc 0538 223c 9617 6e3a
00000380: f982 86bc 07e8 0d3d 8e28 50bc e6bd 783c
00000390: f237 b93c fae8 403c 7a4c 0b3d cca5 c3bc
000003a0: 3383 853b a4a6 b4b9 e832 8f3c 0bd4 70bc
000003b0: 8d47 a8bc f443 dbbc 7210 cb3c 2fef 283c
000003c0: 77cd 05bd 1921 e8ba ffce eabc cfaf ecbc
000003d0: 0572 b63c acdc 8ebc e569 ae3c f109 083d
000003e0: e908 b63b 0b6b 803c 4df1 fcbc 911a 77bc
000003f0: 7d27 feba 3fc8 f73b 784c 6a3c e532 9c3c
