output_x01/x2/epoch_90.pth (torch, 231327 bytes, 5 tensors)

conv1.weight f4 [64, 1, 9, 9]
000000 32 71 28 bd 31 34 0c 3c 37 eb 4b bd f4 dc 4a 3d
       -0.041123576 0.008557365 -0.049784865 0.049527124
000010 ff 32 b2 bd bf 08 b7 3d d6 26 93 bd 0b ac a2 bd
       -0.08701133 0.08937215 -0.07185142 -0.07942971
000020 74 18 70 bd 62 e5 4d 3d 37 1f 21 bd da 54 3a 3d
       -0.05861707 0.050267585 -0.03933641 0.045491077
000030 bf b2 bb bd c3 6b 83 bd cb 8c 04 bd 03 d9 42 bc
       -0.091649525 -0.06417038 -0.032360833 -0.01189256
000040 31 40 a2 bd e1 4f a4 3d 80 7b c3 bc 06 87 1b 3d
       -0.079224 0.08023048 -0.0238626 0.037970565
000050 14 af a5 3d 49 ea cd 3c b3 99 1f 3d fa c3 f1 3d
       0.08090034 0.02513613 0.03896494 0.11804958
000060 95 5d 19 bd 9b 8f 39 3d 70 d8 27 bd 8d af ab 3d
       -0.037442762 0.04530297 -0.040977895 0.08383093
000070 31 74 b6 3d 17 92 d3 bd bf 76 d4 3d 6b 3c 86 3d
       0.089088805 -0.10330599 0.103742115 0.065544926
000080 33 94 5f 3d e7 b0 63 3d 87 2b da 3d 10 79 89 bb
       0.054584693 0.05558863 0.106528334 -0.00419534
000090 55 f0 ba bd 00 91 01 bd 66 b2 9d bd 6a fa 9b 3c
       -0.09127871 -0.031632423 -0.077000424 0.019040305
0000a0 46 43 3b bc ee cf 71 bd e2 7c 93 bb fd 6a ef 3d
       -0.011429613 -0.059036188 -0.004500971 0.11690328
0000b0 b1 7f cd 3a 19 2e f9 3b 19 88 4f bc 87 53 b3 3c
       0.0015678314 0.007604372 -0.012666726 0.021890415
0000c0 ce 6a d9 3d b8 85 8d 3d b0 93 10 3d 7a 0c d8 3c
       0.106160745 0.069102705 0.035297096 0.026373137
0000d0 3f 0a 04 3d b6 b6 4b 3d ca 6b ca bb 2f 9d ce bd
       0.032236334 0.049734794 -0.0061774002 -0.10088574
0000e0 0c 2b 88 bd 84 ed d0 3d 32 1e e8 3b 4b 19 c5 bd
       -0.066488355 0.102015525 0.0070836777 -0.09623965
0000f0 df 08 9c 3c 25 9e c6 3d 5d 86 d0 bd 1d 46 82 bd
       0.019047199 0.096981324 -0.10181878 -0.06361029
000100 89 b2 1c bd f3 65 1a 3c b7 c6 8e bc d4 64 29 bc
       -0.038256202 0.009423721 -0.017428739 -0.010338981
000110 56 45 e3 bd f7 16 6c 3d f1 58 db 3d 25 ef 94 3d
       -0.11097209 0.05763909 0.107103236 0.07272176
000120 68 fc 8a bd 4a f1 a8 bd cc 01 43 3d 33 75 4f 3b
       -0.06786424 -0.08249147 0.047609136 0.003165555
000130 9d de 3e 3d 2d dc dc bd f9 f3 84 bb 6a f8 a9 3d
       0.04659902 -0.10784183 -0.004057404 0.08299334
000140 91 e9 61 3d 60 9e 9c bb 0d 40 3f 3c b3 0c 88 bc
       0.055154387 -0.004779622 0.011672986 -0.016607618
000150 dc ce 83 bd c5 63 39 bd bd 59 91 bd fc a2 b1 3d
       -0.0643594 -0.045261163 -0.07097194 0.08673665
000160 eb 22 65 3d 24 9a f3 3c a0 86 be bd 03 1c a5 3d
       0.055941503 0.029736586 -0.093030214 0.080619834
000170 83 89 02 3d 85 48 95 3d 50 fb 33 bd ff b1 d2 3c
       0.031869423 0.07289223 -0.043940842 0.02571964
000180 1e 94 dd 3d eb b4 9a 3d 0b 41 a9 3d a2 c6 d2 bc
       0.10819267 0.075540386 0.08264359 -0.025729481
000190 95 18 a8 3d 37 97 be bd 6a 3c ba 3a e2 77 83 bd
       0.08207814 -0.09306186 0.0014208679 -0.0641935
0001a0 f7 33 ce bc 77 f5 ea bc c2 d5 2f 3c ea 61 cf 3d
       -0.025171263 -0.0286815 0.010732116 0.101260975
0001b0 75 ab 58 3d 45 aa 49 bb 83 dd a1 3d b7 52 68 bd
       0.05289789 -0.0030771655 0.07903578 -0.056719508
0001c0 d1 5a 70 3d 01 d9 23 bc 35 08 a9 bc 24 a6 4e 3c
       0.05868036 -0.010000468 -0.020633796 0.012612853
0001d0 76 c2 b5 bd 0a 66 d5 3b 79 f5 05 3d bd 62 c7 3d
       -0.08874981 0.006512408 0.032704804 0.0973563
0001e0 a8 b2 03 bd 97 6b 22 3d db a9 dd 3d fc 23 5c bd
       -0.0321528 0.039653387 0.10823413 -0.053745255
0001f0 ee e2 cf 3d d2 63 81 bd 53 64 43 3d 6d 06 21 3d
       0.10150705 -0.06317867 0.0477031 0.03931277
000200 a4 27 e1 3c 39 16 b4 3d 73 90 16 bd 0b 7d 18 3d
       0.027484722 0.08793301 -0.03675885 0.037228625
000210 88 b0 94 39 a8 e5 ab bd 28 ed 00 bd 2d e7 9c bd
       0.00028360286 -0.08393413 -0.03147617 -0.07661281
000220 34 b5 26 3d c8 c8 01 3b 16 9f 20 3c e4 db cc bc
       0.040700153 0.0019803513 0.009803554 -0.025007196
000230 68 69 d5 3b 9c c5 1b bd 26 cc f3 3c 69 c1 d4 3d
       0.0065128095 -0.03803025 0.029760431 0.103884526
000240 0e 1f 80 3c ed a2 59 bd 43 d5 8c bd 60 4f 16 3c
       0.015639808 -0.053133894 -0.06876614 0.009174198
000250 13 ba 9f bd 04 86 a3 bd 69 f3 9c bd 69 86 27 bd
       -0.07799163 -0.07984546 -0.07663614 -0.040899668
000260 30 71 66 3b fe 47 a7 3d cb 93 39 3d 2f 6f bb 3d
       0.003516268 0.08168028 0.045306962 0.09152066
000270 c3 1c 84 bd fc 63 43 3c e1 43 cb bd 17 5d 6c 3d
       -0.06450798 0.011925694 -0.09925056 0.057705965
000280 47 29 95 3c 8e 01 c8 3d 38 ae 96 bd 7f 09 c9 3d
       0.01820816 0.097659215 -0.07357448 0.09816264
000290 5f 75 e2 3d 9e 92 ec 3d 0d 4c 47 3d a5 91 06 3e
       0.11057543 0.115514025 0.048656512 0.13141496
0002a0 49 4b c7 3d 4d 82 c1 3d 95 b0 50 3a 6c 06 9f bd
       0.097311564 0.09448681 0.0007960883 -0.07764897
0002b0 b3 8a 44 3c 38 87 2e 3d 1f a6 54 bd 22 0d 2d bd
       0.011995959 0.042609423 -0.051916238 -0.042248853
0002c0 fc 77 aa bd 57 90 48 bc 14 56 e8 3d 4d a3 cc 3c
       -0.083236665 -0.012241445 0.11344543 0.024980212
0002d0 bf ac 4f 3b 55 20 82 3c 8e e1 af 3d a0 cd 9f bd
       0.0031688658 0.015884558 0.08587943 -0.07802892
0002e0 30 b3 8d bd c5 be c9 bc a6 ec 31 bd 7c 78 a2 3d
       -0.06918943 -0.024627099 -0.043438576 0.07933137
0002f0 a4 b8 ba 3d 39 42 bf bd e5 fe a7 bd 2a fe be bd
       0.09117249 -0.09338803 -0.08202914 -0.09325822
000300 f0 2f 87 3d f3 87 ed 3d ec 3c 94 bd b2 03 0f bd
       0.0660094 0.11598196 -0.072381824 -0.034915633
000310 65 ef 77 3d 14 fe 4e bd 15 6a d4 3d 1f 00 1a 3d
       0.06053104 -0.050535277 0.10371796 0.03759777
000320 3e 67 6d bc 0e e4 04 3d d8 34 80 3d b5 e9 c8 bc
       -0.014489947 0.032444052 0.06260079 -0.024525503
000330 2f ce 92 bd 62 23 b4 3c a4 6c b6 3c bb a1 14 3b
       -0.07168233 0.021989528 0.0222686 0.0022679407
000340 7f 49 19 bc 86 1b b3 3d 49 75 75 bc 2e 82 ab 3a
       -0.009355902 0.08745484 -0.014981576 0.0013085061
000350 1e 57 69 3d ef 52 4c bd 21 7d 47 3d 83 1a 66 bc
       0.056967847 -0.04988378 0.048703317 -0.014044407
000360 e3 07 23 3d e9 b2 9d bd 74 72 1f 3c 40 63 a0 3c
       0.039802443 -0.0770014 0.009731878 0.019578576
000370 6b 6f b1 bd ad 1b a0 bd 26 f4 65 3d a0 3f ad bc
       -0.086638294 -0.07817779 0.05614104 -0.021148503
000380 35 9e 8a 3d 1d bf da bd 1c c9 77 bd f3 15 af bd
       0.06768457 -0.10680983 -0.060494527 -0.08549108
000390 e4 04 6d 3d b6 c3 80 3c 6a 5e f6 bb 71 db fa bb
       0.057865992 0.015718322 -0.0075185793 -0.007655554
0003a0 02 25 a4 bd af 9d 0e 3d 50 85 f3 3b c4 cb 95 bd
       -0.08014871 0.034818348 0.0074316636 -0.07314256
0003b0 a6 25 5e 3d f2 76 26 3c ed 8e b3 bd 33 f2 98 3d
       0.054235123 0.010160195 -0.08767495 0.07468071
0003c0 3f 16 8e 3d 17 ce 4d bc 91 5e 8b bd 54 e7 67 3b
       0.06937837 -0.012561343 -0.068051465 0.0035385685
0003d0 43 b4 a9 3d 27 f7 cf 3d b6 4f ac bd d3 0f 54 bd
       0.08286335 0.101545624 -0.08413641 -0.051772904
0003e0 04 46 af 3d 53 7b 5e 3d fc 72 87 3d 2f 96 7a bd
       0.08558276 0.05431683 0.066137284 -0.061178382
0003f0 01 3d c4 3d 47 45 be bd 47 4f b1 bb e2 d9 85 3b
       0.09581948 -0.09290557 -0.005411062 0.0040848115

conv1.bias f4 [64]
000000 17 2b b0 bc 37 67 8e bd b0 11 8a 3c d0 f1 83 bd
       -0.021504922 -0.069532804 0.016854137 -0.064426064
000010 5b 67 2e 3d 28 d7 df 3b 4f f4 78 3d 52 02 85 3c
       0.042579036 0.0068310685 0.060779866 0.016236458
000020 ac 41 01 3e 15 45 62 bd 68 43 38 3c fe 33 f1 3b
       0.12622708 -0.055241663 0.01124654 0.0073609343
000030 9e 61 90 bd f7 5c d4 3d a5 4a 9c 3d 60 da 84 3d
       -0.07049869 0.10369294 0.07631425 0.06486964
000040 7d 3d 02 bd 67 66 58 bd 53 09 72 3d 76 8d 27 3d
       -0.03179692 -0.052832033 0.059090924 0.040906392
000050 63 5d 9a 3c 6e 54 00 bc 0a 7e 94 bd 6f 49 92 3d
       0.018843358 -0.00783263 -0.072506025 0.071429126
000060 4b b9 19 bd 7f 4c b0 3d ed 0f c8 bb b7 fe 02 bd
       -0.037530225 0.086083405 -0.006105414 -0.031981196
000070 f2 df 00 3d 58 22 2f 3d 8d 19 bf 3d d3 f4 1c bc
       0.03146357 0.042757362 0.09331045 -0.009579855
000080 6e 6c 49 3d d2 a7 83 3d a0 b5 fe bb d8 82 cd bd
       0.049175672 0.064284936 -0.007773116 -0.10034722
000090 f6 ce 55 bc ad 8f b2 3d 52 be 3e bd 64 20 13 3d
       -0.013049832 0.0871881 -0.046568222 0.035919562
0000a0 be af 99 bd cd c6 31 3b 62 2f dc 3d e6 91 9e ba
       -0.07504223 0.002712655 0.10751225 -0.0012097924
0000b0 b7 94 19 3d 14 23 0f 3d a4 a7 ac bc d1 e3 f2 bc
       0.03749534 0.034945562 -0.021076031 -0.029649647
0000c0 3a 42 06 bd 22 04 e3 bc 51 46 8f bc c5 ef 16 3c
       -0.032778002 -0.027711932 -0.017489584 0.009212439
0000d0 2d 77 72 3d b1 ad 69 3b 77 2d cc 3b c3 e3 df bb
       0.059195686 0.0035656507 0.006231006 -0.0068325712
0000e0 dd 63 c4 3d 37 fa 44 bd 46 e8 50 3a a2 37 c6 3d
       0.0958936 -0.048090186 0.0007969182 0.0967858
0000f0 57 1b d3 3d f9 e5 ce 3c 2e b2 42 bd 87 50 b5 bd
       0.10307949 0.025256144 -0.047533207 -0.0885325

conv2.weight f4 [32, 64, 5, 5]
000000 88 82 04 bb 20 e4 1d 3c 67 eb 34 3c 34 28 83 bc
       -0.0020219404 0.009636909 0.011042452 -0.016010381
000010 58 43 bf bc ae 72 70 bc f9 9c 83 bc d1 5c 74 bc
       -0.023347542 -0.014675779 -0.016066061 -0.014914707
000020 ed 54 2c bd 6f e3 45 bd df 52 9e 3c d1 56 cf bb
       -0.04207318 -0.0483126 0.019326625 -0.006327488
000030 6c 44 a6 3b 01 64 d5 bc bb 83 6d bc df b1 20 3b
       0.0050740745 -0.026048662 -0.014496739 0.0024520082
000040 d3 cb 8a 3c 2d 70 c8 3b ed 0d 20 bb 61 79 0b 3c
       0.016942894 0.006116888 -0.0024422363 0.008512826
000050 52 6b 68 3c 92 bd cd 3c 89 0f 3c bc 88 25 8f 3c
       0.014185743 0.025114808 -0.011478313 0.017473951
000060 e0 5a f0 bb 11 31 c5 bc 14 d6 62 3c 43 87 0f 3c
       -0.007335052 -0.024071248 0.0138449855 0.008760276
000070 c3 77 00 bc a4 2d 9c bc 55 c1 6e bc 6d b8 bc 3c
       -0.007841053 -0.019064732 -0.014572461 0.02303716
000080 68 b8 41 3c 3d 97 01 3c fa a8 87 bb bb 43 92 3b
       0.011823751 0.007909593 -0.0041400166 0.0044636405
000090 77 62 f0 bb 5a 92 54 3c 6d 6b 34 3a 63 99 55 3c
       -0.0073359567 0.012974346 0.0006882463 0.0130370585
0000a0 b9 a9 c4 bb f0 58 4a 3b ce 94 08 bc 16 91 fc 3b
       -0.006001678 0.0030875765 -0.008336259 0.0077077253
0000b0 91 e0 55 bb 2e b3 e6 bc 0d e4 41 3c e2 cf 68 3c
       -0.0032635073 -0.028161611 0.011834157 0.014209719
0000c0 89 97 ae 3c b5 7f 4c 3c ad 00 19 3b c8 49 40 3d
       0.021312492 0.01248162 0.002334635 0.046945363
0000d0 b2 4c c7 3c 07 b5 fe 3b 97 3c 27 bb 02 6b 2b bc
       0.024328563 0.007773045 -0.0025518292 -0.010462524
0000e0 3f d8 05 3d b1 ac 2b 3d 32 9d 31 3c e8 b9 d0 bb
       0.03267693 0.04191274 0.010840701 -0.006369818
0000f0 cf 27 b5 bb 6c 02 3e bc 35 52 a4 bc cc 92 73 bb
       -0.005528427 -0.011597257 -0.02005873 -0.0037166355
000100 64 e7 c1 bc 11 9b 8e bc d3 fe fe 3b 7f af dd 3b
       -0.023669906 -0.017407926 0.0077818423 0.0067653055
000110 c3 c7 77 3c a6 23 17 3c 78 24 53 3c de c4 e4 3c
       0.0151233105 0.009224808 0.012887113 0.027925905
000120 52 be 23 3c be 38 6b 3b c5 c9 cb 3c 47 b7 39 3c
       0.009994106 0.0035891975 0.024876485 0.011335201
000130 bd ec 72 bc 78 95 36 bc 0c ae 82 bc 4b 51 8a bc
       -0.014826951 -0.011144035 -0.015952133 -0.016884467
000140 d7 c6 b1 3b 1b 65 b7 3c ee 3a 88 bc 5b d4 83 bc
       0.005425315 0.022387078 -0.016629662 -0.01609247
000150 a5 9b ab 3c c8 ca 87 3c ea 74 71 3c 4e 27 63 bc
       0.02094824 0.016576186 0.014737347 -0.013864351
000160 a4 e3 ee 3c 48 5e 64 3c 29 51 64 bb 5c be e1 3c
       0.029161282 0.013938494 -0.0034838414 0.02755659
000170 e5 e9 9d 3c b5 09 ba 3c bd b8 f9 bb 7a 3b 4a 3b
       0.019276569 0.022709707 -0.0076208995 0.0030858205
000180 ff 43 8c bc 23 63 f4 3b 7a f0 ae bc 43 23 dd bc
       -0.017122267 0.007458107 -0.021354903 -0.026994353
000190 1f 52 c9 bc 8b 85 66 bc cc 6c 90 3c 52 46 f3 3c
       -0.024575291 -0.014069925 0.017630003 0.029696617
0001a0 af 0a cf 3c 43 b4 dd bb 8e 7f 98 3b 08 0f 93 3c
       0.025273649 -0.0067658736 0.0046538776 0.017951503
0001b0 17 24 c4 3c 87 f8 33 3c 8a b3 92 bc e2 79 41 bc
       0.02394299 0.0109845465 -0.017907877 -0.011808844
0001c0 af d3 02 3d 0d 99 97 3c 75 1f e8 bc 9b bd 5e bc
       0.03194016 0.018505597 -0.028335312 -0.01359501
0001d0 e8 b0 98 3c 60 9b 19 bc 5d 98 d7 3c 61 c5 d9 3c
       0.018639043 -0.009375423 0.02631777 0.026583375
0001e0 37 fb 8b bc 15 9a 8f 3b b8 f0 a2 bb 86 ac 99 bc
       -0.017087562 0.0043823817 -0.0049725436 -0.018759023
0001f0 64 32 d7 3c 63 cf a5 bc 14 5a 68 bc a2 8e be 3b
       0.026269145 -0.020240491 -0.014181633 0.005815343
000200 72 3f e3 bc b4 27 97 3d 39 aa 61 bc b0 c9 ae ba
       -0.027740214 0.0738062 -0.013773494 -0.0013335254
000210 75 81 65 3b fa 78 6c bc 2d 7e 7f 3b c0 aa 88 3c
       0.003501979 -0.01443314 0.0038985119 0.016682982
000220 b6 3f f2 3b c6 8a 34 3d 41 c6 03 3d 07 67 c4 3c
       0.007392849 0.044077657 0.03217149 0.023974909
000230 27 bb 46 3c 8e f2 33 3c 18 f6 35 3c f4 f9 19 bb
       0.0121295815 0.0109831225 0.011106037 -0.002349493
000240 b7 37 50 3c ee a9 7c 3a 0e 8c 79 3c 17 c9 92 3b
       0.012708596 0.00096383586 0.015231146 0.004479538
000250 35 95 50 bc ce 6e e6 bb 85 05 8a bc b6 e3 30 ba
       -0.012730886 -0.007032252 -0.016848335 -0.0006747799
000260 44 76 44 bc 7b 5a bd 3c 1f a0 e3 bc 34 77 b6 3c
       -0.011991087 0.023114434 -0.027786313 0.022273637
000270 87 b3 8f 3c 1d c5 86 bc 77 d9 69 bc 1c ea bf 3c
       0.01754166 -0.016451413 -0.014273039 0.023427062
000280 30 d4 58 3b 81 94 62 bc 51 bb e5 3b 7e a8 57 ba
       0.0033085458 -0.013829351 0.0070108552 -0.00082267064
000290 76 44 90 3b 17 9e 56 3c 0f 90 92 bc 40 e1 2f bc
       0.0044026924 0.013099215 -0.017890958 -0.010734856
0002a0 b1 38 a5 b9 af aa ab 3c f2 15 ac bc 2e 4d 74 bc
       -0.0003151349 0.020955412 -0.021006558 -0.014910979
0002b0 37 14 18 3c be 55 82 3c 0a 5f bf bb fb 8d 88 bc
       0.009282163 0.015910026 -0.005840187 -0.016669264
0002c0 d0 cf 10 bc 11 7c 0f bd e2 60 ad 3b 17 f2 23 3c
       -0.008838609 -0.03503043 0.0052910903 0.010006449
0002d0 6a 1c 2a 3c 54 1d d8 3a 11 38 ac 3c 2c 7e c1 3c
       0.010382751 0.0016488233 0.021022828 0.023619734
0002e0 f2 dd 8b 3c dc 2f 8f bd 18 0e 34 3a 8e da 24 bc
       0.017073605 -0.0699155 0.0006868555 -0.010061873
0002f0 c2 f5 03 bd c4 75 99 bc c2 bd cc bc 27 bb 01 3c
       -0.032216795 -0.018732913 -0.024992827 0.007918156
000300 82 cd 80 3d 96 7e a3 3c 6b f7 93 bc 8f 3b de bc
       0.062891975 0.019957822 -0.018062314 -0.02712801
000310 88 fd 9c bd ab 67 aa bb 0d d5 c2 bc 03 6d bd bc
       -0.07665545 -0.0052003465 -0.023783231 -0.02312327
000320 80 e9 c4 bc b1 22 24 bd 02 b6 10 bd 0a 7c 32 3c
       -0.024037123 -0.040072147 -0.035329826 0.010893831
000330 d7 c0 55 b9 7a 4c b4 3c 03 1c de 3b 57 b5 3d bc
       -0.00020385101 0.022009123 0.0067782416 -0.011578879
000340 46 c0 3d 3c 76 0c 91 3b 93 e2 0b bc 58 6e 94 3c
       0.011581486 0.0044265343 -0.008537906 0.018119022
000350 00 c8 89 3c 3a 8c b1 3b e5 c7 a1 bc a9 12 00 3d
       0.016819 0.0054183276 -0.019748637 0.031267796
000360 fd 93 8b 3c 92 bf 85 3c f7 22 5a bc 42 11 fe bc
       0.01703834 0.0163267 -0.013314 -0.031014089
000370 8e 18 ef bc 42 01 fa b9 04 c2 ad bb 9d a4 bf bc
       -0.029186513 -0.00047684653 -0.0053026695 -0.023393923
000380 da d3 e2 3b 8c e6 9a bc 4d a6 90 bc f3 1e b8 bc
       0.0069222273 -0.018908761 -0.017657423 -0.022475695
000390 0c e2 8f bb 64 1d 2a 3b ca 4a 29 3d ec d3 89 3c
       -0.0043909606 0.002595746 0.04133109 0.016824685
0003a0 7f 03 f4 3c 8d 58 04 3d 27 6e 94 ba 0e da 50 3c
       0.029786823 0.03231101 -0.0011324332 0.012747301
0003b0 3d 3f 22 3c d6 5d 19 3c 06 02 06 3c 49 2b 2c bb
       0.0099027725 0.009360751 0.008179193 -0.0026270917
0003c0 2b 11 0e bd 0c ba b1 bc 8f d9 8c bc 96 ac 1a bd
       -0.03468434 -0.02169516 -0.017193584 -0.037762247
0003d0 a2 2a 8b bc 30 80 85 3c 71 6b 91 bb 8d fb 9b bc
       -0.016988102 0.016296476 -0.004437857 -0.019040847
0003e0 26 54 fe bb 94 ba b1 3b 6c 1c 53 bc 0d de 77 3c
       -0.007761496 0.005423853 -0.012885194 0.015128625
0003f0 25 0a 1d 3c 36 75 99 bc 35 fb 11 bc 5b 70 55 bd
       0.009584938 -0.018732648 -0.00890999 -0.052109104

conv2.bias f4 [32]
000000 9d d0 0e bc a2 da c0 bc b1 8f 83 ba 42 5a aa 3c
       -0.0087167295 -0.023541752 -0.001003733 0.020794991
000010 a1 6d dd 3c a0 85 b9 3c b7 f7 31 bc f9 c1 14 3c
       0.027029814 0.022646725 -0.0108622825 0.00907945
000020 cf d8 eb 3b 68 06 4f bc aa dc 9a 39 0d 7b 20 3c
       0.0071974765 -0.012635805 0.00029537576 0.009794963
000030 2c 5d d8 3c 2f a7 75 3c 54 55 d8 3a 1c 3e fb 3a
       0.026411615 0.014993473 0.0016504922 0.001916829
000040 cc e1 66 bc df af 94 bc 2e f5 70 3c e6 24 bd 3c
       -0.01409192 -0.018150268 0.014706893 0.023088884
000050 40 10 19 3d 27 89 a9 bb 33 34 28 bb 27 42 0b 3c
       0.037369013 -0.0051738205 -0.0025665879 0.008499659
000060 17 a9 92 3c c3 48 12 3c da 00 95 3c 4b b6 6d 3c
       0.017902894 0.008928481 0.018188883 0.014508794
000070 30 93 22 3c 2c 2c 5e bc cc 2c 70 3c 93 33 9b b9
       0.009922788 -0.013560336 0.014659118 -0.0002960233

conv3.weight f4 [1, 32, 5, 5]
000000 e6 9c 9b 3c a4 3a 95 3c 73 35 cf ba f4 00 db 3c
       0.018995713 0.018216439 -0.0015808776 0.026733853
000010 da ad 04 3d 10 c4 ea bc bc 05 6c 3b 5a 59 0d bd
       0.03239236 -0.028657943 0.003601416 -0.03450904
000020 89 77 38 3b 75 c3 3f 3c 1e 97 7c bb a4 fe ed 3c
       0.002814742 0.011704315 -0.0038542221 0.029052086
000030 5d 8b 4f 3c 29 9e 01 bd 2b ff 8a bb e2 b6 88 bc
       0.012667504 -0.031644974 -0.004241844 -0.016688768
000040 b4 4c ef bc de de 78 39 6d 52 00 bd ce 8b be 3c
       -0.02921138 0.00023734148 -0.031328607 0.023260023
000050 2c 15 ab 3b 56 ea 40 3c 27 6f a2 3c 0c 94 ec 3c
       0.0052210297 0.01177462 0.019828392 0.028879188
000060 1e 92 89 bc d8 c0 01 3b cc e0 0b bd 4a da fb 3b
       -0.016793307 0.0019798782 -0.03414993 0.007685934
000070 1b f6 d6 3c f9 26 ba bc f9 b1 a8 3c 86 5b 88 bc
       0.0262404 -0.022723662 0.020592676 -0.016645204
000080 43 29 25 3c e3 e6 80 bc aa 7d c9 3b 08 4b 09 bd
       0.010080638 -0.015735095 0.0061490135 -0.03351882
000090 c4 5e d8 3c 9b 4f ff bb 69 23 06 3d e5 2e 58 bc
       0.026412375 -0.007791472 0.032748614 -0.013194774
0000a0 1e 5f 7b 3c 71 7b 8b bc ad 56 77 bc 7d 7e 13 bc
       0.015342502 -0.017026635 -0.015096349 -0.009002325
0000b0 6f 37 8a 3c 8e 90 65 3c be cb a6 3c d6 ae be bb
       0.016872136 0.014011515 0.020360824 -0.005819182
0000c0 81 29 9a 3b 5f 79 b4 3c b4 47 62 bc 6c 40 3e bc
       0.0047046547 0.02203053 -0.013811041 -0.011612039
0000d0 0a 84 dc 3c 33 48 f4 bc af 1f 8c bc 74 8d a0 bc
       0.02691843 -0.029819584 -0.017104952 -0.0195987
0000e0 34 89 f3 bb df d6 d4 bc d4 00 07 3c 58 34 ca bc
       -0.0074321274 -0.025981365 0.0082399435 -0.024683163
0000f0 73 b4 7e bc d8 e8 0c bd 08 3e c1 3c b4 77 b1 bc
       -0.015545952 -0.034401745 0.02358915 -0.021663524
000100 94 c1 8a bb e7 c1 ac bc 21 3c a0 bb af cc dd bb
       -0.004234502 -0.021088554 -0.0048899804 -0.006768785
000110 3c 81 3c bc 63 68 04 ba 0c 71 76 3c 6f 6f ee 3c
       -0.011505421 -0.0005050955 0.015041601 0.02910587
000120 cb c6 d6 3c de ee d6 bc 9a 19 86 bb 4c ea 53 bd
       0.026217839 -0.026236948 -0.0040924074 -0.051737115
000130 32 a6 0c 3b 99 f0 61 3c 25 72 76 3a 7c 7a 94 3b
       0.0021461365 0.013790273 0.0009401164 0.004531203
000140 69 de 14 3d ac 91 c4 bb 89 6b 02 bd 63 51 7e bc
       0.03634492 -0.0059988108 -0.031840835 -0.015522334
000150 0d 5f 20 bc 93 bd 25 3d 5f 03 a7 3c ec 44 3b 3d
       -0.009788287 0.040463995 0.02038735 0.045720026
000160 5f 4b fb 3c 3a 1d 22 bc 04 bd a5 bc dc be b2 bc
       0.030675588 -0.0098946635 -0.020231731 -0.021819524
000170 86 fb 09 bd 3d 75 a4 bb 90 75 89 bc 3d ff c4 bb
       -0.033687137 -0.0050188587 -0.016779691 -0.006011872
000180 19 71 bd bb 80 d2 86 bc 39 88 8a bc 49 b6 a2 3b
       -0.0057813046 -0.016457796 -0.01691066 0.0049655777
000190 1a fe c6 3b cd bf fb 3b 98 fc 68 3c 26 a0 51 bb
       0.0060727717 0.0076827765 0.014220379 -0.0031986325
0001a0 11 d5 69 3b 4b 9b ef bb 0a c1 02 3d 3e 87 40 b8
       0.0035679976 -0.0073122135 0.031922378 -4.590232e-05
0001b0 ae ae cd 3c 74 01 ad bc 05 97 e0 bc 4a b5 93 3b
       0.025107708 -0.021118857 -0.027415762 0.0045076953
0001c0 22 24 03 bd 1c d9 a8 3c d4 f6 a4 3c b2 2d ed 3c
       -0.03201688 0.020611338 0.020137228 0.028952453
0001d0 94 73 03 3d fe 31 3a 3c 41 62 5d 3c 92 ed b3 bb
       0.032092646 0.011364458 0.013512195 -0.005490967
0001e0 8d 06 04 3d 7c 22 75 3c d2 d2 0a bc 0d da 05 bd
       0.03223281 0.014961835 -0.008473115 -0.032678653
0001f0 7b d9 85 3b 95 83 85 3b ef 52 e1 3c b4 9c ca 3c
       0.0040847636 0.0040745237 0.027505366 0.024732925
000200 a4 14 0e 3d f6 4f 2e 3b 6e 35 48 3c 78 86 df bc
       0.034687653 0.0026597953 0.01221977 -0.0272858
000210 64 36 ae 3b 35 ac 17 3c bd 47 a8 bc bd c1 85 bc
       0.0053165425 0.009257366 -0.02054202 -0.016327733
000220 06 00 95 3c 29 23 8e bc 48 23 24 bc b9 50 e1 3c
       0.018188488 -0.01735075 -0.010018177 0.027504312
000230 03 44 f8 3c c9 ff c6 bc 99 7c d3 bc 9d ff e1 3c
       0.030305868 -0.02429189 -0.025816249 0.027587706
000240 bf 73 14 bc 48 05 b1 3b 1b f7 ac bc 67 86 59 bc
       -0.009060799 0.005402241 -0.021113923 -0.013276673
000250 c1 43 e6 3c 94 2b c1 bc 3b b3 53 3c 8b 86 af 3a
       0.02810848 -0.02358035 0.01292115 0.0013391537
000260 c0 5a 37 3c 96 6e c7 3a de d8 fe bb 24 11 5b 3c
       0.01119107 0.0015215452 -0.0077773174 0.013370786
000270 fc 92 20 3c 91 d4 5a bb ee a9 c2 3c 38 97 01 3d
       0.009800669 -0.003339086 0.02376267 0.031638354
000280 95 a6 9e 3c 54 80 19 bc 5f 2e d3 bc c2 79 c7 bc
       0.019366542 -0.009368975 -0.025778947 -0.02435005
000290 3d 55 91 bc b1 f5 37 bb 6d 8c 98 3c d9 ac 27 3c
       -0.01774084 -0.0028070027 0.018621648 0.010234081
0002a0 30 d6 02 3d 37 cd 0d bd e1 0b a2 bc cd db 04 3d
       0.031942546 -0.034619536 -0.019781055 0.03243618
0002b0 55 f2 cd bc f6 2f bb 3c 88 a0 50 3a 0d c1 71 bb
       -0.025139967 0.022850018 0.00079584913 -0.003688875
0002c0 da 5b cf 3c cd f4 e0 3c 14 36 6c bc 08 e4 02 bb
       0.025312353 0.02746048 -0.01441719 -0.0019972343
0002d0 1d b0 08 3d 11 f0 f2 3c b4 68 69 3c 24 2c af bc
       0.03337108 0.029655488 0.014246155 -0.021383353
0002e0 2a 3a c3 bc ce 82 d2 3c f9 66 a8 3c 5d 0f 82 bb
       -0.023831446 0.025697138 0.020556914 -0.0039691166
0002f0 a1 ee 0b 3d 6d 96 cb 3c ac be f6 bb e7 69 80 3c
       0.03416312 0.024852002 -0.007530054 0.015675498
000300 43 24 0d 3d 79 44 a8 3c 73 72 8b bc 9d f7 07 bd
       0.03445841 0.020540463 -0.017022347 -0.033195127
000310 f4 cc 34 3c 5d b9 5b 3c 6b 82 0e bd 3d 11 ad 3b
       0.011035193 0.013410893 -0.034792345 0.005281596
000320 c0 90 b2 bc da 5d 68 3c 91 72 8d bc dc 75 dc bc
       -0.021797538 0.014182532 -0.017266544 -0.026911668
000330 67 44 0b 3d bb 41 ad 3c d2 3a 6a bc ec ee d0 bc
       0.03400078 0.021149507 -0.01429625 -0.025504552
000340 81 d0 c3 3c 9a de b4 bc 41 b5 2b bc cf 15 81 bc
       0.023903133 -0.022078801 -0.010480226 -0.01575747
000350 e5 a3 2c 3c ac e7 13 bb e9 4b 57 3c 04 21 a2 bc
       0.010537122 -0.0022568507 0.013140657 -0.019791134
000360 ab cb d5 3c ea 04 86 3b 82 07 c8 bc 02 97 d3 bc
       0.026098093 0.0040899413 -0.024417643 -0.025828842
000370 d3 02 b0 3c 3e 21 7a bc 05 38 22 3c 96 17 6e 3a
       0.021485722 -0.015266715 0.009901051 0.0009082494
000380 f9 82 86 bc 8e 3f 0c 3d 17 57 58 bc f8 1f 79 3c
       -0.016419875 0.034240298 -0.013204358 0.015205376
000390 ab 24 b7 3c d5 fd 34 3c 95 e6 0b 3d 32 e9 c7 bc
       0.022356352 0.011046846 0.034155447 -0.024403188
0003a0 30 87 85 3b 0a 8e 45 b9 57 f5 8a 3c 6b ec 76 bc
       0.0040749535 -0.00018840298 0.01696269 -0.015071015
0003b0 f8 ed ad bc 28 e1 df bc a3 86 c8 3c 4e af 23 3c
       -0.021231636 -0.027329043 0.024478262 0.009990526
0003c0 5a b8 07 bd 6c 88 0c bb 0f aa ef bc b5 8e f2 bc
       -0.033134796 -0.0021443618 -0.029255895 -0.029609064
0003d0 69 16 b4 3c 6a 3d 91 bc 32 18 ad 3c 93 bf 07 3d
       0.021983342 -0.01772948 0.021129701 0.033141684
0003e0 06 ce ac 3b 0e 00 7a 3c 4d f1 fc bc 91 1a 77 bc
       0.0052735833 0.015258802 -0.03087678 -0.0150820175
0003f0 7d 27 fe ba 3f c8 f7 3b 78 4c 6a 3c e5 32 9c 3c
       -0.001939043 0.007561713 0.014300458 0.019067237
