output_x01/x2/epoch_224.pth (torch, 231335 bytes, 5 tensors)

conv1.weight f4 [64, 1, 9, 9]
-0.046960473 0.0088515 -0.048382036 0.06055979 -0.076847136 0.09624222 -0.066898204 -0.07618129
-0.064570166 0.041286137 -0.042418517 0.04565928 -0.08489545 -0.059962366 -0.030801002 -0.012064851
-0.08033117 0.07398252 -0.04044038 0.027682813 0.07194301 0.025931718 0.044542383 0.12285922
-0.033015124 0.049342576 -0.043960527 0.07539919 0.0798196 -0.11388499 0.106503 0.07047229
0.053873777 0.058641568 0.112460576 -0.007889458 -0.09816782 -0.040905003 -0.08513597 0.023810258
-0.01330651 -0.06974006 -0.0075719203 0.11919392 -0.0014825296 0.002919148 -0.022423001 0.013076875
0.10894179 0.06535543 0.024245553 0.024488697 0.037225936 0.04984685 0.003703777 -0.10199377
-0.06792363 0.10816505 0.0027954504 -0.10845181 0.016721547 0.10140837 -0.1042315 -0.049754232
-0.03321228 0.015178731 -0.008421969 -0.008488088 -0.109508604 0.06499113 0.11856771 0.07652067
-0.058026545 -0.08006876 0.04790686 0.0022073477 0.04344812 -0.10823457 -0.0046933903 0.085558295
0.05462921 0.005628056 0.011551079 -0.013094194 -0.07216005 -0.049190115 -0.10082896 0.09081321
0.051756058 0.023966689 -0.096279114 0.07714804 0.035216004 0.060975 -0.048353877 0.0065734126
0.12120629 0.08764286 0.078460194 -0.032313194 0.07857581 -0.09261106 -0.020487955 -0.063534915
-0.033035774 -0.01869957 0.01952465 0.102164924 0.043597016 -0.003504464 0.09345233 -0.066074096
0.07600538 -0.0048083365 -0.017154904 0.0098774545 -0.09265619 0.0015574269 0.03178182 0.10723548
-0.052532576 0.045694713 0.10833835 -0.055922676 0.09485068 -0.07188162 0.04993799 0.03779429
0.035105295 0.07099474 -0.028785601 0.040091354 0.0044525536 -0.07930441 -0.031091407 -0.08157885
0.026320864 0.0040326896 -0.0025461512 -0.020454263 -0.00015996318 -0.03750108 0.03318438 0.09873994
0.017016219 -0.06610764 -0.06367068 3.5271878e-06 -0.082985446 -0.09370376 -0.080550626 -0.042850923
-0.0018365533 0.09804414 0.04738048 0.11119882 -0.059769213 0.013327005 -0.102597654 0.07083553
0.026379706 0.10340505 -0.077017345 0.09650636 0.11390212 0.124856465 0.060451157 0.13417292
0.090918005 0.0836878 -0.00814937 -0.08943743 5.5595665e-05 0.031564783 -0.065465756 -0.05715266
-0.09876014 -0.028909594 0.0925605 0.0011267848 0.0054430263 0.016553987 0.08610222 -0.080508284
-0.07239644 -0.03205192 -0.0530913 0.06638406 0.07161233 -0.080157794 -0.073180206 -0.08798896
0.07203595 0.12823284 -0.067533836 -0.036877356 0.053989317 -0.06309722 0.101788305 0.029178046
-0.02712228 0.024665054 0.06764577 -0.02325157 -0.076209426 0.014003307 0.008387569 -0.0043942975
-0.014796654 0.0823286 -0.022519875 0.0016479495 0.065810904 -0.0435167 0.04666248 -0.026446233
0.047834992 -0.068285696 0.022125993 0.02949007 -0.08185361 -0.07313018 0.05686931 -0.027378555
0.057066537 -0.091098644 -0.047488302 -0.0728136 0.06902166 0.023836458 -0.0044514905 -0.011177359
-0.08451696 0.0369274 0.016097408 -0.062820286 0.06353496 0.0059706364 -0.09824179 0.06840406
0.061619364 -0.018709691 -0.06303864 0.0016453724 0.08023158 0.09725865 -0.08926025 -0.05824041
0.081213295 0.05042713 0.058496855 -0.06620928 0.09504573 -0.09830051 -0.012975531 -0.0026572284
00000000: a059 40bd e205 113c 3e2c 46bd 8b0d 783d
00000010: 0862 9dbd a41a c53d ed01 89bd f004 9cbd
00000020: 5d3d 84bd a71b 293d 0abf 2dbd 3a05 3b3d
00000030: aadd adbd 199b 75bd 6252 fcbc a7ab 45bc
00000040: ab84 a4bd 2684 973d d0a4 25bd 11c7 e23c
00000050: db56 933d c16e d43c 1372 363d 9d9d fb3d
00000060: de3a 07bd 711b 4a3d f40f 34bd e46a 9a3d
00000070: 7578 a33d 893c e9bd 3f1e da3d c753 903d
00000080: c0aa 5c3d 2432 703d bb51 e63d c942 01bc
00000090: 360c c9bd 018c 27bd c45b aebd bb0d c33c
000000a0: 8c03 5abc e0d3 8ebd df1d f8bb f11b f43d
000000b0: 7051 c2ba 2d4f 3f3b 71b0 b7bc 6440 563c
000000c0: e01c df3d 11d9 853d 9c9e c63c 859c c83c
000000d0: 397a 183d 362c 4c3d 11bb 723b 1ce2 d0bd
000000e0: 8b1b 8bbd a385 dd3d e033 373b fc1b debd
000000f0: a0fb 883c 31af cf3d 5377 d5bd 18cb 4bbd
00000100: 9a09 08bd 36b0 783c 4cfc 09bc 9f11 0bbc
00000110: 0c46 e0bd 121a 853d a1d3 f23d deb6 9c3d
00000120: 3ead 6dbd 17fb a3bd fc39 443d 26a9 103b
00000130: a8f6 313d 16aa ddbd 03cb 99bb 3039 af3d
00000140: e1c2 5f3d 8e6b b83b bd40 3d3c 0889 56bc
00000150: a6c8 93bd 937b 49bd 6a7f cebd 47fc b93d
00000160: 29fe 533d ca55 c43c fc2d c5bd cbff 9d3d
00000170: a83e 103d ecc0 793d b70e 46bd c865 d73b
00000180: 013b f83d 1a7e b33d bdaf a03d d75a 04bd
00000190: 5bec a03d deaa bdbd 5bd6 a7bc 981e 82bd
000001a0: 8550 07bd d72f 99bc 29f2 9f3c d83b d13d
000001b0: c992 323d 26ab 65bb ef63 bf3d db51 87bd
000001c0: b5a8 9b3d 408f 9dbb 7188 8cbc 0cd5 213c
000001d0: 87c2 bdbd 9322 cc3a a72d 023d 469e db3d
000001e0: 662c 57bd 612a 3b3d 7fe0 dd3d 2d0f 65bd
000001f0: 1341 c23d ac36 93bd c78b 4c3d 2fce 1a3d
00000200: 92ca 0f3d b165 913d c8cf ebbc d536 243d
00000210: bae6 913b 5a6a a2bd 68b3 febc d012 a7bd
00000220: da9e d73c a724 843b 54dd 26bb b38f a7bc
00000230: cabb 27b9 bc9a 19bd 58ec 073d 2a38 ca3d
00000240: 9965 8b3c 7163 87bd c665 82bd a0b4 6c36
00000250: 46f4 a9bd c2e7 bfbd baf7 a4bd 7384 2fbd
00000260: 81b8 f0ba 5ecb c83d 0912 423d 35bc e33d
00000270: 90d0 74bd 8359 5a3c b81e d2bd 3812 913d
00000280: 411a d83c 07c6 d33d 45bb 9dbd 20a5 c53d
00000290: 8445 e93d bfb4 ff3d a29b 773d a064 093e
000002a0: 3833 ba3d 8264 ab3d ef84 05bc f92a b7bd
000002b0: 642f 6938 134a 013d e912 86bd e818 6abd
000002c0: c242 cabd d0d3 ecbc 5c90 bd3d a0b0 933a
000002d0: 6a5b b23b 3a9c 873c 5c56 b03d 87e1 a4bd
000002e0: 9644 94bd e048 03bd 4376 59bd 5ef4 873d
000002f0: 7ca9 923d c529 a4bd 81df 95bd 8e33 b4bd
00000300: 9687 933d 784f 033e 2e4f 8abd b60c 17bd
00000310: e723 5d3d 1e39 81bd 6376 d03d cc06 ef3c
00000320: 8b2f debc 5e0e ca3c de89 8a3d 147a bebc
00000330: b013 9cbd 206e 653c 046c 093c 0afe 8fbb
00000340: aa6d 72bc e69b a83d 9a7b b8bc 0200 d83a
00000350: dec7 863d 913e 32bd 2821 3f3d c5a5 d8bc
00000360: a0ee 433d 5fd9 8bbd 9241 b53c 2995 f13c
00000370: dea2 a7bd 47c5 95bd cbef 683d fe48 e0bc
00000380: 9abe 693d ed91 babd 1883 42bd 4c1f 95bd
00000390: 3a5b 8d3d ad44 c33c cfdd 91bb 3e21 37bc
000003a0: 3a17 adbd 2f41 173d b6de 833c eca7 80bd
000003b0: 9e1e 823d 54a5 c33b fe32 c9bd 6e17 8c3d
000003c0: 9664 7c3d 1145 99bc 671a 81bd 89a9 d73a
000003d0: 7450 a43d 8b2f c73d 14ce b6bd 7f8d 6ebd
000003e0: 2853 a63d ae8c 4e3d 669a 6f3d bb98 87bd
000003f0: 56a7 c23d c751 c9bd 5297 54bc e524 2ebb

conv1.bias f4 [64]
-0.03524889 -0.04502134 0.0113974195 -0.06191237 0.044044986 0.027456816 0.06133234 -0.001998469
0.12670335 -0.027566947 0.010429128 0.0010632795 -0.056314226 0.13607797 0.07267181 0.06826864
-0.026046226 -0.06829934 0.076545715 0.04406601 0.020774826 -0.015593317 -0.071288854 0.09514165
-0.022718845 0.09350445 -0.0039109797 -0.0273754 0.02982687 0.047173705 0.09768926 0.008080423
0.04387403 0.07284049 -0.013637954 -0.09880448 -0.013874223 0.084134325 -0.028288256 0.04083943
-0.108748294 -0.03357503 0.11171764 0.039976757 0.033440042 0.036501918 0.0012032276 0.025663294
0.010275479 -0.022595232 -0.018356847 0.0074055158 0.06990323 0.00044566544 0.0021800695 -0.0013066602
0.122900836 -0.045416635 0.006667802 0.1485805 0.12044836 0.039908398 -0.028149465 -0.077489965
00000000: 2461 10bd 4c68 38bd 3ebc 3a3c d397 7dbd
00000010: 8468 343d 1eed e03c 9f37 7b3d bff8 02bb
00000020: 86be 013e 14d4 e1bc efde 2a3c bd5d 8b3a
00000030: bfa9 66bd 0658 0b3e f5d4 943d 6ed0 8b3d
00000040: e55e d5bc 86e0 8bbd 00c4 9c3d 8f7e 343d
00000050: f82f aa3c 1d7b 7fbc e4ff 91bd a0d9 c23d
00000060: df1c babc 437f bf3d ad27 80bb 6042 e0bc
00000070: 7b57 f43c 3739 413d 4f11 c83d c063 043c
00000080: 41b5 333d 652d 953d ba71 5fbc 015a cabd
00000090: b650 63bc 9e4e ac3d c6bc e7bc 3f47 273d
000000a0: 6db7 debd f885 09bd 38cc e43d abbe 233d
000000b0: 6df8 083d 0983 153d 9eb5 9d3a d43b d23c
000000c0: 7c5a 283c a319 b9bc 1961 96bc f8a9 f23b
000000d0: 6d29 8f3d 34a8 e939 7fdf 0e3b 3e44 abba
000000e0: 6fb3 fb3d cb06 3abd 947d da3b 7d25 183e
000000f0: a1ad f63d fd76 233d b599 e6bc 0fb3 9ebd

conv2.weight f4 [32, 64, 5, 5]
0.001284357 -0.0011447819 0.021814696 0.005034722 -0.016162498 -0.0211083 -0.027229227 -0.016711425
-0.026094366 -0.04258263 0.026618542 0.006969031 -0.0035957317 -0.028006122 -0.017775282 -0.0013323984
0.01771136 -0.008852609 -0.00872228 0.0075571504 0.010372675 0.022243189 -0.010712218 0.030026631
0.01675985 -0.015112755 0.02188317 0.016255803 -0.00014417565 -0.02638479 -0.016755622 0.009552181
-0.004607631 -0.0006813051 -0.0041451366 0.003928162 -0.012519819 0.0023228596 -0.0085206395 0.01616436
0.0004483274 0.013724143 -0.00064330944 0.0083887195 -0.006227048 -0.035041917 0.011192104 0.019348962
0.026915234 0.016139917 -0.0006078901 0.039579123 0.029516112 0.023712832 0.001230899 0.015589986
0.03793884 0.051019404 0.022068331 0.00021216813 0.012677653 -0.0072299624 -0.03061659 -0.019656809
-0.040593263 -0.02100276 0.0103628915 0.004029212 0.007224312 0.011357612 -0.00026055492 0.020326028
0.0039053275 -0.0046773623 0.020170607 0.0058853915 -0.02450721 -0.014954057 -0.024637109 -0.034684055
-0.0005093723 0.014639517 -0.020744177 -0.01660451 0.017603213 0.015457563 0.012423423 -0.012651265
0.037242427 0.016100796 -0.007683138 0.027842332 0.021266146 0.023498127 -0.0057349456 -0.00920734
-0.024940843 0.0015150019 -0.034192998 -0.031734385 -0.03163123 -0.0219323 0.016696446 0.04124187
0.031761985 -0.017049886 0.005131435 0.021222511 0.028066745 0.012729639 -0.02544272 -0.011272922
0.03192521 0.020333484 -0.03385419 -0.015428785 0.022038728 -0.015427553 0.019816509 0.014059985
-0.01792329 0.0060395356 -0.0019536882 -0.017255459 0.023920383 -0.034525614 -0.034971356 0.036499597
-0.015406043 0.10875793 -0.00052243227 0.0020150298 -0.003107201 -0.037418507 -0.020622343 0.036461808
0.027270334 0.065367766 0.05414868 0.037895948 -0.0005902128 0.010735276 0.0015326861 -0.001324327
0.011456791 -0.026981069 0.012085089 -0.011894569 -0.01966248 -0.033507068 -0.009652784 -0.003253383
-0.0104068285 0.026538964 -0.03817439 0.025260434 0.012634549 -0.018170508 -0.011924789 0.017037822
0.009040065 -0.012112513 0.008527192 0.003766003 0.0021150697 0.00728959 -0.023326937 -0.010696119
0.0003444166 0.024298493 -0.02907414 -0.01901567 0.012080868 0.020275649 0.007154439 0.018163463
-0.028936403 -0.013298599 0.008638124 -0.062046286 0.012679814 -0.0762248 -0.017325941 0.061429538
-0.004557501 -0.062367443 -0.058187306 -0.065052316 -0.025465243 -0.020272952 -0.031045292 0.04848929
0.09162552 0.04308486 -0.0027173758 -0.111970834 -0.09868342 -0.0200928 -0.033234242 -0.03970349
-0.028983502 -0.04181975 -0.040080033 0.0047187717 -0.011653734 0.011033794 0.003066222 -0.01115336
0.0125538865 0.0002201465 -0.0130891865 0.016307402 0.02195428 0.010927825 -0.019229636 0.0319999
0.01599422 0.020451287 -0.009388654 -0.031435747 -0.026032874 -0.0025648049 -0.007611741 -0.021559006
0.01098744 -0.008252985 0.00032471924 -0.01080207 -0.0083751 -0.008624024 0.024660679 0.013852981
0.03689752 0.037946746 -0.01389433 -0.0062160557 0.003333535 0.004774364 0.013853128 0.0019831304
-0.04552659 -0.017700627 -0.0149265 -0.04861236 -0.011884895 0.0049696127 0.0038800703 -0.0052341395
-0.023742476 -0.0054947105 -0.014861327 0.017178137 0.009269259 -0.016935669 -0.012413469 -0.050432082
00000000: df57 a83a 820c 96ba bcb4 b23c 4ffa a43b
00000010: 3767 84bc 50eb acbc d40f dfbc 66e6 88bc
00000020: dac3 d5bc 206b 2ebd 210f da3c 785c e43b
00000030: 5ea6 6bbb 186d e5bc 789d 91bc dfa3 aeba
00000040: 6a17 913c 890a 11bc e5e7 0ebc f9a1 f73b
00000050: 27f2 293c 5937 b63c 4c82 2fbc 69fa f53c
00000060: f44b 893c 7d9b 77bc 5544 b33c e42a 853c
00000070: db2d 17b9 ea24 d8bc 1643 89bc c080 1c3c
00000080: 9cfb 96bb 9c99 32ba edd3 87bb d0b7 803b
00000090: ed1f 4dbc 1e3b 183b 279a 0bbc 1f6b 843c
000000a0: 7c0d eb39 3adb 603c c4a3 28ba d770 093c
000000b0: 440c ccbb 1d88 0fbd 165f 373c b781 9e3c
000000c0: 567d dc3c dc37 843c d05a 1fba b81d 223d
000000d0: c6cb f13c 6a41 c23c 1e56 a13a 246d 7f3c
000000e0: c265 1b3d b9f9 503d a5c8 b43c 7379 5e39
000000f0: eeb5 4f3c 52e9 ecbb a5cf fabc 5107 a1bc
00000100: 1f45 26bd fb0d acbc 1ec9 293c 7b07 843b
00000110: ecb9 ec3b 4715 3a3c 179b 88b9 c582 a63c
00000120: 86f0 7f3b 8f44 99bb d43c a53c 3eda c03b
00000130: 58c3 c8bc dc01 75bc c3d3 c9bc de10 0ebd
00000140: 6587 05ba 96da 6f3c b1ef a9bc 2e06 88bc
00000150: 9d34 903c b841 7d3c 9d8b 4b3c 4047 4fbc
00000160: 848b 183d d1e5 833c d5c2 fbbb 9a15 e43c
00000170: 5736 ae3c 257f c03c 36ec bbbb 62da 16bc
00000180: bd50 ccbc 0793 c63a f50d 0cbd eafb 01bd
00000190: c08f 01bd 5eab b3bc fcc6 883c 3ced 283d
000001a0: db18 023d 34ac 8bbc 9925 a83b d5da ad3c
000001b0: 3bec e53c fa8f 503c 406d d0bc 10b2 38bc
000001c0: 02c4 023d 6892 a63c b1aa 0abd 04c9 7cbc
000001d0: 908a b43c d9c3 7cbc 3b56 a23c da5b 663c
000001e0: ddd3 92bc 4ce7 c53b 7309 00bb 525b 8dbc
000001f0: aef4 c33c bb6a 0dbd 203e 0fbd 9a80 153d
00000200: a169 7cbc 7abc de3d d6f3 08ba 970e 043b
00000210: 2fa2 4bbb 2644 19bd 30f0 a8bc fa58 153d
00000220: 0966 df3c 89df 853d 02cb 5d3d c838 1b3d
00000230: 83b8 1aba 03e3 2f3c 69e4 c83a 0a95 adba
00000240: 44b5 3b3c 6707 ddbc 8a00 463c 70e1 42bc
00000250: 3613 a1bc b53e 09bd b626 1ebc b636 55bb
00000260: 6781 2abc 3e68 d93c c05c 1cbd f8ee ce3c
00000270: 2401 4f3c 51da 94bc 3160 43bc e792 8b3c
00000280: c81c 143c 9073 46bc a3b5 0b3c 0ccf 763b
00000290: fb9c 0a3b 83dd ee3b 2218 bfbc c63e 2fbc
000002a0: d092 b439 a20d c73c e42c eebc c0c6 9bbc
000002b0: d5ee 453c 1e19 a63c c96f ea3b 8bcb 943c
000002c0: 090c edbc 5ee2 59bc eb86 0d3c 3f24 7ebd
000002d0: ffbe 4f3c bf1b 9cbd 22ef 8dbc 8a9d 7b3d
000002e0: 1757 95bb 0175 7fbd d055 6ebd 263a 85bd
000002f0: 7c9c d0bc 7613 a6bc b252 febc b59c 463d
00000300: 29a6 bb3d c079 303d 0016 32bb f750 e5bd
00000310: 881a cabd a899 a4bc a120 08bd 20a0 22bd
00000320: cf6e edbc 304b 2bbd f62a 24bd ed9f 9a3b
00000330: 4eef 3ebc 16c7 343c abf2 483b 95bc 36bc
00000340: d1ae 4d3c 20d7 6639 0774 56bc 1a97 853c
00000350: 76d9 b33c 9f0a 333c 7887 9dbc 5412 033d
00000360: 4f06 833c 7589 a73c ded2 19bc c5c2 00bd
00000370: e542 d5bc 4916 28bb e96b f9bb 839c b0bc
00000380: aa04 343c 8737 07bc 143f aa39 2afb 30bc
00000390: b737 09bc c74b 0dbc 3105 ca3c 9df7 623c
000003a0: db21 173d 0c6e 1b3d 0ba5 63bc 0eb0 cbbb
000003b0: 7077 5a3b 4572 9c3b 3bf8 623c 68f7 013b
000003c0: 177a 3abd e800 91bc 478e 74bc c11d 47bd
000003d0: ddb8 42bc 22d8 a23b c748 7e3b 2583 abbb
000003e0: 957f c2bc f90c b4bb ec7c 73bc 2ab9 8c3c
000003f0: 17de 173c acbc 8abc dd61 4bbc df91 4ebd

conv2.bias f4 [32]
-0.006771951 -0.030239454 -0.0024045047 0.023521423 0.025815714 0.022173312 -0.011796268 0.008895782
0.0071974765 -0.012423618 -0.0009123058 0.01106842 0.025533171 0.017994322 0.016144488 0.01649337
-0.014421611 -0.019126315 0.017576797 0.021047339 0.04679127 -0.012836093 -0.012222195 0.017078154
0.013035784 0.01229232 0.018344918 0.02744292 0.009265569 -0.013560336 0.012252589 -0.00056091923
00000000: 3ee7 ddbb bbb8 f7bc e594 1dbb 00b0 c03c
00000010: 7a7b d33c cea4 b53c 2245 41bc 9dbf 113c
00000020: cfd8 eb3b 6e8c 4bbc ce27 6fba 5158 353c
00000030: f12a d13c d468 933c 7241 843c 1b1d 873c
00000040: 9f48 6cbc caae 9cbc 37fd 8f3c 786b ac3c
00000050: 34a8 3f3d 7a4e 52bc 9a3f 48bc 7ce7 8b3c
00000060: 0a94 553c ba65 493c 1548 963c f9cf e03c
00000070: 9dce 173c 2c2c 5ebc 15bf 483c a70a 13ba

conv3.weight f4 [1, 32, 5, 5]
0.018527748 0.01851434 -0.0013653309 0.029167691 0.03456616 -0.02634263 0.0071071796 -0.03290798
0.003327772 0.0145070795 -0.005256866 0.02781986 0.011840614 -0.0357057 -0.0074923597 -0.01750773
-0.030681947 -0.0006741757 -0.03282745 0.022236686 0.007635464 0.013628734 0.022540584 0.031018082
-0.014637441 0.0012272203 -0.0365305 0.0074129724 0.026379326 -0.024495427 0.020180924 -0.01876609
0.010179568 -0.016005144 0.005023481 -0.034169644 0.024734871 -0.008539623 0.03147476 -0.015477913
0.015727641 -0.018821191 -0.01744984 -0.009426215 0.015671695 0.014911145 0.019869054 -0.0067824963
0.004771793 0.020762777 -0.013811041 -0.011612039 0.02691843 -0.029819584 -0.017104952 -0.0195987
-0.0074321274 -0.025981365 0.0082399435 -0.024683163 -0.0155402105 -0.03440629 0.023564009 -0.021663524
-0.004234502 -0.021101471 -0.004920376 -0.0067300904 -0.011505421 -0.0005050955 0.015026932 0.029078985
0.02624367 -0.026236948 -0.0040924074 -0.058409765 -0.020283828 -0.005851044 -0.009242795 -0.003502217
0.03110795 -0.006702573 -0.032442193 -0.0077910395 0.017248131 0.0486222 0.0404829 0.07399645
0.038247712 -0.0059364233 -0.030432751 -0.042602193 -0.035272725 0.0009608626 -0.01970913 0.004909963
0.00026880126 -0.021208486 -0.01658751 0.004928064 0.005618319 0.007368677 0.013936537 -0.0035395012
0.0033955702 -0.007852585 0.031686235 -0.00030384422 0.024650984 -0.021492206 -0.0277897 0.0043230513
-0.03240583 0.020221578 0.019828316 0.02856139 0.03181401 0.0111823715 0.013146945 -0.0058897072
0.03186698 0.014522285 -0.008758899 -0.033034053 0.0036405576 0.0042544804 0.025868282 0.026409851
0.039679248 0.0003070081 0.013218764 -0.028856602 0.0014948891 0.007683831 -0.024414754 -0.016832935
0.017096465 -0.019195693 -0.011367753 0.02502576 0.031623784 -0.02294472 -0.022561185 0.03038379
-0.010522094 0.007867071 -0.021497065 -0.012590708 0.0285091 -0.026402112 0.012398918 0.0008724589
0.011040251 0.0012147541 -0.008189296 0.012937043 0.009485651 -0.0034695424 0.023609549 0.031517807
0.01897307 -0.009697434 -0.02609931 -0.02477504 -0.018251324 -0.003056118 0.018365342 0.010200059
0.031723443 -0.035190508 -0.020025648 0.032153316 -0.025471635 0.022535458 0.0004105123 -0.0039131865
0.02514232 0.027362026 -0.014671916 -0.0022478576 0.033179697 0.02954859 0.014243278 -0.021539167
-0.024005765 0.025580227 0.020578664 -0.0038139485 0.034125183 0.02473742 -0.0076043233 0.015679188
0.03455856 0.020503715 -0.017074844 -0.03333109 0.010964859 0.013415324 -0.034905266 0.0051648575
-0.021797538 0.014182532 -0.017266544 -0.026911668 0.03400078 0.021149507 -0.01429625 -0.025504552
0.023903133 -0.022078801 -0.010480226 -0.01575747 0.010537122 -0.0022568507 0.013140657 -0.019791134
0.026098093 0.0040899413 -0.024417643 -0.025828842 0.021485722 -0.015266715 0.009901051 0.0009082494
-0.016419875 0.033430606 -0.014216638 0.01513938 0.021797653 0.010700399 0.035229538 -0.024533257
0.0049799397 2.7831606e-05 0.016087601 -0.015606306 -0.023487747 -0.028887197 0.023599738 0.008944624
-0.034027718 -0.003298136 -0.030919278 -0.0308382 0.022246055 -0.016638609 0.022092681 0.03337219
0.0041295807 0.014433448 -0.030876609 -0.015019268 -0.0019541227 0.0076872185 0.014726317 0.019051831
00000000: 81c7 973c 63ab 973c e7f4 b2ba 15f1 ee3c
00000010: 3f95 0d3d 80cc d7bc 58e3 e83b 85ca 06bd
00000020: c016 5a3b 1aaf 6d3c ca41 acbb 7ae6 e33c
00000030: 22ff 413c 2440 12bd 7882 f5bb 5f6c 8fbc
00000040: b558 fbbc 2abb 30ba 1476 06bd b629 b63c
00000050: ea32 fa3b 0e4b 5f3c 08a7 b83c a219 fe3c
00000060: e1d1 6fbc aeda a03a 01a1 15bd 85e8 f23b
00000070: 7519 d83c a2aa c8bc 7752 a53c 58bb 99bc
00000080: 34c8 263c 381d 83bc 039c a43b 78f5 0bbd
00000090: c9a0 ca3c c6e9 0bbc aeeb 003d 1397 7dbc
000000a0: 41d7 803c e62e 9abc f8f2 8ebc 6970 1abc
000000b0: ed61 803c e04d 743c 6dc4 a23c b43f debb
000000c0: b35c 9c3b b316 aa3c b447 62bc 6c40 3ebc
000000d0: 0a84 dc3c 3348 f4bc af1f 8cbc 748d a0bc
000000e0: 3489 f3bb dfd6 d4bc d400 073c 5834 cabc
000000f0: 5e9c 7ebc 9ced 0cbd 4f09 c13c b477 b1bc
00000100: 94c1 8abb fedc acbc 1b3b a1bb 1788 dcbb
00000110: 3c81 3cbc 6368 04ba 8533 763c 0d37 ee3c
00000120: f7fc d63c deee d6bc 9a19 86bb 143f 6fbd
00000130: 452a a6bc 1dba bfbb 186f 17bc 7385 65bb
00000140: 19d6 fe3c 42a1 dbbb 1be2 04bd fa4b ffbb
00000150: f44b 8d3c 1228 473d 66d1 253d 738b 973d
00000160: a2a9 1c3d 5486 c2bb 1b4e f9bc a37f 2ebd
00000170: 227a 10bd 66e2 7b3a 0b75 a1bc c1e3 a03b
00000180: e5ed 8c39 6bbd adbc 88e2 87bc 997b a13b
00000190: e019 b83b f174 f13b 1356 643c faf6 67bb
000001a0: 3788 5e3b 21a8 00bc 6dc9 013d 484d 9fb9
000001b0: dcf0 c93c 6c10 b0bc 3aa7 e3bc 62a8 8d3b
000001c0: fabb 04bd b9a7 a53c fe6e a23c 93f9 e93c
000001d0: 684f 023d 4436 373c 4966 573c 72fe c0bb
000001e0: f386 023d e1ee 6d3c 7c81 0fbc b74e 07bd
000001f0: 6c96 6e3b 2b69 8b3b b8e9 d33c 7959 d83c
00000200: b586 223d eef5 a039 8493 583c ae64 ecbc
00000210: 28f0 c33a a5c8 fb3b 7301 c8bc 39e5 89bc
00000220: e30d 8c3c 4940 9dbc d03f 3abc d302 cd3c
00000230: f187 013d 91f6 bbbc 3cd2 b8bc 6de7 f83c
00000240: dc64 2cbc e3e4 003c 9d1a b0bc 4249 4ebc
00000250: eb8b e93c 3e49 d8bc d524 4b3c bab5 643a
00000260: 2be2 343c 6238 9f3a 662c 06bc e4f5 533c
00000270: b469 1b3c 4361 63bb d068 c13c d118 013d
00000280: 696d 9b3c fce1 1ebc 38ce d5bc 06f5 cabc
00000290: cd83 95bc 2749 48bb ea72 963c 261e 273c
000002a0: 71f0 013d ec23 10bd d40c a4bc 32b3 033d
000002b0: e4a9 d0bc 489c b83c 073a d739 303a 80bb
000002c0: 44f7 cd3c 5426 e03c 7a62 70bc cb50 13bb
000002d0: 6fe7 073d e20f f23c a35c 693c e872 b0bc
000002e0: bda7 c4bc a08d d13c 9694 a83c 70f3 79bb
000002f0: d9c6 0b3d 21a6 ca3c b02d f9bb a471 803c
00000300: 478d 0d3d 68f7 a73c 8be0 8bbc 2e86 08bd
00000310: f4a5 333c f2cb 5b3c d3f8 0ebd f73d a93b
00000320: c090 b2bc da5d 683c 9172 8dbc dc75 dcbc
00000330: 6744 0b3d bb41 ad3c d23a 6abc ecee d0bc
00000340: 81d0 c33c 9ade b4bc 41b5 2bbc cf15 81bc
00000350: e5a3 2c3c ace7 13bb e94b 573c 0421 a2bc
00000360: abcb d53c ea04 863b 8207 c8bc 0297 d3bc
00000370: d302 b03c 3e21 7abc 0538 223c 9617 6e3a
00000380: f982 86bc 88ee 083d e7ec 68bc 290b 783c
00000390: fe90 b23c ba50 2f3c d94c 103d f8f9 c8bc
000003a0: c32e a33b eb77 e937 25ca 833c 97b1 7fbc
000003b0: 6069 c0bc d8a4 ecbc 3d54 c13c 798c 123c
000003c0: a660 0bbd 8a25 58bb 6d4a fdbc 65a0 fcbc
000003d0: 5c3d b63c b14d 88bc b6fb b43c 47b1 083d
000003e0: 6f51 873b 457a 6c3c f1f0 fcbc 6013 76bc
000003f0: bd10 00bb 10e5 fb3b a646 713c 9612 9c3c
