output_x01/x2/epoch_158.pth (torch, 231335 bytes, 5 tensors)

conv1.weight f4 [64, 1, 9, 9]
-0.043115057 0.00918559 -0.048558183 0.055275742 -0.08175211 0.09227779 -0.070490904 -0.07809934
-0.06169925 0.04640169 -0.04092834 0.046013486 -0.087890044 -0.061037064 -0.030772854 -0.012318741
-0.080012105 0.07761398 -0.030988641 0.033367917 0.0766853 0.024853356 0.041756045 0.120829046
-0.03583587 0.04700994 -0.04221822 0.08062079 0.08463887 -0.1089477 0.103956714 0.06741553
0.053912297 0.05668696 0.10981972 -0.005830383 -0.09376299 -0.035990547 -0.081248015 0.02020544
-0.014290441 -0.06646346 -0.007439238 0.11774265 -0.00017638456 0.0078035146 -0.015659804 0.018201465
0.10689242 0.065262124 0.027870603 0.024709992 0.035177805 0.051164225 -0.00011934642 -0.10223723
-0.069238 0.10322955 0.00254776 -0.104493484 0.017395303 0.09957936 -0.10205357 -0.0545943
-0.03489758 0.012126101 -0.012802891 -0.009968802 -0.110134386 0.062481813 0.11408687 0.07647678
-0.061530136 -0.08025009 0.047490742 0.0018246799 0.04390454 -0.10770312 -0.0033269087 0.08566523
0.057416674 -0.0012120613 0.011009093 -0.015999442 -0.07235385 -0.049093083 -0.08906943 0.08455955
0.04922506 0.025350088 -0.09588311 0.080419175 0.035656426 0.065633096 -0.045650918 0.017000157
0.11420818 0.08067425 0.07980027 -0.029459141 0.08147699 -0.092637815 -0.013328185 -0.065587096
-0.028827336 -0.023799863 0.01563991 0.103364944 0.049497824 -0.0025917576 0.087487616 -0.063078426
0.06636401 -0.0068268506 -0.01905811 0.0109604085 -0.09231684 0.0055679353 0.03216497 0.10276699
-0.04297971 0.043205857 0.11045814 -0.05338884 0.09892698 -0.07018415 0.05129384 0.038374055
0.028648347 0.0758712 -0.032047093 0.041662972 0.00402655 -0.080791764 -0.033477694 -0.07868057
0.032442052 -0.00084542664 -0.002229783 -0.024495477 0.004790505 -0.03604839 0.032787815 0.10078564
0.017823812 -0.058115132 -0.06631093 0.0008955878 -0.082201466 -0.08521278 -0.07806666 -0.041522153
0.0011379637 0.09591017 0.051771306 0.10506921 -0.06059151 0.013478532 -0.10013883 0.06359945
0.021915859 0.099970736 -0.07385178 0.09799101 0.11144512 0.11862885 0.05349576 0.13262464
0.09400253 0.08978077 -0.0034553772 -0.081355415 0.008434283 0.03911241 -0.0555359 -0.045523252
-0.08706301 -0.017944254 0.10510206 0.01498284 0.0048437156 0.01726845 0.086643875 -0.077791944
-0.06948664 -0.026907643 -0.04649954 0.07488797 0.083815135 -0.088372126 -0.078475565 -0.09092831
0.06941507 0.120737605 -0.07176118 -0.036306858 0.058110315 -0.05521291 0.10302187 0.034911353
-0.017765462 0.032332208 0.06633459 -0.024424864 -0.074424535 0.018247636 0.017251834 -0.00013784859
-0.011135825 0.086163245 -0.016142005 0.002352558 0.059570037 -0.048500847 0.04647472 -0.019317113
0.04359984 -0.07376686 0.01278235 0.0219382 -0.086102 -0.07827027 0.054852944 -0.02533944
0.061240006 -0.099066235 -0.054448016 -0.08210381 0.060345326 0.017501328 -0.008623666 -0.011830471
-0.08472942 0.031633105 0.011060003 -0.06823752 0.057912186 0.008643813 -0.0914026 0.07157755
0.0650815 -0.015942449 -0.06834832 0.003095876 0.08184733 0.10003353 -0.085917704 -0.054399673
0.083733305 0.05183586 0.062225174 -0.064166084 0.09626163 -0.09442171 -0.007418276 0.0023857956
00000000: 6a99 30bd 287f 163c f2e4 46bd d168 623d
00000010: a66d a7bd 23fc bc3d 895d 90bd 8cf2 9fbd
00000020: 5ab8 7cbd b30f 3e3d 7aa4 27bd a378 3c3d
00000030: b2ff b3bd 0002 7abd 5a17 fcbc 8bd4 49bc
00000040: 63dd a3bd 14f4 9e3d e4db fdbc ccac 083d
00000050: 2f0d 9d3d 4499 cb3c 6308 2b3d 3875 f73d
00000060: a2c8 12bd 7f8d 403d 03ed 2cbd 831c a53d
00000070: 2557 ad3d f91f dfbd 42e7 d43d 2711 8a3d
00000080: 24d3 5c3d 9630 683d 29e9 e03d cc0c bfbb
00000090: cf06 c0bd d36a 13bd 5c65 a6bd e185 a53c
000000a0: 7422 6abc ff1d 88bd dac4 f3bb 0f23 f13d
000000b0: dff3 38b9 a0b4 ff3b fd48 80bc 3d1b 953c
000000c0: 6aea da3d 26a8 853d e450 e43c 9c6c ca3c
000000d0: 9a16 103d 9491 513d 9f49 fab8 c161 d1bd
000000e0: a7cc 8dbd 046a d33d 52f8 263b ae00 d6bd
000000f0: 9880 8e3c 43f0 cb3d 7601 d1bd 469e 5fbd
00000100: c4f0 0ebd 8eac 463c 38c3 51bc 3054 23bc
00000110: 238e e1bd eeec 7f3d 60a6 e93d dc9f 9c3d
00000120: 0607 7cbd 295a a4bd a785 423d 192a ef3a
00000130: 3fd5 333d 7493 dcbd 4408 5abb 4171 af3d
00000140: bf2d 6b3d 07de 9eba 7c5f 343c 4311 83bc
00000150: 412e 94bd d415 49bd 096a b6bd 8f2d ad3d
00000160: 37a0 493d fdaa cf3c 5d5e c4bd cfb2 a43d
00000170: 790c 123d a56a 863d 75fc 3abd ea43 8b3c
00000180: fae5 e93d 8b38 a53d 536e a33d 4c54 f1bc
00000190: 68dd a63d e5b8 bdbd 765e 5abc 8752 86bd
000001a0: 4e27 ecbc eef7 c2bc 451f 803c 00b1 d33d
000001b0: 3bbe 4a3d 7ada 29bb b52c b33d 432f 81bd
000001c0: dbe9 873d c6b3 dfbb c11f 9cbc 4993 333c
000001d0: 9d10 bdbd 3a73 b63b 6abf 033d 8077 d23d
000001e0: 7e0b 30bd a0f8 303d e137 e23d 42ae 5abd
000001f0: 3a9a ca3d b5bc 8fbd 7d19 523d 1d2e 1d3d
00000200: f0af ea3c 5c62 9b3d d043 03bd cba6 2a3d
00000210: 26f1 833b 2776 a5bd e81f 09bd 4723 a1bd
00000220: f5e1 043d 9f9f 5dba 8d21 12bb bdaa c8bc
00000230: abf9 9c3b 7aa7 13bd 844c 063d b468 ce3d
00000240: 3e03 923c 220a 6ebd 06ce 87bd e1c5 6a3a
00000250: 3e59 a8bd 0a84 aebd 6ae1 9fbd 2213 2abd
00000260: ba27 953a 8d6c c43d 260e 543d 872e d73d
00000270: ce2e 78bd 10d5 5c3c 9615 cdbd 6e40 823d
00000280: e388 b33c 75bd cc3d 9a3f 97bd 83af c83d
00000290: 573d e43d aff3 f23d 5f1e 5b3d c1ce 073e
000002a0: 6684 c03d fbde b73d 9c73 62bb ab9d a6bd
000002b0: f22f 0a3c 5634 203d 9d79 63bd 9776 3abd
000002c0: 174e b2bd d4ff 92bc c03f d73d 967a 753c
000002d0: 08b8 9e3b 9176 8d3c 5872 b13d 6251 9fbd
000002e0: 034f 8ebd 6b6d dcbc 4d76 3ebd dd5e 993d
000002f0: 45a7 ab3d 72fc b4bd ccb7 a0bd 9f38 babd
00000300: 7d29 8e3d 4745 f73d 87f7 92bd 80b6 14bd
00000310: 1505 6e3d ef26 62bd 21fd d23d 35ff 0e3d
00000320: e088 91bc c76e 043d 6eda 873d a716 c8bc
00000330: e46b 98bd 117c 953c b853 8d3c 738b 10b9
00000340: 0973 36bc 5b76 b03d 3d3c 84bc 602d 1a3b
00000350: b6ff 733d d3a8 46bd 475c 3e3d ec3e 9ebc
00000360: bf95 323d 1413 97bd 106d 513c bdb7 b33c
00000370: 3f56 b0bd 2a4c a0bd 7bad 603d a894 cfbc
00000380: cdd6 7a3d 3de3 cabd e204 5fbd 0b26 a8bd
00000390: a92c 773d f25e 8f3c 474a 0dbc 98d4 41bc
000003a0: 9e86 adbd b791 013d 0435 353c 1dc0 8bbd
000003b0: 5435 6d3d c89e 0d3c 4931 bbbd 4097 923d
000003c0: 7349 853d bd99 82bc 34fa 8bbd 2ee4 4a3b
000003d0: 939f a73d 61de cc3d 9ff5 afbd 31d2 5ebd
000003e0: 5e7c ab3d d751 543d d3df 7e3d 8269 83bd
000003f0: d124 c53d 2b60 c1bd 0215 f3bb 025b 1c3b

conv1.bias f4 [64]
-0.030917436 -0.060525436 0.016964985 -0.06317073 0.04465277 0.023197513 0.06095675 7.037391e-05
0.12746835 -0.042834923 0.011224693 0.0012009662 -0.051095407 0.12737109 0.075039506 0.0682563
-0.02889822 -0.07289234 0.067913875 0.042016122 0.019700281 -0.015111958 -0.07158005 0.07351454
-0.023092289 0.0871864 -0.006445509 -0.030955069 0.030833155 0.0455645 0.091218516 -0.0011679166
0.04741577 0.065182716 -0.015718 -0.099364236 -0.012009768 0.08565177 -0.032686673 0.03802267
-0.10525356 -0.017133571 0.11002917 0.014627927 0.034469403 0.03535185 0.002001799 0.008241766
-0.01742423 -0.020899791 -0.01713603 0.0065535866 0.06811025 -0.00032541592 0.003736413 0.001492415
0.10273397 -0.04624817 0.004660049 0.13127974 0.119317956 0.039548863 -0.036369298 -0.08295861
00000000: 9046 fdbc 85e9 77bd 27fa 8a3c a85f 81bd
00000010: d3e5 363d b608 be3c c9ad 793d b595 9338
00000020: 1087 023e ac73 2fbd c6e7 373c bd69 9d3a
00000030: 6b49 51bd 916d 023e 50ae 993d f6c9 8b3d
00000040: f6bb ecbc 9448 95bd 6e16 8b3d 1919 2c3d
00000050: 7c62 a13c 2598 77bc 9098 92bd cb8e 963d
00000060: 0a2c bdbc c98e b23d d934 d3bb 7c95 fdbc
00000070: d095 fc3c d7a1 3a3d c6d0 ba3d c714 99ba
00000080: 0a37 423d 847e 853d 09c3 80bc 7a7f cbbd
00000090: 9ec4 44bc 326a af3d 76e2 05bd a9bd 1b3d
000000a0: 2e8f d7bd b45b 8cbc f956 e13d f9a9 6f3c
000000b0: ca2f 0d3d 1acd 103d 9d30 033b 7908 073c
000000c0: 42bd 8ebc 0a36 abbc dc60 8cbc 78bf d63b
000000d0: 637d 8b3d 969c aab9 9cde 743b 239d c33a
000000e0: 3066 d23d b96e 3dbd 53b3 983b 326e 063e
000000f0: f95c f43d fdfd 213d f9f7 14bd 34e6 a9bd

conv2.weight f4 [32, 64, 5, 5]
0.00066714565 0.0016708911 0.019232033 -0.0018995083 -0.020464325 -0.018573144 -0.024047239 -0.015332741
-0.033082034 -0.04961236 0.024030622 0.00084253534 0.00080972543 -0.026678355 -0.020230714 0.0017933408
0.017760593 -0.0023240526 -0.005158493 0.006498095 0.012460107 0.025089566 -0.010269386 0.027202113
0.008593063 -0.0192795 0.020443449 0.014521543 -0.0015663328 -0.024017608 -0.01419354 0.01904617
0.0033403423 0.0060057584 -0.0019888214 0.0028334912 -0.01068802 0.003951045 -0.005519873 0.015626641
-0.0022195068 0.010774768 -0.0049051777 0.0071851276 -0.0028389764 -0.033526357 0.011441747 0.015628459
0.023147317 0.0151122175 -0.0023445694 0.0412559 0.02507665 0.013492897 -0.0015544593 0.0032731497
0.03721826 0.048349507 0.018554892 0.0024076712 0.0036256553 -0.008424742 -0.025059544 -0.011205301
-0.027479613 -0.021506408 0.008043527 0.0026855133 0.0063298685 0.007592817 0.005928279 0.024638427
0.00678668 -0.0014560147 0.021795353 0.008084191 -0.019683328 -0.011796314 -0.020122506 -0.026691092
0.0023174721 0.018492902 -0.01910838 -0.01641043 0.01887686 0.016849305 0.014430372 -0.013538381
0.033794742 0.015953403 -0.006888852 0.027626844 0.020272395 0.022863304 -0.0064651626 -0.005489601
-0.021376992 0.0046232664 -0.028603183 -0.02989713 -0.028875466 -0.018471938 0.01659563 0.037057325
0.030066438 -0.012952457 0.0049727377 0.020129016 0.026369711 0.012295507 -0.020823566 -0.010593437
0.0313533 0.017366176 -0.03256408 -0.013917694 0.020779308 -0.01390156 0.021144096 0.019841867
-0.018347684 0.004839695 -0.0034850014 -0.018728051 0.025601843 -0.040361274 -0.028301802 0.027863778
-0.03302575 0.09436349 -0.012302484 -0.004013743 0.0006757463 -0.029185643 -0.01480655 0.029008275
0.019169334 0.057773855 0.044554718 0.03005876 0.0056351684 0.012702453 0.005905467 -0.0025711104
0.0086742025 -0.025669724 0.0077112 -0.011804247 -0.02328262 -0.030968023 -0.011939739 -0.0009204396
-0.010265401 0.024243943 -0.033110276 0.025492502 0.015510777 -0.017781168 -0.014758729 0.020336745
0.008497328 -0.012993614 0.007012111 -0.0006242056 0.0019123777 0.0097139925 -0.020835452 -0.011007361
-0.00065042486 0.021956932 -0.026113516 -0.016252866 0.01168814 0.019104978 0.000410809 0.0047568427
-0.022503464 -0.030535523 0.0066772485 -0.03470168 0.010184485 -0.039471652 -0.009423793 0.046436768
0.015166702 -0.06810294 -0.026348937 -0.058496654 -0.03923553 -0.025385888 -0.026252322 0.044718143
0.08359389 0.03785938 -0.0035414775 -0.08817969 -0.095689245 -0.01853715 -0.028657643 -0.032401245
-0.026542937 -0.04083474 -0.037507843 0.0072947503 -0.006422435 0.016493613 0.005416742 -0.010760674
0.011730342 0.0021226257 -0.010362275 0.016991029 0.0199297 0.008577486 -0.019208625 0.03237828
0.0155799845 0.018657384 -0.010824523 -0.031277902 -0.026187133 -0.0016136537 -0.0059432113 -0.021305528
0.009914971 -0.016485902 -0.013231124 -0.021383785 -0.009714125 -0.006012029 0.03524611 0.01533515
0.031243972 0.033244688 -0.010566911 0.010196811 0.008484547 0.0072737103 0.013272096 0.0044281487
-0.0419716 -0.02312479 -0.018559577 -0.043585777 -0.015451828 0.011178347 0.0009785471 -0.011655934
-0.015915042 -0.003182785 -0.013465638 0.01650731 0.009911145 -0.01769522 -0.01077778 -0.051451564
00000000: 63e3 2e3a cd01 db3a 7f8c 9d3c ecf8 f8ba
00000010: cda4 a7bc b526 98bc b7fe c4bc 2d36 7bbc
00000020: 0781 07bd 5436 4bbd dedb c43c 97dd 5c3a
00000030: c143 543a 918c dabc e2ba a5bc 880e eb3a
00000040: aa7e 913c 224f 18bb 9308 a9bb f9ed d43b
00000050: 7a25 4c3c a288 cd3c ed40 28bc f7d6 de3c
00000060: ebc9 0c3c 0bf0 9dbc 0579 a73c c4eb 6d3c
00000070: 684d cdba 93c0 c4bc 068c 68bc b706 9c3c
00000080: a5e9 5a3b f4cb c43b e356 02bb 18b2 393b
00000090: ce1c 2fbc c577 813b 0de0 b4bb 7103 803c
000000a0: 2575 11bb a788 303c 9dbb a0bb 3871 eb3b
000000b0: 1f0e 3abb ef52 09bd 2a76 3b3c 4107 803c
000000c0: 719f bd3c 3c99 773c 59a7 19bb f2fb 283d
000000d0: 8c6d cd3c 5011 5d3c 00bf cbba 5782 563b
000000e0: 2d72 183d 220a 463d 6e00 983c 05ca 1d3b
000000f0: 679c 6d3b ee07 0abc ac49 cdbc 7096 37bc
00000100: ed1c e1bc 352e b0bc ffc8 033c 70ff 2f3b
00000110: c96a cf3b 2acd f83b 0242 c23b 87d6 c93c
00000120: cc62 de3b bfd7 beba 2b8c b23c 8e73 043c
00000130: ee3e a1bc 5445 41bc f4d7 a4bc 47a7 dabc
00000140: bbe0 173b 6d7e 973c 2d89 9cbc 2b6f 86bc
00000150: a5a3 9a3c 8e07 8a3c 5e6d 6c3c 16d0 5dbc
00000160: 5b6c 0a3d b6b0 823c e1bb e1bb b151 e23c
00000170: 4b12 a63c d34b bb3c b7d9 d3bb 1ce2 b3bb
00000180: cd1e afbc c57e 973b 3951 eabc d3ea f4bc
00000190: 3e8c ecbc 7652 97bc 8ff3 873c 6cc9 173d
000001a0: e44d f63c 8b36 54bc 59f2 a23b 9be5 a43c
000001b0: 4b05 d83c 1873 493c 2f96 aabc 1890 2dbc
000001c0: 516c 003d 8343 8e3c ea61 05bd 0a07 64bc
000001d0: 5e39 aa3c 5ec3 63bc 6236 ad3c 698b a23c
000001e0: e24d 96bc 4e96 9e3b 9f64 64bb 926b 99bc
000001f0: f5ba d13c dd51 25bd 2ed9 e7bc 9442 e43c
00000200: 0246 07bd a541 c13d 5c90 49bc b785 83bb
00000210: 9124 313a bb16 efbc 2c97 72bc c3a2 ed3c
00000220: 0209 9d3c 47a4 6c3d 027f 363d ca3d f63c
00000230: 38a7 b83b f31d 503c a682 c13b 1380 28bb
00000240: 3e1e 0e3c 5049 d2bc 3cae fc3b 9a66 41bc
00000250: 31bb bebc a7b0 fdbc e59e 43bc a849 71ba
00000260: 3630 28bc 3c9b c63c a49e 07bd a7d5 d03c
00000270: ea20 7e3c d0a9 91bc 99ce 71bc 3f99 a63c
00000280: 6038 0b3c 2be3 54bc dac5 e53b bba1 23ba
00000290: bfa8 fa3a 7027 1f3c 1caf aabc 3858 34bc
000002a0: 4681 2aba 06df b33c 03ec d5bc bb24 85bc
000002b0: 9d7f 3f3c 0b82 9c3c da61 d739 4adf 9b3b
000002c0: 2f59 b8bc a225 fabc d2cc da3b 5923 0ebd
000002d0: d4dc 263c 07ad 21bd 4166 1abc 7b34 3e3d
000002e0: c27d 783c 8e79 8bbd bad9 d7bc 309a 6fbd
000002f0: 6fb5 20bd 11f6 cfbc 1c0f d7bc 5f2a 373d
00000300: 4633 ab3d 7012 1b3d 2218 68bb 8e97 b4bd
00000310: b9f8 c3bd 39db 97bc 6fc3 eabc 2bb7 04bd
00000320: 9370 d9bc 5442 27bd d3a1 19bd cd08 ef3b
00000330: 4a73 d2bb 9d1d 873c ed7e b13b 8a4d 30bc
00000340: 9f30 403c c01b 0b3b 88c6 29bc c530 8b3c
00000350: 9c43 a33c 9588 0c3c 685b 9dbc 169f 043d
00000360: 3143 7f3c 5fd7 983c 5759 31bc 421d 00bd
00000370: 6686 d6bc 3c81 d3ba 45bf c2bb ee88 aebc
00000380: 6772 223c 710d 87bc 5bc7 58bc 0c2d afbc
00000390: fe27 1fbc 8e00 c5bb 3a5e 103d 4840 7b3c
000003a0: 5cf3 ff3c 952b 083d d620 2dbc 8610 273c
000003b0: c502 0b3c 4e58 ee3b 3573 593c 011a 913b
000003c0: 6aea 2bbd 3370 bdbc 410a 98bc 0087 32bd
000003d0: aa29 7dbc 6325 373c 9842 803a 88f8 3ebc
000003e0: 4360 82bc 4596 50bb fb9e 5cbc 573a 873c
000003f0: 5b62 223c 91f5 90bc 4995 30bc e0be 52bd

conv2.bias f4 [32]
-0.008065058 -0.026572295 -0.001003733 0.024630306 0.026818916 0.02386361 -0.011313642 0.009717792
0.0071974765 -0.012543583 -0.0009123058 0.01169834 0.027050491 0.016913788 0.00905507 0.010146486
-0.013715883 -0.01913317 0.01595243 0.022716682 0.04214077 -0.0076845447 -0.0056047975 0.01451307
0.013778603 0.0112810265 0.018617485 0.01976313 0.009688783 -0.013560336 0.014825738 -0.00045381297
00000000: 4e23 04bc 24ae d9bc b18f 83ba 7fc5 c93c
00000010: 58b3 db3c 9e7d c33c db5c 39bc 6037 1f3c
00000020: cfd8 eb3b 9a83 4dbc ce27 6fba 65aa 3f3c
00000030: fe98 dd3c c98e 8a3c b75b 143c 723d 263c
00000040: 95b8 60bc 2abd 9cbc acae 823c 5618 ba3c
00000050: cd9b 2c3d a2ce fbbb 73a8 b7bb 3ac8 6d3c
00000060: a6bf 613c 0ed4 383c b283 983c 4ae6 a13c
00000070: b4bd 1e3c 2c2c 5ebc a7e7 723c bfed edb9

conv3.weight f4 [1, 32, 5, 5]
0.01924722 0.018449644 -0.0015282483 0.02800778 0.03369605 -0.02775052 0.005012546 -0.033987995
0.0028058602 0.013019186 -0.004403064 0.028528454 0.012382083 -0.033545304 -0.0057157073 -0.016858399
-0.02973332 4.346467e-06 -0.031744238 0.022878023 0.006358105 0.012222174 0.020643584 0.029697357
-0.016084015 0.0016885411 -0.035208493 0.007427482 0.026178459 -0.023618193 0.02056436 -0.017492034
0.009947381 -0.015935367 0.005571632 -0.03384607 0.025734942 -0.008035718 0.032150794 -0.0141466735
0.015331645 -0.017767204 -0.016091859 -0.009485668 0.016445309 0.014277736 0.020021876 -0.006307334
0.0046006157 0.021554545 -0.013811041 -0.011612039 0.02691843 -0.029819584 -0.017104952 -0.0195987
-0.0074321274 -0.025981365 0.0082399435 -0.024683163 -0.015545952 -0.034401745 0.02358915 -0.021663524
-0.004234502 -0.021088554 -0.0048899804 -0.006768785 -0.011505421 -0.0005050955 0.015041601 0.02910587
0.026217839 -0.026236948 -0.0040924074 -0.058445357 -0.011531118 0.0027156908 -0.0060375608 -0.00016814841
0.032254357 -0.008690496 -0.033222716 -0.011858912 0.004703316 0.04711481 0.033505898 0.06293125
0.03674752 -0.0069804112 -0.027281873 -0.032502502 -0.034564134 -0.00044011057 -0.016840836 -0.00015581047
-0.0019781312 -0.018459968 -0.016603196 0.0065929685 0.005832943 0.0075153285 0.014057996 -0.0034030506
0.003466043 -0.0075990204 0.031792592 -0.0001834643 0.024855582 -0.02132831 -0.027605811 0.0044120178
-0.03224131 0.020373596 0.019928195 0.028749319 0.031972636 0.011271756 0.013323038 -0.00571651
0.032038197 0.01472765 -0.008620864 -0.03285645 0.0038431722 0.004270474 0.026692452 0.025886614
0.037206333 0.0014262011 0.012617519 -0.028334673 0.0035233675 0.008508405 -0.022509905 -0.016571365
0.01754542 -0.018334135 -0.010873212 0.026220703 0.03133576 -0.023230882 -0.02400728 0.028948748
-0.009854679 0.006567874 -0.021188477 -0.013004989 0.028140273 -0.025202515 0.012645342 0.001048699
0.011095612 0.0012968538 -0.008020748 0.013168855 0.00962743 -0.00339743 0.023643196 0.03153656
0.019180015 -0.009526127 -0.025935868 -0.024607806 -0.018019818 -0.0029610617 0.01850647 0.010270142
0.03184238 -0.034911226 -0.019911757 0.032307874 -0.025267042 0.02271597 0.00059524574 -0.003799524
0.025218448 0.027405329 -0.014554707 -0.0021270125 0.033282895 0.029590847 0.014235266 -0.021475803
-0.023928158 0.025654357 0.020579083 -0.0038815117 0.034143448 0.02480386 -0.0075619845 0.015688686
0.034517407 0.020523444 -0.01703543 -0.033262223 0.011015193 0.013426939 -0.034848515 0.005218005
-0.021797538 0.014182532 -0.017266544 -0.026911668 0.03400078 0.021149507 -0.01429625 -0.025504552
0.023903133 -0.022078801 -0.010480226 -0.01575747 0.010537122 -0.0022568507 0.013140657 -0.019791134
0.026098093 0.0040899413 -0.024417643 -0.025828842 0.021485722 -0.015266715 0.009901051 0.0009082494
-0.016419875 0.033776943 -0.013695308 0.015232431 0.022046344 0.010691543 0.034687318 -0.024475759
0.004548118 -4.8386708e-05 0.016403493 -0.015512637 -0.022360856 -0.028069103 0.024111925 0.009401906
-0.033738945 -0.0028163304 -0.030095944 -0.030252492 0.021906117 -0.017428545 0.02133175 0.03316412
0.0047192327 0.014762373 -0.030876609 -0.015019268 -0.0019541227 0.0076872185 0.014726317 0.019051831
00000000: 59ac 9d3c b523 973c 814f c8ba 9270 e53c
00000010: df04 0a3d 0f55 e3bc 4940 a43b ff36 0bbd
00000020: 86e2 373b 6d4e 553c 9447 90bb 81b4 e93c
00000030: 38de 4a3c cd66 09bd d44a bbbb a01a 8abc
00000040: 4b93 f3bc ded7 9136 3f06 02bd b16a bb3c
00000050: a757 d03b 833f 483c bc1c a93c df47 f33c
00000060: a0c2 83bc 0a52 dd3a c836 10bd 3c62 f33b
00000070: 3574 d63c f17a c1bc 9776 a83c 744b 8fbc
00000080: 57fa 223c e38a 82bc 3d92 b63b 2da2 0abd
00000090: 16d2 d23c 3fa8 03bc 8db0 033d 73c7 67bc
000000a0: 9431 7b3c 878c 91bc 13d3 83bc c669 1bbc
000000b0: 50b8 863c 2aed 693c eb04 a43c c1ad cebb
000000c0: c3c0 963b 2893 b03c b447 62bc 6c40 3ebc
000000d0: 0a84 dc3c 3348 f4bc af1f 8cbc 748d a0bc
000000e0: 3489 f3bb dfd6 d4bc d400 073c 5834 cabc
000000f0: 73b4 7ebc d8e8 0cbd 083e c13c b477 b1bc
00000100: 94c1 8abb e7c1 acbc 213c a0bb afcc ddbb
00000110: 3c81 3cbc 6368 04ba 0c71 763c 6f6f ee3c
00000120: cbc6 d63c deee d6bc 9a19 86bb 6664 6fbd
00000130: 04ed 3cbc bbf9 313b bbd6 c5bb ff50 30b9
00000140: 251d 043d 9562 0ebc 8b14 08bd e24b 42bc
00000150: 461e 9a3b 76fb 403d 7b3d 093d 19e2 803d
00000160: 9184 163d efbb e4bb 3c7e dfbc 5821 05bd
00000170: 1f93 0dbd a4be e6b9 cbf5 89bc 0e61 23b9
00000180: 89a3 01bb 5c39 97bc 6d03 88bc d409 d83b
00000190: 4622 bf3b 2543 f63b 8253 663c b705 5fbb
000001a0: 8d26 633b 3401 f9bb f338 023d 5360 40b9
000001b0: ef9d cb3c b5b8 aebc 9525 e2bc b092 903b
000001c0: 770f 04bd 87e6 a63c 7440 a33c b183 eb3c
000001d0: bdf5 023d 2cad 383c df48 5a3c 9051 bbbb
000001e0: 7c3a 033d 3e4c 713c 863e 0dbc 7c94 06bd
000001f0: bbdd 7b3b 55ef 8b3b 21aa da3c 2a10 d43c
00000200: ab65 183d 5eef ba3a b6b9 4e3c 1e1e e8bc
00000210: 4ce8 663b d666 0b3c b166 b8bc acc0 87bc
00000220: 6abb 8f3c 7831 96bc 8e25 32bc cdcc d63c
00000230: ed59 003d b14e bebc eaaa c4bc ed25 ed3c
00000240: 8575 21bc 5237 d73b 7593 adbc e112 55bc
00000250: 6e86 e63c 8175 cebc 692e 4f3c 8074 893a
00000260: 5fca 353c 31fb a93a 7569 03bc 2ec2 573c
00000270: 5ebc 1d3c 6ba7 5ebb 60af c13c 7b2c 013d
00000280: 681f 9d3c 7913 1cbc 7577 d4bc 4f96 c9bc
00000290: 4c9e 93bc 5f0e 42bb e19a 973c 1944 283c
000002a0: 286d 023d 13ff 0ebd fb1d a3bc 4355 043d
000002b0: d4fc cebc d816 ba3c 440a 1c3a 6f01 79bb
000002c0: eb96 ce3c 2481 e03c de76 6ebc 5965 0bbb
000002d0: a553 083d 8168 f23c 083b 693c 06ee afbc
000002e0: fc04 c4bc 1629 d23c 7795 a83c f660 7ebb
000002f0: 00da 0b3d 7731 cb3c 86ca f7bb 8f85 803c
00000300: 2062 0d3d c820 a83c e38d 8bbc f83d 08bd
00000310: 1179 343c aafc 5b3c 51bd 0ebd ccfb aa3b
00000320: c090 b2bc da5d 683c 9172 8dbc dc75 dcbc
00000330: 6744 0b3d bb41 ad3c d23a 6abc ecee d0bc
00000340: 81d0 c33c 9ade b4bc 41b5 2bbc cf15 81bc
00000350: e5a3 2c3c ace7 13bb e94b 573c 0421 a2bc
00000360: abcb d53c ea04 863b 8207 c8bc 0297 d3bc
00000370: d302 b03c 3e21 7abc 0538 223c 9617 6e3a
00000380: f982 86bc b159 0a3d 4962 60bc 7291 793c
00000390: 899a b43c 952b 2f3c 4a14 0e3d 6381 c8bc
000003a0: 6108 953b d5f2 4ab8 9e60 863c b728 7ebc
000003b0: 1d2e b7bc 2df1 e5bc 5f86 c53c 740a 1a3c
000003c0: d931 0abd 2f92 38bb c58b f6bc 13d4 f7bc
000003d0: 7574 b33c 4fc6 8ebc ecbf ae3c 1ad7 073d
000003e0: cba3 9a3b e1dd 713c f1f0 fcbc 6013 76bc
000003f0: bd10 00bb 10e5 fb3b a646 713c 9612 9c3c
