output_x01/x2/epoch_288.pth (torch, 231335 bytes, 5 tensors)

conv1.weight f4 [64, 1, 9, 9]
-0.050437156 0.010314063 -0.04746084 0.06608346 -0.0723945 0.10034032 -0.06325811 -0.07406462
-0.066228144 0.03769149 -0.040900804 0.04744254 -0.08061234 -0.05967257 -0.03121322 -0.0127710365
-0.08251846 0.069336765 -0.04831767 0.023151835 0.06813238 0.02835211 0.046466753 0.1251908
-0.029290607 0.05068884 -0.04701272 0.07111703 0.07579991 -0.118269436 0.11027935 0.072274715
0.0542158 0.062101666 0.11534504 -0.010075519 -0.10002539 -0.043563694 -0.08816587 0.028797034
-0.013003458 -0.07189907 -0.0059448043 0.12216187 -0.000923117 -0.0050779353 -0.031438068 0.0048489138
0.108809456 0.06296853 0.020754816 0.024444614 0.038505558 0.048125673 0.004214157 -0.101547435
-0.06557898 0.1143399 0.003488489 -0.10945743 0.018180788 0.1044852 -0.10419848 -0.048550453
-0.03252311 0.018225297 -0.0030313092 -0.005948458 -0.10653191 0.0684034 0.12204279 0.07606516
-0.057275966 -0.080661185 0.04853624 0.0043424293 0.04411104 -0.10721871 -0.0054684994 0.08474128
0.052343167 0.013038693 0.01246783 -0.011039324 -0.0710758 -0.050755322 -0.10854253 0.09460068
0.05348867 0.020495351 -0.09764045 0.072574556 0.030585993 0.055114895 -0.054294202 -0.0028388752
0.1250976 0.09142679 0.07221779 -0.03497153 0.07553211 -0.096085496 -0.026325932 -0.06358457
-0.036508743 -0.01527394 0.022147065 0.09687941 0.039334133 -0.0023034273 0.09723093 -0.065286554
0.08542412 -0.0016422465 -0.015826965 0.010845055 -0.092894554 -0.0018962508 0.034689557 0.11186753
-0.056176864 0.049619265 0.10730444 -0.058566626 0.09225666 -0.07478767 0.046654318 0.03659885
0.036197703 0.06556011 -0.028073072 0.0380091 0.00505328 -0.0771742 -0.031598292 -0.08421824
0.019828128 0.0018392495 -0.005777057 -0.021080948 -0.008529752 -0.042555913 0.03231444 0.09366057
0.013846306 -0.075145625 -0.065571524 -0.00048685595 -0.08781279 -0.106460795 -0.087188 -0.044570863
-0.007299845 0.10130495 0.04478912 0.11852373 -0.050898172 0.016630325 -0.09913168 0.08129108
0.035599742 0.10875135 -0.089783795 0.09247013 0.118801884 0.13756827 0.07695362 0.13910675
0.08446288 0.07562829 -0.009807787 -0.101526506 -0.008830523 0.024753274 -0.07791715 -0.07151731
-0.114916876 -0.044613443 0.080722235 -0.009788914 0.010767577 0.020241152 0.08877308 -0.08304414
-0.07056484 -0.034835428 -0.060832582 0.0627249 0.06389639 -0.06499327 -0.061979625 -0.08361951
0.07283826 0.14202054 -0.058361568 -0.037183832 0.056789637 -0.062478933 0.10137564 0.023647858
-0.0439355 0.00437573 0.062347855 -0.026778216 -0.08235459 0.0114617655 0.002766215 -0.009614524
-0.018657537 0.07275506 -0.041308258 -0.006438534 0.071416885 -0.037893876 0.050422568 -0.030883893
0.054965254 -0.06152827 0.032519307 0.037572708 -0.07587218 -0.06516397 0.057320103 -0.030085728
0.05886161 -0.08087743 -0.04191523 -0.06783951 0.075574234 0.032671776 0.0021983671 -0.013319875
-0.08369174 0.054489296 0.02072309 -0.060242146 0.063102774 -0.0018206468 -0.10408839 0.068008184
0.05377019 -0.020700926 -0.047394272 0.0007795079 0.079272725 0.095248185 -0.0932083 -0.06605233
0.07246171 0.050307807 0.05298465 -0.07265701 0.100342825 -0.09849128 -0.01837412 -0.010254251
00000000: 3197 4ebd 51fc 283c 4c66 42bd c456 873d
00000010: 9143 94bd 3a7f cd3d 788d 81bd 31af 97bd
00000020: 9fa2 87bd 6462 1a3d 9a87 27bd 1c53 423d
00000030: 1518 a5bd 3a6b 74bd deb2 ffbc 9c3d 51bc
00000040: 70ff a8bd 6f00 8e3d c0e8 45bd eba8 bd3c
00000050: fd88 8b3d af42 e83c ec53 3e3d 0432 003e
00000060: dbf2 efbc 1a9f 4f3d 6990 40bd cea5 913d
00000070: fc3c 9b3d 3f37 f2bd 24da e13d c404 943d
00000080: 6311 5e3d 515e 7e3d 053a ec3d ca13 25bc
00000090: 1dda ccbd d86f 32bd 4f90 b4bd c2e7 eb3c
000000a0: 750c 55bc d23f 93bd a2cc c2bb 0130 fa3d
000000b0: 55fd 71ba cf64 a6bb 34c5 00bd a3e3 9e3b
000000c0: 7ed7 de3d a5f5 803d 0106 aa3c 1240 c83c
000000d0: 01b8 1d3d 6d1f 453d e916 8a3b 1af8 cfbd
000000e0: 464e 86bd 0a2b ea3d 229f 643b 382b e0bd
000000f0: e0ef 943c 56fc d53d 0366 d5bd d7dc 46bd
00000100: f436 05bd 384d 953c eea8 46bb 48eb c2bb
00000110: 672d dabd 1517 8c3d 92f1 f93d 0dc8 9b3d
00000120: 349a 6abd b131 a5bd f0cd 463d f04a 8e3b
00000130: c7ad 343d 7c95 dbbd 1931 b3bb d68c ad3d
00000140: ca65 563d 3ea0 553c df45 4c3c 48de 34bc
00000150: 3090 91bd d0e4 4fbd 8c4b debd 00be c13d
00000160: f016 5b3d dee5 a73c b7f7 c7bd f8a1 943d
00000170: 7a8f fa3c 28c0 613d 9963 5ebd 6c0c 3abb
00000180: 9619 003e f83d bb3d ece6 933d 4f3e 0fbd
00000190: 94b0 9a3d 79c8 c4bd 7ba9 d7bc a138 82bd
000001a0: 318a 15bd 8c3f 7abc c36d b53c b668 c63d
000001b0: d41c 213d 19f5 16bb 0321 c73d f5b4 85bd
000001c0: d7f2 ae3d a640 d7ba 8da7 81bc 75af 313c
000001d0: 803f bebd 9e8b f8ba a316 0e3d ce1a e53d
000001e0: b619 66bd 923d 4b3d 6ec2 db3d 8fe3 6fbd
000001f0: 0ff1 bc3d 472a 99bd 9918 3f3d ade8 153d
00000200: 0b44 143d 6144 863d 80f9 e5bc 6eaf 1b3d
00000210: fc95 a53b 820d 9ebd 366d 01bd 9d7a acbd
00000220: 996e a23c f912 f13a 774d bdbb f4b1 acbc
00000230: 5fc0 0bbc 1c4f 2ebd 255c 043d 1dd1 bf3d
00000240: 9edb 623c f3e5 99bd 5d4a 86bd b340 ffb9
00000250: 31d7 b3bd 1e08 dabd 9f8f b2bd f08f 36bd
00000260: 8a33 efbb f878 cf3d cc74 373d 92bc f23d
00000270: 9a7a 50bd 523c 883c 8d05 cbbd f07b a63d
00000280: 09d1 113d 07b9 de3d 91e0 b7bd fb60 bd3d
00000290: 674e f33d b2de 0c3e dc99 9d3d 0072 0e3e
000002a0: e0fa ac3d 01e3 9a3d d7b0 20bc 21ed cfbd
000002b0: e6ad 10bc 61c7 ca3c 0793 9fbd ab77 92bd
000002c0: 8a59 ebbd 96bc 36bd b351 a53d ae61 20bc
000002d0: 7e6a 303c c6d0 a53c a9ce b53d 0c13 aabd
000002e0: 4d84 90bd 98af 0ebd 962b 79bd ea75 803d
000002f0: 1cdc 823d 311b 85bd 59de 7dbd b540 abbd
00000300: 3a2c 953d d56d 113e 8a0c 6fbd 134e 18bd
00000310: 409c 683d e9e9 7fbd 089e cf3d 27b9 c13c
00000320: b6f5 33bd 4962 8f3b 7760 7f3d fd5d dbbc
00000330: 86a9 a8bd 21ca 3b3c 6349 353b 3d86 1dbc
00000340: b1d7 98bc 9b00 953d d932 29bd 56fa d2bb
00000350: 0443 923d 9c36 1bbd e587 4e3d 3800 fdbc
00000360: 3f23 613d 1105 7cbd f732 053d d7e5 193d
00000370: e062 9bbd b074 85bd 7cc8 6a3d 5876 f6bc
00000380: df18 713d 11a3 a5bd 4eaf 2bbd 71ef 8abd
00000390: aac6 9a3d d7d2 053d 7b12 103b 9b3b 5abc
000003a0: 9366 abbd 2b30 5f3d 78c3 a93c 78c0 76bd
000003b0: 073c 813d c5a2 eeba 4b2c d5bd e047 8b3d
000003c0: 213e 5c3d fd94 a9bc 7f20 42bd e457 4c3a
000003d0: bd59 a23d 7b11 c33d fee3 bebd 7246 87bd
000003e0: ce66 943d 8f0f 4e3d 6f06 593d 33cd 94bd
000003f0: 8a80 cd3d ccb5 c9bd 5385 96bc 7201 28bc

conv1.bias f4 [64]
-0.034645762 -0.03511144 0.008081618 -0.058786973 0.04584425 0.029844837 0.061993312 0.00013283343
0.12525892 -0.018237047 0.00964236 -9.631891e-06 -0.053215425 0.14207537 0.070247106 0.06475827
-0.023573784 -0.06569965 0.07850936 0.046672262 0.02231425 -0.013979083 -0.070841014 0.11406117
-0.024669828 0.10657737 -0.0032312938 -0.029110145 0.02930265 0.042648412 0.0984442 0.0073845037
0.04891331 0.07891279 -0.016337942 -0.1190566 -0.018689524 0.08228462 -0.0269457 0.039893422
-0.10994188 -0.041103702 0.11342253 0.046852592 0.035154805 0.037653618 -0.0050148545 0.029944737
0.019079281 -0.023962907 -0.020009713 0.0028546327 0.06545026 0.0029091812 0.0012403331 -0.003856227
0.13799383 -0.044802893 0.0076855263 0.1572103 0.12022286 0.03766975 -0.021924758 -0.06839114
00000000: b7e8 0dbd 03d1 0fbd c368 043c 9cca 70bd
00000010: 2ec7 3b3d 297d f43c b3ec 7d3d 3449 0b39
00000020: e043 003e dc65 95bc fdfa 1d3c a898 21b7
00000030: 6bf8 59bd 357c 113e b7dd 8f3d fc9f 843d
00000040: cf1d c1bc 8a8d 86bd 84c9 a03d 6a2b 3f3d
00000050: 60cc b63c 8608 65bc 1815 91bd e798 e93d
00000060: 6118 cabc 3c45 da3d 1dc4 53bb 6678 eebc
00000070: 1c0c f03c 1ab0 2e3d 1d9d c93d b5f9 f13b
00000080: 5359 483d 079d a13d 26d7 85bc f2d3 f3bd
00000090: c61a 99bc d784 a83d 3bbd dcbc 4967 233d
000000a0: 3529 e1bd 5b5c 28bd 124a e83d 81e8 3f3d
000000b0: 7cfe 0f3d ae3a 1a3d a653 a4bb aa4e f53c
000000c0: 274c 9c3c dc4d c4bc 69eb a3bc ca14 3b3b
000000d0: c90a 863d f6a7 3e3b ac92 a23a c1b8 7cbb
000000e0: 414e 0d3e 3d83 37bd ded6 fb3b bdfb 203e
000000f0: 6737 f63d 994b 1a3d 8d9b b3bc a710 8cbd

conv2.weight f4 [32, 64, 5, 5]
0.00023566856 -0.0024225004 0.01957894 0.007749308 -0.007223947 -0.022228718 -0.028620616 -0.019086223
-0.023243865 -0.033283718 0.029703053 0.011628683 -0.00725501 -0.028972877 -0.012099728 -0.0019502705
0.019083017 -0.0116237085 -0.009005329 0.013480946 0.012602673 0.021764025 -0.011476809 0.029124318
0.022921253 -0.012539024 0.021825554 0.015898366 -0.001002115 -0.025789829 -0.020480456 0.002237263
-0.009718043 -0.008434906 -0.0057196547 0.0060785487 -0.010036046 0.0073266095 -0.009394615 0.016707795
-0.0005032812 0.012958159 0.0043051313 0.010603623 -0.009809843 -0.036564622 0.0084008705 0.019581398
0.026467891 0.010719324 0.0039701266 0.042585425 0.035695005 0.03174085 0.0014272551 0.020815244
0.03375943 0.050974227 0.022989854 -0.004204783 0.021503765 -0.0088713905 -0.0338033 -0.02267691
-0.04954168 -0.020142436 0.009496167 0.0035971932 0.008982129 0.016196288 -0.0024731238 0.019528173
0.0032062093 -0.0045421687 0.02046299 0.0063248994 -0.024720935 -0.016670328 -0.025468284 -0.0358025
-0.0024602534 0.012420749 -0.02244938 -0.015821736 0.021948649 0.010560522 0.00918981 -0.01193837
0.040061742 0.016350325 -0.007164153 0.0282252 0.02025951 0.021260673 -0.0071324715 -0.008371525
-0.029131863 -0.0055429316 -0.041838583 -0.035255335 -0.032388944 -0.020536052 0.020257033 0.044096135
0.02911528 -0.020644292 0.006926638 0.019844905 0.026343392 0.0103217205 -0.031197172 -0.013901161
0.0307642 0.023167286 -0.033128 -0.013951995 0.024463488 -0.016201004 0.018560594 0.010638661
-0.013928178 0.0072701797 -0.004165255 -0.019738413 0.02292913 -0.012298664 -0.05203294 0.03897421
-0.014304292 0.08610151 0.010144039 0.005285817 -0.0012379793 -0.03541107 -0.011475234 0.039848942
0.02701018 0.06734026 0.05861993 0.042634323 -0.005775658 0.0068942723 0.00024723998 -0.0023776852
0.009819097 -0.017293585 0.023514494 0.001198976 -0.0017236689 -0.021921497 -0.006994489 -0.003345833
-0.009303156 0.030683529 -0.038879577 0.02262954 0.010019426 -0.019001452 -0.009857135 0.014630541
0.006571491 -0.009585904 0.011468507 0.0073088254 0.0034274275 0.0069395783 -0.022596586 -0.009869164
-0.001258062 0.024497906 -0.03148594 -0.021835718 0.010620029 0.019540582 0.011539125 0.015577159
-0.02682057 0.0044311294 0.006819145 -0.066018246 0.003844532 -0.09967663 -0.015050856 0.070296995
-0.008636453 -0.062820345 -0.08666782 -0.060538072 -0.010210479 -0.013197989 -0.027835427 0.04497154
0.089832455 0.039168872 -0.0116188135 -0.12034417 -0.09231835 -0.0155846095 -0.034033604 -0.03713234
-0.029286379 -0.042180035 -0.042129 0.0028885356 -0.016192667 0.007028151 0.00087206706 -0.012389072
0.0125307925 -0.002108901 -0.0142381145 0.017822215 0.023969868 0.012772042 -0.01850399 0.030926952
0.017346866 0.021158272 -0.009269373 -0.030630577 -0.026942616 -0.0038095457 -0.01080339 -0.024515389
0.011238749 0.0015301779 0.0097168945 -0.0018881079 -0.002608081 -0.0028626875 0.015476981 0.008851294
0.03747981 0.03996267 -0.012498919 -0.01588898 -0.0006516877 0.003516034 0.012125402 -0.0025840243
-0.03404798 -0.0069096647 -0.0084209135 -0.052282028 -0.010926452 -2.4223e-05 0.004897056 -0.0006174203
-0.029588763 -0.0041529057 -0.0155208 0.017184263 0.009240423 -0.015593594 -0.012412753 -0.049316943
00000000: cc1d 7739 d0c2 1ebb 0364 a03c e8ed fd3b
00000010: dcb6 ecbb 0019 b6bc c875 eabc b65a 9cbc
00000020: eb69 bebc 8254 08bd d153 f33c 3b86 3e3c
00000030: 6fbb edbb 8758 edbc f03d 46bc 38a0 ffba
00000040: fd53 9c3c 5e71 3ebc 168b 13bc 30df 5c3c
00000050: 717b 4e3c 784a b23c 3a09 3cbc 1f96 ee3c
00000060: 5ac5 bb3c 7b70 4dbc 81cb b23c 4a3d 823c
00000070: 6659 83ba 3145 d3bc a1c6 a7bc 0b9f 123b
00000080: 6d38 1fbc 8f32 0abc f16b bbbb 902e c73b
00000090: 3a6e 24bc 0e14 f03b dfeb 19bc c9de 883c
000000a0: a1ee 03ba 754e 543c 0f12 8d3b d2ba 2d3c
000000b0: 77b9 20bc c9c4 15bd cea3 093c 2b69 a03c
000000c0: 31d3 d83c 1ba0 2f3c d617 823b 0e6e 2e3d
000000d0: ed34 123d b202 023d bc12 bb3a bb84 aa3c
000000e0: 5447 0a3d 5aca 503d 3855 bc3c 47c8 89bb
000000f0: aa28 b03c 4f59 11bc 5475 0abd edc4 b9bc
00000100: 37ec 4abd c001 a5bc d095 1b3c e3be 6b3b
00000110: c829 133c 14ae 843c 2214 22bb 8cf9 9f3c
00000120: 441f 523b 79d6 94bb 00a2 a73c 1a41 cf3b
00000130: 8f83 cabc 3690 88bc dda2 d0bc a4a5 12bd
00000140: 343c 21bb 6680 4b3c c3e7 b7bc 969c 81bc
00000150: a7cd b33c 0a06 2d3c db90 163c 2799 43bc
00000160: c817 243d 1ef1 853c 45c1 eabb 8938 e73c
00000170: 46f7 a53c dd2a ae3c 82b7 e9bb b928 09bc
00000180: f2a5 eebc 7ba1 b5bb ef5e 2bbd e667 10bd
00000190: 45aa 04bd 393b a8bc 14f2 a53c 269e 343d
000001a0: 2b83 ee3c 381e a9bc daf8 e23b c891 a23c
000001b0: 19ce d73c 6f1c 293c 3691 ffbc b2c1 63bc
000001c0: 3405 fc3c 52c9 bd3c 3ab1 07bd e996 64bc
000001d0: a767 c83c f8b7 84bc 630c 983c c74d 2e3c
000001e0: 0333 64bc b03a ee3b b17c 88bb 74b2 a1bc
000001f0: dfd5 bb3c 5680 49bc 7e20 55bd 6ca3 1f3d
00000200: 8d5c 6abc fd55 b03d 2f33 263c a634 ad3b
00000210: b143 a2ba 330b 11bd 9f02 3cbc a538 233d
00000220: 7444 dd3c b1e9 893d 741b 703d 54a1 2e3d
00000230: bb41 bdbb 59e9 e13b fd9f 8139 f0d2 1bbb
00000240: 47e0 203c 47ab 8dbc 78a1 c03c f526 9d3a
00000250: bbec e1ba b694 b3bc 0732 e5bb c345 5bbb
00000260: 446c 18bc 065c fb3c 3140 1fbd 9661 b93c
00000270: 8528 243c efa8 9bbc d27f 21bc f0b4 6f3c
00000280: a955 d73b 320e 1dbc 68e6 3b3c df7e ef3b
00000290: b19e 603b 6765 e33b 7a1c b9bc 46b2 21bc
000002a0: 8ee5 a4ba d5af c83c 67f7 00bd d2e0 b2bc
000002b0: a1ff 2d3c 9213 a03c 990e 3d3c 5737 7f3c
000002c0: d0b6 dbbc 0233 913b 2273 df3b 9334 87bd
000002d0: 8bf4 7b3b 4323 ccbd de97 76bc dff7 8f3d
000002e0: e97f 0dbc f4a7 80bd e67e b1bd c5f6 77bd
000002f0: da49 27bc 613c 58bc 1f07 e4bc 1434 383d
00000300: 14fa b73d 8a6f 203d d65c 3ebc 0177 f6bd
00000310: 6711 bdbd 9756 7fbc d266 0bbd 1518 18bd
00000320: fde9 efbc f9c4 2cbd 758f 2cbd 964d 3d3b
00000330: 7ca6 84bc 674c e63b 6e9b 643a 89fb 4abc
00000340: f44d 4d3c 7d35 0abb fb46 69bc e5ff 913c
00000350: 755c c43c d441 513c ae95 97bc 855a fd3c
00000360: 041b 8e3c 1d54 ad3c 91de 17bc faec fabc
00000370: c3b6 dcbc 92a9 79bb b400 31bc 7fd4 c8bc
00000380: bb22 383c 4090 c83a 9c33 1f3c 637a f7ba
00000390: 57ec 2abb ed9b 3bbb 2a93 7d3c 0505 113c
000003a0: 6e84 193d e6af 233d 44c8 4cbc 9b29 82bc
000003b0: 05d6 2aba 436d 663b 9fa9 463c bc58 29bb
000003c0: e575 0bbd 786a e2bb dff7 09bc ae25 56bd
000003d0: dd04 33bc 7f32 cbb7 7c77 a03b 60da 21ba
000003e0: 2264 f2bc 1915 88bb f44a 7ebc 03c6 8c3c
000003f0: 2565 173c 467c 7fbc dc5e 4bbc 9000 4abd

conv2.bias f4 [32]
-0.004730687 -0.03626861 -0.0024045047 0.022196162 0.024958858 0.018591557 -0.013105162 0.007900233
0.0071974765 -0.013125914 -0.0009123058 0.011771581 0.023097329 0.017767118 0.020950021 0.020534825
-0.015195406 -0.01909175 0.0189245 0.019489614 0.05008629 -0.014937977 -0.018373514 0.01888258
0.013380327 0.012214448 0.018458426 0.036554698 0.008662137 -0.014995716 0.009027046 -0.0009459121
00000000: e103 9bbb 658e 14bd e594 1dbb bad4 b53c
00000010: 8576 cc3c 524d 983c 09b7 56bc fb6f 013c
00000020: cfd8 eb3b 130e 57bc ce27 6fba 97dd 403c
00000030: 9c36 bd3c 598c 913c 619f ab3c a638 a83c
00000040: 27f6 78bc 4d66 9cbc 8e07 9b3c afa8 9f3c
00000050: 4827 4d3d 6bbe 74bc 0d84 96bc a4af 9a3c
00000060: 2939 5b3c 1c1f 483c 2036 973c 61ba 153d
00000070: a3eb 0d3c 97b0 75bc 2de6 133c 16f7 77ba

conv3.weight f4 [1, 32, 5, 5]
0.017662058 0.018591488 -0.0010260533 0.029955173 0.034503486 -0.02466447 0.009439778 -0.031730287
0.0038325062 0.015678288 -0.006111797 0.027602341 0.011631597 -0.03740385 -0.0089432765 -0.018138371
-0.031954773 -0.0020210173 -0.034595173 0.021320235 0.008534851 0.015108337 0.024780853 0.032476258
-0.01301138 0.0010561034 -0.03759749 0.00738082 0.02687211 -0.025282891 0.01995027 -0.01993912
0.010288923 -0.016001621 0.0044391267 -0.034418672 0.023842875 -0.009032588 0.031208407 -0.016456097
0.016098585 -0.019916736 -0.018961217 -0.009183715 0.014905083 0.015487305 0.019874183 -0.0072621545
0.0049009575 0.020041168 -0.013811041 -0.011612039 0.02691843 -0.029819584 -0.017104952 -0.0195987
-0.0074321274 -0.025981365 0.0082399435 -0.024683163 -0.0155402105 -0.03440629 0.023564009 -0.021663524
-0.004234502 -0.021101471 -0.004920376 -0.0067300904 -0.011505421 -0.0005050955 0.015026932 0.029078985
0.02624367 -0.026236948 -0.0040924074 -0.05664687 -0.02858286 -0.013655199 -0.011605146 -0.0062279124
0.03283362 -0.0031921684 -0.030889185 -0.004709499 0.023941696 0.049624905 0.045101892 0.08129179
0.038373794 -0.0057941824 -0.031928074 -0.051074132 -0.037568547 0.0003311713 -0.022306813 0.008149386
0.00239977 -0.023293303 -0.016462708 0.0028433674 0.0053886897 0.007242805 0.013859636 -0.0036542334
0.0033337744 -0.008065099 0.03161031 -0.00037779546 0.024514452 -0.021622483 -0.02795991 0.004224232
-0.03252453 0.020131107 0.019761758 0.028441308 0.031660695 0.011093761 0.013005775 -0.006026371
0.03176617 0.014358014 -0.008901422 -0.033213966 0.003475278 0.0039564427 0.024977434 0.02641277
0.04234492 -0.000684924 0.013759075 -0.02895219 -0.0005741814 0.0067282254 -0.026389046 -0.016983934
0.016515046 -0.020292595 -0.011733955 0.0239975 0.0315252 -0.023178725 -0.02131492 0.032071095
-0.010816963 0.009444111 -0.021679608 -0.01216347 0.0289809 -0.027344206 0.012141555 0.00068407157
0.010943846 0.0011563107 -0.008377962 0.0126802465 0.009288345 -0.0036410457 0.02359391 0.031521298
0.018858366 -0.009857581 -0.0263089 -0.024903849 -0.01849927 -0.0031072781 0.01820041 0.010088177
0.031620134 -0.03552535 -0.020189434 0.031960607 -0.025696157 0.022345226 0.00018442048 -0.004018815
0.025067814 0.027319198 -0.014767078 -0.0023324965 0.03308592 0.029508084 0.014237675 -0.021596078
-0.02406869 0.025499325 0.020556765 -0.003771679 0.034100585 0.024672741 -0.007649974 0.015647879
0.034585305 0.020480152 -0.017119363 -0.03340876 0.010893913 0.01337017 -0.03498391 0.0051025706
-0.021797538 0.014182532 -0.017266544 -0.026911668 0.03400078 0.021149507 -0.01429625 -0.025504552
0.023903133 -0.022078801 -0.010480226 -0.01575747 0.010537122 -0.0022568507 0.013140657 -0.019791134
0.026098093 0.0040899413 -0.024417643 -0.025828842 0.021485722 -0.015266715 0.009901051 0.0009082494
-0.016419875 0.03343543 -0.014838046 0.014847469 0.021625668 0.010901202 0.035884045 -0.024725575
0.0053968625 0.00021526939 0.015931038 -0.015375508 -0.02476566 -0.029799765 0.023128215 0.0085807545
-0.034056332 -0.0037666878 -0.031606197 -0.0312689 0.02273709 -0.015590789 0.023185529 0.034072354
0.003757959 0.014504736 -0.030876609 -0.015019268 -0.0019541227 0.0076872185 0.014726317 0.019051831
00000000: 05b0 903c 2d4d 983c a37c 86ba 8d64 f53c
00000010: 8753 0d3d 250d cabc 4ca9 1a3c 9ef7 01bd
00000020: c92a 7b3b c16f 803c 7845 c8bb 4e1e e23c
00000030: 7492 3e3c c834 19bd d286 12bc ec96 94bc
00000040: 02e3 02bd 0b73 04bb abb3 0dbd c6a7 ae3c
00000050: c2d5 0b3c f588 773c 3701 cb3c d305 053d
00000060: af2d 55bc f36c 8a3a d3ff 19bd ceda f13b
00000070: e622 dc3c 111e cfbc c06e a33c 5e57 a3bc
00000080: df92 283c d515 83bc 1876 913b 98fa 0cbd
00000090: 2252 c33c 6cfd 13bc c6a8 ff3c f0ce 86bc
000000a0: 2ee1 833c 6c28 a3bc 8e54 9bbc 4b77 16bc
000000b0: 7334 743c 77be 7d3c 2fcf a23c 5ef7 edbb
000000c0: 3698 a03b 602d a43c b447 62bc 6c40 3ebc
000000d0: 0a84 dc3c 3348 f4bc af1f 8cbc 748d a0bc
000000e0: 3489 f3bb dfd6 d4bc d400 073c 5834 cabc
000000f0: 5e9c 7ebc 9ced 0cbd 4f09 c13c b477 b1bc
00000100: 94c1 8abb fedc acbc 1b3b a1bb 1788 dcbb
00000110: 3c81 3cbc 6368 04ba 8533 763c 0d37 ee3c
00000120: f7fc d63c deee d6bc 9a19 86bb 8c06 68bd
00000130: 9a26 eabc 0eba 5fbc 8323 3ebc 8413 ccbb
00000140: 8c7c 063d b333 51bb 510b fdbc 2452 9abb
00000150: 6021 c43c 7c43 4b3d c3bc 383d 4f7c a63d
00000160: d72d 1d3d 20dd bdbb 03c7 02bd 1c33 51bd
00000170: 7ae1 19bd 0fa1 ad39 c7bc b6bc 0185 053c
00000180: 7645 1d3b 99d1 bebc cddc 86bc ca57 3a3b
00000190: 9b93 b03b 0d55 ed3b 8713 633c dd7b 6fbb
000001a0: 747b 5a3b 7a23 04bc d079 013d d912 c6b9
000001b0: 88d2 c83c a221 b1bc 2e0c e5bc 6d6b 8a3b
000001c0: 7138 05bd fee9 a43c 69e3 a13c bffd e83c
000001d0: a5ae 013d 9bc2 353c 2d16 553c dd78 c5bb
000001e0: 3e1d 023d e03d 6b3c 45d7 11bc 5e0b 08bd
000001f0: 7dc1 633b 0ca5 813b 7a9d cc3c 985f d83c
00000200: de71 2d3d 798c 33ba be6d 613c 252d edbc
00000210: a984 16ba 7278 dc3b d72d d8bc e421 8bbc
00000220: 904a 873c a83c a6bc c63f 40bc 6896 c43c
00000230: 9120 013d 4fe1 bdbc a19c aebc fb5c 033d
00000240: a239 31bc 79bb 1a3c 6f99 b1bc 4a49 47bc
00000250: 5a69 ed3c f500 e0bc 5fed 463c 4453 333a
00000260: d14d 333c 598f 973a b843 09bc cfc0 4f3c
00000270: 252e 183c 9c9e 6ebb 0448 c13c 7a1c 013d
00000280: dc7c 9a3c b181 21bc c385 d7bc 2803 ccbc
00000290: c88b 97bc 7aa3 4bbb 0719 953c e248 253c
000002a0: 1d84 013d 0883 11bd 5064 a5bc 20e9 023d
000002b0: bf80 d2bc 560d b73c ff60 4139 43b0 83bb
000002c0: 045b cd3c 83cc df3c 9df1 71bc ccdc 18bb
000002d0: 1a85 073d f0ba f13c 2345 693c 42ea b0bc
000002e0: b42b c5bc f6e3 d03c a966 a83c 462e 77bb
000002f0: 0ead 0b3d 7d1e ca3c a2ac fabb fb2f 803c
00000300: 52a9 0d3d fec5 a73c e83d 8cbc a0d7 08bd
00000310: 627c 323c 8f0e 5b3c 4a4b 0fbd 7733 a73b
00000320: c090 b2bc da5d 683c 9172 8dbc dc75 dcbc
00000330: 6744 0b3d bb41 ad3c d23a 6abc ecee d0bc
00000340: 81d0 c33c 9ade b4bc 41b5 2bbc cf15 81bc
00000350: e5a3 2c3c ace7 13bb e94b 573c 0421 a2bc
00000360: abcb d53c ea04 863b 8207 c8bc 0297 d3bc
00000370: d302 b03c 3e21 7abc 0538 223c 9617 6e3a
00000380: f982 86bc 97f3 083d 471b 73bc cc42 733c
00000390: 5028 b13c f59a 323c 26fb 123d 4a8d cabc
000003a0: 2ad8 b03b f0b9 6139 cf81 823c 8ee9 7bbc
000003b0: 5ae1 cabc a31e f4bc 6277 bd3c 4b96 0c3c
000003c0: a77e 0bbd 89da 76bb 8075 01bd d113 00bd
000003d0: 2243 ba3c 8270 7fbc 94ef bd3c 748f 0b3d
000003e0: 1748 763b 46a5 6d3c f1f0 fcbc 6013 76bc
000003f0: bd10 00bb 10e5 fb3b a646 713c 9612 9c3c
