output_x01/x2/epoch_344.pth (torch, 231335 bytes, 5 tensors)

conv1.weight f4 [64, 1, 9, 9]
00000000: 6e9d 60bd 8026 483c 120a 3dbd e873 903d
00000010: 4a8b 90bd 27cf cd3d caf6 75bd f65e 90bd
00000020: c325 86bd ff19 0d3d 4471 19bd 45f9 4e3d
00000030: 6922 9dbd 565e 7dbd 759a 12bd 9296 6fbc
00000040: c026 adbd c3f3 853d 0751 5fbd 901b ab3c
00000050: d4d3 863d d628 fa3c 1f31 3c3d 8ba7 fe3d
00000060: e604 d4bc b23b 543d 8bd5 4ebd c25c 8c3d
00000070: 048d 983d 3980 f7bd e263 e93d 98cd 913d
00000080: 15c6 503d e3ac 843d 3f8d f13d 5692 50bc
00000090: ec6e cdbd 9f93 34bd da71 b9bd 7347 063d
000000a0: 021d 87bc 53f7 a0bd 0496 d5bb 5363 fd3d
000000b0: b902 7cba 239b 26bc 5ee9 1bbd e4a0 2dbb
000000c0: f30a df3d b997 703d 81c7 7a3c 128e c83c
000000d0: 074a 243d f86f 443d 11af 113b 94bb d2bd
000000e0: 8e8b 83bd 298d f83d 72ff 783b 30a6 e2bd
000000f0: e1a5 ac3c 8dd1 de3d fba4 cfbd 875d 4cbd
00000100: a9a4 0cbd 6e5a 9e3c c750 2c3b d5ec 81bb
00000110: cfbb d3bd c6ed 923d e566 fd3d fc84 9b3d
00000120: 8ede 68bd c4b9 a7bd d536 473d 4d1e fb3b
00000130: 1ca1 353d 9611 dabd 9d37 d5bb 7f3d a83d
00000140: 08c7 513d 56e4 963c a3e1 6a3c f82b 0bbc
00000150: 0e84 8dbd 0dda 51bd 9cd2 e8bd 51d5 c43d
00000160: 1615 6f3d 42d9 a53c 08d0 cabd 186f 8f3d
00000170: a80a d93c 97d2 4e3d 32e7 71bd bc1d 11bc
00000180: 5e52 033e 9df8 c83d cc3f 8d3d f3c4 19bd
00000190: cd94 943d a856 d1bd b92b 09bd 0f40 86bd
000001a0: 591a 21bd 3c7f 60bc da24 d53c 63f2 bb3d
000001b0: 4deb 1b3d 947d 8c3a 0fff ce3d 491c 80bd
000001c0: 36d4 c23d 4c57 7c3b 0845 55bc d175 7a3c
000001d0: f4af bbbd 9f14 1bbb 4893 263d 1187 ef3d
000001e0: 2313 6abd 0f8a 5e3d 59c0 dd3d 3ae1 72bd
000001f0: 9ed9 bc3d 9d66 9fbd 5fe8 373d 38f5 1a3d
00000200: 68be 123d a0c9 703d 8527 efbc ee29 143d
00000210: 7e0f b43b 5123 99bd 37c1 09bd 1c8b abbd
00000220: 5975 933c a181 8739 74a7 21bc 027b bebc
00000230: f46a 78bc 2d05 41bd 0ee9 043d afdb b73d
00000240: d115 3d3c 7996 a2bd 6207 81bd f95a 783b
00000250: 926a b8bd cfaf e9bd 1e39 b9bd 4d84 2ebd
00000260: 3701 09bc 841b d13d c7bf 223d 6c93 fc3d
00000270: 7c36 31bd 82aa 8d3c 72c0 c3bd e8d8 b63d
00000280: 4565 2d3d 5907 e13d 7bf4 cbbd 15cc b43d
00000290: 8824 f73d 3e56 153e fec5 b73d f2e8 123e
000002a0: 7e67 a43d 1add 873d 7d0e 4ebc 0bd0 e1bd
000002b0: d102 7dbc f957 9b3c 383d b5bd 9fe5 a8bd
000002c0: 1c12 00be a2b3 59bd 362e 903d b970 9abc
000002d0: ce47 803c 21af c23c 69e0 b93d 51ea aabd
000002e0: 2f1e 85bd 9e3d f2bc 110c 73bd 3018 7e3d
000002f0: 94c9 6d3d 1e60 72bd 5986 6bbd 4ade aabd
00000300: 24d5 923d 484c 1b3e 5d62 4fbd b043 16bd
00000310: 442f 663d 7b72 85bd 7a98 c93d 6976 af3c
00000320: 9393 58bd 9127 1cbc eba5 683d 0302 f5bc
00000330: 55fd b0bd e04e ce3b 3009 88bb d147 6ebc
00000340: 4dae a5bc 6356 8d3d 3804 58bd 2528 54bc
00000350: 0157 9e3d 99db eebc c363 493d 56cd 18bd
00000360: b9ca 753d 490e 71bd b173 1a3d 743c 2d3d
00000370: b8c9 93bd e6ca 65bd fe9b 823d 75ff 11bd
00000380: b12b 713d c8d6 91bd a849 1fbd 0e19 8abd
00000390: c4fb 9e3d c87a 173d d61e 043c 6a34 31bc
000003a0: abfa b2bd fc91 853d 3022 ea3c bc8d 71bd
000003b0: c39a 743d 31c6 05bc 21ed dbbd d8c9 8f3d
000003c0: b24d 543d 1ddf d5bc 0da8 1fbd c39c e43b
000003d0: 7be3 ac3d 4c0c cd3d 41c7 b3bd 14b6 89bd
000003e0: d7ea 883d 89a6 5a3d 0874 433d 9bfb a1bd
000003f0: 9a2d de3d de89 c6bd 97c6 b8bc b994 85bc
-0.054837637 0.01221621 -0.046152182 0.07053357 -0.07057817 0.10049277 -0.06004981 -0.07049362
-0.06550171 0.03444862 -0.037461534 0.05053069 -0.07672579 -0.061857544 -0.035791833 -0.014623301
-0.084546566 0.065406345 -0.054520633 0.020887166 0.06583372 0.03053705 0.045945283 0.124343
-0.025881242 0.051814742 -0.05049662 0.0685363 0.074487716 -0.120850034 0.11396004 0.07119292
0.050970156 0.06478288 0.11794519 -0.012730202 -0.10030922 -0.044086095 -0.090549186 0.032782983
-0.016493324 -0.07859673 -0.0065181274 0.1237246 -0.0009613443 -0.010168823 -0.038064353 -0.0026493603
0.1089076 0.058738444 0.0153063545 0.024481807 0.04010966 0.047958344 0.0022229592 -0.10289684
-0.06423102 0.12136299 0.0037994054 -0.11066854 0.021075191 0.108798124 -0.101388894 -0.049893882
-0.03433672 0.01933023 0.0026293264 -0.003965 -0.10338556 0.07174258 0.12373141 0.07593724
-0.05685287 -0.08189729 0.048636276 0.0076635242 0.0443431 -0.106478855 -0.0065068738 0.082148544
0.0512152 0.018419426 0.014336023 -0.00849437 -0.06909953 -0.05123334 -0.113682956 0.096109994
0.05836972 0.020245198 -0.0990296 0.07003611 0.02649434 0.050493803 -0.059058376 -0.008857187
0.1282439 0.09813044 0.06896934 -0.03754134 0.07254944 -0.102216065 -0.033488963 -0.06555187
-0.039331768 -0.01370221 0.026018549 0.09177091 0.038066197 0.0010718578 0.10107242 -0.06255395
0.09513132 0.0038504181 -0.013016947 0.015286879 -0.0916442 -0.0023663414 0.040667802 0.11695684
-0.057147156 0.05433088 0.10827703 -0.059296824 0.09221195 -0.07783244 0.04489934 0.037831515
0.035826117 0.058786035 -0.029193649 0.0361728 0.005495011 -0.07477439 -0.03363153 -0.083761424
0.018000292 0.00025845788 -0.009866584 -0.023252014 -0.015162218 -0.047124077 0.03244882 0.08977448
0.011540846 -0.07938857 -0.06300236 0.003789602 -0.09004702 -0.11410486 -0.09044097 -0.04260664
-0.008362106 0.10210326 0.039733674 0.12332806 -0.04326485 0.017293219 -0.095581904 0.0892809
0.042332906 0.109877296 -0.0995874 0.08827988 0.12067515 0.1458368 0.08973311 0.14346674
0.08027552 0.06633969 -0.012576696 -0.11026009 -0.015442566 0.018962847 -0.08849567 -0.08246922
-0.12506908 -0.053149827 0.07040064 -0.018852578 0.01565924 0.023765149 0.09076006 -0.083454736
-0.06499898 -0.029570397 -0.05933768 0.062034786 0.058053568 -0.059173696 -0.05750117 -0.083431795
0.071695596 0.15165818 -0.050630916 -0.036685646 0.05619742 -0.06515976 0.09843536 0.021418767
-0.052875113 -0.009530918 0.056798857 -0.029908186 -0.08642069 0.0062960237 -0.004151486 -0.01454349
-0.020224715 0.069012426 -0.0527384 -0.012949024 0.077314384 -0.029157447 0.049167406 -0.0373052
0.060007785 -0.058851514 0.03770799 0.04229398 -0.07216209 -0.056101702 0.063774094 -0.035644013
0.058879558 -0.071210444 -0.038888603 -0.0674306 0.07762864 0.036982328 0.0080639925 -0.010815719
-0.08739217 0.06521985 0.028580755 -0.05897306 0.059717905 -0.008164928 -0.10738588 0.070209205
0.05183191 -0.026107365 -0.038978625 0.0069766953 0.08441826 0.10012111 -0.08778239 -0.06724182
0.06685417 0.053381477 0.047718078 -0.07909318 0.108485416 -0.09694265 -0.022555633 -0.016306268

conv1.bias f4 [64]
00000000: 6d6b 02bd 583a 06bd 4358 5f3c 2d61 5ebd
00000010: 18ac 5a3d 01c7 093d 920b 893d ec00 1c3b
00000020: 1a66 ff3d 9242 64bc 7b81 173c 4042 b73a
00000030: 1e00 43bd b3d7 183e 6749 8c3d 1248 703d
00000040: aca6 acbc ff12 85bd 6e6c a83d 26cb 473d
00000050: 14c2 c23c 62e1 3fbc f289 8fbd 15c3 f93d
00000060: 00e7 e4bc 1b34 e73d d774 ffba af90 02bd
00000070: 4256 eb3c 9e70 1f3d fb28 c43d d903 bc3b
00000080: edb5 563d 8efb a23d 4e62 aebc 46a8 0dbe
00000090: 19f6 95bc 30c6 ac3d 744e c9bc f409 343d
000000a0: 98f0 debd d621 34bd 5319 ec3d 4543 463d
000000b0: 0bf6 163d 94a2 1c3d 034a 1ebc 5830 143d
000000c0: 4978 9b3c 7c09 a2bc 0bc5 acbc 5863 923b
000000d0: 4373 6e3d 8b45 b13b 1339 893a f732 ebbb
000000e0: aaec 103e 9ee3 31bd fcaa 0f3c d47c 253e
000000f0: 042d fb3d b229 033d d8c0 95bc 4b99 6bbd
-0.03184073 -0.032770485 0.013631883 -0.054291893 0.053386778 0.03363705 0.0669166 0.002380426
0.12470646 -0.013931887 0.009247179 0.0013981536 -0.047607534 0.14926033 0.06849938 0.05866248
-0.02107557 -0.06497764 0.08223806 0.04877772 0.023774184 -0.01171145 -0.07008733 0.12195412
-0.02794218 0.11289235 -0.0019489777 -0.031876262 0.028727654 0.03892576 0.09578129 0.0057377634
0.05241959 0.079581365 -0.02128711 -0.13833722 -0.018305825 0.08436239 -0.024573542 0.043954805
-0.10885733 -0.04397758 0.11528268 0.048403997 0.03685574 0.038240984 -0.0096612 0.036178917
0.018978255 -0.019779913 -0.021090051 0.004467409 0.05821539 0.0054099015 0.001046928 -0.0071777063
0.1415278 -0.043429963 0.008768793 0.161609 0.122644454 0.032022186 -0.018280432 -0.05751924

conv2.weight f4 [32, 64, 5, 5]
00000000: 34d0 d53a ca13 e1b9 3412 6a3c 2220 a73b
00000010: 46b0 22bb b936 9ebc 66cf d5bc f29c acbc
00000020: 87e2 c3bc d957 dcbc df56 043d 769f 7c3c
00000030: 6109 1abc ff44 f8bc a394 2abc 756a 61ba
00000040: 4448 b13c 29d3 3abc d737 0dbc 3fde 833c
00000050: d21b 813c f125 b23c 940f 46bc 77ee c63c
00000060: 2c53 b53c 83d7 41bc 44b8 a33c f0d0 823c
00000070: 5038 afba 0218 c6bc 4c33 c2bc 20a0 3fbb
00000080: d2e4 5cbc b564 73bc 4bc0 06bc 75af 0f3c
00000090: 3d30 c0bb 2137 533c 8ebb 11bc 7c4e 8c3c
000000a0: ea02 d5ba cb11 463c 99d0 0d3c 4281 5d3c
000000b0: ce38 4abc 059b 21bd 8ba1 a23b 2226 983c
000000c0: c51b ce3c 816a a33b 995d 133c e2bb 4a3d
000000d0: c590 2d3d 5583 1f3d fa40 b43b dd7b b33c
000000e0: 60e6 ed3c f6f9 493d b975 d23c 698d 2bbb
000000f0: 3532 e33c 5cef 60bc b101 1cbd dc3e bbbc
00000100: 3fda 5abd 51c8 91bc 9be8 f93b a271 8e39
00000110: a7f2 023c 4f8d 8b3c 0d6f 40bb 08f1 a03c
00000120: 8b8e e03a 1052 dabb c744 a43c 0977 1e3c
00000130: e18b b4bc b9dc 9abc 2e10 d4bc bf39 08bd
00000140: d371 c0ba 4658 4b3c bf2a c6bc 1f86 82bc
00000150: 0149 e83c 0c23 0f3c 3199 023c cabb 22bc
00000160: 2c53 293d 2a42 913c 3906 8abb 31be f33c
00000170: 4aec a43c 3b28 953c 4f6d 10bc 1035 d9bb
00000180: 6c26 05bd e033 53bc 0305 4abd 3f29 20bd
00000190: b45e fabc cfc6 86bc d41e b83c abc4 2e3d
000001a0: 99ee c93c 525f bdbc 51c8 1e3c da0a 933c
000001b0: 4f39 b73c a9ef 0c3c 1482 19bd 8604 91bc
000001c0: e04c f33c 13a0 c43c ca66 f6bc bfe9 44bc
000001d0: ade5 e13c 27c5 77bc 8af2 883c 3053 093c
000001e0: cf3c 36bc ef5c de3b 7b69 0bbc b64a c9bc
000001f0: 7057 b63c 7673 8a3b 23d9 85bd 4776 093d
00000200: b028 d2bc 101d 753d f9a4 283c f7d6 c43b
00000210: 0ebc ad37 c7e6 0bbd 5f37 b6ba a977 213d
00000220: b40d ca3c 7727 8c3d 257e 773d cc2d 353d
00000230: 52ad 2dbc 878f 3c3b a1e1 193a 5ef5 9ebb
00000240: af1a 9c3b c2a7 07bb b55d 153d 0538 583c
00000250: 4de2 803c 6780 15bc dfa1 adbb b98d 27bb
00000260: 18c5 2bbc f865 043d 960a 21bd 54a4 9f3c
00000270: fb44 da3b c359 c7bc 070e 41bc 297b 683c
00000280: f2da ad3b b8dd a7bb e2c0 453c 86d8 083c
00000290: a2b5 013c 870d 003c 05ab b1bc 672c 30bc
000002a0: 557d b7bb 3be4 ce3c 80da 0ebd 72f4 d7bc
000002b0: e76e f63b 636c 753c 34cf 513c 9968 703c
000002c0: b169 bcbc 5865 ce3c a027 0a3c 461a 80bd
000002d0: 1ddc 27bc ddf4 f0bd 398b 18bc 6b7d 993d
000002e0: df02 0cbc 8748 80bd f0ed d3bd c0b1 4ebd
000002f0: 50ff e139 31b2 0abc 3277 d0bc 4c7c 283d
00000300: f191 be3d f1a0 303d 1853 32bc 27d8 fbbd
00000310: ca0f a2bd 733b 0fbc 6db9 06bd 26b4 c2bc
00000320: 6a1a e9bc 99d9 2dbd 738e 34bd 4ab9 683a
00000330: abaf a0bc 4ff3 a93b 21a6 08ba 238f 65bc
00000340: 5176 3b3c dc92 97bb 71a3 6bbc 409c a53c
00000350: 375a d13c 677f 5c3c 4378 94bc 42c8 f13c
00000360: be02 9b3c 271f af3c 8f9d 1cbc 5664 eebc
00000370: ac44 e4bc 5b50 aabb bf0a 66bc 57f7 e1bc
00000380: 650f 403c 359c 363c c365 8b3c d928 983b
00000390: 94a1 813b aa12 e93b 4f02 193c 4d26 bf3b
000003a0: 6ab0 153d a372 203d cf5d 13bc e3ab a6bc
000003b0: a005 a5ba ce52 9a3b bad8 223c 380a 53bb
000003c0: 821c b8bc f092 083b 706f 0abb ee47 62bd
000003d0: 600e 54bc febd 2fbb fc2b cf3b 20b4 7d3a
000003e0: 234f 23bd 9e10 20bc c3e2 7cbc ce54 883c
000003f0: 0cfb 133c a82e 75bc 65f5 3fbc 64ab 48bd
0.001631266 -0.00042930088 0.0142865665 0.005100266 -0.0024824305 -0.019313203 -0.026099872 -0.021070931
-0.023911728 -0.026897358 0.03230941 0.015418878 -0.00940165 -0.030306337 -0.010411414 -0.0008598932
0.021640904 -0.011402884 -0.00861927 0.016097186 0.015760336 0.021746607 -0.012088675 0.02428363
0.022134386 -0.011831167 0.019985326 0.01596877 -0.0013368223 -0.02418137 -0.0237061 -0.002923973
-0.013482289 -0.014855553 -0.008224557 0.00876986 -0.0058651255 0.012891562 -0.008894814 0.017127268
-0.0016251479 0.012089203 0.008655691 0.013519587 -0.012342645 -0.03945448 0.004963105 0.01857287
0.025159726 0.0049870615 0.008994483 0.049495585 0.04237439 0.038943607 0.00550091 0.021909649
0.029040515 0.049310647 0.0256909 -0.0026176816 0.027733902 -0.013728943 -0.03808755 -0.022857122
-0.053430792 -0.017795714 0.0076266057 0.00027169014 0.007992423 0.017035155 -0.0029363066 0.019646183
0.0017132325 -0.0066626146 0.020052327 0.009671935 -0.022039356 -0.018904077 -0.025886621 -0.033258196
-0.001468236 0.012411183 -0.024190305 -0.015933095 0.028355123 0.008736383 0.007971094 -0.009932468
0.041339085 0.017731745 -0.0042121676 0.029753776 0.020132203 0.01820766 -0.008815124 -0.00662864
-0.032507345 -0.012890786 -0.049321186 -0.039101835 -0.030562736 -0.016452221 0.022475637 0.042668026
0.024649905 -0.023116741 0.009691314 0.01794951 0.022366194 0.008602061 -0.037477568 -0.017702352
0.029699743 0.02400211 -0.03007831 -0.01201862 0.027575338 -0.015122688 0.016717214 0.00838165
-0.011122896 0.006785981 -0.008509035 -0.024571758 0.02225849 0.00422519 -0.06535556 0.033560064
-0.025654167 0.05984217 0.010293239 0.006007071 2.0710777e-05 -0.034155633 -0.0013902 0.039420757
0.024664737 0.06843465 0.060423035 0.04423313 -0.010600405 0.0028772072 0.0005870108 -0.0048510274
0.004763923 -0.0020699357 0.03646632 0.01319695 0.015732909 -0.009124852 -0.0052988376 -0.002556665
-0.0104840025 0.032323807 -0.039316736 0.019487537 0.006661055 -0.024334794 -0.01178313 0.01418952
0.0053056413 -0.0051228665 0.012069913 0.008352404 0.00791684 0.007815725 -0.021687994 -0.010752774
-0.0055996575 0.025255313 -0.034876347 -0.026361678 0.007520545 0.014979455 0.012805749 0.0146733755
-0.022999616 0.025194809 0.008432299 -0.06255011 -0.01024535 -0.11765454 -0.009310537 0.07494625
-0.008545606 -0.062638335 -0.10348117 -0.050462484 0.00043105567 -0.008465336 -0.025447462 0.041134164
0.0930518 0.043122236 -0.010884069 -0.12297087 -0.07913168 -0.008742201 -0.03289168 -0.023767542
-0.028454978 -0.042443845 -0.044081163 0.0008877708 -0.019615015 0.0051864753 -0.00052127434 -0.014011177
0.011441783 -0.0046256613 -0.014382229 0.020216107 0.025555713 0.013458109 -0.018123752 0.029514436
0.018922206 0.02137716 -0.009559049 -0.029100578 -0.027864777 -0.0051975674 -0.014040648 -0.027583761
0.01172242 0.011145641 0.017016297 0.0046435413 0.003956029 0.0071128206 0.009338929 0.005833423
0.036545195 0.039171826 -0.008994534 -0.020345634 -0.0012590177 0.004709578 0.009939367 -0.0032202136
-0.022474531 0.0020839535 -0.002112355 -0.05524438 -0.01294288 -0.0026816125 0.006322382 0.0009678025
-0.039870393 -0.009769587 -0.015434924 0.016642 0.009032022 -0.014964737 -0.011716221 -0.048991576

conv2.bias f4 [32]
00000000: 39b4 51bb d58b 21bd e594 1dbb 75c6 ad3c
00000010: 853c c93c 8c31 823c 7dcb 62bc 9f9e f43b
00000020: cfd8 eb3b df41 5fbc ce27 6fba 396e 5c3c
00000030: d158 b53c 71a9 933c 8dce bf3c 367c c13c
00000040: 946e 7cbc 642f 9ebc 9412 9f3c 33bb 9c3c
00000050: 7726 513d a976 8abc 588b bcbc 9926 aa3c
00000060: 5ed4 693c 644f 483c 2207 9a3c 16e4 323d
00000070: c3af 0a3c 97b0 75bc b41a fb3b 8928 99ba
-0.003199829 -0.039439995 -0.0024045047 0.021212796 0.02456499 0.015892766 -0.013842461 0.007465198
0.0071974765 -0.013626545 -0.0009123058 0.0134540135 0.022137078 0.018025132 0.02341392 0.023618799
-0.015407223 -0.019309707 0.019418038 0.019132232 0.051062074 -0.016902285 -0.023015663 0.020770358
0.014271824 0.012225959 0.01880223 0.04367455 0.008464756 -0.014995716 0.0076630954 -0.0011685054

conv3.weight f4 [1, 32, 5, 5]
00000000: 472a 8d3c a592 9c3c 984d f7b9 6e58 f83c
00000010: 3379 0a3d e5da c0bc 8d4b 363c 49da fcbc
00000020: 783f 8a3b 6392 853c b9e7 e5bb 4912 e23c
00000030: dce2 3d3c 3880 1ebd 9d57 24bc c08d 97bc
00000040: f05d 08bd 6079 6fbb 3db0 14bd 7234 a83c
00000050: 6786 163c e9b5 863c e57d dc3c dd65 0a3d
00000060: 2d24 3fbc bf46 893a 2124 1dbd d12d f03b
00000070: a0ee e13c 9d02 d4bc eea2 a33c 842c aabc
00000080: 14ed 293c 9f75 80bc 12e2 863b 3d11 0dbd
00000090: a133 bf3c 53f6 16bc cb89 003d 70e3 88bc
000000a0: 3b47 873c 7307 a9bc b1a4 a5bc 7c8b 11bc
000000b0: 180f 6e3c 1a11 843c d80a a53c 26b5 f8bb
000000c0: e672 a93b 6f02 a23c b447 62bc 6c40 3ebc
000000d0: 0a84 dc3c 3348 f4bc af1f 8cbc 748d a0bc
000000e0: 3489 f3bb dfd6 d4bc d400 073c 5834 cabc
000000f0: 5e9c 7ebc 9ced 0cbd 4f09 c13c b477 b1bc
00000100: 94c1 8abb fedc acbc 1b3b a1bb 1788 dcbb
00000110: 3c81 3cbc 6368 04ba 8533 763c 0d37 ee3c
00000120: f7fc d63c deee d6bc 9a19 86bb fbd2 5cbd
00000130: d794 18bd cbbe a2bc 7ef7 50bc aa8b 02bc
00000140: f3eb 0d3d cce1 f3ba 7257 e7bc 1c60 c6ba
00000150: 7cdd e13c eca7 4f3d b3fc 423d 6049 b33d
00000160: 8b9b 1d3d fd40 bcbb 1c82 07bd f30e 70bd
00000170: d574 24bd 3e9f 9dba 11dd cdbc 725d 153c
00000180: 0cc3 8c3b 8765 c7bc 56f1 80bc f85f c23a
00000190: 81b1 a93b fe30 ea3b c34f 623c 2ac4 76bb
000001a0: 706f 563b ff34 07bc 6f38 013d 805d dfb9
000001b0: 5d00 c83c b303 b2bc 523f e6bc e483 873b
000001c0: 9391 05bd 8e67 a43c aa5f a13c dd4f e83c
000001d0: 1132 013d 3996 343c 0f58 533c 9eaf c9bb
000001e0: 3bd0 013d 9104 693c 6032 14bc 3ca7 08bd
000001f0: 1f7b 5b3b 32a0 693b 8591 c53c 51c2 d73c
00000200: fb4f 373d 802e deba 34a3 643c 998d edbc
00000210: af09 15bb 4c3b bd3b 2659 e5bc 35d2 8abc
00000220: 0840 813c 1e9a aebc 8768 47bc 9f69 be3c
00000230: 0dce 003d c3c9 c0bc cf34 a4bc 0905 0a3d
00000240: 65bc 30bc 4262 333c 7a64 b1bc 2e2d 40bc
00000250: 3673 f03c f816 e7bc 56a6 433c 5bef 013a
00000260: e447 313c 995f 8a3a bb08 0dbc 9b9c 4c3c
00000270: 2633 153c f3fc 77bb 0e4f c13c 2619 013d
00000280: dd2f 9a3c 00de 23bc 0b27 d9bc bd0f cdbc
00000290: 659e 99bc 27b5 4fbb 90d1 933c 660a 243c
000002a0: c135 013d 0dd1 12bd b8e1 a6bc 121c 023d
000002b0: ca08 d4bc 64c5 b53c 754d 92b8 a78b 86bb
000002c0: 84cc cc3c fe6c df3c 9d5f 73bc 3f5f 1dbb
000002d0: a934 073d 5f69 f13c f1fa 683c 195f b1bc
000002e0: 8595 c5bc 865c d03c a53b a83c c746 75bb
000002f0: 8489 0b3d 75a9 c93c b9cd fbbb 85d5 7f3c
00000300: 90b5 0d3d bf7b a73c 83b0 8cbc b822 09bd
00000310: 1b5a 313c 2705 5a3c 95a6 0fbd 4d24 a53b
00000320: c090 b2bc da5d 683c 9172 8dbc dc75 dcbc
00000330: 6744 0b3d bb41 ad3c d23a 6abc ecee d0bc
00000340: 81d0 c33c 9ade b4bc 41b5 2bbc cf15 81bc
00000350: e5a3 2c3c ace7 13bb e94b 573c 0421 a2bc
00000360: abcb d53c ea04 863b 8207 c8bc 0297 d3bc
00000370: d302 b03c 3e21 7abc 0538 223c 9617 6e3a
00000380: f982 86bc 2d62 0a3d 80e5 7ebc be8a 6d3c
00000390: 17bb b03c 3af0 333c 1ec9 153d 8951 cdbc
000003a0: 2d90 be3b ba03 db39 cd96 803c 35c9 72bc
000003b0: fc0c d5bc 9a86 fbbc c5bb b93c a062 083c
000003c0: b685 0abd cfa6 89bb e99c 03bd 6229 02bd
000003d0: ccfe bc3c 6688 6fbc 3508 c63c 7057 0f3d
000003e0: 8d49 633b f406 703c f1f0 fcbc 6013 76bc
000003f0: bd10 00bb 10e5 fb3b a646 713c 9612 9c3c
0.017232073 0.019112894 -0.00047169323 0.030315604 0.03380699 -0.023541877 0.011126411 -0.030865805
0.004218992 0.016305154 -0.007016149 0.02759661 0.011589732 -0.038696498 -0.010030654 -0.018500209
-0.03329271 -0.003654085 -0.036300886 0.02053282 0.009187317 0.016444163 0.0269155 0.03378855
-0.01166634 0.0010473354 -0.038364533 0.0073296805 0.027579606 -0.025880152 0.019975152 -0.02077318
0.010371465 -0.015681086 0.004116305 -0.034440268 0.023340048 -0.009214002 0.03138141 -0.016710013
0.016513458 -0.020633435 -0.020220133 -0.008883353 0.014529966 0.016121436 0.020146772 -0.007589954
0.0051711677 0.019776551 -0.013811041 -0.011612039 0.02691843 -0.029819584 -0.017104952 -0.0195987
-0.0074321274 -0.025981365 0.0082399435 -0.024683163 -0.0155402105 -0.03440629 0.023564009 -0.021663524
-0.004234502 -0.021101471 -0.004920376 -0.0067300904 -0.011505421 -0.0005050955 0.015026932 0.029078985
0.02624367 -0.026236948 -0.0040924074 -0.053912144 -0.03725132 -0.019866368 -0.012754319 -0.007967869
0.034648847 -0.0018606721 -0.02823994 -0.0015134844 0.027571432 0.050697252 0.047604274 0.087542295
0.038478415 -0.005745052 -0.033083066 -0.058608007 -0.040150482 -0.0012025607 -0.025129827 0.009116517
0.0042957123 -0.024340404 -0.015740078 0.0014829626 0.005178631 0.0071469536 0.013812962 -0.0037653544
0.003272023 -0.008252381 0.03154796 -0.00042603537 0.024414236 -0.02173028 -0.028106365 0.0041355956
-0.032609534 0.02006891 0.019698936 0.028358394 0.031541888 0.011022144 0.012899413 -0.0061549684
0.031692725 0.01422228 -0.009045213 -0.033362612 0.0033490134 0.0035648462 0.02411724 0.026337774
0.04475401 -0.0016951114 0.013954926 -0.028998183 -0.0022741368 0.005774891 -0.02799661 -0.016945938
0.015777603 -0.021313723 -0.012170917 0.023243723 0.031446505 -0.023533707 -0.020044712 0.03369621
-0.010787104 0.010948719 -0.021654356 -0.011729522 0.029351812 -0.028209195 0.011941513 0.0004956626
0.010820363 0.0010557055 -0.008608039 0.0124885095 0.009106433 -0.0037839978 0.023597267 0.031518124
0.018821651 -0.010001659 -0.026507875 -0.025031919 -0.018752286 -0.0031693669 0.018044263 0.010012245
0.031545404 -0.035843898 -0.020371303 0.03176505 -0.025883097 0.02218885 -6.97625e-05 -0.0041060033
0.024999864 0.027273651 -0.014854339 -0.002401307 0.033009205 0.02946919 0.014219985 -0.021651791
-0.024119148 0.025434744 0.020536253 -0.003742622 0.034066692 0.024616936 -0.007684436 0.015614872
0.03459698 0.020444749 -0.017174011 -0.033480376 0.0108247055 0.0133068925 -0.035070974 0.005039728
-0.021797538 0.014182532 -0.017266544 -0.026911668 0.03400078 0.021149507 -0.01429625 -0.025504552
0.023903133 -0.022078801 -0.010480226 -0.01575747 0.010537122 -0.0022568507 0.013140657 -0.019791134
0.026098093 0.0040899413 -0.024417643 -0.025828842 0.021485722 -0.015266715 0.009901051 0.0009082494
-0.016419875 0.033785034 -0.015557647 0.014498411 0.021573586 0.010982567 0.036568753 -0.025063293
0.005815527 0.00041773712 0.015696907 -0.014818479 -0.026007168 -0.030703831 0.022672543 0.008324295
-0.033818923 -0.0042007933 -0.032132063 -0.031777747 0.023070715 -0.014619922 0.024173835 0.034995496
0.003468129 0.014650095 -0.030876609 -0.015019268 -0.0019541227 0.0076872185 0.014726317 0.019051831
