output_x01/x2/epoch_187.pth (torch, 231335 bytes, 5 tensors)

conv1.weight f4 [64, 1, 9, 9]
-0.044464704 0.0092052175 -0.048341203 0.057679486 -0.07956382 0.09375801 -0.06905054 -0.07730204
-0.0630015 0.04450467 -0.04143033 0.045961652 -0.086462654 -0.06029324 -0.030827273 -0.012203759
-0.080146484 0.07600125 -0.034535374 0.031392384 0.07491012 0.02537702 0.043190878 0.12163524
-0.034725264 0.04801595 -0.04293986 0.07907778 0.08312426 -0.11079194 0.10507366 0.068920344
0.05376966 0.057401117 0.11094082 -0.0068069627 -0.095208116 -0.037869032 -0.08282164 0.021647353
-0.013991947 -0.06837344 -0.007897982 0.11799495 -0.0012223007 0.0067669707 -0.017935608 0.01635772
0.10797297 0.06532184 0.025969844 0.024524245 0.036182728 0.0506821 0.0023849255 -0.10211921
-0.06902822 0.105027966 0.002186342 -0.10694559 0.016831642 0.100345045 -0.10302199 -0.051530216
-0.033869293 0.013414617 -0.011070492 -0.009736568 -0.11023372 0.06360825 0.11628629 0.076808445
-0.059346143 -0.07994408 0.047597658 0.0016409715 0.04314949 -0.108367585 -0.003998477 0.08575623
0.05641177 0.0012509004 0.010991632 -0.015229991 -0.07287837 -0.04915764 -0.094905116 0.08699267
0.049794976 0.024240341 -0.09599671 0.07928311 0.035843216 0.06371459 -0.046198424 0.012676382
0.11765316 0.083957456 0.0794765 -0.030821603 0.080268905 -0.09240679 -0.016786147 -0.06432356
-0.030427493 -0.021433298 0.017100122 0.10279267 0.04711073 -0.0028637827 0.09067338 -0.06442339
0.07124246 -0.005225835 -0.017727317 0.010024141 -0.092911504 0.003898275 0.0315915 0.10448971
-0.047908586 0.044362303 0.10992228 -0.054378986 0.09623472 -0.07201469 0.051107086 0.03815531
0.031677667 0.07337279 -0.030412983 0.041474044 0.0043331673 -0.08079186 -0.033054076 -0.080124
0.029510356 0.0013573809 -0.0029729693 -0.022861904 0.0032582427 -0.03587077 0.03304432 0.099860385
0.017505681 -0.0619882 -0.06546955 -0.00031009133 -0.08267726 -0.08790687 -0.07787621 -0.041691326
0.00026172074 0.09672058 0.049282525 0.106990084 -0.061131403 0.013144478 -0.10095979 0.06713334
0.023318749 0.100909695 -0.07463156 0.097412154 0.111895785 0.12041828 0.05580676 0.13332011
0.093027376 0.08736184 -0.005791974 -0.0847382 0.004902795 0.035757605 -0.059496704 -0.04970303
-0.09099253 -0.021865735 0.099913806 0.009047694 0.0046004234 0.016855236 0.086198345 -0.07882195
-0.070624374 -0.028636692 -0.048780993 0.0712781 0.07874979 -0.086026885 -0.07689945 -0.09014394
0.07029401 0.12307268 -0.07053196 -0.03666109 0.055877417 -0.05891323 0.102079995 0.03262287
-0.020906148 0.030270997 0.06725012 -0.023751078 -0.074916996 0.016345777 0.0136614945 -0.0019707382
-0.012521793 0.08503957 -0.017678186 0.0025886274 0.06199438 -0.04661935 0.046073783 -0.022269115
0.04507861 -0.071634255 0.016110636 0.024694027 -0.08464231 -0.07665253 0.055405226 -0.026674496
0.05886921 -0.0960012 -0.051487725 -0.07859441 0.06351221 0.01972298 -0.007378768 -0.011940114
-0.085255064 0.03264602 0.013077053 -0.06578141 0.060273964 0.007893835 -0.093747675 0.070439644
0.06384187 -0.017109271 -0.06664473 0.0028193118 0.081439964 0.09919314 -0.08702252 -0.055760402
0.08280435 0.050820757 0.060437236 -0.06503261 0.09582673 -0.095914155 -0.009439418 0.00052776025
00000000: 9f20 36bd 7bd1 163c 6d01 46bd 5341 6c3d
00000010: 5bf2 a2bd 3304 c03d 5f6a 8dbd 8850 9ebd
00000020: ee06 81bd 874a 363d dab2 29bd 4942 3c3d
00000030: 5513 b1bd 0bf6 76bd 7a89 fcbc 46f2 47bc
00000040: d723 a4bd 8ba6 9b3d f774 0dbd 4d95 003d
00000050: 7a6a 993d 78e3 cf3c ebe8 303d e61b f93d
00000060: 143c 0ebd 5fac 443d b5e1 2fbd 88f3 a13d
00000070: 0d3d aa3d e2e6 e2bd dc30 d73d 1c26 8d3d
00000080: 933d 5c3d 6f1d 6b3d f134 e33d f10c dfbb
00000090: 79fc c2bd 8f1c 1bbd 649e a9bd ca55 b13c
000000a0: 7b3e 65bc 6007 8cbd 8a66 01bc 56a7 f13d
000000b0: 9b35 a0ba 77bd dd3b b2ed 92bc a000 863c
000000c0: ef20 dd3d 75c7 853d b6be d43c 12e7 c83c
000000d0: 5734 143d 0998 4f3d 694c 1c3b e023 d1bd
000000e0: ab5e 8dbd e718 d73d bb48 0f3b 4a06 dbbd
000000f0: 83e2 893c b481 cd3d 31fd d2bd 5911 53bd
00000100: 87ba 0abd fbc8 5b3c 0261 35bc 2086 1fbc
00000110: 37c2 e1bd 0b45 823d 8227 ee3d bf4d 9d3d
00000120: f114 73bd b9b9 a3bd c3f5 423d de15 d73a
00000130: 85bd 303d d3ef ddbd a805 83bb f6a0 af3d
00000140: 0710 673d 41f5 a33a 3f16 343c 3687 79bc
00000150: 4141 95bd 8659 49bd 9d5d c2bd 3729 b23d
00000160: d1f5 4b3d ae93 c63c ec99 c4bd 2f5f a23d
00000170: 56d0 123d cc7c 823d 8f3a 3dbd 9ab0 4f3c
00000180: 24f4 f03d e3f1 ab3d 93c4 a23d 967d fcbc
00000190: 0664 a43d c53f bdbd 1a83 89bc 12bc 83bd
000001a0: 1443 f9bc e294 afbc 8e15 8c3c f784 d23d
000001b0: 2ef7 403d 4dae 3bbb f7b2 b93d 69f0 83bd
000001c0: 91e7 913d 7b3d abbb e138 91bc 4b3c 243c
000001d0: 6348 bebd 347a 7f3b 1766 013d b3fe d53d
000001e0: cb3b 44bd 3fb5 353d ef1e e13d 80bc 5ebd
000001f0: b516 c53d 707c 93bd aa55 513d be48 1c3d
00000200: 71c0 013d 7944 963d a624 f9bc b0e0 293d
00000210: 3efd 8d3b 3476 a5bd b663 07bd 0d18 a4bd
00000220: b4bf f13c 25ea b13a 26d6 42bb e348 bbbc
00000230: 3e88 553b 3bed 12bd 7b59 073d 9a83 cc3d
00000240: 1368 8f3c 57e7 7dbd e614 86bd c193 a2b9
00000250: b252 a9bd 8408 b4bd 907d 9fbd 86c4 2abd
00000260: 9037 8939 7015 c63d 79dc 493d 9e1d db3d
00000270: ec64 7abd f05b 573c 02c4 cebd 347d 893d
00000280: f606 bf3c bea9 ce3d 6ed8 98bd 0680 c73d
00000290: 9e29 e53d dc9d f63d a195 643d 1185 083e
000002a0: 2385 be3d c4ea b23d 99ca bdbb 398b adbd
000002b0: a0a7 a03b 9176 123d d1b2 73bd 6895 4bbd
000002c0: 4b5a babd c51f b3bc 9c9f cc3d c73c 143c
000002d0: 26bf 963b fe13 8a3c c288 b03d 676d a1bd
000002e0: 83a3 90bd 7f97 eabc 94ce 47bd 41fa 913d
000002f0: 9247 a13d dd2e b0bd 757d 9dbd 639d b8bd
00000300: 4ef6 8f3d 870d fc3d 0f73 90bd f029 16bd
00000310: b8df 643d 004f 71bd 510f d13d 8f9f 053d
00000320: 5f43 abbc e2fa f73c 6eba 893d 9f91 c2bc
00000330: 156e 99bd 94e7 853c 76d4 5f3c 8027 01bb
00000340: 3528 4dbc 3a29 ae3d d8d1 90bc f6a5 293b
00000350: d2ed 7d3d eef3 3ebd ddb7 3c3d b86d b6bc
00000360: 59a4 383d fbb4 92bd 74fa 833c 214b ca3c
00000370: f358 adbd 00fc 9cbd 97f0 623d 7984 dabc
00000380: d720 713d 479c c4bd cbe4 52bd 1bf6 a0bd
00000390: b112 823d 1692 a13c 98c9 f1bb 78a0 43bc
000003a0: 359a aebd d5b7 053d 2341 563c 67b8 86bd
000003b0: d5e1 763d 2555 013c c8fe bfbd a942 903d
000003c0: 87bf 823d be28 8cbc 087d 88bd 34c4 383b
000003d0: ffc9 a63d c625 cb3d dd38 b2bd 0565 64bd
000003e0: 5495 a93d 6d29 503d 098d 773d d12f 85bd
000003f0: ce40 c43d a46e c4bd caa7 1abc 6459 0a3a

conv1.bias f4 [64]
-0.033546157 -0.053833123 0.0152534535 -0.062048037 0.04480006 0.026097916 0.061085988 -0.0010055249
0.12725285 -0.03445658 0.010922605 0.00033368182 -0.053547554 0.13172619 0.07411154 0.06717109
-0.027754353 -0.07138802 0.0722456 0.042691622 0.020162698 -0.015611879 -0.07152449 0.08147356
-0.022571785 0.08907624 -0.0047334195 -0.028102094 0.03041232 0.046244454 0.09403347 0.0045966683
0.04522523 0.06782582 -0.015303412 -0.098030664 -0.012740057 0.08523811 -0.029335966 0.03940255
-0.106482856 -0.026573999 0.11068102 0.027833253 0.033228215 0.03575631 0.003988121 0.017730003
-0.00534298 -0.020195091 -0.017519876 0.0062549044 0.07001099 -0.0009912874 0.0030986224 8.928352e-05
0.10927204 -0.045801852 0.0057274713 0.14100283 0.11953114 0.0404633 -0.032925557 -0.08043678
00000000: b267 09bd 1f80 5cbd 9fe9 793c 1526 7ebd
00000010: 4580 373d 4ccb d53c 4d35 7a3d d1cb 83ba
00000020: 924e 023e 5822 0dbd baf4 323c 04f2 ae39
00000030: ae54 5bbd 3be3 063e cbc7 973d ff90 893d
00000040: 195d e3bc e233 92bd 80f5 933d 69dd 2e3d
00000050: 3e2c a53c f7c8 7fbc 6f7b 92bd 9cdb a63d
00000060: 77e8 b8bc 9b6d b63d cd1a 9bbb 5d36 e6bc
00000070: 4223 f93c d36a 3d3d 9f94 c03d a69f 963b
00000080: 173e 393d 43e8 8a3d 2abb 7abc 4dc4 c8bd
00000090: acbb 50bc 5191 ae3d fb51 f0bc 9164 213d
000000a0: af13 dabd b7b1 d9bc bbac e23d 9002 e43c
000000b0: 4f1a 083d 3575 123d c9ae 823b 833e 913c
000000c0: 2a14 afbb 2d70 a5bc d885 8fbc f1f5 cc3b
000000d0: ec61 8f3d 16ee 81ba 4212 4b3b ba3d bb38
000000e0: 05ca df3d b99a 3bbd 83ad bb3b 0c63 103e
000000f0: becc f43d d8bc 253d f3dc 06bd 0abc a4bd

conv2.weight f4 [32, 64, 5, 5]
0.0013480041 -0.00015970838 0.020839574 0.001827413 -0.01904868 -0.019467756 -0.025938084 -0.016116465
-0.029732674 -0.047321483 0.025330598 0.0037664734 -0.0007593946 -0.026559794 -0.019767387 0.00046562272
0.017831035 -0.005098854 -0.0061977273 0.006986592 0.011267354 0.02366945 -0.010134656 0.029397003
0.012872403 -0.017096924 0.021969963 0.01661932 0.00017386394 -0.02535629 -0.014986925 0.014805446
-0.00039640372 0.0032750564 -0.0037264808 0.003190748 -0.01191963 0.0024206506 -0.0070008026 0.015537625
-0.00058414583 0.012576574 -0.0033737784 0.0072644413 -0.00474502 -0.034406178 0.011429977 0.017405266
0.025098698 0.016149232 -0.002310505 0.039480988 0.025930302 0.016699087 -0.0011228935 0.010001852
0.03869975 0.050221447 0.020695208 0.0024231235 0.007578321 -0.007882182 -0.02819499 -0.01583869
-0.03364554 -0.021424077 0.009042062 0.0029252532 0.005657536 0.008206066 0.002888449 0.022325696
0.005443196 -0.003417643 0.020577876 0.007164529 -0.02212709 -0.013118387 -0.022577606 -0.030957894
0.0013727186 0.016845487 -0.019681478 -0.016434783 0.01804437 0.016825236 0.013908655 -0.012851885
0.035650115 0.016370796 -0.007178855 0.027754294 0.020840002 0.023244856 -0.0060135555 -0.0075766686
-0.02297238 0.00345909 -0.030971792 -0.030691085 -0.030060075 -0.020527078 0.0164585 0.03918985
0.03088938 -0.014987497 0.0045341523 0.020694258 0.027371408 0.0122812465 -0.022774575 -0.011033782
0.031595826 0.018478408 -0.033503067 -0.014803765 0.020943886 -0.014792061 0.020277556 0.017116545
-0.018669032 0.005034709 -0.002427453 -0.017853389 0.024949592 -0.04059675 -0.030099448 0.031582568
-0.027302347 0.10291332 -0.009080707 -0.0027169674 -0.0021414908 -0.035168402 -0.020510165 0.03382171
0.024126686 0.062346257 0.049650423 0.033892002 0.0031193595 0.012424569 0.0037580654 -0.0017042485
0.010080087 -0.029192664 0.007941008 -0.014573613 -0.024165148 -0.03462944 -0.010902555 -0.002233405
-0.010724636 0.024846848 -0.03584926 0.025785195 0.014068856 -0.018278996 -0.013893906 0.01875805
0.009346167 -0.0128593985 0.0073324614 0.0010253292 0.0017832436 0.008648253 -0.022282312 -0.011074612
-0.00031914376 0.022842582 -0.027692622 -0.017580355 0.0120244315 0.019726852 0.0031884224 0.012974465
-0.026619459 -0.022893433 0.008897613 -0.05052199 0.012973202 -0.056981746 -0.014740636 0.054521833
0.0054266746 -0.06428115 -0.039580572 -0.06342511 -0.0349556 -0.024307434 -0.03036838 0.048762135
0.08952684 0.041586485 -0.0016533481 -0.10229512 -0.0984543 -0.021002606 -0.031679314 -0.03611344
-0.027748931 -0.041260384 -0.038755763 0.0059178276 -0.009083601 0.014064279 0.0044984925 -0.010932802
0.011927547 0.0010657177 -0.011699263 0.016370036 0.020667745 0.009525234 -0.019496312 0.032328475
0.015473711 0.019373419 -0.010065506 -0.03156439 -0.025910877 -0.0020942702 -0.006595778 -0.021023218
0.010560495 -0.013503952 -0.007213464 -0.016872143 -0.010136373 -0.008668217 0.03016167 0.014660477
0.0336959 0.035106096 -0.012872419 0.0030163708 0.006062305 0.0057418766 0.01382122 0.0038949056
-0.045371346 -0.021898441 -0.017948676 -0.046066247 -0.01393789 0.008972871 0.003113145 -0.008637357
-0.019807713 -0.0050354428 -0.014144353 0.016696675 0.009409066 -0.01741287 -0.011839548 -0.05101688
00000000: 83af b03a 6477 27b9 c1b7 aa3c ce85 ef3a
00000010: fa0b 9cbc d87a 9fbc 1b7c d4bc ad06 84bc
00000020: f091 f3bc 2cd4 41bd 1d82 cf3c f0d6 763b
00000030: 1c12 47ba ed93 d9bc 37ef a1bc d31e f439
00000040: 6412 923c 4a14 a7bb 4e16 cbbb c8ef e43b
00000050: b59a 383c 6fe6 c13c d40b 26bc fcd1 f03c
00000060: c5e6 523c d90e 8cbc 5afa b33c 3d25 883c
00000070: 3f4f 3639 ffb7 cfbc b88b 75bc 8b92 723c
00000080: 68d4 cfb9 54a2 563b f937 74bb de1b 513b
00000090: 8d4a 43bc c7a3 1e3b fd66 e5bb 8691 7e3c
000000a0: 5d21 19ba fa0d 4e3c 9c1a 5dbb 8d0a ee3b
000000b0: 1d7c 9bbb 7eed 0cbd cc44 3b3c 7d95 8e3c
000000c0: c99b cd3c 654b 843c d76b 17bb d1b6 213d
000000d0: c96b d43c 86cc 883c 0e2e 93ba cfde 233c
000000e0: a183 1e3d 01b5 4d3d ff88 a93c 44cd 1e3b
000000f0: 9053 f83b 4424 01bc 2ef9 e6bc 24c0 81bc
00000100: e8cf 09bd 8c81 afbc 2825 143c 9bb5 3f3b
00000110: da62 b93b bc72 063c 224c 3d3b 61e4 b63c
00000120: d65c b23b 89fa 5fbb ef92 a83c 6dc4 ea3b
00000130: df43 b5bc 81ee 56bc acf4 b8bc 699b fdbc
00000140: cbec b33a 8cff 893c 0d3b a1bc 3da2 86bc
00000150: c9d1 933c 14d5 893c 21e1 633c b690 52bc
00000160: db05 123d 0c1c 863c 9a3c ebbb f95c e33c
00000170: a7b8 aa3c ff6b be3c 5c0d c5bb b445 f8bb
00000180: 9330 bcbc e6b1 623b 8eb8 fdbc df6b fbbc
00000190: 8c40 f6bc 6728 a8bc fad3 863c 8985 203d
000001a0: ba0b fd3c 1e8e 75bc 3a93 943b 0187 a93c
000001b0: 013a e03c 4837 493c bf91 babc 09c7 34bc
000001c0: a06a 013d 0860 973c 833a 09bd 7e8b 72bc
000001d0: 8392 ab3c 675a 72bc 1e1d a63c ff37 8c3c
000001e0: ccef 98bc 33fa a43b e715 1fbb 4541 92bc
000001f0: 1663 cc3c c748 26bd 1e93 f6bc b95c 013d
00000200: 2ca9 dfbc 38c4 d23d 3fc7 14bc 260f 32bb
00000210: 4158 0cbb be0c 10bd ef04 a8bc a288 0a3d
00000220: 54a5 c53c ca5e 7f3d 3e5e 4b3d 57d2 0a3d
00000230: 2b6e 4c3b 6b90 4b3c e049 763b 1761 dfba
00000240: f326 253c 7425 efbc 001b 023c 2ac6 6ebc
00000250: fdf5 c5bc 9ad7 0dbd a1a0 32bc 515e 12bb
00000260: 62b6 2fbc 9e8b cb3c acd6 12bd 793b d33c
00000270: 0f81 663c d5bd 95bc 44a3 63bc 7baa 993c
00000280: aa20 193c 3ab0 52bc 2545 f03b 5764 863a
00000290: babb e93a 67b1 0d3c 6589 b6bc 4a72 35bc
000002a0: c052 a7b9 5e20 bb3c a3db e2bc ad04 90bc
000002b0: 1f02 453c 359a a13c daf4 503b da92 543c
000002c0: 0d11 dabc 028b bbbc 4bc7 113c 25f0 4ebd
000002d0: 8e8d 543c b165 69bd b582 71bc 4952 5f3d
000002e0: 3fd2 b13b d6a5 83bd 3d1f 22bd 06e5 81bd
000002f0: 9a2d 0fbd 6220 c7bc 1cc7 f8bc ceba 473d
00000300: d959 b73d 9756 2a3d 28b5 d8ba 1b80 d1bd
00000310: 68a2 c9bd a80d acbc 2bc2 01bd b0eb 13bd
00000320: ba51 e3bc a600 29bd 5dbe 1ebd 56ea c13b
00000330: 62d3 14bc dd6d 663c 1768 933b 7f1f 33bc
00000340: c26b 433c 8daf 8b3a 44ae 3fbc 741a 863c
00000350: 674f a93c ba0f 1c3c bbb6 9fbc dd6a 043d
00000360: 7385 7d3c 01b5 9e3c cbe9 24bc a949 01bd
00000370: 0c43 d4bc 0640 09bb 6521 d8bb e238 acbc
00000380: ed05 2d3c ae3f 5dbc ec5e ecbb 7337 8abc
00000390: 0813 26bc 2305 0ebc 9b15 f73c 7f32 703c
000003a0: b604 0a3d 69cb 0f3d d7e6 52bc 4eae 453b
000003b0: 4da6 c63b 5a26 bc3b 6672 623c ac41 7f3b
000003c0: 4ed7 39bd 5c64 b3bc 1a09 93bc f6af 3cbd
000003d0: bf5b 64bc f302 133c e805 4c3b b383 0dbc
000003e0: c943 a2bc 5b00 a5bb b7bd 67bc 77c7 883c
000003f0: 7c28 1a3c 6fa5 8ebc aafa 41bc 13f7 50bd

conv2.bias f4 [32]
-0.0076608025 -0.028026138 -0.0024045047 0.024824278 0.026396891 0.023487732 -0.0114567 0.009421408
0.0071974765 -0.012519645 -0.0009123058 0.011326774 0.026723685 0.0176164 0.012388776 0.01355256
-0.013954303 -0.019302236 0.016558986 0.022087779 0.04395813 -0.010249558 -0.008533021 0.016029796
0.012792481 0.011885171 0.018419284 0.02276334 0.009532851 -0.013560336 0.0143449735 -0.00045221124
00000000: 7807 fbbb 1297 e5bc e594 1dbb 495c cb3c
00000010: 4b3e d83c 5869 c03c e2b4 3bbc 405c 1a3c
00000020: cfd8 eb3b 321f 4dbc ce27 6fba ef93 393c
00000030: a1eb da3c 4550 903c 4bfa 4a3c 8e0b 5e3c
00000040: 97a0 64bc b91f 9ebc b6a6 873c 6ef1 b43c
00000050: 710d 343d c3ed 27bc 16ce 0bbc eb50 833c
00000060: 8e97 513c 05ba 423c 0ae4 963c 2f7a ba3c
00000070: ad2f 1c3c 2c2c 5ebc 2e07 6b3c c416 edb9

conv3.weight f4 [1, 32, 5, 5]
0.01904781 0.01851248 -0.0014669261 0.028540803 0.034164056 -0.027215036 0.005845061 -0.033542067
0.0030262345 0.013651697 -0.0047680307 0.028150596 0.01211544 -0.034520347 -0.0065488317 -0.017140744
-0.030133119 -0.00023990509 -0.032133825 0.022614691 0.0069286595 0.012778144 0.021371135 0.030219782
-0.015546564 0.0014736329 -0.035797335 0.0074058864 0.026227955 -0.024000142 0.0204272 -0.018025123
0.0100407 -0.015958896 0.0053377254 -0.033980463 0.0253118 -0.008212216 0.03182469 -0.01475018
0.015487447 -0.018194482 -0.016626844 -0.009534375 0.016113738 0.014560386 0.019936217 -0.0065048463
0.004652309 0.02120759 -0.013811041 -0.011612039 0.02691843 -0.029819584 -0.017104952 -0.0195987
-0.0074321274 -0.025981365 0.0082399435 -0.024683163 -0.0155402105 -0.03440629 0.023564009 -0.021663524
-0.004234502 -0.021101471 -0.004920376 -0.0067300904 -0.011505421 -0.0005050955 0.015026932 0.029078985
0.02624367 -0.026236948 -0.0040924074 -0.058665067 -0.015365606 -0.001099211 -0.0074188565 -0.0015675852
0.031016821 -0.008469249 -0.033362933 -0.009913653 0.010923049 0.047925904 0.036958434 0.068489045
0.037756335 -0.006272204 -0.029127225 -0.03716324 -0.034672715 0.0004982004 -0.018075684 0.0022680226
-0.0009345932 -0.019628674 -0.016554428 0.0060645086 0.005740066 0.007445065 0.014002104 -0.0034641272
0.0034309374 -0.0077198865 0.031737827 -0.00024018755 0.024758868 -0.02140895 -0.027691722 0.0043720743
-0.032320336 0.020294357 0.019871073 0.028658379 0.031905152 0.01123339 0.013240229 -0.005804711
0.031950384 0.014631616 -0.008678499 -0.032931995 0.0037456793 0.004336188 0.026357664 0.026211174
0.038252734 0.00093217025 0.012892688 -0.028636556 0.0026538929 0.008132029 -0.023334427 -0.016666899
0.017329754 -0.018708227 -0.011154171 0.025656786 0.031549793 -0.023026189 -0.023336133 0.029504677
-0.010197904 0.0070962245 -0.021320233 -0.012837622 0.02821332 -0.025800256 0.012547394 0.0009745018
0.011082455 0.0012451665 -0.008097831 0.013075346 0.00957156 -0.0034073598 0.023618756 0.031518266
0.019078506 -0.009603795 -0.02600043 -0.024700198 -0.01813104 -0.0030167287 0.018448014 0.0102540525
0.031783674 -0.035033356 -0.019959128 0.032250196 -0.025344536 0.022637973 0.00051285594 -0.0038498524
0.025184518 0.027387071 -0.014608456 -0.002183436 0.03323645 0.029569937 0.014240305 -0.021505466
-0.023964683 0.025622651 0.02058064 -0.0038490747 0.03413371 0.024773058 -0.007581063 0.015686145
0.034536332 0.020512834 -0.017055674 -0.033291344 0.010998334 0.013427129 -0.034871846 0.0051928214
-0.021797538 0.014182532 -0.017266544 -0.026911668 0.03400078 0.021149507 -0.01429625 -0.025504552
0.023903133 -0.022078801 -0.010480226 -0.01575747 0.010537122 -0.0022568507 0.013140657 -0.019791134
0.026098093 0.0040899413 -0.024417643 -0.025828842 0.021485722 -0.015266715 0.009901051 0.0009082494
-0.016419875 0.03359562 -0.01392096 0.015189848 0.021926636 0.010658456 0.03492244 -0.02448042
0.00473589 -5.547269e-06 0.016245112 -0.0155819375 -0.022835797 -0.02841118 0.023919176 0.009195385
-0.033896975 -0.0030358844 -0.03046111 -0.03050687 0.022001894 -0.017133005 0.021595607 0.033200473
0.0044554123 0.014563944 -0.030876609 -0.015019268 -0.0019541227 0.0076872185 0.014726317 0.019051831
00000000: 270a 9c3c 7ca7 973c df45 c0ba 67ce e93c
00000010: 9cef 0b3d 11f2 debc ed87 bf3b 6863 09bd
00000020: ca53 463b 5eab 5f3c 243d 9cbb 149c e63c
00000030: d77f 463c 3565 0dbd 9597 d6bb bf6a 8cbc
00000040: bbd9 f6bc 088f 7bb9 c29e 03bd 7242 b93c
00000050: cf09 e33b 6c5b 513c 8512 af3c 7a8f f73c
00000060: 04b7 7ebc ea26 c13a 3aa0 12bd 14ad f23b
00000070: 02dc d63c f29b c4bc f156 a73c 6ca9 93bc
00000080: c081 243c 3bbc 82bc 16e8 ae3b 192f 0bbd
00000090: b15a cf3c 888c 06bc 9b5a 023d bdaa 71bc
000000a0: 10bf 7d3c 980c 95bc 0535 88bc 1136 1cbc
000000b0: f500 843c af8e 6e3c 4751 a33c 9b26 d5bb
000000c0: 6672 983b 8abb ad3c b447 62bc 6c40 3ebc
000000d0: 0a84 dc3c 3348 f4bc af1f 8cbc 748d a0bc
000000e0: 3489 f3bb dfd6 d4bc d400 073c 5834 cabc
000000f0: 5e9c 7ebc 9ced 0cbd 4f09 c13c b477 b1bc
00000100: 94c1 8abb fedc acbc 1b3b a1bb 1788 dcbb
00000110: 3c81 3cbc 6368 04ba 8533 763c 0d37 ee3c
00000120: f7fc d63c deee d6bc 9a19 86bb c84a 70bd
00000130: 06c0 7bbc 6713 90ba e119 f3bb 6e77 cdba
00000140: fd16 fe3c 9bc2 0abc 92a7 08bd e06c 22bc
00000150: 97f6 323c f44d 443d ba61 173d fc43 8c3d
00000160: 63a6 1a3d 1087 cdbb 389c eebc 7b38 18bd
00000170: fa04 0ebd aa99 023a 7513 94bc 1ba3 143b
00000180: 7dff 74ba 50cc a0bc 279d 87bc c9b8 c63b
00000190: 2a17 bc3b bbf5 f33b 1569 653c 6906 63bb
000001a0: 94d9 603b 1af7 fcbb 86ff 013d dbda 7bb9
000001b0: 1cd3 ca3c d361 afbc c0d9 e2bc 9e43 8f3b
000001c0: 5462 04bd 5a40 a63c a9c8 a23c fac4 ea3c
000001d0: faae 023d 410c 383c 8ced 583c 7235 bebb
000001e0: 68de 023d 72b9 6f3c 4330 0ebc b3e3 06bd
000001f0: 127a 753b 9516 8e3b 07ec d73c d1b8 d63c
00000200: e6ae 1c3d e35c 743a da3b 533c 3697 eabc
00000210: efec 2d3b 343c 053c d727 bfbc 0589 88bc
00000220: 21f7 8d3c ff41 99bc fcbf 36bc 2e2e d23c
00000230: 5b3a 013d 6ba1 bcbc 6b2b bfbc cbb3 f13c
00000240: 1c15 27bc 7287 e83b c5a7 aebc e454 52bc
00000250: 9f1f e73c 0f5b d3bc 9693 4d3c b575 7f3a
00000260: 2f93 353c db34 a33a c4ac 04bc fa39 563c
00000270: 08d2 1c3c 034e 5fbb 1f7c c13c 4c19 013d
00000280: 874a 9c3c 3c59 1dbc dbfe d4bc 1258 cabc
00000290: 8c87 94bc 4fb4 45bb 4a20 973c 9d00 283c
000002a0: 992f 023d 237f 0fbd 5381 a3bc c818 043d
000002b0: 589f cfbc 4573 b93c 2e71 063a ce4d 7cbb
000002c0: c34f ce3c da5a e03c 4e58 6fbc fa17 0fbb
000002d0: f222 083d a73c f23c 2b50 693c 3b2c b0bc
000002e0: 9551 c4bc 98e6 d13c bb98 a83c c240 7cbb
000002f0: cacf 0b3d def0 ca3c 916a f8bb 3b80 803c
00000300: f875 0d3d 880a a83c 57b8 8bbc 815c 08bd
00000310: 5b32 343c 76fd 5b3c c8d5 0ebd 8b28 aa3b
00000320: c090 b2bc da5d 683c 9172 8dbc dc75 dcbc
00000330: 6744 0b3d bb41 ad3c d23a 6abc ecee d0bc
00000340: 81d0 c33c 9ade b4bc 41b5 2bbc cf15 81bc
00000350: e5a3 2c3c ace7 13bb e94b 573c 0421 a2bc
00000360: abcb d53c ea04 863b 8207 c8bc 0297 d3bc
00000370: d302 b03c 3e21 7abc 0538 223c 9617 6e3a
00000380: f982 86bc 909b 093d bd14 64bc d7de 783c
00000390: 7d9f b33c cea0 2e3c d50a 0f3d 298b c8bc
000003a0: 862f 9b3b ae22 bab6 7814 853c 624b 7fbc
000003b0: 2312 bbbc 90be e8bc 26f2 c33c 3da8 163c
000003c0: 8ed7 0abd b0f5 46bb 9489 f9bc 8be9 f9bc
000003d0: 513d b43c 845a 8cbc 45e9 b03c 38fd 073d
000003e0: b5fe 913b 9c9d 6e3c f1f0 fcbc 6013 76bc
000003f0: bd10 00bb 10e5 fb3b a646 713c 9612 9c3c
