output/x2/epoch_4.pth (torch, 230999 bytes, 5 tensors)

conv1.weight f4 [64, 1, 9, 9]
00000000: 6c22 2dbd fb35 b63b 55a5 59bd 6957 3c3d
00000010: 3e50 b0bd a826 c23d 025d 86bd f9ba 9abd
00000020: ef18 64bd 16fa 453d 0c3d 2dbd 895c 2e3d
00000030: ffe8 bfbd b6df 81bd f3d7 f6bc f1a8 10bc
00000040: 438f 9cbd fbeb a93d 250e d7bc 9598 173d
00000050: 3fa3 a63d 0329 c83c 3ea8 1c3d a511 f23d
00000060: 6c20 1ebd 45f3 2d3d db30 28bd 90fb a33d
00000070: df1c b43d f3d0 d3bd 181b cf3d 8860 843d
00000080: d098 6c3d 781f 613d 4a95 cb3d fa80 e8bb
00000090: 6dfd bcbd bf95 02bd dbae 9bbd 6f18 9b3c
000000a0: 2459 fbbb 709f 4dbd 227c 8e3a 2ccf ea3d
000000b0: 7937 97b9 fbe1 dd3b e74d 65bc c38e c33c
000000c0: c878 e03d 5110 9d3d 0591 3c3d 8891 0d3d
000000d0: eb53 093d 5428 433d 3979 9cbb 1505 ccbd
000000e0: 9440 82bd 184b d43d d30b 4f3c 7147 b2bd
000000f0: 3ae0 d83c f23c cb3d 6513 d0bd 022a 7dbd
00000100: c325 1abd 0736 2d3c e053 94bc a5ec cfbb
00000110: e914 d5bd e475 7a3d 524d d63d 8ead 903d
00000120: 6605 81bd 7705 a5bd 988c 543d 706a 043c
00000130: 9264 5c3d b62d cebd e387 8c3a 3e12 a83d
00000140: 2a00 613d 80a9 263c d11e 7f3c 1c97 25bc
00000150: 5f8d afbd 170c a0bd 919f dfbd b4b6 943d
00000160: e309 1d3d 765a a53b a15e c1bd 0afe a23d
00000170: bb9f 583d 1365 8d3d 6e86 71bd 14e3 123c
00000180: 0644 053e 388d e93d 8572 eb3d 0c1e 42bd
00000190: d8fa 813d 2589 b9bd 9aa2 12bd 5ced ebbd
000001a0: 5d78 94bd bdcd 14bd 1ba3 0b3d 8a69 053e
000001b0: 9967 dd3c 1873 c4bc 7326 b63d 2a0a a2bd
000001c0: d048 fe3c 0d8d 29bd cb81 febc 1b63 db3c
000001d0: 9091 9cbd b93b 84bc e7ee 963c f018 e83d
000001e0: 3d65 03bd 3555 453d dd00 dd3d d101 32bd
000001f0: 116a 003e 7ee4 4ebd 80c3 133d edff 0f3d
00000200: 9657 2a3d 447d b13d 079c f6bc 0107 023d
00000210: 445e bf3b 96ea 87bd fb05 93bc e1e5 babd
00000220: 8ab8 033d cee1 8e3c 5d57 41bb 23b9 52bd
00000230: 87d0 02bd 7224 25bd b850 543d 86c9 e03d
00000240: 86c8 373c fc99 62bd 6d6e 28bd bb8c 983c
00000250: 5539 a0bd d588 cabd bba9 85bd a6ce 06bc
00000260: 7caf 863c 6d31 053d 2462 36bc 104e 973d
00000270: 7934 a0bd 2f1d 4c3b 2605 febd 2d88 513d
00000280: 16e6 b23c 0160 8b3d 6ce6 afbd 1e6f b13d
00000290: 5688 d63d da66 f93d b25c 8e3d 926b 163e
000002a0: 266e a93d fc38 9c3d dd3c 5bbc 45b7 bcbd
000002b0: 494e cb3a 2292 e93c d15b a3bd 8578 91bd
000002c0: 8961 e4bd ac23 68bd 17df 8d3d 7bbd 8abc
000002d0: 87fd 0d3b 56a5 503c d815 a43d c481 b7bd
000002e0: 8cd4 96bd 2f16 efbc 4e75 85bd 38f4 6b3d
000002f0: 383b 853d 364a 8ebd c6fb 89bd dec5 a8bd
00000300: 992a a63d a358 193e 73c5 3fbd bb75 e7bc
00000310: 8ed3 8d3d 8640 4abd 6842 d23d c825 d93c
00000320: 413f b8bc d60b ee3c 3ff3 8f3d ed0a 0abd
00000330: 9384 b1bd daba b43c 3c3f 8e3c 218e cebb
00000340: 2ee2 e6bc b1d8 9d3d 0996 0bbd 2d71 73bc
00000350: 88b3 263d 8f92 88bd 6cfe 2a3d fec1 fabc
00000360: 00af 663d 458a 9cbd d21b 7c3c 0fe6 ee3c
00000370: 5985 98bd 49ab 85bd 210b 623d 73ed d4bc
00000380: c45e 403d 8cfe 8fbd 4d4f 2ebd f50b 90bd
00000390: 6f0a 9e3d c626 2b3d c044 3d3c 621a 7ebc
000003a0: 8255 adbd 2b92 fb3c 75ea 163d 77da 79bd
000003b0: c923 7f3d bca8 293c a0e7 b3bd 1531 913d
000003c0: df98 3e3d 3ee1 6ebc bf07 54bd be10 0ebb
000003d0: ca77 a13d 1986 c73d 87a7 b7bd 857e 6abd
000003e0: c0d7 a63d 513d 523d 4d56 783d 3e50 88bd
000003f0: fe98 c13d f575 c4bd 4477 21bc 988d 82ba
-0.042269155 0.005560634 -0.05313619 0.0459818 -0.08609055 0.09480029 -0.065607086 -0.075551935
-0.05568784 0.048334204 -0.042294547 0.042568717 -0.09370612 -0.063414976 -0.03013227 -0.008829341
-0.076445125 0.08296963 -0.026251862 0.037010748 0.081366055 0.024433618 0.038246386 0.11819772
-0.03860514 0.042468328 -0.041062217 0.08006966 0.08794569 -0.10342588 0.101125896 0.064637244
0.05776292 0.05496165 0.09940584 -0.0070954533 -0.09228025 -0.03188109 -0.076017104 0.01893255
-0.0076705385 -0.05020088 0.0010870735 0.11465296 -0.00028842295 0.0067713237 -0.013995624 0.023871785
0.10960537 0.07669128 0.04603674 0.034562618 0.033527296 0.04764588 -0.004775193 -0.09961907
-0.063599735 0.103658855 0.012637096 -0.087050326 0.026474107 0.09923734 -0.10159949 -0.06180764
-0.03763367 0.010571963 -0.018106401 -0.006345349 -0.10404379 0.061147586 0.104639664 0.07064353
-0.06299858 -0.08057683 0.051891893 0.008082017 0.05380685 -0.100673124 0.001072165 0.082066044
0.054931797 0.010172248 0.015571312 -0.010106828 -0.08571886 -0.07814806 -0.10919107 0.0726141
0.038339507 0.005046184 -0.09441877 0.0795861 0.052886706 0.06904044 -0.058966093 0.008965272
0.1301423 0.114038885 0.11496452 -0.047391936 0.06346673 -0.09059361 -0.0357996 -0.11519882
-0.0724952 -0.03632902 0.034091096 0.13028541 0.027026938 -0.023980662 0.08894052 -0.07912095
0.03104058 -0.041394282 -0.03106775 0.026780656 -0.07644951 -0.01614176 0.018424464 0.113328815
-0.03207897 0.048176963 0.1079118 -0.043458764 0.12540461 -0.050510876 0.036075115 0.03515618
0.041587435 0.08666471 -0.030103697 0.03174496 0.0058400948 -0.066365406 -0.017947188 -0.09125877
0.032158412 0.017441656 -0.0029501535 -0.05144609 -0.03193715 -0.04031796 0.051834792 0.109759375
0.011217242 -0.055322632 -0.041120935 0.018621793 -0.07823435 -0.0988938 -0.06526514 -0.00822798
0.0164411 0.03251784 -0.011131797 0.07387936 -0.07822508 0.0031145324 -0.12403326 0.051155258
0.02183823 0.06805421 -0.08588871 0.08663772 0.10475223 0.121778205 0.06951274 0.14689472
0.08272962 0.076280564 -0.01338121 -0.092146434 0.0015511002 0.028512064 -0.07976497 -0.071030654
-0.11151416 -0.056674644 0.06927317 -0.016936054 0.0021666007 0.012734732 0.08011979 -0.08960298
-0.07364759 -0.029185383 -0.06516515 0.057605952 0.06505436 -0.06947748 -0.06737475 -0.08240865
0.081135936 0.14975218 -0.04681916 -0.02825438 0.069251165 -0.04937794 0.10266572 0.026507273
-0.0224911 0.029058378 0.070288174 -0.033701826 -0.08667865 0.022061754 0.017364137 -0.006303564
-0.028184023 0.07707346 -0.03407863 -0.014858526 0.040698558 -0.06668579 0.04174654 -0.03061008
0.056319237 -0.0764356 0.015387492 0.029162435 -0.07447309 -0.06526811 0.055186395 -0.02599213
0.046965376 -0.07030973 -0.042556096 -0.070335306 0.07716834 0.041785024 0.011552036 -0.01550922
-0.08463575 0.030709347 0.03684469 -0.06099936 0.062289987 0.010355171 -0.08784413 0.0708944
0.046532508 -0.014580069 -0.0517652 -0.002167746 0.07884176 0.09742374 -0.089675 -0.057249565
0.0814662 0.051328007 0.060629178 -0.0665593 0.09453009 -0.09592811 -0.009855095 -0.0009960411

conv1.bias f4 [64]
00000000: d2b3 b4bc cce5 02bd f0d2 b83b 5a23 81bd
00000010: 57ec 023d 2e03 8d3b 6712 673d 7880 3abc
00000020: 7a47 c73d 136b 45bd aff0 f23b f0b6 943c
00000030: 1b9c cebd 7b70 cc3d f88b 8a3d 5eda 943a
00000040: a2dc f9bc c99d 40bd 4e9d 8a3d 2a7c 823d
00000050: 07f1 7c3c 55de 80bc 0820 92bd 25e9 933d
00000060: e325 23bd 1604 be3d db2f 01bc 425e a3bb
00000070: d256 f73c 87d1 d43b 67a6 b43d 891b 203c
00000080: 2a9c 2f3d 6246 a63d 103f 26bc 60fd adbd
00000090: da57 77bc 7049 af3d 8167 a03c 6abf 343d
000000a0: e413 0abd b1fd e8bb 397c ec3d be03 b6bc
000000b0: d82b 093d 90ce 323d 77ee 4fbc f3ac 2d3d
000000c0: baaa cdbc c6ab 4bbc 52d6 d437 6476 583c
000000d0: 3ce5 6c3d 54b3 a73b 7b0b c03b 3abc 0fbc
000000e0: 11a1 603d 3e9a 3fbd 224a fd3a c32b f63d
000000f0: 0ddc d63d 81b7 9e3b 0e01 1cbd 2e1e 92bd
-0.022058401 -0.031957433 0.00564038 -0.06305571 0.031963672 0.0043033576 0.056414034 -0.011383168
0.0973043 -0.048197817 0.0074139456 0.018153638 -0.100883685 0.099823914 0.06764978 0.0011356582
-0.030500714 -0.047025476 0.06768285 0.06371339 0.015438325 -0.015731016 -0.07135016 0.07222203
-0.039831053 0.09278123 -0.007884945 -0.0049856016 0.030192766 0.006494704 0.08820801 0.00977219
0.04287354 0.08118893 -0.010146871 -0.08495593 -0.015096629 0.08558929 0.019580605 0.04412786
-0.033710375 -0.0071103205 0.11547131 -0.022218581 0.03348908 0.043654025 -0.012691132 0.042401265
-0.025105823 -0.012431091 2.537217e-05 0.01321182 0.057835802 0.005117813 0.0058607436 -0.008772904
0.054841105 -0.046777956 0.0019324461 0.12020066 0.1049119 0.0048436527 -0.038086943 -0.071346626

conv2.weight f4 [32, 64, 5, 5]
00000000: 9ca9 6f3c b755 993c 8d14 b1bb 7bb9 b3bc
00000010: 178e 99bc 5245 f23a 5d34 44ba 7e82 cbbc
00000020: eb53 24bd 3d62 18bd afc0 ee3c d9e1 c43c
00000030: 317f 663c 879e 1dbc cc5a ce3b 8d82 08ba
00000040: d1f1 223d 272c 813c 962d dc3b d482 073d
00000050: fd53 bcba 424d dd3c fad4 26bc 644e 1a3c
00000060: 5191 9dbb cf12 91bc 584e 473d 4c93 c73c
00000070: d18f d2bc 6562 d0bb 9380 0dbc 5a0e 1f3d
00000080: 21d7 2c3c c312 21bd d365 4ebd 4ada dabb
00000090: 587c 3abc 3bed 36bc ffc0 10bd b23a e6bc
000000a0: 044a 1bbc 35f8 87bb 2543 43bd badf a2bc
000000b0: 8c56 0cbd 1743 0ebd 2edb fa3c cd00 313b
000000c0: 6726 563a 8e2c cf3b a7d9 023c feb4 833d
000000d0: 5bf2 0e3d e237 323c 6be3 2fbb c9b1 2a3b
000000e0: 22e5 1b3d ffb4 883d 2dc4 f13c 4684 5fbc
000000f0: d4cd e93b 5400 1abd 4bc8 27bd 4829 663b
00000100: 70ad 3bbd b4e8 c53a 638a 0b3c e9e1 91bc
00000110: 026f 783c ed61 333c 4efc 993c 054a 183d
00000120: ca5a c2ba adaa 243c 31d9 fe3c 7d02 a43a
00000130: 566d 7fbc 389a 3abc 2383 8bbc 216e 0bbc
00000140: 0086 bc38 ee5c a63c 361a e1bc 5f3f d4bc
00000150: 2d47 b13c d36d 583c 4464 513c a53e b6bc
00000160: 396a 963c 8077 a63c c8ae 91bb e5f1 d13c
00000170: 0de8 a13c bb30 ca3c 5db3 513b fbe1 c43b
00000180: 8dcb 6dbc c309 a23b 4f6f c7bc 12c7 92bc
00000190: 9e1a 1f3c 6c86 5e3c 9882 133d 5c45 1e3d
000001a0: 8ce7 793b e6f4 7c3c 1b82 923c 1314 943c
000001b0: f9ba 023d 18ed 8aba 1990 b4bb 8a1a 3abc
000001c0: 6b88 8c3c 0651 9a3c 0326 4ebd 05e3 e8ba
000001d0: e9fb b13c f1af e1bc b5fa d93c 5794 b73c
000001e0: 7334 4abc 392e 113c 3930 b2bc 3f69 afbc
000001f0: 5f8f de3c 39de 03bd 6e69 7bbc 8a87 273d
00000200: f834 db3b e82e 203d b493 88bc 39d1 13bc
00000210: 1e48 b73c 1ffa 84bc e92f 073d 40cf 3a3a
00000220: 0652 c73b 55b1 643d 1c14 403c ab24 bd3c
00000230: 1558 9c3c 2ff7 c93c b68a 353d 5ab2 5a3c
00000240: ccfc f33c a30c 293c 74fe 7ebc eb09 2b3d
00000250: 0c8c a5bb 9fad 10bc 86c3 a2bb 5686 413c
00000260: 4f44 b0ba 7fc7 df3c 997f 09bd e5b2 e93c
00000270: 2ede 983c 6f40 8fbc a2a3 aebc e1b5 343c
00000280: 8b47 023c 6e14 04bc d09c 083c 651d 1eba
00000290: d6b8 7cb9 4fa0 993c c68e 28bc e1a1 5abc
000002a0: 551d 4dbc 519d 3a3c 8a9d 54bc e285 f0bb
000002b0: 58ee 513c a862 673c 7440 fb3a 19e2 c8bb
000002c0: eef1 913c 9334 eebc aed3 d4bb 3ee4 17bd
000002d0: 3256 2d3d 14bb 583d 4f39 873d 13b2 a23d
000002e0: 7d4b 893d 5e10 c8bc 5943 253d a610 8dbc
000002f0: f470 1d3b 9e3f 2539 bfe6 1ebc 9342 b43d
00000300: 6266 933c 09a6 f73c 9e69 8fbb 9442 9cbd
00000310: cf51 833c 8a0b 01bc 1269 c6bc 873a 9bbb
00000320: 140d 2a3c 9640 5ebd eddf 7ebd 1138 aa3c
00000330: cc16 7e3c 5c1e 523d 8bab 16ba 1691 7bbd
00000340: 9328 aebc 2c86 693c 33ca 0e3c 253d 183d
00000350: dbfb 693c df78 cebc f062 f6bc 6e09 a43c
00000360: 013a c43c 64ec 213d d2b0 f3bc 396c 26bd
00000370: c0f8 b6bc 2afc eaba 5e09 19bc 8bc7 37bd
00000380: b5bc 5c39 6d5f 363b 0d85 763c fd70 48bb
00000390: a53b 6b3b ecea b33c 209b bd3c 4eed 7e3c
000003a0: c24f e63c 4c3c b23c df9b 4139 2ce1 1fbc
000003b0: edc9 203b f8d0 053c d38e ceb8 af07 53bc
000003c0: babd 16bd 8a7b a9bc 1795 00bc 9184 e5bc
000003d0: 1f04 ffbb 4bba 593c b7b5 bc3a e3b3 01bc
000003e0: 35d9 5ebb 104b 823c 8d24 773b f58e cb3c
000003f0: 947e 9a3c e752 083b 9a1f 0e3c faec 48bd
0.01462784 0.01871763 -0.005404061 -0.02193903 -0.018744512 0.0018483794 -0.00074846094 -0.024842497
-0.040119093 -0.037203062 0.029144613 0.024033474 0.014068411 -0.009620315 0.006297445 -0.0005207442
0.039781395 0.015768124 0.0067193015 0.03308375 -0.0014368292 0.027014378 -0.0101826135 0.009418104
-0.004808583 -0.017709164 0.0486587 0.024362229 -0.025703343 -0.006359386 -0.0086366115 0.038832046
0.010549338 -0.039324533 -0.050390076 -0.006678854 -0.011382185 -0.011164959 -0.035340305 -0.02810416
-0.009478096 -0.0041494616 -0.047671456 -0.019882072 -0.034262225 -0.03473195 0.030622091 0.0027008534
0.00081691745 0.00632245 0.007986463 0.06431006 0.034899097 0.010877581 -0.0026838433 0.002604591
0.038060315 0.06675147 0.02951249 -0.013642376 0.0071351323 -0.03759797 -0.0409625 0.003511982
-0.0458197 0.0015099258 0.008516881 -0.017807918 0.015163185 0.01094864 0.018797066 0.037179966
-0.0014828083 0.010050458 0.031109424 0.0012512949 -0.015590033 -0.011389308 -0.017030304 -0.0085101435
8.989498e-05 0.020307984 -0.027478319 -0.025909124 0.021640385 0.013209778 0.012780253 -0.022246668
0.018361198 0.020320654 -0.0044458844 0.02562804 0.01976397 0.02468144 0.0031997778 0.0060083843
-0.014513862 0.0049450113 -0.024345068 -0.01791719 0.009710936 0.013581853 0.036013216 0.038640365
0.0038132397 0.015439248 0.017884305 0.018075978 0.031916592 -0.0010599224 -0.005510342 -0.0113588665
0.017154893 0.018837463 -0.05032922 -0.0017767852 0.021726565 -0.027549716 0.026608804 0.022409601
-0.012341606 0.008861118 -0.02175151 -0.02141249 0.027167974 -0.03219435 -0.015344961 0.040900744
0.006689664 0.039107233 -0.016671993 -0.009022051 0.022373255 -0.016232548 0.033004675 0.00071262196
0.006082776 0.05583318 0.011723544 0.023088774 0.01908497 0.024654 0.04432174 0.013348186
0.029783629 0.010317954 -0.015563596 0.041757505 -0.0050520953 -0.008830457 -0.004967156 0.011811813
-0.0013448092 0.027316807 -0.033568952 0.028527686 0.018660631 -0.017486779 -0.02131826 0.011029691
0.0079516275 -0.008061511 0.008338168 -0.0006031602 -0.0002410145 0.018753199 -0.010287946 -0.013344259
-0.0125192 0.011390046 -0.012977013 -0.007340179 0.012813173 0.014122643 0.0019168989 -0.0061304686
0.017815556 -0.029077804 -0.0064949607 -0.037082903 0.04231853 0.052912787 0.066027276 0.07944121
0.06703851 -0.024421867 0.04034743 -0.017219853 0.0024023624 0.00015759325 -0.009698569 0.088017605
0.017993156 0.030230539 -0.004376604 -0.07629886 0.01603022 -0.007876286 -0.024220023 -0.0047372016
0.010379095 -0.054260813 -0.06222527 0.020778688 0.015508365 0.051298484 -0.0005747608 -0.06141766
-0.021259582 0.0142531805 0.0087152 0.037167687 0.014281238 -0.02520412 -0.030076474 0.020024028
0.02395344 0.03953208 -0.0297474 -0.040630553 -0.02233541 -0.0017927934 -0.009340612 -0.044868033
0.00021051134 0.0027827874 0.01504637 -0.0030584924 0.0035893705 0.021962605 0.023145258 0.0155595075
0.028114203 0.021757267 0.00018463981 -0.009758275 0.002453442 0.008167498 -9.8494485e-05 -0.01288025
-0.03680203 -0.02068879 -0.007848046 -0.028017314 -0.0077824737 0.013289045 0.0014397417 -0.0079164235
-0.0034003977 0.015904933 0.0037710995 0.02484844 0.018859185 0.0020801367 0.008674527 -0.049054123

conv2.bias f4 [32]
00000000: 3107 12bc f175 a2bc f97c 12bb 3e03 fd3c
00000010: f7c2 e93c e60b 943c 96e2 4dbc 5e38 1f3c
00000020: e2fc eb3b ef56 dfbb 98e9 d33a e159 f33a
00000030: d024 ed3c 2897 523c a562 1a3c e9f2 953c
00000040: 1bb9 59bc bac6 73bc 7820 6f3c 7322 c53c
00000050: 70db 0e3d 23b4 973b 123a 9bbb b848 193b
00000060: bcee e93c 9e0b 983c 47ea a13c 9a8e 923c
00000070: 7164 443c d69b 15bc 681b a7b8 c03b 1a3b
-0.008912847 -0.01983163 -0.0022352322 0.030885335 0.02853535 0.01807208 -0.012566229 0.009718029
0.007201777 -0.006815783 0.0016167639 0.0018566215 0.028948218 0.012853421 0.009422933 0.018304305
-0.0132887615 -0.014878923 0.0145951435 0.024064278 0.03487724 0.0046296283 -0.004737147 0.002338929
0.02855622 0.018560227 0.019765032 0.017890263 0.011986838 -0.009131392 -7.968285e-05 0.002353415

conv3.weight f4 [1, 32, 5, 5]
00000000: c1c4 943c 2b07 913c 4744 02bb fb05 d53c
00000010: 4cf6 023d ceba efbc dfa3 6f3b 0ce5 0ebd
00000020: 256f 413b d0c9 4c3c 6074 95bb 9d08 ea3c
00000030: 3d10 1a3c e250 11bd 66aa d9bb e97b 8fbc
00000040: b5ad e7bc 39ab 09ba c951 0ebd d765 a03c
00000050: 313e 4a3b 688d 463c 7558 ae3c a438 ea3c
00000060: 5b57 97bc 8925 ea3a 827b 0bbd 3725 f43b
00000070: 3ea1 d33c 98b5 bcbc fd5d a63c dee4 88bc
00000080: bdfb 213c c302 83bc b9bb c43b 322b 0abd
00000090: 2e2a d73c 0485 02bc 9a99 053d f909 59bc
000000a0: 787a 773c 0b61 8dbc 6075 78bc 748d 16bc
000000b0: 9532 883c 1d2f 623c cf9f a43c 97ee c5bb
000000c0: 19df 823b d104 af3c 8fe7 62bc 186e 3ebc
000000d0: be6a dc3c 2589 f4bc 504e 8cbc 29a3 9fbc
000000e0: b6d4 f2bb 9cce d4bc 474e 083c ca82 c9bc
000000f0: 38e5 78bc 8d1e 0dbd 5e8b bf3c 5b21 b0bc
00000100: dffc 83bb a3b7 abbc 6d50 a1bb b182 e8bb
00000110: 301d 3cbc 836c 11ba 6d4c 773c 5c1f ed3c
00000120: 13ae d43c 3e22 d6bc a8b4 84bb 0f1c d9bc
00000130: 3bc0 cb3c 9415 f13c 6602 493c ae1a 623c
00000140: 8046 3a3d ea24 b13b e14f c4bc 69e7 2ebc
00000150: c082 17bc a640 f43c 8c01 233c 3987 103d
00000160: de50 ce3c 69f0 5abc 5683 e5bb cf7d 52bc
00000170: 9b01 25bd 56ef d9bb 7f2f 57bc 1069 ccbb
00000180: ede7 93bb 72fc b3bc 3e56 85bc b8ce f93b
00000190: a385 c03b 6b0b f43b 7773 653c fe52 60bb
000001a0: ae7d 5b3b 3c14 fbbb 2dea 013d dc7c 09b9
000001b0: bb95 cc3c 78bd adbc 1e54 e3bc d23d 8a3b
000001c0: 48e0 03bd 21ed a63c b0a4 a33c 04e1 ea3c
000001d0: 74ea 013d 9865 353c 6633 573c abf2 bcbb
000001e0: c516 033d e30b 713c f3fc 0ebc 1f32 07bd
000001f0: 6222 753b f628 463b a017 dc3c 95f9 c13c
00000200: f3e8 033d c0be 213b 6508 273c b5b3 eabc
00000210: d6de 963b e15b 0a3c 69a6 a1bc 8ca0 8dbc
00000220: 7dd9 893c 4ea0 9abc 0d23 40bc 1d2e d73c
00000230: 141b f63c 29ff d3bc c34d e8bc 61fc d03c
00000240: df66 1dbc 5449 983b ff6b babc 51af 73bc
00000250: a76c da3c ce86 c3bc 3fc3 293c 32b1 79ba
00000260: 73ce 253c 70c0 f739 0b54 1dbc ff9b 513c
00000270: 8966 0f3c baee 8ebb c207 c43c ef4f 053d
00000280: b826 993c a6d6 29bc c9fd e5bc d9b5 dbbc
00000290: 54c5 9abc aa66 86bb 07df 8d3c 5807 043c
000002a0: f261 f33c 0f34 16bd 1752 afbc 2613 fc3c
000002b0: fcb9 d9bc 7976 b63c 1583 4339 e2b1 7ebb
000002c0: 57ca cd3c 49ca df3c 0790 6ebc 0a8e 0bbb
000002d0: 6233 083d 6156 f23c de45 693c a185 afbc
000002e0: 4875 c3bc 10e5 d13c 2a4d a83c f0e3 7cbb
000002f0: b3b7 0b3d 07d5 ca3c 9125 f9bb 6602 803c
00000300: 5c58 0d3d 0c33 a73c b944 8dbc 3347 08bd
00000310: f895 323c 1b3f 5a3c 7107 0fbd c80b a83b
00000320: 0f90 b2bc eb5d 683c d174 8dbc a477 dcbc
00000330: b643 0b3d c342 ad3c 4e3a 6abc 1af1 d0bc
00000340: dace c33c abdf b4bc 18b3 2bbc 8215 81bc
00000350: 859f 2c3c e2f3 13bb 634a 573c 5620 a2bc
00000360: b6cb d53c 10fb 853b 1509 c8bc a697 d3bc
00000370: f302 b03c e621 7abc dc32 223c d9e6 6d3a
00000380: 6083 86bc 7cab 0a3d 4d93 5bbc f057 753c
00000390: 621a b33c 9f1f 313c f13d 093d ae5a cabc
000003a0: ba41 6e3b f097 69ba cd5b 893c eaca 79bc
000003b0: f774 adbc d1ea e0bc 6632 c53c 6098 1e3c
000003c0: b09c 08bd 3d81 16bb 1c27 f2bc 6d52 f5bc
000003d0: bddb af3c 63e2 97bc ef18 a83c e5a9 053d
000003e0: df8a 9d3b 4049 713c 695b f9bc 413f 74bc
000003f0: 5622 07bb cd6a 023c b4f5 703c ff1b 9f3c
0.018160226 0.017703613 -0.0019877122 0.026003828 0.03197317 -0.02926388 0.003656618 -0.034886405
0.002951571 0.012499288 -0.004560992 0.02856856 0.009403286 -0.035477526 -0.0066426275 -0.01751514
-0.028281072 -0.00052516494 -0.034745965 0.019579811 0.0030859823 0.012118675 0.021282414 0.028591461
-0.018474272 0.001786397 -0.034053333 0.0074507254 0.025833722 -0.02303581 0.020308489 -0.016710695
0.009886679 -0.015992528 0.0060038236 -0.0337326 0.02626523 -0.007966284 0.03261719 -0.013247007
0.015104882 -0.017258188 -0.015164703 -0.0091889985 0.016625682 0.013805178 0.020095734 -0.006040405
0.0039938805 0.021364601 -0.013849153 -0.011622928 0.026906367 -0.029850552 -0.017127186 -0.01948698
-0.007410611 -0.025977425 0.008319444 -0.024598498 -0.015191369 -0.034452964 0.023381885 -0.02150028
-0.0040279473 -0.020961588 -0.0049229176 -0.0070956578 -0.011481568 -0.00055474805 0.015093905 0.028945617
0.025961911 -0.026139375 -0.004049856 -0.026502637 0.024871936 0.029429235 0.012268638 0.013800306
0.04547739 0.005406012 -0.02396387 -0.01067529 -0.009247482 0.029815983 0.009949099 0.03528521
0.025185045 -0.013362982 -0.007004182 -0.012847378 -0.040284734 -0.0066508455 -0.013133883 -0.0062381104
-0.0045137317 -0.021970961 -0.016276475 0.0076235197 0.0058753057 0.00744765 0.01400458 -0.0034229155
0.003349166 -0.0076623242 0.031717468 -0.00013111852 0.02497374 -0.02120851 -0.027750071 0.0042187953
-0.032196313 0.020376744 0.01997599 0.028671749 0.031717733 0.011071585 0.013134813 -0.005766233
0.032004137 0.014712307 -0.0087273 -0.033006784 0.0037404527 0.0030236817 0.026866734 0.02367858
0.03220458 0.0024680346 0.0101948725 -0.028650144 0.004604201 0.008444757 -0.01973267 -0.017288469
0.01682734 -0.018875267 -0.011727107 0.026267106 0.030042209 -0.025878506 -0.028357392 0.025510969
-0.009607046 0.0046474133 -0.022756575 -0.014873342 0.026663138 -0.02386799 0.010361492 -0.00095250004
0.010120022 0.00047254888 -0.009602557 0.01279354 0.008752474 -0.0043619545 0.02392948 0.032546934
0.01869522 -0.010366118 -0.028075116 -0.02682011 -0.018892922 -0.004101594 0.017318262 0.0080583915
0.02970979 -0.03667074 -0.021401448 0.03077085 -0.026577942 0.022273289 0.00018645481 -0.003886335
0.025120897 0.027318137 -0.014560706 -0.0021294379 0.033252127 0.029582204 0.014237849 -0.021426024
-0.023859635 0.02562192 0.020544607 -0.003858801 0.034110736 0.024759782 -0.007603355 0.015626144
0.034508094 0.020410083 -0.017244684 -0.033271026 0.010900013 0.01332071 -0.034919206 0.0051283576
-0.021797208 0.014182548 -0.017267616 -0.026912518 0.03400012 0.021149999 -0.0142961275 -0.025505591
0.023902345 -0.02207931 -0.010479711 -0.015757326 0.010536079 -0.0022575785 0.013140294 -0.01979081
0.026098114 0.004088767 -0.024418393 -0.025829148 0.021485781 -0.015266871 0.009899821 0.00090752315
-0.016420066 0.033854946 -0.013401818 0.014974579 0.021863166 0.010810762 0.033506338 -0.024701443
0.0036355094 -0.0008910885 0.016767407 -0.015246132 -0.021173937 -0.02745572 0.024071883 0.009679884
-0.033352554 -0.0022965216 -0.029559664 -0.02994653 0.021467084 -0.018540567 0.020519702 0.032632727
0.0048078145 0.014726937 -0.030439096 -0.014907659 -0.002061983 0.007960034 0.014707018 0.01942253
